1DCFD_PINN/1D_CFD_Rand_Eta1.e-8_Zeta1.e-8_periodic_Train_PINN.pt-15000.pt (torch, 112999 bytes, 42 tensors)

linears.0.weight f4 [40, 2]
00000000: 855f 49bd 418a 3b3e a0c9 243e d42d b13e
00000010: 2e40 4abe 91ce 69be 98ad bb3c 0ed4 dd3d
00000020: 524a 8e3d 2b8b 2d3e b8ea 423c 0c7a 96be
00000030: 40fd 883d 02ff 4abe 68c4 8f3d 1da7 19bf
00000040: d0a0 3fbe 5b46 0e3e ea87 79bd c5b3 633e
00000050: 24df 1f3e b330 a03e 2d56 40be d968 2f3c
00000060: cc8e 83bc e2f1 e7bb 0ad8 0dbe 6ba0 9b3c
00000070: 1130 23be 813d 4bbe 22e2 123e 268a 893d
00000080: 7892 9d3d 832e 2b3e bb49 c9bd 367e 373e
00000090: 01fa 9fbe 81c2 89bd 13d5 de3e 18c3 35be
000000a0: 7622 193c 10e4 12bd a208 393d 7953 96ba
000000b0: b2d5 163e e68b 77bd 7e9e d1bc e8d7 023e
000000c0: bc9b 233c 56c0 703d da11 253e 387d 2dbe
000000d0: 203c ff3e 326e 79bd 2d9a a53d 9253 b9bd
000000e0: 37ec c33c e3c4 47be c418 26be 2c45 813e
000000f0: 7985 3ebc d252 733d aa80 063e eb7c 92ba
00000100: da4c 2cbd 573a 65be cd7b 9e3c 43b4 74be
00000110: 14d8 93be 3b6c 6dbe 7944 92be 2526 babe
00000120: c85f acbe bec3 85bd 9aa1 a93e b9f6 6dbe
00000130: 65b3 ef3d c59d 0cbe f7b5 653e 877f 3c3e
-0.04916336 0.18314458 0.16092539 0.34605277 -0.19751045 -0.22832705 0.022909924 0.10831462
0.06947769 0.1694762 0.011896782 -0.2938999 0.066889286 -0.1982384 0.070198834 -0.6002062
-0.18713689 0.13894026 -0.060920633 0.22236545 0.15612465 0.31287155 -0.18782873 0.01070615
-0.016059302 -0.007078395 -0.13851944 0.018997392 -0.15936305 -0.1984768 0.14344075 0.06715803
0.07693952 0.16716962 -0.09828516 0.1791924 -0.31245425 -0.06726552 0.43521938 -0.17750204
0.009346595 -0.03586203 0.04517425 -0.0011468969 0.14729956 -0.060436152 -0.02558827 0.12777674
0.00998586 0.058777176 0.16120091 -0.16942298 0.4985056 -0.060896106 0.08086047 -0.09049143
0.023916347 -0.195087 -0.16220385 0.25248086 -0.011628502 0.059405155 0.13135019 -0.0011176144
-0.04206548 -0.22385536 0.019346142 -0.2389689 -0.28875792 -0.23185818 -0.28567865 -0.36357227
-0.33666825 -0.065314755 0.33131105 -0.23238648 0.11704139 -0.1373206 0.22432695 0.18408023

linears.0.bias f4 [40]
00000000: 98ad 053d 93d1 e3bc 7aae f3ba c194 9dbb
00000010: f73b f4bb 2b3d afbb 3390 40bd 9e81 a1bc
00000020: 5d02 9fbc 1c25 0d3d c256 34bd acb9 d53c
00000030: d367 8bba 3956 623c 3356 e13a 5467 a53c
00000040: b4f8 f33c 9cd7 963a bc55 1b3d 6eef eebc
00000050: bc4c 8f3b da72 80bc b15d e53c ff46 07bd
00000060: 3dec ebbc de97 bcbc 9791 9bbc 3db6 a5bc
00000070: 5d4b aebc b8a5 67bc 0f9c c53c 72a4 17bc
00000080: ca42 e03c ba9e e6bb cd40 e4bc 334d 143d
00000090: bc8f 1e3d 960e ddbc ff57 4f3c 80fc f2bc
0.032636255 -0.027809894 -0.0018591427 -0.0048089926 -0.0074534374 -0.005347868 -0.04701252 -0.019715127
-0.019410307 0.03445922 -0.04402805 0.026089512 -0.00106358 0.013814502 0.0017191827 0.020190872
0.029781677 0.0011508348 0.03792356 -0.029166903 0.004373161 -0.015679765 0.027998777 -0.03302669
-0.02879917 -0.023021635 -0.018990321 -0.0202285 -0.02127617 -0.0141386315 0.024122266 -0.009255515
0.027375598 -0.0070379646 -0.02786293 0.036206435 0.038711295 -0.026984494 0.012655257 -0.029661417

linears.1.weight f4 [40, 40]
00000000: 98ec d63d 3aee 1abe 926c 3ebc 3968 3b3e
00000010: e2aa b2bd 98b8 6abe e576 c5bb d5a3 8dbd
00000020: f2be a4bd 1050 1d3e 30a4 563e 34a3 4ebe
00000030: 3a9f f5bd 53d9 4bbd 243b e0bc b2f5 0a3d
00000040: f54c 0e3f a009 233e 5b1e 72bd a286 b13d
00000050: 1405 5c3e 1100 dbbd a006 89be 716c 44bd
00000060: cd3e a83e 2790 373e b322 81bd 6432 1e3e
00000070: ac80 8c3d fa88 0e3d a111 0bbe 4f0b 3bbe
00000080: 39d0 2bbd 08d0 08be e47a 82bc e71a 12bd
00000090: 7813 713d 8298 53be 37d1 0e3e 068c 613e
000000a0: 482f 4a3e 7707 923b 4e43 13be 691c 48be
000000b0: 5481 c33e b425 e93d 7cbb 013d c90c c33d
000000c0: 8cba b83d d332 d9bd d36b fb3d 2d73 44be
000000d0: efa0 c13c 3ff1 c33a 9629 243e 842b b63d
000000e0: 205c bbbc f79e fb3d 850a cc3c 2d49 82be
000000f0: b124 13bd 49da fcbd 0bdd 7ebe 033e f13a
00000100: e649 333d 30d4 2d3e f97e cf3d 0d13 0fbd
00000110: 0849 57be 7970 a2bd 869a a43d 0a52 4fbc
00000120: bf63 413e d0b1 f3bd d18c d73a b920 ad3c
00000130: 790d b6bd dd37 293c 3f04 9dbd fb54 6b3e
00000140: ff6f 5d3e a914 4d3e a700 a6bd 4ffb d4bd
00000150: 1eb8 833e 29da 0cbe 6a26 f4bd cd7f 6cbe
00000160: 0692 a33d 880e aebd 9164 2e3e fd6d 7a3e
00000170: 9c90 293c 7fdc 823d c35f 28bd 0218 86be
00000180: f406 cabd a37f e03c 8660 afbd a7b4 233e
00000190: 3875 b5be f3ed aabb 7404 4fbd bf66 cf3e
000001a0: ca8a 6fbd c7b8 f5bd 9495 d93d 8915 3dbe
000001b0: 438e 89bd 9082 1d3d b57d 153e 000d 7dbc
000001c0: 1cc9 86be e4d1 d03d 7326 a9bc d0bb c3bd
000001d0: ef65 663d 0803 82be 86f6 873e 989b fe3d
000001e0: a8ee febd b53e 2d3d ed87 033e e867 8b3d
000001f0: de1b 8b3e 0860 503d c1fd 0f3d fc2a bdbd
00000200: 6654 bb3d 7552 d6bc b3c2 1fbe 339c 13be
00000210: bceb 51be aa48 ac3d c5d5 a23d 92a0 9abe
00000220: 25c4 803d af7c 8fbd 71f9 593d 53be 44be
00000230: 005f 6d3c a371 f1bd 2b80 a6be eb36 f3bd
00000240: ee4c 583a 11cc 34be f7f1 4fbe 73b5 2dbe
00000250: fa7c 903d 493a b3bd 0c26 c43c 2919 153e
00000260: 2e79 143e f0b6 383e e6e1 af3d 742c e03d
00000270: b718 59bd cf6e 2b3e ed63 603b 15a2 b43e
00000280: 1a72 47be fecb 8e3d 139f c0bd aa86 933e
00000290: 755d 193a 7ea0 84bd bd04 903e 1ccc 263e
000002a0: e7e3 90be c729 833d 4da9 e1bb 0ac3 b6bd
000002b0: 338a 613c c603 503d d869 0abe 0e81 ee3d
000002c0: 59aa 7e3d 5b46 7e3c 54a2 cb3d 4974 9cbd
000002d0: ba7e 7dbd d5d6 443d 6f98 31be 2a7c b3bd
000002e0: 18ca b8bd bd90 b9bc ce7b 063d 9fbc 8a3e
000002f0: b313 8abd 0d22 38bd 9eee b8bd 501b 2ebe
00000300: 98f0 03be 498c 4ebe cf70 643e 01df 58bd
00000310: 4cc9 cebb 2bf1 02bd d786 0f3e 860f eb3d
00000320: afc2 de3d 09a1 6b3e 555c ed3c bd27 ddbd
00000330: 27fb 2c3e 0860 cebc 49ea 263e 5b71 b5be
00000340: 8b83 463e 4cf6 923d 31b4 313e 5656 a8bd
00000350: 1777 1ebd 1d20 45be 8e33 4fbd 2650 cd3d
00000360: e174 2b3e bece 4c3e 09d8 153e 0b61 c73d
00000370: 800f 80bd 6047 7f3d e6c9 03be 302a 14bc
00000380: 76c1 353e 0730 623d 1659 c4bd 6f20 a23c
00000390: a58e 3d3e 8391 493d cb9a c53d f053 34be
000003a0: 07c4 2e3d 313d 32be c005 c43d 23e3 09bd
000003b0: 5215 0c3d 2753 073c 2ca5 56bd ad0b e4bd
000003c0: 9b54 293d 2866 c6bd 6b2c 88bd ee44 243d
000003d0: 5ccc 9b3d 15f4 c23c 2f78 723d 5e99 9c3d
000003e0: 9b20 89be 03f4 113e d0be 6e3e 7bd6 d73c
000003f0: fd4e 00be ee75 373e 309f 863d eb05 54bc
0.104943454 -0.15129939 -0.011622565 0.18301477 -0.087239996 -0.2292198 -0.006026136 -0.06916014
-0.080442324 0.15362573 0.2096107 -0.20179445 -0.11993261 -0.049767803 -0.02737195 0.03392572
0.5558618 0.1592164 -0.05911098 0.08668257 0.21486312 -0.10693372 -0.26762867 -0.04795498
0.32860413 0.17926084 -0.063054465 0.1544891 0.0686048 0.0347986 -0.13580944 -0.18266033
-0.041946623 -0.13360608 -0.01592774 -0.035670187 0.058856457 -0.20663646 0.13946997 0.22026071
0.19744599 0.0044564563 -0.14381143 -0.19542088 0.38184607 0.113841444 0.03167294 0.09523923
0.09019956 -0.10605397 0.12276425 -0.19184561 0.02363631 0.0014949216 0.16031489 0.08895019
-0.022871077 0.122861795 0.02490736 -0.25446454 -0.035923664 -0.12346322 -0.24889009 0.0018405322
0.043771647 0.16975474 0.1013164 -0.034930278 -0.21023953 -0.07931609 0.080372855 -0.012653837
0.18885706 -0.118991494 0.0016445165 0.021133767 -0.088892885 0.01032826 -0.076668255 0.22981636
0.21624754 0.20027412 -0.08105593 -0.10399496 0.25726408 -0.13755096 -0.119213894 -0.23095627
0.07986836 -0.08498865 0.1703055 0.2445602 0.010349419 0.063897125 -0.04110695 -0.26190192
-0.098646075 0.027404612 -0.08563332 0.15986882 -0.35440993 -0.005216354 -0.050541356 0.40508077
-0.05848197 -0.11998134 0.10624233 -0.18465246 -0.067165874 0.038454592 0.14598735 -0.015444994
-0.2632531 0.101962835 -0.020648217 -0.09557307 0.056249555 -0.25392938 0.2655527 0.12432021
-0.12447864 0.04229613 0.1284482 0.06806928 0.27169698 0.050872833 0.035154108 -0.09236714
0.09146957 -0.026162365 -0.15601616 -0.14415054 -0.20500082 0.08412297 0.079509296 -0.3020063
0.062874116 -0.070062034 0.0532164 -0.19213228 0.014487982 -0.117892526 -0.3251966 -0.11875709
0.00082512095 -0.1765597 -0.20307146 -0.16963749 0.070550874 -0.087513514 0.023943923 0.14560379
0.14499351 0.18038535 0.085880086 0.10945979 -0.053002086 0.16741489 0.0034239248 0.3527991
-0.1947712 0.06972502 -0.09405341 0.28813678 0.0005850413 -0.06475924 0.28128615 0.16288799
-0.28298876 0.06404453 -0.0068866373 -0.089239195 0.013765859 0.05078485 -0.13516939 0.11645709
0.062174175 0.015519704 0.09943071 -0.07639367 -0.061888434 0.048056442 -0.17343305 -0.08763917
-0.09022921 -0.022652024 0.032832913 0.2709703 -0.067420386 -0.04495435 -0.090298876 -0.17002606
-0.12884748 -0.20170702 0.22308658 -0.052947048 -0.0063106176 -0.031968277 0.14016281 0.1147757
0.10876977 0.23010649 0.028974691 -0.10798595 0.16892682 -0.025192276 0.1630031 -0.35438046
0.19386117 0.07175884 0.17353894 -0.08219592 -0.03868779 -0.19250531 -0.050586276 0.10025053
0.16743805 0.20000741 0.14633192 0.09735306 -0.062529564 0.062323928 -0.12869987 -0.009043261
0.1774958 0.055221584 -0.09587304 0.019790856 0.18511446 0.049211036 0.09648665 -0.17610145
0.042667415 -0.17406155 0.09571409 -0.03366388 0.03420002 0.008259571 -0.052403614 -0.111350395
0.04134045 -0.096874535 -0.06649097 0.0401048 0.07607338 0.023798028 0.059196647 0.0764644
-0.26782688 0.1425324 0.23314977 0.02634739 -0.12530132 0.1791608 0.06573331 -0.012940864

linears.1.bias f4 [40]
00000000: f284 1a3d c56e e7bc 2b90 7fbd 1afe 0dbc
00000010: cfdb 613c a574 7a3c 701f 043d 522f 743b
00000020: 55c6 ce3b 5b63 f23c ebec 3f3d a303 043d
00000030: f75a 4ebb 2c73 023d b13d 4dbc ea3f 8b3c
00000040: 44ab 133c 1b6e bcbc 977b 843c 699a 833c
00000050: 0431 023d e227 8e3c 0721 963c 9338 233c
00000060: 3730 72bc bcd0 8b3c 4f56 21bc e68c a4bc
00000070: 825e 923c 32cb 823c 26bf aa3a 9b5b 0e3c
00000080: 0ff2 e93c 07fe d03c 075c ddbc 36e2 71bd
00000090: 97ba fabc ac22 a83c d670 18b9 9c94 35bc
0.037724443 -0.028251061 -0.06239335 -0.00866654 0.013785317 0.015286599 0.032256544 0.003725965
0.006310264 0.029588392 0.046856802 0.03223003 -0.0031487325 0.031848118 -0.012526915 0.01699825
0.009013001 -0.023001721 0.016172213 0.01606484 0.031785026 0.017353002 0.018326296 0.009962219
-0.014782003 0.017067306 -0.009847238 -0.020086717 0.01786733 0.015966032 0.0013026937 0.008688833
0.028557805 0.025511755 -0.027021421 -0.059053622 -0.030606551 0.020524345 -0.00014537884 -0.0110827945

linears.2.weight f4 [40, 40]
00000000: 9d17 413e 4c3d 123e 7d7e 0a3e de83 01be
00000010: 868c 8d3e 1bf5 583e cff6 49be 5fec 0f3d
00000020: 0225 093e b2e0 913e a375 51bb 583b a6bd
00000030: e5bb 063d 9f5c e4bd 8ec4 7d3e b46c f83d
00000040: 5960 853e 44af 46be 8ce4 a83e be03 243e
00000050: 2107 d33d 7d8e ff3c 67bd 1e3e 5889 81bc
00000060: 3fc6 21be 62b7 39be cea3 373e b08a 243e
00000070: 0888 d13c 81c9 08be e458 9f3e 2426 4f3e
00000080: aa09 e2bd c79f 1e3d 251e 973e af98 0e3e
00000090: 2d72 14be f62f c7bd 312c 093d 44d2 d3be
000000a0: dfd9 403e 88a6 1ebe c17c 64bc 23ab 48bd
000000b0: 0013 863e 1656 d5bd 629e 313e c3fa fc3c
000000c0: 5674 173e c0b6 c43d fa47 ae3b 75e4 583c
000000d0: ad71 04bd ee9e 9b3d e093 22bc cd9d 61bd
000000e0: 0522 413e eafa 2c3e 6a7f ab3c 6375 2bbd
000000f0: 2559 05bd f3c7 263e 89a6 0e3e 4ffe 653d
00000100: e733 1ebe ea98 9e3e dcca 563c 0750 23be
00000110: 9326 47bc eb47 d33d 4145 7b3c 055f c7bd
00000120: e6bf 3dbe 3625 e03d b524 92bd e762 d33b
00000130: b27c bc3d 2ede 503d 0f22 2dbe 2fb1 40bd
00000140: 07df 23bd 88c9 bcbe dc70 3fbe f0b7 b9bd
00000150: 75a7 083e 4326 293c d2f6 fbbd 181e 853d
00000160: cfc4 dcbc db3b 66be 4043 403d 72b0 183c
00000170: 665e bfbc c9b0 aebd cbd0 2c3e af5e 35be
00000180: 3e7e 083b bdb0 04be 1354 68be db43 c03d
00000190: 3b63 7fbd 0cdb 5c3a 68b8 53bd 147f 54bd
000001a0: 4df9 30be f444 0bbe 9895 413e df4e 003e
000001b0: 53c1 f73c 47a4 c03c 77bd 78be e305 6cbe
000001c0: fd20 8abd 79b8 16bd 2d6d 343b 8b48 41be
000001d0: 1e1f bfbd 26d1 353e a012 273e 5ecd 88be
000001e0: e20f 2f3e 4297 11be 4cb9 c03d fe06 f1bb
000001f0: 7ec6 4d3d c1fc eebc 4844 18bd 9f5d cebc
00000200: 5db0 393e 8e79 053e 48a4 3ebe 875d 933e
00000210: 2379 543d d493 c33c 038e 203b a2aa 3fbe
00000220: b2cc eb3d cb06 f1bd 914b de3b 3dea 493d
00000230: 13c5 b9bd 5e7d 63bd 0e16 f2bd 05fb 833d
00000240: f085 223d 96dd ae3e cf4b 91bd 0454 07be
00000250: 9750 44be 8961 103e 045b 353d 59d4 1a3e
00000260: b6be d2bd 73e9 dcbd d8ec 3a3d 393e 95bc
00000270: f90a 7b3e 8a11 e33d e6f4 853e 713f b5be
00000280: ca1a bb3c 5225 46be 67ee eabd 8024 8bbe
00000290: f1d9 ee3d 2b67 24bd 179c 243c 21dd 993d
000002a0: 8d28 05bd 93af 033e 7674 2d3e c64b 8bbe
000002b0: 2d9b 65bb ef52 a5be fd7d fcbd af30 73be
000002c0: 5d3e f23d 4eef 1dbe 0c1b 4dbd fc36 8d3d
000002d0: c4a1 0bbe 7d2d 7dbe 1d98 8ebd f5e0 073e
000002e0: 802e debd a25f 3fbe 99c0 74be 68d0 33bc
000002f0: da18 083e 4919 f838 01ac 97be 74dc 18be
00000300: 0456 eabd c891 f33c 5785 f3bd 54f8 06be
00000310: fc08 bbbd 4805 25be 6d95 f8bd bc50 40bd
00000320: 02de 4b3d 926a 9c3e e7f3 4bbe feed 90bd
00000330: d49e a5bc 2038 323d 799f 3ebd cb93 853d
00000340: 85a2 063e e826 ddbd a110 3bbd 7dad 4abd
00000350: 596b 663d 2dfd 21be 1b0d 8cbc 24b7 63be
00000360: 30d6 c3be 3124 91be 176f 0ebe 94ab e23e
00000370: 76e1 2dbe 2ccf 0f3c ed5a 89be 28ce be3d
00000380: 9f22 df3d 3d0d 833d b652 c5b9 df90 f2bd
00000390: bcd6 44be 2b54 5b3d 05e8 963e d957 813d
000003a0: 6530 97bd 5e9d 483e ae5d 8e3d 6903 45bd
000003b0: 58b4 24bd 75a6 bcbd 9b1d c13d 49f8 79be
000003c0: 2875 db3c a9d7 0abb 7b36 61bd 9697 6f3e
000003d0: 9432 1a3e e156 5bbe 634d c0bd 6856 f73d
000003e0: 5c57 943d cca1 1c3d 471c 48bd b4d7 693e
000003f0: 95f1 403e f7ae 463e cc6f 4a3d e24c bdbd
0.18856664 0.14281195 0.13524814 -0.1264796 0.27646273 0.2118725 -0.19723056 0.03513753
0.13393024 0.2849174 -0.0031960986 -0.08116788 0.032894034 -0.111504786 0.24782011 0.121301085
0.2605007 -0.19402796 0.32986867 0.16017053 0.10304094 0.031195873 0.15501939 -0.01581256
-0.15798281 -0.18136361 0.1793358 0.1606853 0.02557756 -0.13358118 0.31122506 0.20229393
-0.110369995 0.038726594 0.29515186 0.13925432 -0.1449668 -0.09725945 0.03348941 -0.41371357
0.18833111 -0.15493214 -0.013945759 -0.048991334 0.2618637 -0.1041681 0.17345574 0.030881291
0.14790472 0.09605169 0.005318639 0.013238062 -0.032334972 0.07598673 -0.009922951 -0.05508213
0.18860634 0.16892591 0.02093478 -0.041859996 -0.032555718 0.16287212 0.13930716 0.05615073
-0.15449487 0.3097604 0.013109889 -0.15948497 -0.012155193 0.10316452 0.015336336 -0.097349204
-0.18530235 0.109445974 -0.071359076 0.006450999 0.09203471 0.050993137 -0.16907524 -0.047043975
-0.040007617 -0.36872506 -0.18695396 -0.090682864 0.1334513 0.010324064 -0.123029366 0.064998806
-0.026949314 -0.2248377 0.046939135 0.009319412 -0.023360442 -0.08529813 0.16876523 -0.177119
0.00208272 -0.12958045 -0.22688322 0.093879424 -0.062350493 0.00084249745 -0.051689535 -0.051879004
-0.172826 -0.13600522 0.18904722 0.12530087 0.030243551 0.023515834 -0.24291025 -0.2304912
-0.06744573 -0.03679702 0.0027530894 -0.18875329 -0.09332107 0.17755565 0.16315699 -0.26719183
0.17095903 -0.14217857 0.094103426 -0.00735557 0.050238125 -0.029173257 -0.037174493 -0.025191126
0.18133684 0.1303465 -0.18617356 0.28782293 0.051873337 0.0238742 0.0024498708 -0.18717435
0.11513652 -0.11768874 0.0067839106 0.049295653 -0.09070792 -0.05553948 -0.11820613 0.064443626
0.039678514 0.34153432 -0.070945375 -0.13215643 -0.19171368 0.14099707 0.044276252 0.15120067
-0.102902815 -0.107867144 0.045636028 -0.018218147 0.24515904 0.1108733 0.26163405 -0.35399964
0.022839922 -0.19350174 -0.11471253 -0.27176285 0.11662663 -0.04013745 0.01004698 0.0751288
-0.032509375 0.12859945 0.16938958 -0.27206248 -0.003503512 -0.32289836 -0.12328718 -0.2374904
0.11828301 -0.15423319 -0.050074622 0.06895253 -0.13635927 -0.24724384 -0.06962607 0.13269408
-0.10848713 -0.18688825 -0.23901595 -0.010974981 0.1329073 0.00011830271 -0.29623416 -0.14927846
-0.114421874 0.0297326 -0.11890667 -0.13180667 -0.09132573 -0.16115296 -0.12137876 -0.046951994
0.04977227 0.30550057 -0.1991726 -0.070766434 -0.020217337 0.043510556 -0.046538804 0.0652233
0.13147934 -0.107984364 -0.045670155 -0.049481858 0.05625472 -0.15819235 -0.017096093 -0.22237831
-0.3824935 -0.28347924 -0.13909565 0.4427153 -0.16980538 0.008777421 -0.26827183 0.09316665
0.10895275 0.063990094 -0.00037636393 -0.11844038 -0.1922254 0.053547066 0.29473892 0.06315584
-0.073822774 0.19591281 0.06951462 -0.048098955 -0.04021105 -0.09211437 0.09429475 -0.2441112
0.026789263 -0.0021185672 -0.054983597 0.23397669 0.15058357 -0.2141986 -0.0938976 0.120770276
0.07243225 0.03824024 -0.048855092 0.2283619 0.18842156 0.19402681 0.049423024 -0.0924318

linears.2.bias f4 [40]
00000000: 42fc 3d3c 6c97 863c 5419 793c b6ee 00bd
00000010: f13a b5bb 3be4 ac3c 945d 2e3c 9c1f acbc
00000020: 090f 783c 005a 75bc e3cd 39bc e115 d43c
00000030: 66b5 173b d8ee 423c afb1 8c3c a697 3a3b
00000040: a345 1f3c b654 13ba 0607 003d ca63 443c
00000050: 770b 2fbc b3a9 853b 5ec8 cdb9 b348 c83c
00000060: 405d a03b 18bf fabc 6223 ccbc 12ce e3bb
00000070: fd9a aa3c f93a a2bc ccbf 013b 3fcd eebb
00000080: ec9f 5c3c 3be5 833c 982f 763c d2c1 11bd
00000090: db8d 9abc eaca 393c 8e73 00bd ea35 763c
0.0115957875 0.016429625 0.015203793 -0.031477652 -0.005530708 0.021104923 0.010642428 -0.021011166
0.015140303 -0.014975071 -0.011340591 0.025889339 0.0023148893 0.011897765 0.01717457 0.0028471737
0.0097211925 -0.0005620228 0.031256698 0.011986682 -0.010683886 0.0040790676 -0.00039249932 0.024448728
0.0048939288 -0.030608699 -0.024919216 -0.0069520557 0.020825857 -0.019803511 0.0019798158 -0.007287651
0.013465863 0.016100517 0.015025996 -0.035585232 -0.01886647 0.011339882 -0.0313602 0.015027503

linears.3.weight f4 [40, 40]
00000000: 3503 7abd 887c 5ebe 99a3 cb3d 29fc b9bc
00000010: f11a b4bd 62cb 1fbe 50ca 0e3e 1867 f1bd
00000020: 8f6f ce3c 1146 1c3e 58d8 6cbe 89b4 b83c
00000030: a3e9 d53a 46fe 8e3e 7e36 81be 7e16 18be
00000040: 4d63 153e 17e3 a13d 9faa 08be 7ae0 183e
00000050: 62f6 5cbd cfcf adbd 4eee 7c3e b667 ac3d
00000060: 0f6b bcbd 2749 243e b703 a4be cd22 76be
00000070: 21ea 61b6 620a 26be 8065 50be 7bc7 0fbd
00000080: 7e32 9a3c f307 d93b 949a 7fbd bf8d e93d
00000090: d57a 31be 3b38 333a db52 913d f41f e0bd
000000a0: 1844 f63d 4b33 c63b c3af 1ebd fb05 84bd
000000b0: 290c 86bd 899d a63e 097b 74bd 85fd 7bbe
000000c0: e518 533d 160f b3bc 0ae4 023e e1c7 bbbc
000000d0: 6028 073d 175b 413d 2b38 63bd 24d9 6e3e
000000e0: 6876 82bc dc0a 62be fbbb 703e 039c c73d
000000f0: acea d13d a70a 8dbc 4541 84bd 8ff7 1f3e
00000100: d866 413d 5960 43be 4eb1 dc3d b73e 9a3d
00000110: 5455 3d3e b35e 013e b44f f6bd 5bf8 353e
00000120: 6bcd ebbd f3b9 323e 892e 91bc 32d2 863e
00000130: 9476 82be 5820 bbbe 1ccf 5d3e deb6 233e
00000140: 780f 8fbe 53cf b43e b649 583d 4f24 3bbd
00000150: 31d3 563e 529a d7bc 60ca 8cbd e1fc 23bd
00000160: 2705 8cbd c005 513e acd4 a03d 685b 6c3d
00000170: 5077 d9bd 6325 693e 0856 7bbe de6d c63c
00000180: 6b56 20be 7b04 5fbe 184d e93d fbaa 54bc
00000190: 116d a83d bd3d 10bd a7fe 133d af98 9b3e
000001a0: 7740 b63d a815 5fbe fe06 3cbe 250e 85bd
000001b0: 37ef 313e 3153 07be 5e54 433c 7263 1abd
000001c0: 8200 e9bc 6be7 b3bc a34c 413e 03fe 11be
000001d0: 2229 563e edc3 123d 91ff a9bd 9119 19bd
000001e0: 2c5f 133b 21d4 9abe 3c41 03be ac4c ccbd
000001f0: c5a4 25be 2959 8c3e 69a0 85be 605b e8bd
00000200: 0187 0dbc 1f1a dbbd fb84 97bd 4922 313e
00000210: 8d1b 1cbd 3a2e ccbd 876c 823e 9339 0abe
00000220: c9c7 933d f071 87bc 3007 973d 700f a0bc
00000230: 45c2 c5bc 384c 24be 9391 193e 6e36 8d3e
00000240: 09a8 f5bd 8c0c 91be b483 993c 9a5d babe
00000250: 047f 813e b561 3c3d 4655 9bbd 807a eabd
00000260: 6b41 a3be 981f bbbe d7ed 9abd 3de4 903d
00000270: f553 c33d f108 4f3e d1d4 25be 37b7 763e
00000280: 2285 03be 714f 09bd 967c 0c3e 7bff 333d
00000290: acb5 bf3d 4636 503e fecb 28be a034 afbb
000002a0: 734f 883e 17ec 553e 2db4 7dbd b2b8 5cbc
000002b0: c08f eebc a8ac 2c3d 59be 69bd 2b52 27bd
000002c0: 665f 0d3e 3b54 763e a529 85be e9f1 853d
000002d0: d91c 29be 5078 e53d 0677 85be ebee 663d
000002e0: 4553 4cbd a627 cf3c b874 0dbe 175a 13be
000002f0: 373c 6bbd 8228 483e 2631 2c3d 3a07 283e
00000300: 5868 873d 5b4a 80bd fa97 2abd 22fa d53d
00000310: 9a78 85be fcc9 cebd 64ba 1f3e d771 70be
00000320: c909 a23c ec4e 0fbc add3 383e 0691 513e
00000330: 649b aabd 675b 00be 18f0 a6bd 7f0f 6bbe
00000340: 3b7d 2a3e 8a47 69bd 221f 2cbd fdb2 fa3d
00000350: c6f2 00be 3cf9 813e 821a 5f3d 277e a9bd
00000360: 9285 c9bd 4bd1 353d bf28 89bc 2601 14be
00000370: dd90 97bd 8415 803e c9a1 703e 3f0e 4c3c
00000380: 980e 9cbe 1ef1 6bbd 2605 e7bc c87c af3d
00000390: c8d0 26bd 15fe 33be b9fb 25be 8b6a 1abd
000003a0: 6924 303e a0fe 873d 5a72 d73d 009d 31be
000003b0: 762b 673d 78b5 67be 35f6 803d c2c0 7a3e
000003c0: 74f4 e53d 8969 1cbe b7e0 efbc 2849 673e
000003d0: ba6b 90bd fa33 c83d e36a 3d3d addb 953e
000003e0: af7c 563e 8b2d 55be 2794 053e 171e a2be
000003f0: 4cfe 9cbe 9d8d f43d e87c 4dbb 21bf 913e
-0.061038215 -0.21727192 0.09943313 -0.022703247 -0.08794201 -0.15604928 0.13944364 -0.11787242
0.02519968 0.15261103 -0.23129404 0.022547023 0.001632024 0.2792837 -0.25236887 -0.1485233
0.14588661 0.07904642 -0.13346337 0.14929381 -0.053945906 -0.08486902 0.24700281 0.08418219
-0.09200107 0.1604353 -0.32034084 -0.24036713 -3.3663894e-06 -0.16214898 -0.20351219 -0.03510235
0.018822905 0.006623262 -0.062403277 0.11403989 -0.17332013 0.0006836687 0.070958816 -0.109435946
0.120247066 0.006048595 -0.03874184 -0.06446453 -0.06545288 0.32542065 -0.059687648 -0.24608429
0.051537413 -0.02185778 0.12782302 -0.022922458 0.03299749 0.04720601 -0.055473488 0.2332502
-0.015925601 -0.22074455 0.23509209 0.09746554 0.10249838 -0.017216993 -0.06457762 0.1562178
0.04721722 -0.19079722 0.10776006 0.07531493 0.18489581 0.12633781 -0.12026921 0.17770521
-0.1151379 0.17453746 -0.017722385 0.2633224 -0.25481093 -0.36548114 0.21661037 0.15987727
-0.2794149 0.35314426 0.05280467 -0.045688923 0.20979 -0.026318703 -0.068745375 -0.040036086
-0.0683692 0.2041235 0.07853064 0.05770436 -0.1061846 0.22768168 -0.24544537 0.02422231
-0.15657966 -0.21779053 0.113916576 -0.012980218 0.08223928 -0.03521513 0.036131527 0.30389926
0.088990144 -0.21785605 -0.18362042 -0.064968385 0.1737641 -0.13215329 0.01192197 -0.037692495
-0.028442625 -0.021960935 0.18876891 -0.14257054 0.20914128 0.03583138 -0.083006985 -0.037377898
0.0022487147 -0.30239967 -0.12817854 -0.099755615 -0.16176136 0.27411774 -0.26098946 -0.113455534
-0.0086381445 -0.106983416 -0.07398411 0.17298235 -0.038112212 -0.099697545 0.25473425 -0.13498525
0.0721584 -0.016533822 0.07374418 -0.019538611 -0.024140486 -0.160447 0.14996938 0.2758059
-0.11994941 -0.28329885 0.018739559 -0.36399537 0.25292218 0.04599162 -0.07584624 -0.11449146
-0.31885847 -0.36547542 -0.075648956 0.07074783 0.09537498 0.20218255 -0.16194464 0.24093328
-0.12843755 -0.033523027 0.13719401 0.043944817 0.09360823 0.20333204 -0.16484067 -0.0053468496
0.26623115 0.20890842 -0.061939407 -0.013471769 -0.02912128 0.042156845 -0.057066295 -0.040849846
0.13805923 0.24055569 -0.26008335 0.06540281 -0.16514911 0.112045884 -0.2606737 0.056380194
-0.0498841 0.02528746 -0.13814056 -0.14389835 -0.057430472 0.19546703 0.04203906 0.16409007
0.06611699 -0.06264182 -0.041648842 0.104481 -0.26068574 -0.10097119 0.15598446 -0.23480926
0.019780057 -0.008746844 0.18049498 0.20465478 -0.0833042 -0.12534867 -0.08151263 -0.2295513
0.16649334 -0.05695299 -0.042021878 0.122411706 -0.1259261 0.25385463 0.05446864 -0.08276015
-0.0983993 0.04438905 -0.016743062 -0.14453563 -0.07400677 0.25016415 0.23499216 0.012454568
-0.30479884 -0.057602994 -0.028200697 0.08568722 -0.040726453 -0.17577393 -0.16209306 -0.037699264
0.1720139 0.06640363 0.10519858 -0.17345047 0.056437932 -0.22627819 0.0629696 0.24487594
0.11228266 -0.15274633 -0.029281957 0.225865 -0.07051797 0.09775539 0.046244513 0.29269162
0.20946 -0.20818155 0.13044797 -0.31663582 -0.30662763 0.11941073 -0.0031354968 0.28466132

linears.3.bias f4 [40]
00000000: 33df ec3c f422 f83b 2209 e43c 5f6f c8bc
00000010: 8dea 4abc 68d7 cd3c b5a2 6d3c 5b2b e6ba
00000020: bc4d f23b 701a 6fbb 52e2 823c bf9d 9bbc
00000030: 62c0 9f3a 9150 1b3c f058 ca3b f412 993c
00000040: 6f0c e7bb 58d2 9d3c be27 aebc 7704 893c
00000050: 6c2a 9bbb eb7d e33b a6b4 bdbc 7a1c bf3b
00000060: 4f48 10bd 60a3 36bd c4b7 53bb 300c 7e3c
00000070: a404 dcbc 2a02 b73c e6f1 c2bc d386 37bc
00000080: 8f21 b0bb 9814 39bb ca42 fc3c a7dd 9e3c
00000090: 98fe 873c 359b 963c d094 83bc e63b 35bc
0.028915023 0.007572526 0.027836386 -0.024467168 -0.012385023 0.025127128 0.014504124 -0.0017560528
0.0073945206 -0.0036484264 0.015977059 -0.018996118 0.0012188072 0.009479658 0.006175153 0.018685795
-0.0070510427 0.019265339 -0.021259185 0.016725762 -0.0047352817 0.006942501 -0.023157429 0.005832252
-0.03522521 -0.0445894 -0.0032305578 0.015505835 -0.026857682 0.0223399 -0.023796987 -0.011201578
-0.0053750942 -0.0028241035 0.030793566 0.019392801 0.016600892 0.018384555 -0.01606217 -0.011061644

linears.4.weight f4 [40, 40]
00000000: 63d4 90bd 4256 77bd bbb6 b63d 86c3 1cbe
00000010: bf9b 44be 29f0 2d3e a616 10be 7bf8 db3c
00000020: ebcf 1c3d a9e4 143e f089 fbbd a201 3dbd
00000030: bafc aebd 758c bd3c aa06 dfbd 04fc 413e
00000040: ff8e 363d 08eb dc3d e37f adbd 83f4 2bbd
00000050: f84b d23d 7b02 d83e ec75 a33e 4cfc e13d
00000060: 57a6 d6bb af1a d7bd d6d0 21be 29f1 3a3e
00000070: 159e a9bc fc19 ed3d 19f0 5fbc d002 ba3d
00000080: c6d4 10be 72ba 2f3d 27f9 a33d 03ed 613e
00000090: 1ec3 b1be a61b 253d 4ad3 c4bd 5802 71bc
000000a0: 01ed 7a3d fab1 fdbd ef15 1ebc ce74 d03d
000000b0: 87b3 4a3e baa0 c53e f3f3 693e 0449 813e
000000c0: 2876 6f3e 6cb7 80be bcd3 51be 6ba1 06bd
000000d0: b30a 1cbe c32a 133d 2301 c7bd 270b 14bc
000000e0: a000 3c3d 752c 8a3d 6f0d 4ebe b9f1 a43d
000000f0: 5c0e 073d c338 c33d fea0 35be c53b d9bd
00000100: 04af 5b3b f65e ebbb 8643 a13d 8559 7ebd
00000110: ab82 f5bd 8b0c 4e3e b1ac 60bd 4684 683e
00000120: 1c86 1a3c e263 e5bd c43f 053d bf99 053e
00000130: 6275 a73e 1e52 05be d9a3 3e3e fc56 b6be
00000140: d569 8f3c 88c0 633e 240f 193e 8c23 0ebe
00000150: 9e64 143e 422e 2bbc 6c1e 1dbc 13a4 8a3e
00000160: c826 3b3e 23e0 853e b1ca a5bd d707 6ebc
00000170: 8437 46bc 1ed5 e2bd a95e f8bd e4e8 09be
00000180: a241 3a3d 047b 16be 945c e83d 47e9 bd3b
00000190: 0f81 54bd 67e4 0dbd e286 d03b cafb 9abe
000001a0: 87e1 a73c 27f0 84bd a756 89bd a121 75bd
000001b0: 140c 1bbe 67b4 513e de1d ee3d d4bb 8bbd
000001c0: f0e9 27be 6c5f dcbd 045b 7abe ffa9 4c3d
000001d0: 41a9 11be 96b5 13be 7c56 9ebe ad21 e03d
000001e0: d86a bbbd bb2c 34be a264 473e 6ba8 90be
000001f0: 46b4 6cbd 4736 e03d 5cbe 3b3e f3b7 7c3e
00000200: 41de 44bd 2c60 5ebb 13f4 31be 5f3e 963d
00000210: 78de 333e f22f bd3d d7a2 60be 6092 b4bc
00000220: 6927 cf3d 707e 8a3d 3e70 693e 4a91 8abd
00000230: fb66 803e a526 8b3d 296a e9bd 76d4 9dbe
00000240: 1186 03be 1bfe 2b3d e7ca 88be 70b1 a6bd
00000250: 60ff a63a da7b cfbd 48aa 963e b213 fa3d
00000260: e320 5a3d 832a 5a3e 715c 71bd af2e f93d
00000270: dab9 37be 5059 81bc d595 033d 36d4 82be
00000280: 4b69 a6be 98a2 683e cb7f fb3d 2499 8abd
00000290: c8dd 2abe cd6f 6e3d 3851 c43d 3a00 f93d
000002a0: 0202 063d 49de afbd 67b2 a6bd 4045 d8be
000002b0: ff01 edbd df7b b23d f0c4 d83d caab a4bc
000002c0: b7e6 3bbe b443 26be a8ae 5e3b 4ca7 153e
000002d0: 2cf5 313e 5702 f7bd 8e38 4b3e 96ca fabd
000002e0: ae56 89be 4069 15be 473b 4dbd aefd 7d3e
000002f0: bda2 c9bc 0e96 d13d d103 333e 4aa5 e6bd
00000300: a987 1ebd 75f7 f7bd 562c 9d3d 9db9 bc3d
00000310: b4ab fc3d 7fae 263e ac70 8dbd 61e8 b83c
00000320: 755e 79be f990 96bc 8978 e3bd 6a07 193d
00000330: 0fac 0bbe 801a 8bbe 3a11 903e b5d8 fcbd
00000340: edc9 313e c61f 12bd 4aea 22be 7ba2 62bd
00000350: 9820 37be 6074 87bd b57e 973d 55c7 9b3e
00000360: 38d6 c6bd 9ecb bb3d c725 713d 8cac e03d
00000370: ec28 ecbd 2f85 2ebe 6f69 8b3d d0ea 6d3d
00000380: ccbf 8a3d 5d00 343d 11d7 8abd 0fcc 603d
00000390: 0513 653d 1635 793e da43 043e a487 7dbd
000003a0: 7b6e 6b3e 9a73 fb3d 4bd1 f9bc 4c3e f6bc
000003b0: 825a 5dbe 34a6 e43b ce07 70bd 2c2b 0ebe
000003c0: eb48 29be 39cb 1e3e dfcf 1a3e 3025 3b3e
000003d0: 3e45 c0be 4136 b13d b9c5 dc3b 0628 45be
000003e0: e816 96bd cc0a e13d 0052 113e 5dc8 723e
000003f0: 95d7 fdbd 0d6e 81bc 9f55 c8be 1675 d3be
-0.070717596 -0.060384996 0.08921572 -0.15308961 -0.19200037 0.16986145 -0.1407114 0.026851883
0.038284224 0.14540352 -0.12282169 -0.046144135 -0.085442975 0.023138264 -0.10889943 0.18943793
0.044569965 0.10787016 -0.08471658 -0.04198123 0.10268396 0.42189392 0.31925905 0.1103445
-0.006550591 -0.10503136 -0.15802321 0.18256058 -0.020705262 0.11577222 -0.013668084 0.09082568
-0.14143667 0.042902417 0.080065064 0.22063069 -0.34719175 0.04030957 -0.09610613 -0.014710031
0.06126118 -0.12387462 -0.009648784 0.10178529 0.19795047 0.38599187 0.22846965 0.2525102
0.23384917 -0.2513994 -0.20490927 -0.032868784 -0.15238456 0.035929453 -0.09717014 -0.009035862
0.045899034 0.06746761 -0.20122312 0.080539174 0.03297268 0.09532311 -0.17737195 -0.10607103
0.0033521065 -0.007182951 0.07874207 -0.06209709 -0.119878136 0.20121972 -0.05485219 0.22706708
0.009431388 -0.11200692 0.032531515 0.1304693 0.32706743 -0.13019606 0.1861719 -0.3561324
0.01750652 0.22241414 0.14947182 -0.13880748 0.14491507 -0.01044804 -0.009589773 0.27078304
0.18276513 0.26147565 -0.08095301 -0.014528236 -0.012098197 -0.11075805 -0.1212743 -0.13467747
0.04547275 -0.14695364 0.11345783 0.005795631 -0.051880892 -0.03464165 0.0063637355 -0.30270225
0.020493282 -0.06491118 -0.06705981 -0.059846524 -0.15141326 0.20478974 0.116267905 -0.06822935
-0.16397834 -0.10760388 -0.24448782 0.04996681 -0.14224721 -0.14424738 -0.30925357 0.10943923
-0.09151238 -0.17595188 0.19471982 -0.28253493 -0.05778911 0.109478526 0.18334335 0.24679546
-0.04806352 -0.0033931835 -0.17378263 0.07336115 0.17565334 0.092376605 -0.21937118 -0.022042453
0.10114939 0.06762397 0.22796723 -0.06765993 0.25078568 0.0679448 -0.113972016 -0.30826157
-0.12844111 0.04199038 -0.26717302 -0.08139312 0.0012740903 -0.10131045 0.2942679 0.12210788
0.05325402 0.2130528 -0.05892605 0.12167107 -0.1794199 -0.015789658 0.032125313 -0.2555253
-0.32502207 0.22718275 0.12280234 -0.067674905 -0.16686165 0.05821209 0.09585804 0.12158246
0.03271676 -0.085873194 -0.08139496 -0.42240334 -0.11572646 0.08715033 0.10584438 -0.020101447
-0.1834973 -0.16236764 0.0033978615 0.146146 0.17378682 -0.12060993 0.19845793 -0.122456715
-0.26823944 -0.14590931 -0.05010536 0.24803802 -0.024613732 0.10233699 0.17481925 -0.11261995
-0.038703594 -0.121077456 0.07674472 0.092150904 0.12337437 0.16277502 -0.06906256 0.022571744
-0.24352439 -0.018379675 -0.11106975 0.037360586 -0.13639854 -0.27168655 0.28138143 -0.12346021
0.17362185 -0.035674833 -0.15909687 -0.055330735 -0.17883527 -0.06613994 0.07397214 0.30425516
-0.09708828 0.09169696 0.058873918 0.10970411 -0.11531243 -0.17042993 0.06807219 0.058085263
0.067748636 0.04394566 -0.06779302 0.054882105 0.05592634 0.24336657 0.12916508 -0.061896935
0.22991364 0.122779086 -0.030495306 -0.030059002 -0.21616557 0.006977821 -0.058601193 -0.13883656
-0.16531722 0.15507211 0.15118359 0.18275905 -0.37552828 0.08652926 0.0067374376 -0.19253549
-0.07328588 0.109883875 0.14191437 0.23709245 -0.12394635 -0.015799547 -0.39127824 -0.41300267

linears.4.bias f4 [40]
00000000: 881a 4fbc 451b d83c d991 bc3c 5b2f dfbb
00000010: 3afb b4bc ee94 2c3c 2ee9 0e3c c446 97bc
00000020: 910e e13c f01a ef3b b792 b33b 421a fe3c
00000030: 31ec c5bc dfe1 1bbc 00e6 a73c cb19 033c
00000040: 9ce4 a7bc a8d7 a4bb 3c64 a33c 445d c83c
00000050: 2e3d bcbc 9768 b5bc b38f aabc cbd7 be3c
00000060: 482f c03c afe4 973c aeb8 77bc dda4 3a3b
00000070: 9302 d43c ae79 f73c 9098 e33b 4ccd 893c
00000080: b479 2fbc 61ba 2ebc ef04 dc3c 7dc3 98bc
00000090: 4ea7 453c affa 803c 3271 80bc 73f4 24bd
-0.012640603 0.02638019 0.023018764 -0.006811065 -0.02209245 0.0105335545 0.008722587 -0.01846636
0.027472766 0.0072969124 0.0054801363 0.03101838 -0.024160476 -0.009514301 0.020495415 0.008001755
-0.020494752 -0.005030591 0.019945256 0.024458535 -0.022978391 -0.022144599 -0.020820474 0.023296257
0.023460045 0.018541662 -0.015119715 0.0028479614 0.025880134 0.030209389 0.006945677 0.016821526
-0.010710169 -0.010664553 0.026857821 -0.018647904 0.012063814 0.015744535 -0.015678976 -0.040272187

linears.5.weight f4 [40, 40]
00000000: d783 bebd b5a4 b03e e263 613e eb04 b73c
00000010: 7edb c5bd 5cea 3abe 9879 4d3e c43c 90bd
00000020: aa81 f43c f34d 4c3c e490 62bc 0dfb 25bc
00000030: e3aa b7bd f45c 8bbe 6bbb 683e 0575 3a3e
00000040: 759f d6b9 add0 05be 91cc c83c 9d42 4abd
00000050: 2b75 d13d 3e4b 9c3d 6b07 e4bb 4660 bebe
00000060: 6d39 b3bd c991 ae3d f609 d53b 480d b93d
00000070: 083b 233d 6722 00bd 9294 2f3d ff97 653e
00000080: b9b2 683c 2ed4 093e 3d53 9d3e 4265 b43d
00000090: 5475 893d 2208 23bd c1fb c73e e365 863c
000000a0: 1a13 23be aaa4 1abd 3f69 6dbe d0b8 88bd
000000b0: 1248 163e 89ce a73d 9f9a 4abe 0e4f a4bd
000000c0: ac48 8f3d 88ba d13d 5f98 f63c a786 15be
000000d0: d399 233e 71aa b23d 8ae6 8839 6aaa 8fbe
000000e0: 18e7 a4bd 5c76 d23e 3956 153e a494 e03c
000000f0: fbc7 8cbd adb8 873c 426f 6abd 8c8d 4cbe
00000100: 0f24 4cbe 3eff b03d 617c b53c cf65 423d
00000110: 85af 9bba 608a 153e 53ff 5c3d aedf a1be
00000120: 5e02 f5bd 379d 17be 7b17 cabc 11a9 5bbe
00000130: d241 8fbd 6992 cfbd b81b 00be 1724 abbe
00000140: 85d6 54be 2bb1 cabd 428d 69bc 2211 49be
00000150: af6c 8ebd e0ed b63d 5943 e73d d810 393e
00000160: f92f c33d c0e4 8c3d 0faf b33d c623 6ebd
00000170: f1a3 2ebe d527 093e 937d c9bd 01c0 f83d
00000180: 8846 9c3e ea4a 72bd 42b8 a1bd f3dc 0bbe
00000190: b534 6bbd c5f8 543e ebae fd3d 488b 81be
000001a0: 8000 cd3d dea6 443e 1278 ec3c 5a28 8cbc
000001b0: 0b0e 003e f3af 81be 91cc cebd 2203 66bd
000001c0: 512b 1cbe 4319 d0bd 587d f33d 4097 50be
000001d0: 1c80 34bd 7a74 c83c 2dd9 1c3d 51f9 4bbd
000001e0: dbea fabd c5cb 32bd f4c4 c5bd d523 803e
000001f0: 5f3b 04bd dd77 073d c9a2 323e 015f c63d
00000200: b652 533d 830d 47bd e507 19be 1d9b 8fbe
00000210: efcf 0b3d d8fe 7ebe ae84 ad3d 7420 bdbe
00000220: 64f5 193e 785d c13c 6268 1bbd a70d bc3c
00000230: f9ce 82bd 56eb 463e 7ec2 4bbe b020 36be
00000240: 91d2 333e 4bb2 723d edb7 03bc ca66 52be
00000250: 3369 0abe aa18 9bbd 9d67 823e 0d03 19be
00000260: a3a4 5c3e a378 6dbe eb95 833b 7185 06bd
00000270: b3f2 c4bd 2685 d9bd f1ce d23d c4f7 2abc
00000280: 69b4 e4bb 5653 93be f452 903d d32a 60bd
00000290: 095c 143e 89cf de3e 0665 143e d6a6 3bbd
000002a0: e649 b53d a0a4 b13b 0fe8 22be b7c7 b1bd
000002b0: f875 cabe 7268 eabd 7e8d dabd 8eef 16bd
000002c0: 9474 8abd 5d25 a03e 40c8 cd3e 55e5 893d
000002d0: bb09 cd3c d281 b73d 7846 fb3c 25e8 f4bd
000002e0: c425 aabd 203c ed3d 2692 94bd e998 a03d
000002f0: 9431 b93d a8be 863e 56a4 a73d 7ec5 94be
00000300: 77b3 293e ca4d 34be 03ab 81bc d45c 063d
00000310: d3a8 983e a2cd 393d 81d1 b73d 0426 c03d
00000320: b979 12bd a1ea 7c3e 68d6 bc3e 0aac 3f3e
00000330: 507c c73d e0fc 1abe a2b3 adbd 62f5 663e
00000340: 0ebe 933e d94b 9a3e 92d5 5c3e 62e6 573d
00000350: 8c69 213e 70c8 2a3e 2513 853d d5e3 213e
00000360: 2219 8ebc 6cff 23bd e362 81be 10ea 97bb
00000370: 556b e5bd 8374 9abd ba31 5dbd f0ab cdbd
00000380: 3f2b 273b b3af 29be 4cb7 fb3d d981 273e
00000390: 0485 e33d 0235 53bd 0df3 603e 02a7 d7be
000003a0: 1213 4b3d d163 283e 3b64 223e e8b5 d93d
000003b0: f00f 2d3e 7571 8dbd 4ce8 4c3e b71f db3d
000003c0: c436 7cbe fdc1 863e a965 553e 1c31 893e
000003d0: c02e 91be a6f6 6bbe 82ff 8b3e 54ef 043d
000003e0: 6938 443e 33e2 e53b 06c0 08be ca32 60be
000003f0: 9392 2bbe 4740 80be b9ee 213e 98c0 803e
-0.0930249 0.34500661 0.22010759 0.022341212 -0.096610054 -0.18253464 0.20065916 -0.0704284
0.029846985 0.012469756 -0.01382849 -0.010130656 -0.08968141 -0.27219355 0.22727744 0.18208702
-0.00040936065 -0.13067885 0.024511607 -0.049379934 0.10227426 0.07631539 -0.006958892 -0.37182826
-0.087511875 0.085239 0.0065014316 0.09035736 0.03985122 -0.03128281 0.042866297 0.22421263
0.014202767 0.13459846 0.30727568 0.08808376 0.06711832 -0.039802678 0.3905926 0.016406005
-0.15925255 -0.037754692 -0.2318468 -0.06675875 0.1467593 0.0819369 -0.19785546 -0.08022891
0.06996283 0.10240656 0.030101953 -0.14602147 0.15976648 0.08723915 0.00026111706 -0.28059703
-0.0805189 0.41105926 0.14583673 0.027414627 -0.06874081 0.016567552 -0.05723501 -0.19975871
-0.1993563 0.086424336 0.022154035 0.047460373 -0.001187787 0.14603567 0.053954434 -0.31615967
-0.11963342 -0.14806066 -0.0246694 -0.21451212 -0.06994976 -0.101353474 -0.12510574 -0.33425972
-0.20784958 -0.09897073 -0.01425487 -0.19635442 -0.069543235 0.0893209 0.112921424 0.18072832
0.095306344 0.06879568 0.08773624 -0.058139585 -0.17054726 0.13394101 -0.098384045 0.12145997
0.3052256 -0.059153475 -0.078964725 -0.13658504 -0.057423312 0.20798023 0.123868786 -0.25301576
0.10009861 0.1920428 0.028865848 -0.017109085 0.12505357 -0.2532955 -0.10097612 -0.05615533
-0.15250899 -0.10161068 0.11889142 -0.20370197 -0.044067487 0.024469603 0.038293052 -0.049798314
-0.122518264 -0.04365136 -0.096567065 0.25027338 -0.032283183 0.033073295 0.1744491 0.09686089
0.05159255 -0.04859687 -0.14944418 -0.2804803 0.034133848 -0.24901903 0.08472572 -0.36938822
0.15035015 0.02360414 -0.037941344 0.022955729 -0.06387133 0.19425711 -0.19898412 -0.17785907
0.17560793 0.059252065 -0.008039457 -0.20547023 -0.13516693 -0.07573064 0.25469676 -0.1494257
0.21547179 -0.2319055 0.0040156743 -0.032842103 -0.09616604 -0.10621099 0.10293377 -0.0104350485
-0.0069795144 -0.28774518 0.07047072 -0.05472834 0.14488234 0.43517712 0.14491662 -0.045813404
0.08851986 0.005421236 -0.15908836 -0.08680671 -0.39543128 -0.114457026 -0.10671519 -0.03684955
-0.06760517 0.31278506 0.4019184 0.06733195 0.025029054 0.08960308 0.03067325 -0.119583406
-0.083079845 0.115837336 -0.07254438 0.07841665 0.090426594 0.26317334 0.081856415 -0.29056925
0.16572367 -0.17607799 -0.015828615 0.03280337 0.29816303 0.045362122 0.089755066 0.09382251
-0.035760615 0.24698879 0.3688233 0.18717971 0.097405076 -0.15135527 -0.08481528 0.22554544
0.28855938 0.30135992 0.21565846 0.052709945 0.15762919 0.16678023 0.06497792 0.15809567
-0.017345969 -0.04003851 -0.25270757 -0.0046360567 -0.112021126 -0.07541754 -0.0540025 -0.1004256
0.0025507954 -0.1657093 0.122908205 0.16358127 0.11109355 -0.051564224 0.21967717 -0.42119604
0.049578734 0.16444327 0.15858547 0.10630399 0.16900611 -0.06906406 0.20010489 0.106994085
-0.24630266 0.26319876 0.20839562 0.2679528 -0.2835598 -0.23043308 0.27343374 0.032454804
0.19162144 0.0070154904 -0.13354501 -0.21894374 -0.16755132 -0.2504904 0.15813722 0.25146937

linears.5.bias f4 [40]
00000000: 0e51 403c e0fe 36bc dd08 cfbc db48 f83b
00000010: e863 0c3c e433 853c 6b92 3b3d ccfa 51bc
00000020: 25c5 21bc 5b55 823c 8154 a83c 44e0 ec3b
00000030: e700 713a a6f7 6e3b a6b5 5f3b 95a8 c43b
00000040: c0de 06bc 7c86 0e3b 17cd fcba 20ab 6bbc
00000050: 1f73 6fbb 19e0 2a3c 4a29 ae3c eaf9 47bc
00000060: 5aad 183c 7d06 ae3c 3699 aebc cb16 47bc
00000070: 1162 443c a860 8dbb 21f8 4ebc 9d1b 223c
00000080: 2fd8 c9bc 84ff 69bc 5ab8 91bc 801e 553c
00000090: 37fa c63b c29a 853b 4728 4dbc 9f13 5f3c
0.011738075 -0.011169165 -0.025272781 0.0075770444 0.008568741 0.016260095 0.045793932 -0.012816142
-0.009873663 0.015909841 0.020548107 0.007228883 0.0009193555 0.0036463528 0.003413537 0.006001542
-0.008231819 0.002174764 -0.0019287196 -0.014384061 -0.0036537123 0.010429406 0.021259923 -0.01220558
0.009318674 0.021243328 -0.021313291 -0.01215143 0.0119862715 -0.004314501 -0.012632401 0.009894279
-0.024639217 -0.014282111 -0.017788101 0.01300776 0.0060723084 0.0040772865 -0.01252181 0.013615518

linears.6.weight f4 [3, 40]
00000000: cdca 2d3e 5773 cdbe 2657 26bd baba 50bf
00000010: 1bff 9abe 975c 2b3f 4696 283f fa34 093f
00000020: bf14 44bf 5d1d 573e c88c db3d 9200 05bf
00000030: a7c6 443e f15c 19be b9d5 2d3e a3e1 efbe
00000040: cf60 a03f 9639 e23b 4d6f 2fbe a90a 0fbf
00000050: 82ab d43e 2be5 e93b 587a ad3d 6338 823c
00000060: 7a48 473e f5c1 8fbd c94c 573e cf7f 83be
00000070: 52ef 16bf c7e0 193e 70e9 f33d 889f bfbe
00000080: 65f5 59bf f588 13bf 59d8 7a3d 9ecc f83e
00000090: af45 4cbe be0d 02bf 9e50 a3bd 8d9c 3abd
000000a0: 8c60 2e3e 0e9b 92be cdcc 743d 2b4b e73d
000000b0: 985f 8e3e 14ec 743e 75b2 9abd a12b 5e3d
000000c0: 3581 6a3d 8345 78bd 138e 2a3e 7940 d73e
000000d0: 1407 51be 6913 01be 928e a6bd 088c 2d3d
000000e0: 1ff6 47be 60ca 403e 5b52 983d b0d7 80be
000000f0: 245e bbbd 08d4 733e 6757 083e e221 8ebe
00000100: 4898 853e 0d1f bf3d f518 e93d 0e07 3bbe
00000110: 039e ab3e a9b0 a63d d802 edbd 9731 183e
00000120: 79c5 d8bd 3efd e3be 747b 82bd 9690 e33e
00000130: 14c2 7e3e 6302 d63e 088c 71be 90fb 553e
00000140: 0146 9a3c d90b 2a3d 2b01 2cbf 0568 e83d
00000150: 991d 03be 95a0 e13d b50d 2a3d f372 b0bd
00000160: ddf4 dbbd c373 553d 1216 903e f0f8 53be
00000170: f7fe 953e 9480 7d3e 8fa5 133e 2b47 8e3d
00000180: 342d 08bd 2083 32be 79cd afbc 1702 55bc
00000190: 6374 e83d 5c1b cbbd 851c 3f3e 9090 d1bc
000001a0: cb80 f8bd 1a58 e23e 2d59 fcbe dcf2 a3bc
000001b0: fc1e 393e b68d 49be 0125 6fbd ca18 cc3c
000001c0: 8193 0cbe 8b6e 14be 2a18 2dbd 8567 2d3d
000001d0: 0513 24be eac3 b5be d91c 9cbc 2fe0 0f3e
0.16971894 -0.4012706 -0.040610455 -0.8153492 -0.30272755 0.66938156 0.658543 0.5359646
-0.76594156 0.21007295 0.10720211 -0.51953995 0.19216405 -0.1497686 0.1697606 -0.46851835
1.2529544 0.0069038374 -0.17132302 -0.5587564 0.415371 0.0071379147 0.08470601 0.015896028
0.19461241 -0.07019416 0.21025385 -0.25683448 -0.58958924 0.15027152 0.11909759 -0.374264
-0.8514007 -0.57630855 0.06124148 0.4859361 -0.19948457 -0.5080222 -0.07974361 -0.045559455
0.17029017 -0.28633922 0.059765626 0.11293634 0.27807307 0.23918182 -0.07553569 0.054240827
0.057252128 -0.060613167 0.1665576 0.42041376 -0.20412856 -0.1260506 -0.08132662 0.042369872
-0.19527481 0.188272 0.07437583 -0.25164557 -0.09148815 0.23811352 0.13314591 -0.27760226
0.26092744 0.09332094 0.11381713 -0.1826441 0.3351899 0.08139164 -0.11572808 0.14862667
-0.1058454 -0.44529146 -0.06371203 0.44446248 0.24878722 0.41798696 -0.23588574 0.20896745
0.018832209 0.041515205 -0.6718928 0.11347965 -0.1280426 0.11016957 0.04151698 -0.08615675
-0.10740063 0.052112352 0.28141838 -0.20700431 0.29296085 0.2475608 0.14418624 0.06947168
-0.033246234 -0.17432833 -0.021460282 -0.013000987 0.11350324 -0.09917328 0.18663223 -0.025581628
-0.1213394 0.4420784 -0.49286786 -0.020013265 0.18078226 -0.19682965 -0.0583849 0.024914164
-0.13728143 -0.14495294 -0.042259373 0.042335052 -0.1602288 -0.35501033 -0.019056724 0.14050363

linears.6.bias f4 [3]
00000000: 09da 073f 8ebd 353c 8c84 cf3c
0.5306707 0.011092557 0.025331758

exp_avg f4 [40, 2]
00000000: 9700 cf3f 115d 43bf 80ac 81c0 48bc a53f
00000010: 6c24 4140 f85d 0bbe dd8b c33e d256 cc3d
00000020: 8dc3 4ac0 2288 ea3e 6495 2d40 a303 22bf
00000030: b15b 7040 8b2a 85be fbd8 1c40 697d 49bf
00000040: a547 06c0 de78 7f3d 1dbd 2640 8854 c3be
00000050: 42f2 d1bf e25f a03e ca7c 56c0 9264 ce3f
00000060: 4f15 cdbe bf1f 3fbc e6d9 aabf 5c91 42be
00000070: 55ad 1840 1650 3b3f e48d d0be cf9c 4fbf
00000080: c0ee 98c0 d34b 6e3f d738 f6bf 1ced 4ebf
00000090: d3be 0dbf be21 2dbe 7675 fb3f 6cdd ffbe
000000a0: 9661 6840 8e17 4a3f f55a 003e 6ea8 91bf
000000b0: bac5 133f 93f4 1540 d300 52bf 77ce 653f
000000c0: 9441 64bf 90c6 f73e af4c 683e 687c 9cbe
000000d0: 350c 0540 b995 f5be b113 6ac0 0240 0ebf
000000e0: e688 afc0 b5e4 fdbe 4139 563f 6e13 ca3f
000000f0: 69f7 c83f 273b 36be 0a83 edbc c2b1 6c3e
00000100: d0df bc3f 0d90 53bf 1c5e a43d fc4f 583f
00000110: 6cb2 3fbe 8e4d 79bf f6dd 3340 8890 b9be
00000120: de57 b6bf 53b6 053f e441 173f 7de4 0cbe
00000130: bfe5 a5bf b7b6 693f ba73 2540 d5a3 ee3e
1.6172055 -0.76313883 -4.052307 1.2948084 3.017848 -0.13610065 0.38192645 0.09977497
-3.1681855 0.45806986 2.712243 -0.632868 3.7555964 -0.2600902 2.4507434 -0.78706986
-2.0981228 0.062371127 2.6052926 -0.3815043 -1.6402056 0.31323153 -3.3513665 1.6124442
-0.4005532 -0.011665284 -1.3347747 -0.19000763 2.3855793 0.73169076 -0.40733254 -0.81098646
-4.7791443 0.9308445 -1.9236096 -0.8083055 -0.553693 -0.16907403 1.9645221 -0.4997362
3.6309562 0.7894219 0.12534697 -1.1379526 0.5772358 2.3430526 -0.8203251 0.89768165
-0.89162564 0.4839368 0.22685502 -0.30563664 2.07887 -0.47965792 -3.6574519 -0.5556642
-5.485461 -0.49588552 0.8368111 1.578718 1.5700504 -0.17796002 -0.028993148 0.23114684
1.4755802 -0.8264168 0.080257624 0.84497046 -0.18720406 -0.97383964 2.8104224 -0.3624308
-1.4245565 0.5223133 0.59084916 -0.13759036 -1.2960738 0.91294426 2.5851884 0.4660937

exp_avg_sq f4 [40, 2]
00000000: b359 9549 f497 1c46 4b2c df4a 28e1 f447
00000010: eab6 d74a 32f6 8447 4d43 974a 750b ac47
00000020: 2c14 ce4b 92d5 c148 16f4 c24a bdc2 3b48
00000030: f35e 6a4a 4322 7847 098d 1f4a 2ab6 5947
00000040: e495 424b 7166 7148 ffb1 4b4b 42d9 6c48
00000050: d147 8f4a ef56 5b47 a0e3 304b a559 9848
00000060: 0d79 534a a91f ba47 9b46 ae4a f111 4348
00000070: f0e4 234b b1ee 1d48 b31e 374b 0747 1c48
00000080: 205a d34b 8589 1249 4af0 b64b 0c57 0149
00000090: 7860 5b4b 6554 ac48 2da4 b34a a675 4648
000000a0: 63a3 ae4b e609 f648 6d19 3b4b ec07 ad48
000000b0: 1140 8e4b ba03 7748 ca35 9f4b 8b61 e848
000000c0: f8a0 474b e17e 2a48 4279 fe4a a75e f947
000000d0: b43e 234b 5306 0a48 d6ce 214a 62f7 8847
000000e0: d221 8f4b 4903 8848 067c 864a f88c 8a47
000000f0: 0bc3 084a 8645 d246 bfe2 094a 3c02 d446
00000100: 1cce 9649 a2ff 2b46 3f71 0e4b b99e c247
00000110: d702 824b ed8f 4c48 cfd0 184a 9fcc 2b47
00000120: 47ae 364a 7d93 2947 68c5 8a4a 0af9 9747
00000130: 1c3f 984a 093b ad47 7aae 3e4b 1e12 0548
1.2234784e+06 10021.988 7.3129335e+06 125378.31 7.068533e+06 68076.39 4.9565825e+06 88086.914
2.701116e+07 396972.56 6.388235e+06 192266.95 3.8399328e+06 63522.26 2.6140822e+06 55734.164
1.2752356e+07 247193.77 1.3349375e+07 242533.03 4.6950165e+06 56150.934 1.1592608e+07 312013.16
3.4647712e+06 95295.32 5.7106695e+06 199751.77 1.0740976e+07 161722.77 1.2000947e+07 160028.11
2.7702336e+07 600216.3 2.3978132e+07 529776.75 1.437708e+07 352931.16 5.8864865e+06 203222.6
2.2890182e+07 503887.2 1.2261741e+07 354367.38 1.8645026e+07 252942.9 2.0867988e+07 475916.34
1.3082872e+07 174587.52 8.338593e+06 127677.305 1.069842e+07 141337.3 2.6510615e+06 70126.766
1.8760612e+07 278554.28 4.406787e+06 70937.94 2.2407068e+06 26914.762 2.2591198e+06 27137.117
1.2353955e+06 11007.908 9.335103e+06 99645.445 1.7040814e+07 209471.7 2.5037318e+06 43980.62
2.9930418e+06 43411.49 4.547252e+06 77810.08 4.988814e+06 88694.07 1.2496506e+07 136264.47

exp_avg f4 [40]
00000000: 0ccd c6c0 862e 8641 4562 0dc1 88ce ecbe
00000010: 5f5e 27c1 617f 7ec1 09d0 8c40 9c7a 5ac1
00000020: 1569 8fc0 a1f6 f43f 558f e040 3950 5141
00000030: 1c75 0541 cf04 14bf ffc8 6ac1 0f0a 7c40
00000040: b46d ba40 9e77 c6c0 93a8 af40 4bb2 bdc0
00000050: 9b95 653f 3dfb 0141 30c7 2840 244e b841
00000060: 0d7f 1b41 3eaf 06c1 76bf 68c1 3ad9 00c1
00000070: 7237 d8c0 61dd 0242 14c7 8cc0 bbaf a4bf
00000080: 7934 b6c0 8882 ad3e d810 8cc1 42d9 54c1
00000090: fa9b 0240 8640 4bc1 6a72 73c0 2909 1c41
-6.21253 16.772717 -8.836492 -0.4625132 -10.46054 -15.906098 4.400395 -13.654934
-4.4815774 1.9137765 7.0174966 13.082086 8.341091 -0.5781984 -14.674071 3.938114
5.8258915 -6.2021017 5.489328 -5.9280143 0.89681405 8.123837 2.6371574 23.038155
9.718518 -8.417784 -14.546743 -8.053034 -6.756768 32.71619 -4.3993015 -1.2866129
-5.6939054 0.3388865 -17.508224 -13.303041 2.04077 -12.703253 -3.8038583 9.752236

exp_avg_sq f4 [40]
00000000: 9ee0 2e49 9c01 064b cdfa 634a 6057 604a
00000010: dad3 b44b 021a 0b4b e191 3b4a 1afc d849
00000020: e117 2f4b 2026 484b 480b 624a 32a3 514b
00000030: 4ba7 874a c14d 0e4b fe32 034b e7ed db4a
00000040: a2dc e34b 9164 db4b 66ef 8a4b e599 074b
00000050: 8ca7 d44b 1da6 884b 79ac 2d4b 0a09 c34b
00000060: 358f 094b 32ec 9d4a 5a8f e24a b3ca 5c4a
00000070: ef84 494b d01a 994a ed55 da49 047e a649
00000080: 952b 4449 2bc5 9b4a 3507 394b c930 5d4a
00000090: ec89 104a 4e81 6d4a 7a0c a74a 09ac f64a
716297.9 8.782236e+06 3.7352192e+06 3.675608e+06 2.3701428e+07 9.116162e+06 3.0731442e+06 1.7775392e+06
1.1474913e+07 1.311696e+07 3.703506e+06 1.3738802e+07 4.4450935e+06 9.326017e+06 8.59827e+06 7.2066435e+06
2.9866308e+07 2.8756258e+07 1.8210508e+07 8.886757e+06 2.7873048e+07 1.7910842e+07 1.1381881e+07 2.5563668e+07
9.015093e+06 5.174809e+06 7.423917e+06 3.6174528e+06 1.3206767e+07 5.016936e+06 1.7886056e+06 1.3639045e+06
803513.3 5.1042775e+06 1.2126005e+07 3.6239862e+06 2.368123e+06 3.8912835e+06 5.473853e+06 8.0829485e+06
