1DCFD_PINN/1D_CFD_Rand_Eta1.e-8_Zeta1.e-8_periodic_Train_PINN.pt-5000.pt (torch, 112999 bytes, 42 tensors)

linears.0.weight f4 [40, 2]
00000000: 19ab b0bd 06d8 273e 4aed 3b3e 745f ba3e
00000010: 1595 4dbe be57 5dbe 5741 003d dd85 e33d
00000020: c3ed 9e3d 89ae 2e3e 97c1 f63c dc72 8fbe
00000030: 3c9f ff3d 002e 1ebe b73c dd3d 577c 12bf
00000040: 4890 25be 0009 253e 3fb7 b0bd 61a7 443e
00000050: b7d8 4c3e b042 b03e 9a84 62be 4283 45bc
00000060: 9528 a4bc 4ed4 87bc bdbc 22be 2470 b7ba
00000070: 5ab7 27be 00ce 3ebe 6a91 063e 4b28 423d
00000080: 7c89 103d 2fc6 0b3e 9b08 d7bd 31eb 303e
00000090: 1b77 bbbe c63e c5bd 6804 f93e 14a8 19be
000000a0: b5ef 6b3a 86d2 0ebd 1b6c 6f3d 3d61 5b3c
000000b0: 7c65 043e b302 adbd fb85 b5ba da52 1b3e
000000c0: c4c6 ed3c cfcb a33d 679d 393e 0313 14be
000000d0: 8ec5 063f 8b6d 10bd e9c9 003e 9fb5 89bd
000000e0: 8fdd 253d 3623 36be f721 2abe c25c 783e
000000f0: d51a 1dbd d7b0 303d 3bf7 073e 3854 433c
00000100: 645e 29bd a0fb 54be 59bb 9a3c fe14 75be
00000110: 18f6 87be 0841 4fbe dd2b aabe 2576 c4be
00000120: 7247 c9be bf07 d0bd 7394 bf3e 3681 4abe
00000130: 818c d33d 10d6 1bbe 4e05 7e3e eb69 523e
-0.08626384 0.16391 0.18352237 0.3640095 -0.20076402 -0.21615502 0.031312313 0.11109517
0.07760193 0.17058767 0.030121608 -0.28017318 0.124815434 -0.15447235 0.10802596 -0.5722098
-0.1616832 0.16116714 -0.086287014 0.19204475 0.20004545 0.3442588 -0.22120896 -0.01205522
-0.020038882 -0.016580727 -0.1589231 -0.0013995213 -0.16378537 -0.1863327 0.13141409 0.047401708
0.035287365 0.1364982 -0.10499688 0.17277218 -0.36614308 -0.09631114 0.48636174 -0.15005523
0.00090002577 -0.03486874 0.058452707 0.013389883 0.12929338 -0.084477805 -0.0013849133 0.15168324
0.029025443 0.07997858 0.1812645 -0.14460377 0.52645195 -0.03526072 0.12577023 -0.067240946
0.040494498 -0.1778687 -0.16614519 0.24254134 -0.038355667 0.043137398 0.13277905 0.011921935
-0.041349784 -0.20799112 0.018888162 -0.23933789 -0.26554942 -0.20239651 -0.3323659 -0.38371387
-0.3931232 -0.101577275 0.37417945 -0.19775853 0.10329533 -0.15218377 0.24806711 0.20548217

linears.0.bias f4 [40]
00000000: f0c9 a23b 4a6a da39 8d94 d3ba 02f3 55bb
00000010: 9056 5fbb fff5 3a3b 4b32 68bb ae2b edba
00000020: 4e4a 01bb 8516 333c 3aee d9bb d58b f33b
00000030: aca5 29bb 91d0 1cbb 98e1 e33a 0793 2e3b
00000040: 0909 583b 70e4 2ebb 1636 e33b f441 1e3a
00000050: 3fdd 373b 84e1 633a d176 693b 9ba8 d7bb
00000060: 4c4b 62bb 20b9 2fbb b4b4 34bb 799d 953a
00000070: 091b 0abb 361a f53a 6e44 6fba 9f2a 00bb
00000080: 5bfb 4f3c 9579 04bb f10a 2dbb a9d3 aeb7
00000090: bd40 5d3b 593d 43bb 0cd5 65bb aa72 7fbb
0.0049679205 0.00041659392 -0.0016142294 -0.0032646065 -0.0034078695 0.0028527973 -0.0035430368 -0.0018094683
-0.0019728127 0.010930662 -0.0066507133 0.0074324408 -0.0025886102 -0.0023928026 0.0017385958 0.0026637928
0.003296437 -0.0026686452 0.006933938 0.00060370495 0.0028055457 0.0008692967 0.0035623799 -0.0065813786
-0.0034529744 -0.0026813224 -0.0027573528 0.0011414728 -0.0021073243 0.0018699828 -0.0009127323 -0.0019556654
0.012694205 -0.002021407 -0.0026404227 -2.0840978e-05 0.003376051 -0.0029791205 -0.0035069613 -0.0038978257

linears.1.weight f4 [40, 40]
00000000: e8ee 0c3e b305 3dbe 0e76 a53c 0daa 173e
00000010: ecce f7bd 49eb 6fbe efbe 20bd 40d3 c3bd
00000020: 8809 50bd 1f6a 3c3e 6b53 343e 95cf 2dbe
00000030: 4319 babd 29de 8fbc 7b1c 863b 8334 503b
00000040: dda0 063f 5361 413e 9135 dcbc dac2 603d
00000050: 45f0 5a3e ee35 0fbe 5049 98be 8047 bebd
00000060: 2b1a 953e d765 163e 7c34 c3bd e9b5 f93d
00000070: 0d93 1a3d 479f 863d ef69 d1bd 7ed5 5bbe
00000080: 147e 29bc 1361 d7bd e0a0 7e3c db8d 42bb
00000090: 4a66 bb3d 0996 74be 87ca df3d 0002 403e
000000a0: 6e8a 2d3e 55fa f93c a070 2dbe 1f81 2abe
000000b0: c9ab d13e f0e4 ed3d 6e7f 6c3d 8e04 f53d
000000c0: 0208 843d 2a0b 09be 0273 183e abd6 5fbe
000000d0: 7692 843b 5c32 c5bc f34f 0a3e dafd e93d
000000e0: aa08 2e3b f59c c83d 892a 98ba af70 69be
000000f0: 9508 3dbd 80ae c5bd d99d 64be 2e87 1a3c
00000100: 9193 943d 7829 4a3e 9896 033e f577 18bc
00000110: 93a8 34be 19a3 dbbd 7737 593d b34e 6f3c
00000120: 98b3 283e 4a22 e1bd 7715 cabc 1efe a2bb
00000130: 05cf ecbd e767 183d d663 45bd b359 833e
00000140: 7ec6 473e 67dd 523e c2a6 c7bd 1446 e2bd
00000150: 0366 853e a687 b9bd a540 d5bd 2045 3fbe
00000160: 92a2 373d 71fe d8bd 3d27 323e 242b 683e
00000170: e67f d8bb 78e7 2b3d 8749 67bd 4e7e 71be
00000180: f11f a4bd 16b6 35bc 350f d4bd 6ba9 3b3e
00000190: 08fb 86be 1ab6 fa3b 22f6 7dbc 3ef0 9a3e
000001a0: b1f3 cabd a7aa c2bd 0091 023e ac1a 28be
000001b0: 0500 30bd 26df 873b 3bb2 133e 49aa b73b
000001c0: 9cf6 7abe ed8c 1c3e 3e4c 24bd 9f8a dbbd
000001d0: 8533 1b3d c7b8 6abe 29a4 9b3e 9d66 0d3e
000001e0: 606d ffbd 54ab 313d 4ed0 043e 13da 9a3d
000001f0: ecfe 8c3e 748f 0f3d 235e 083d 9c22 d3bd
00000200: 4e1e c43d 8d72 ccbc 6ba6 1ebe c394 13be
00000210: fae4 49be 640a b03d 2cff a53d 0206 9cbe
00000220: 4488 7f3d 6a17 84bd 9190 5e3d 0691 46be
00000230: 618d c4bc 3b91 eebd 8972 a8be d2b5 98bd
00000240: c4f8 1f3c d8ff 34be 6bd5 50be ac57 2fbe
00000250: fb3c 953d 90ac b0bd 76f6 b13c c066 153e
00000260: 850c 133e fdbf 373e 569f b13d 1da4 e03d
00000270: 2d5c 57bd 3e2e 2a3e ed4d ac3a f1e7 b43e
00000280: 9035 3cbe 9bef 653d 44bf a8bd ce9c 8b3e
00000290: 9a85 55bc de1a 30bd f920 8b3e db1f 3f3e
000002a0: e31a 8dbe 2db7 933d 957f a5bc 23bb 9dbd
000002b0: efb0 ea3c 00d9 7e3d ba75 febd 05cd d93d
000002c0: 7b8c 4c3d 1ce3 c53c 8748 e23d 9523 b1bd
000002d0: bb65 a9bd ab9d 083d 7560 3abe e045 09be
000002e0: 4762 debd 865d 09bd 3480 b73c 2cad 843e
000002f0: 65c0 9dbd ab9f 13bd 8b34 97bd 2283 3abe
00000300: 9760 e9bd 5008 37be fd28 703e c18f 26bd
00000310: b45a a13b d2f7 2bbd 43dd 083e 3d46 d13d
00000320: b4ab 023e d098 583e 5640 3c3d 3052 04be
00000330: dc15 193e 281b 92bb 51da 153e 478d b6be
00000340: c7b9 553e 58d3 b93d 14ab 1e3e 0bfd 82bd
00000350: 71cb b8bc 77f8 33be 5309 0bbd 4568 ad3d
00000360: ff2c 1a3e 44f9 5b3e 5e95 273e b94d a43d
00000370: 424a 9abd a2e9 2d3d 68e0 12be 7db9 86bd
00000380: f9d4 1c3e 4fcc 183d 7dc6 e8bd 9a8a 3c3b
00000390: 022b 253e 3269 863d c270 f13d aa35 47be
000003a0: 1330 833d edff 22be fc61 e73d 3dcb 81bc
000003b0: f944 543d 67af 0fbc 20de 8abd 0cdb 04be
000003c0: 96db 963d f6a0 04be 8194 0ebd 71f3 293c
000003d0: b7e2 393d d03f e339 615d dd3c d22d 4a3d
000003e0: fa01 73be 5999 313e a07a 4d3e 0012 6d3d
000003f0: d3b3 b6bd 257a 583e 4314 c73d 0641 33bd
0.1376301 -0.18459205 0.020197894 0.14810963 -0.12100014 -0.23429598 -0.03924459 -0.09561777
-0.05079034 0.18399857 0.17609946 -0.16973718 -0.090868495 -0.017561989 0.0040927506 0.003176958
0.5258921 0.18884782 -0.026881011 0.054873325 0.21380718 -0.13985416 -0.29743433 -0.09290981
0.29121527 0.14687286 -0.09531495 0.121929 0.037737895 0.065733485 -0.10225283 -0.2146816
-0.010345001 -0.10516562 0.015541285 -0.0029686603 0.091503695 -0.23885359 0.10927301 0.18750763
0.16947338 0.030514875 -0.16937494 -0.16650818 0.40951374 0.11615932 0.057738714 0.11963759
0.0644684 -0.13383165 0.14887622 -0.21859233 0.00404578 -0.024071865 0.1350706 0.114253715
0.0026555457 0.09795562 -0.0011609356 -0.22796892 -0.046150763 -0.09652424 -0.22325839 0.009431643
0.072547086 0.19742382 0.12850416 -0.009305944 -0.17642431 -0.10724468 0.05303141 0.014606166
0.1647476 -0.10992868 -0.024668438 -0.004974141 -0.11562923 0.037208464 -0.048190914 0.25654373
0.19509313 0.20592271 -0.097486034 -0.110485226 0.2605439 -0.09059076 -0.104127206 -0.18678713
0.044832774 -0.10595406 0.1739778 0.22672707 -0.0066070436 0.041968793 -0.056466606 -0.23583338
-0.08013905 -0.011090776 -0.10354463 0.18326347 -0.26363397 0.0076511027 -0.015500577 0.30261415
-0.09909762 -0.095052056 0.12750626 -0.16416425 -0.04296877 0.0041464744 0.14423458 0.0056050164
-0.24508137 0.15288134 -0.040111773 -0.10719799 0.03789093 -0.2292205 0.30398682 0.13808675
-0.124720335 0.04337628 0.12970087 0.075611256 0.2753824 0.035048917 0.0332929 -0.103093356
0.09576093 -0.024956966 -0.15493171 -0.14412217 -0.19716254 0.08595732 0.08105311 -0.30473334
0.062385812 -0.064497784 0.054337088 -0.1939126 -0.023993196 -0.11648794 -0.32899883 -0.074565545
0.0097639 -0.17675722 -0.20393912 -0.17123288 0.07287022 -0.08626664 0.021723967 0.14589977
0.14360245 0.17944331 0.08672969 0.10968802 -0.05257814 0.16619202 0.0013145782 0.35333207
-0.18379807 0.05613671 -0.08239606 0.2726807 -0.013032341 -0.042994373 0.27173594 0.18664496
-0.27559575 0.072126724 -0.020202437 -0.07701709 0.028648822 0.062218666 -0.12424798 0.106348075
0.04993866 0.024156146 0.1104899 -0.08649365 -0.08271357 0.03335349 -0.18200858 -0.13405561
-0.10858589 -0.033536457 0.0224 0.2591337 -0.07702712 -0.036040943 -0.07383069 -0.18214086
-0.11395376 -0.17874265 0.23453136 -0.04066444 0.0049241427 -0.041984387 0.13365655 0.10218475
0.12760812 0.21152043 0.045959793 -0.12921977 0.14949745 -0.0044588037 0.14634062 -0.3565466
0.2087165 0.09073514 0.15494949 -0.0639592 -0.022557946 -0.1757525 -0.03394444 0.084671535
0.15056227 0.21481806 0.16365573 0.08022637 -0.07533695 0.042459138 -0.14343417 -0.06578348
0.15315618 0.03730422 -0.11365984 0.0028769136 0.16129687 0.06563033 0.11789085 -0.19454065
0.06405654 -0.1591794 0.11297986 -0.015843982 0.05182359 -0.0087698465 -0.06780648 -0.12974185
0.073661014 -0.12952027 -0.034809593 0.010372982 0.045382228 0.00043344358 0.027022066 0.049360104
-0.23731223 0.17343654 0.20066309 0.057878494 -0.089210175 0.21140344 0.097206615 -0.043763183

linears.1.bias f4 [40]
00000000: d6e8 4a3b 0dda 6cbb 403a af39 1f03 29bb
00000010: 0a9f 09bb 3cd2 2b3b eb72 8439 2a3e 4eb9
00000020: 6a1c 56bb 6bfd 5a3b 8cef e63b 1b57 643b
00000030: 3670 2fbb bc6d e43b 938f 79bb 3054 1c3b
00000040: 0de1 2fbb 1ec0 3ebb e009 a2ba 9b56 2e3a
00000050: e405 573b af5c 873b 54c4 893b 9e1c a93b
00000060: cb4c da3a 691a 263b f124 053b 8299 07bc
00000070: 0753 1b3b 1576 133b a2c8 7cbb a384 d2ba
00000080: 8d20 6b3b d548 3e3b 1121 5abb 74b9 50bc
00000090: fda4 f039 0453 483b 5803 4b3b 746f 033b
0.0030961535 -0.003614071 0.00033422 -0.0025789214 -0.0020999336 0.0026217839 0.00025262623 -0.00019668849
-0.0032670745 0.003341521 0.007047599 0.0034841958 -0.0026769764 0.006971089 -0.0038079962 0.002385389
-0.0026837022 -0.002910621 -0.0012362562 0.00066504785 0.0032809908 0.004130922 0.0042043123 0.005160882
0.0016654966 0.0025345332 0.0020316208 -0.008276345 0.0023700611 0.0022500802 -0.0038571735 -0.0016061257
0.0035877556 0.002903511 -0.003328387 -0.012739528 0.00045899293 0.003056706 0.0030977335 0.0020055445

linears.2.weight f4 [40, 40]
00000000: a2ef 583e 1e37 003e 29c4 eb3d 4b1c dabd
00000010: 604b 873e ab05 6b3e 2d32 29be 037c bc3c
00000020: 1f0a ee3d c6e9 9d3e 7ea8 063d 72ec 75bd
00000030: 0aca 7c3d 077e ebbd 1fad 883e afcc f13d
00000040: 67f6 8f3e 43c4 52be 1870 ab3e 7b9a 273e
00000050: 9d73 fc3d 57c3 4e3d a033 1b3e 3236 dbbb
00000060: e6b3 0ebe 5cbf 28be 2ccb 243e 5e70 143e
00000070: 7408 1f3d e7aa 1dbe 0260 aa3e d48b 653e
00000080: 8477 bdbd 9857 853d f6a0 8e3e 5623 f23d
00000090: 486b 31be 1000 a2bd 0b56 d13c 0559 e1be
000000a0: 4b0a 3d3e d8eb 30be 3c80 f0bc f435 12bd
000000b0: 4052 853e 83d5 afbd 4bc9 3f3e fafd 063c
000000c0: 9acf 0c3e ab77 ef3d 3552 833c 2694 003d
000000d0: 470a c3bc 685d 233d 1dc2 b1bc 21da cbbc
000000e0: e478 523e 026f 1d3e 8e6f 1c3d 9596 92bd
000000f0: af23 75bc cf6b 3f3e a9b2 123e 873a 9d3d
00000100: 5c6c 0fbe 6fe0 a83e c02b 3abb 90c5 33be
00000110: be86 883b f4f6 b63d 85e0 f03c b8e4 9abd
00000120: 9a3e 2abe c5fc 083e 6b84 b4bd dad8 70bc
00000130: 5361 9d3d ddd0 943d 892b 32be c1c0 89bd
00000140: 8d83 6fbd 9ec2 c0be 9bb0 47be 872d abbd
00000150: 04a7 073e b1d1 b23c 8562 febd 851d 483d
00000160: 1900 06bd e073 64be 889c 143d 684e 303c
00000170: d57d b0bc 1ab1 f5bd 010d 273e 52ff 23be
00000180: b076 1b3c 7485 0bbe c748 5bbe abff 6b3d
00000190: 73b3 65bd 1fb1 903c 0340 7bbd 36d7 25bd
000001a0: b4e5 29be 9aff 00be 6739 3b3e 43ad f53d
000001b0: 731b 203d 9c64 883c 7bc8 74be f43e 5dbe
000001c0: 1171 81bd 1777 1ebd 2b58 b6bb e4dd 4cbe
000001d0: 7b66 c4bd 0bbf 413e fb59 193e c1f9 8dbe
000001e0: d1fc d03d 14e4 eabd 1c48 ec3d 924c abbc
000001f0: aa80 3c3d b22a 4fbd 7208 98bd 2401 babc
00000200: 2be2 433e 8589 a03d 4250 6abe 06e3 7e3e
00000210: 0d69 293d 96c6 9a3c 9b4c 443d 0a57 6bbe
00000220: b4fb be3d c30b b3bd 297f 0fbd 2117 143d
00000230: 1f27 f4bd 493a adbd 6ce2 15be e9b4 f83c
00000240: db19 b73c 37a1 a23e a1a0 53bd 5639 e8bd
00000250: 8cdd 5bbe ea8d 223e fdd9 bf3c d2f8 043e
00000260: 3b91 0ebe aab1 34be e8ba 8f3d 62cf 713c
00000270: c7f4 8b3e d79d a93d 9526 803e e965 a7be
00000280: 7177 0c3d b56b 42be 0d64 f1bd 7821 88be
00000290: ed62 e43d 134e 3ebd bd32 a23c e0ff b53d
000002a0: 373e 16bd 5cb8 003e 437e 3b3e 894e 8abe
000002b0: 348d 133c 985b 92be 9595 b3bd 154a 90be
000002c0: 5ca4 f33d 1bd4 1abe 14f2 bcbd 2353 ea3d
000002d0: d59a 0abe 6a0e 8abe f5e5 7dbd 3254 fd3d
000002e0: fef7 d5bd c43d 46be d8c0 78be dd2c 61bc
000002f0: 3316 063e 584b 80bb 5689 93be ee85 22be
00000300: b24c ecbd a28c a93c 53b0 edbd 5c35 f3bd
00000310: 82ea c9bd cbc7 32be 4cf6 e1bd c1a8 36bd
00000320: c9ad 4d3d 5337 953e 3f2f 52be 28c1 89bd
00000330: cf34 9abc 4301 703d c662 37bd 8558 3c3d
00000340: 834b 033e dfbf b8bd 3e76 3cbd a178 1dbd
00000350: e84d 573d 0dc3 4abe 78af 50bd 8a61 3cbe
00000360: 2edf bebe a9df 98be f30e d3bd 22df d03e
00000370: e167 23be cc85 1b3d 2f94 8bbe 5862 e43d
00000380: 4886 ea3d 08f4 a53d d8b2 01bc 5207 03be
00000390: e69f 38be 44a7 493d a1a2 983e 6ce5 a83d
000003a0: bcd0 76bd b848 603e f3ab 683d fff2 8bbd
000003b0: 75f4 32bd 95d3 90bd 3b6a c33d 803d 83be
000003c0: 88af 843d ffcb 98bc bd95 8abd e917 7c3e
000003d0: 21d0 0a3e 53af 48be 7556 95bd df90 023e
000003e0: 50a8 6b3d 7757 973d 5a07 c4bc ec00 813e
000003f0: 6e64 4c3e 88bb 553e 51e8 3d3d 1567 d9bd
0.21185163 0.12521026 0.11512024 -0.10649928 0.26424694 0.22951381 -0.16523047 0.023008352
0.11623024 0.30842417 0.03287553 -0.060039945 0.061716117 -0.11498647 0.2669458 0.118066184
0.28117678 -0.2058268 0.33483958 0.16367523 0.12326739 0.05047926 0.15156412 -0.00668981
-0.13935813 -0.16479248 0.16093129 0.1449599 0.03882642 -0.15397225 0.33276373 0.22416621
-0.092513114 0.06510848 0.27857178 0.11823146 -0.17326081 -0.07910168 0.025553724 -0.4401323
0.18460958 -0.17277467 -0.029358022 -0.035695985 0.26039314 -0.08585646 0.18729131 0.008239264
0.13751069 0.11692747 0.01603041 0.031391285 -0.023808612 0.039884 -0.021699006 -0.024884285
0.20553929 0.15374377 0.038192324 -0.071576275 -0.014962121 0.1869347 0.14325966 0.07677179
-0.1400618 0.3298373 -0.0028407425 -0.17555833 0.004166453 0.08933821 0.029403934 -0.07563156
-0.16625443 0.13377674 -0.08814319 -0.014700139 0.07684579 0.072664 -0.1739942 -0.06726218
-0.058475066 -0.3764848 -0.19500963 -0.08358293 0.13247305 0.021828504 -0.12421135 0.048856277
-0.032714937 -0.22309828 0.036282092 0.010760881 -0.021544376 -0.1199667 0.16313554 -0.16015366
0.0094887465 -0.13625127 -0.21414481 0.05761687 -0.05607934 0.017662583 -0.061340343 -0.040488444
-0.16591531 -0.12597504 0.18283616 0.11995938 0.039088678 0.016649537 -0.23904602 -0.21606046
-0.06320394 -0.03868779 -0.0055647097 -0.2000652 -0.09589859 0.18920533 0.14975731 -0.2772961
0.10204471 -0.11469284 0.11537191 -0.020910535 0.04602114 -0.050577827 -0.07423486 -0.022705622
0.19129245 0.0783873 -0.22882178 0.2489129 0.04135995 0.018893521 0.04792462 -0.22982422
0.09325352 -0.08742478 -0.03503338 0.03615487 -0.11921524 -0.08458383 -0.14637154 0.030359702
0.022351196 0.31763622 -0.05166686 -0.11339061 -0.21471232 0.15874448 0.023419375 0.12985542
-0.13922589 -0.17645898 0.070180714 0.014758917 0.27335188 0.08282059 0.25029436 -0.3269494
0.034293596 -0.189864 -0.11786661 -0.26588035 0.11151681 -0.046461176 0.019799585 0.08886695
-0.036680426 0.12570328 0.18309884 -0.27013043 0.009005833 -0.28585505 -0.08768765 -0.2818152
0.118965834 -0.15119974 -0.0922586 0.11441638 -0.13535626 -0.26964122 -0.061986882 0.123695746
-0.104476914 -0.19359499 -0.24292314 -0.013743606 0.13094406 -0.0039152317 -0.28815717 -0.15871403
-0.11538066 0.020696942 -0.11605897 -0.11875412 -0.09859182 -0.17459027 -0.110333055 -0.04459453
0.050214563 0.29143772 -0.20525835 -0.06726295 -0.01882401 0.058594953 -0.044771932 0.045982856
0.12821774 -0.090209715 -0.046011202 -0.03844512 0.05256453 -0.19800968 -0.05094859 -0.18396583
-0.37279648 -0.2985814 -0.10305586 0.40795237 -0.15957595 0.037969396 -0.27261493 0.1115157
0.11451393 0.08103186 -0.007916175 -0.12795761 -0.18029746 0.049231783 0.29811576 0.08246884
-0.06025766 0.2190274 0.05680461 -0.06833457 -0.043690164 -0.07071606 0.09541746 -0.25632858
0.064787924 -0.01865196 -0.067668416 0.24618496 0.13555957 -0.19598131 -0.07291881 0.12750576
0.057533562 0.073897295 -0.023929287 0.25196016 0.19960186 0.20872319 0.046364132 -0.106153645

linears.2.bias f4 [40]
00000000: c20c 2abb 6170 beba 5787 a4ba 5693 1ebb
00000010: 35cb 7b3b 116a a83b 7aef 153b e5aa 75bb
00000020: 840b 393b 100d c23a d4db a53a 950e ae3b
00000030: d857 1c3b bbc7 143b 24af e6ba 4dbb d4b7
00000040: ad62 253b 2365 273b 95d6 993b 9937 1e3b
00000050: 5b32 123b cdd2 163b ace9 383b 4028 2a3b
00000060: df4e 47bb 673b 20bc 71d4 4cbb 35a9 1bbb
00000070: dd9a 1e3b dba4 2fbb 8017 2a3b c9bb ab3a
00000080: c972 8fba 92eb 903a be1b 14bb fc23 d9bb
00000090: e524 04bb 7845 863b 9537 7dbb cf58 0abb
-0.0025947546 -0.0014529341 -0.0012552541 -0.0024196706 0.0038420681 0.005139597 0.0022878335 -0.0037485894
0.0028235624 0.0014804918 0.0012654015 0.005311797 0.002385607 0.0022702056 -0.0017599803 -2.5359588e-05
0.0025235817 0.002554246 0.0046947696 0.0024142026 0.0022307846 0.002301383 0.0028215451 0.0025963932
-0.0030412 -0.009779788 -0.0031254555 -0.0023751978 0.0024201192 -0.0026801142 0.0025953948 0.0013102229
-0.0010944243 0.0011056534 -0.0022599543 -0.006626604 -0.0020163592 0.004097637 -0.0038637866 -0.0021110063

linears.3.weight f4 [40, 40]
00000000: e812 adbd f5c6 45be 8a9a da3d f38a ecbb
00000010: 4c1d fbbd 7245 48be a37b 233e c9e6 03be
00000020: 012c f03c a0c1 fc3d 171a 83be a62b 6c3d
00000030: 9ef9 4d3d bcd7 823e f37c 6bbe fff4 eabd
00000040: 675d 283e fef2 cc3d be37 e4bd 29ca f33d
00000050: 5e24 8fbc fef0 bcbd 4e98 8d3e a34c dc3d
00000060: a7f8 98bd c9d9 0f3e 3c7a b5be 1c9b 88be
00000070: 0dd6 003d 6205 40be c065 55be 9401 13bd
00000080: 3fe0 203d 9cef 4c3d 2618 44bd 9350 ba3d
00000090: 8829 4abe 9548 d13c 2e6e 093d c1b2 11be
000000a0: 64ea 013e 0278 d53c 761a 1dbd 717a 40bd
000000b0: edfe bebd ed5c 9c3e 3960 54bd 6d9e 88be
000000c0: 5f67 153d 6e19 5cbd cf60 db3d 48d5 70bc
000000d0: 0199 403d 4b34 0d3d a5da 30bd 094b 6d3e
000000e0: e45f 28bc 4641 5abe 0c2c 7c3e 35dd 933d
000000f0: bf63 aa3d db86 fdbc 6d60 9ebd e268 313e
00000100: 9d3e 7b3d 60c3 4dbe 98f8 b83d 7ef0 843d
00000110: e52c 433e c915 eb3d d00a ffbd dc58 253e
00000120: 209c d6bd 0ecd 533e 3ab4 8fbb 68c9 823e
00000130: c275 86be fe58 b5be 89d8 4c3e 3fdb 1e3e
00000140: 0589 98be 89a7 c53e 1f2c 723d 8059 2bbb
00000150: a8c3 1c3e 655d 2ebd 54ac 43bd b45d 2abc
00000160: be70 abbd 78fa 173e 8573 423d 01e6 cb3d
00000170: 7562 64bd 257a 433e 6ebf 64be 9e5c 713d
00000180: 9f55 0fbe 09c9 49be 7a6b 0e3e 6061 4cbd
00000190: 762e e63d f625 4bbd 609b 333d c10d ab3e
000001a0: 9c0a e13d 5c5e 75be 873a 63be e032 bfbd
000001b0: 01d7 523e 5d61 27be 04ac 133c 908d 43bd
000001c0: 5573 bcbb 664d 3f3d 24ed 523e fb0b 29be
000001d0: b804 403e a5c7 a63d 09d9 e7bd 5c3b 93bd
000001e0: e73c c9bc 235d b0be 3439 b2bd f406 edbd
000001f0: 4ffe f8bd e794 853e 44df 97be 264d aebd
00000200: 5abd 0abd 5d3e babd 3f27 0bbd 4180 0f3e
00000210: 5550 34bd d626 b1bd 49ce 623e 9327 0cbe
00000220: 58ad 1b3d 1bb6 4fbd f374 0e3d 3cf0 80bc
00000230: c637 0e3c ee8b fdbd 4e0c 143e 1e80 743e
00000240: 5573 29be fb3c 80be 2840 423d bb21 a8be
00000250: 8298 693e 758d ab3d a729 22bd 1582 23be
00000260: c8dd b3be d8f2 bfbe 5d64 00be 72e8 d93d
00000270: a921 073e cb90 3f3e 6677 23be 78d1 813e
00000280: 6448 0fbe 9953 0fbd f9f9 203e be04 093d
00000290: 5835 863d 8797 4a3e 5684 31be 4498 ae3b
000002a0: e18f 8d3e d9f2 4c3e 11ac 7fbd a803 f03b
000002b0: d577 8b3c fb92 453d 61f0 8bbd 46fd cfbc
000002c0: c8a6 053e d11b 703e 9118 87be 553f 783d
000002d0: de13 0abe e51e 0d3e bca5 83be 0ff7 5b3d
000002e0: 843c 76bd 2f4d 0b3d 9979 1cbe 5292 18be
000002f0: e6c4 4cbd b8b0 463e 6c46 843d 15cb 1a3e
00000300: c8af 6c3d 5389 dbbc 7c15 64bd 46c5 d83d
00000310: d0db 86be bc0d debd 1c14 1e3e 9e01 7cbe
00000320: f20f 3b3d be65 933c 9c1e 143e f5b9 593e
00000330: 0864 f9bd b7e5 e4bd 85ea 71bd ee68 84be
00000340: 5dc2 403e cfa8 a6bd d818 90bd 4dc3 113e
00000350: 4a9b fcbd a5f9 7d3e bfb4 9d3d 577d a8bd
00000360: 07ed 99bd 19bf 823d 06f3 e73b 7332 1cbe
00000370: b239 e9bd 0d0a 663e dcde 673e 099a 1a3d
00000380: f246 8cbe 065f a0bd 6137 35bd 4460 853d
00000390: c5c6 e4bc 570f 4abe 3e24 41be c315 d3ba
000003a0: 07c9 423e adec 8e3d 6dee 0e3e 917c 49be
000003b0: 23a6 fb3c 68d4 63be 211b 793d 27ef 7b3e
000003c0: 3a25 ea3d cdd2 08be 6b46 d1bc 483c 6f3e
000003d0: e64d ebbd 498a da3d 5ccd 793d 3982 933e
000003e0: c8df 5c3e 9a93 75be 9498 e13d 6d6e 91be
000003f0: 2701 8abe b8dc d93d 2c2f 633c d141 9b3e
-0.08450872 -0.19314177 0.10674007 -0.0072187125 -0.12261447 -0.19557741 0.15965132 -0.12881006
0.029317858 0.123416185 -0.25605842 0.057658814 0.05028688 0.25555217 -0.22996883 -0.114725105
0.1644188 0.100072846 -0.111434445 0.11903793 -0.017473396 -0.09225653 0.27655262 0.10756805
-0.07469302 0.14047922 -0.3544482 -0.2668084 0.031454135 -0.18752053 -0.20839596 -0.035890177
0.039276358 0.050033197 -0.047874592 0.090973996 -0.19742405 0.025547305 0.03355234 -0.14228345
0.12687069 0.0260582 -0.038355313 -0.04699177 -0.09325967 0.30539647 -0.051849578 -0.2668337
0.036475535 -0.05373519 0.10711824 -0.014699288 0.047020916 0.0344737 -0.043177266 0.23173155
-0.010276768 -0.21313962 0.24626178 0.07219926 0.08319806 -0.030948093 -0.077332355 0.17325166
0.06133901 -0.20094061 0.090317905 0.06491183 0.19060095 0.114787646 -0.12453234 0.16147178
-0.10478997 0.20683691 -0.0043854984 0.25544286 -0.26261717 -0.35419458 0.20004477 0.15513323
-0.29792038 0.38604382 0.05912411 -0.0026145875 0.15309012 -0.042569537 -0.047771767 -0.010398317
-0.08371113 0.1484164 0.04747345 0.09955979 -0.05575796 0.19089563 -0.2233865 0.058926217
-0.13997506 -0.19705595 0.13908187 -0.04989755 0.112393305 -0.04959675 0.04384935 0.3340893
0.10988352 -0.23961776 -0.22190295 -0.093358755 0.2058983 -0.16345735 0.00901318 -0.047742426
-0.0057510533 0.046704672 0.20598274 -0.16508476 0.187518 0.08143548 -0.11320693 -0.07189056
-0.024565173 -0.34446058 -0.08702317 -0.11573592 -0.121578805 0.26090166 -0.29662526 -0.08510809
-0.033871986 -0.09093926 -0.033972975 0.14013769 -0.044021923 -0.086499855 0.22149004 -0.13686971
0.03800711 -0.05071078 0.0347795 -0.015739553 0.00868029 -0.12380205 0.14457819 0.23876998
-0.16547902 -0.25046524 0.047424465 -0.32838234 0.22812083 0.0837659 -0.039590504 -0.15967591
-0.35130143 -0.37489963 -0.12538286 0.106400385 0.13196434 0.18707578 -0.15963516 0.25355124
-0.13992459 -0.034991834 0.15720357 0.033451788 0.06553143 0.19784366 -0.17335638 0.00532821
0.27648833 0.20014514 -0.062419955 0.0073246546 0.017024914 0.048235875 -0.06832958 -0.025389325
0.13051903 0.23448111 -0.2638593 0.060607273 -0.13484141 0.13781317 -0.25712383 0.05370241
-0.060116306 0.034009155 -0.15280761 -0.14899567 -0.049992464 0.1940335 0.064587444 0.15116532
0.057784826 -0.02679888 -0.05568455 0.10584502 -0.2633958 -0.108424634 0.15437359 -0.24609992
0.045669504 0.01799285 0.14464802 0.21262343 -0.121772826 -0.11176627 -0.059061546 -0.25861305
0.18824144 -0.081376664 -0.070359886 0.14234658 -0.123343065 0.24802263 0.0770049 -0.08227032
-0.075159125 0.06384105 0.007078531 -0.1525362 -0.11387958 0.22464772 0.22643608 0.037744556
-0.27397877 -0.07830624 -0.044242267 0.06512502 -0.027926812 -0.19732414 -0.18861482 -0.0016104508
0.19021998 0.06978736 0.1395814 -0.19676425 0.030718869 -0.22248995 0.060816888 0.24602948
0.11432882 -0.13361664 -0.025546273 0.23362839 -0.11489467 0.10670907 0.06098686 0.2881029
0.21569741 -0.23982087 0.1101543 -0.2840456 -0.26954004 0.10637802 0.013866227 0.3032365

linears.3.bias f4 [40]
00000000: e386 533b 84ef e9ba 7149 c63b 84da deba
00000010: 8f8e fc3a 8c4b 2c3a adc2 cfba d4cb 493b
00000020: 90f9 693b fe01 023b f896 f039 ed17 3abb
00000030: f891 0fbb 4017 f1ba d385 3039 1852 2f3b
00000040: 3ccb 14bb fc86 af38 5deb 38bb 1b1e 423b
00000050: b35d 1e3b f781 1fbb e60f c0bb a3d6 a8bb
00000060: f65a 69bc 338a eabb e011 4cba d472 fb3a
00000070: 9475 5abb b6b6 883b c3d3 eb39 cb8a c93a
00000080: edfd d53a cf33 48bb 8cbc 0d3b 9dfd 4b3b
00000090: 7a2a c5b9 0f5c 813b 858a b33a f56d 623b
0.0032276444 -0.001784787 0.0060512354 -0.0017002379 0.001926856 0.00065725367 -0.0015850865 0.0030791657
0.003570173 0.0019837613 0.00045888848 -0.0028395609 -0.0021907073 -0.001839377 0.00016834521 0.0026751813
-0.0022704145 8.369793e-05 -0.002821646 0.0029619995 0.0024164736 -0.002433894 -0.0058612702 -0.00515254
-0.014242878 -0.007157588 -0.0007784646 0.0019184002 -0.0033334242 0.0041721715 0.00044980468 0.0015376447
0.0016326286 -0.0030548458 0.0021627275 0.0031126507 -0.00037606416 0.003947742 0.0013697898 0.0034550403

linears.4.weight f4 [40, 40]
00000000: de94 b4bd 8fe5 89bd 3dba 853d 56df 32be
00000010: 6873 37be 41da 303e b8ce c7bd 63a7 84bc
00000020: 1568 473d 101c 273e 3c59 31be af55 1739
00000030: cb22 82bd 1ac5 403a a9dc 21be 2b77 273e
00000040: d6ee c53d f734 b83d 810d cfbd 105d 92bd
00000050: 773a e33d ce67 db3e 0905 b33e e038 f83d
00000060: 8986 3d3c f6b2 bbbd cdc8 01be 4b47 2d3e
00000070: b8b6 09bb c6f3 ca3d 3619 833c 44cf f43d
00000080: d774 19be db2d cf3c 4f70 893d 525f 373e
00000090: 2a59 c1be a78a b03b e31d ebbd 2024 5dbc
000000a0: ca74 a83d 6992 e2bd 21e1 873c 02f5 f83d
000000b0: bbc1 3c3e 4870 c43e b03d 3e3e 6b34 973e
000000c0: ff0a 613e ed6d 85be e813 1ebe ce0a adbd
000000d0: cada 44be 26cd 253d 1356 43bd 852f ab3c
000000e0: 0e40 21bc aadc b13d c540 3dbe c785 d93d
000000f0: ea62 c53c 806f a83d 9cd0 59be f1fe f2bd
00000100: b9a0 8dbc 3dc0 b4bc 18ca 263d 97ae 36bd
00000110: dd0d 0fbe 50ea 5f3e e951 b3bd 7d61 533e
00000120: 6dc8 b13c 7ffd bcbd 64ed 653d fc58 2c3e
00000130: 8b26 b83e 1890 c7bd e7d3 623e 0e5e b6be
00000140: 65e1 0f3d 062b 6e3e 3b03 343e 4169 e3bd
00000150: 770a 053e 7cf6 03bd 4740 59bd 0abb a43e
00000160: 7da0 2c3e d382 793e 5648 bfbc 5672 89bd
00000170: 88bc 68bd e0bf debd fccb 89bd f884 dcbd
00000180: 4433 18bc 32a1 04be f431 f23d abbf 423d
00000190: b5fa 78bd ff38 5dbd 79d4 d7bc 45b7 a0be
000001a0: a96d b03a 57ab a2bd c032 dbbd e9b8 2fbd
000001b0: 5aae 2fbe f956 643e 84a8 b03d 8519 babd
000001c0: 1e25 1ebe 038d b4bd 7e3a 64be 5b78 c23d
000001d0: 0acc e1bd 0949 e8bd 0ec3 8cbe 5366 e83d
000001e0: f64e c5bd d8e6 39be ed2d 3a3e dc49 93be
000001f0: d445 38bd 9273 e53d 8e0f 593e d2e6 6b3e
00000200: 48a4 22bd 87e6 fe3c 6b38 4abe 35d2 b23d
00000210: b4e1 273e 181b 3d3d dea5 7dbe 6e01 12bd
00000220: 0ee3 163e dac9 5d3d 8b04 583e 757b b1bd
00000230: 1d10 863e 8602 633d dbec c6bd 35ca 9bbe
00000240: 32dd f2bd 925f 4b3d 0304 74be 144f a8bd
00000250: 02bf 413c 76e0 e9bd ad66 9e3e b82b 223e
00000260: c90e 523d 4ad3 423e 6ef7 5ebd 81db b03d
00000270: dfd6 4ebe f512 35bd a678 383d 1d7a 84be
00000280: 3e27 b3be 2d68 5e3e fccc ce3d 11a5 aabd
00000290: 2f5d 24be e128 4e3d fabc 083e 56e4 ba3d
000002a0: 1f28 333d 65ca b3bd 40eb f6bd 2122 c0be
000002b0: 1ef5 d8bd cc01 973d 6320 8d3d e1e3 47bd
000002c0: 5cac 10be dc1c 3dbe 9e60 893b aff2 173e
000002d0: a25f 3a3e a468 fbbd 429b 6b3e 5985 dbbd
000002e0: 3573 7ebe 736e 06be 5fcc d9bc dd9a 6c3e
000002f0: 48bc cbbb e16c c13d 2076 513e dd36 c3bd
00000300: cb6d 52bd 0411 07be e5fd 683d 2ace 833d
00000310: 616c ce3d c911 003e c1f6 b3bd cd8d 133d
00000320: 8343 64be 6ede 26bc f652 a6bd b3ff 8f3d
00000330: fb06 1ebe 2c22 89be 96cf 6c3e 0f74 7cbd
00000340: 040a 273e d251 0abd 9b78 b7bd f31c f2bd
00000350: 1d9f 61be 6e50 85bd 268a 0c3e 3a7d ac3e
00000360: f273 1ebe 1f90 df3d 4797 803d 0b90 163e
00000370: 257a f7bd 82b3 3dbe f86d ff3c bb31 3a3d
00000380: 5e7e 383d 22cc db3c bf5a b9bd a52f 933d
00000390: e44a 0d3d 1fb7 883e 3fdf aa3d 6703 b8bd
000003a0: af18 793e 25ee 103e ec3f 1abc 915d 6f3c
000003b0: 9c8b 36be 023b 373d 9240 54bc c4f9 07be
000003c0: 7089 20be c8da 2d3e 0cd6 293e f9ec 373e
000003d0: f0e7 c7be 9865 b23d 8946 89bc 6338 37be
000003e0: 6a49 aebd 7519 a33d 6f80 263e c52e 663e
000003f0: f08f dabd a226 da3c 5634 bdbe a886 cbbe
-0.08817457 -0.06733238 0.06529663 -0.17468008 -0.17915118 0.17270757 -0.09756225 -0.016193097
0.048683245 0.16319299 -0.17319196 0.00014432402 -0.063542925 0.0007353589 -0.15806831 0.16354053
0.09664695 0.08994477 -0.101099975 -0.071466565 0.11095136 0.42852634 0.3496478 0.12120223
0.01156772 -0.091649935 -0.12674256 0.16921727 -0.002101345 0.09909777 0.016003232 0.11953595
-0.14985977 0.02529042 0.06710874 0.17907456 -0.3776334 0.0053876224 -0.1148031 -0.013497382
0.08225401 -0.11063082 0.016586842 0.121561065 0.18433277 0.38366914 0.1857822 0.2953218
0.21976851 -0.2606043 -0.15437281 -0.084493265 -0.19224086 0.040478848 -0.04768951 0.020896683
-0.009841932 0.086846665 -0.18481739 0.10621219 0.024095017 0.08224392 -0.21270984 -0.118650325
-0.017288553 -0.022064323 0.040720075 -0.044600096 -0.13970132 0.21866727 -0.087558575 0.20642658
0.021702016 -0.09228038 0.056134596 0.1683082 0.35966906 -0.097442806 0.22151147 -0.35618633
0.035127062 0.232586 0.17579357 -0.1110406 0.12992273 -0.032217488 -0.053039815 0.3217395
0.16858096 0.24366312 -0.023349922 -0.06711261 -0.056820422 -0.10876441 -0.0672836 -0.10767549
-0.009289566 -0.12952116 0.11825934 0.04754607 -0.060785968 -0.054009434 -0.026346432 -0.31389824
0.0013460416 -0.07942837 -0.10703039 -0.042900953 -0.17156354 0.22298802 0.08625892 -0.09086899
-0.15443847 -0.08815958 -0.22287938 0.09495612 -0.110252455 -0.11342055 -0.27492565 0.11347642
-0.09634201 -0.18154466 0.18181582 -0.28767288 -0.04498847 0.11203684 0.2119734 0.2303727
-0.039707452 0.031115783 -0.19748084 0.087315 0.16394693 0.046168417 -0.24770305 -0.035645895
0.14735052 0.05414758 0.21095483 -0.08666126 0.26184168 0.05542233 -0.09713145 -0.3042771
-0.11858596 0.04965169 -0.23829655 -0.08218208 0.011825325 -0.11419766 0.3093771 0.1583699
0.05128363 0.19025913 -0.054435186 0.08635617 -0.20199154 -0.044207532 0.045036934 -0.25874415
-0.34990877 0.21719427 0.100976914 -0.08332265 -0.16051172 0.050331954 0.13353339 0.09125583
0.043739434 -0.08778838 -0.12056589 -0.37526038 -0.105936274 0.073733896 0.06890943 -0.048801307
-0.1412825 -0.1846804 0.004192426 0.1483867 0.18200544 -0.12275818 0.23008445 -0.107187934
-0.24848635 -0.1312807 -0.02658671 0.2310595 -0.0062175132 0.09444595 0.20455217 -0.09531949
-0.051374238 -0.13190085 0.056882758 0.06435807 0.100792654 0.12506784 -0.08787299 0.036023904
-0.22291379 -0.010184867 -0.08121292 0.07031193 -0.1543235 -0.26783884 0.23126063 -0.06163412
0.16312414 -0.033769436 -0.089585505 -0.11821928 -0.22033353 -0.06509481 0.13724574 0.3368929
-0.15473917 0.10916161 0.06278854 0.14703386 -0.12083844 -0.18525508 0.031180367 0.045457583
0.04504239 0.026830737 -0.090505116 0.07186822 0.03449525 0.2670221 0.08343362 -0.08985024
0.24325822 0.14153345 -0.009414654 0.01460971 -0.17826694 0.04473401 -0.012954848 -0.13278872
-0.15677428 0.1697799 0.16585559 0.17961492 -0.39044142 0.08710784 -0.016757267 -0.17892604
-0.08510096 0.0796384 0.16259931 0.22478779 -0.10671985 0.02662975 -0.36953992 -0.39751172

linears.4.bias f4 [40]
00000000: d290 343a 03f1 ea3b ab69 123b e378 f43a
00000010: 0cf1 64bb c453 613b 4e67 eaba 2dcb deba
00000020: ef28 293a a65c f4ba de67 17bb 0ff9 373b
00000030: e4f2 28bb 5f00 f13a 3797 d03b 03b5 14bb
00000040: 9619 8dbb ef51 0abb ea89 b73a edc2 7a3b
00000050: 61ec 9bbb e61e 84bb fb32 38bb 2f5a a73b
00000060: e5dc 813b 3f3d 213a e990 dc38 1615 1a3b
00000070: 9db0 223b 3f84 013b ee61 eab9 040a bdb9
00000080: b332 4abb 2075 fdba 9abd bcba dacf 7bbb
00000090: 09ac f8ba f006 75ba 9471 033a a6a8 43bc
0.0006888035 0.007169844 0.0022340815 0.001865175 -0.0034933714 0.0034382204 -0.001788357 -0.0016997807
0.0006452938 -0.0018643334 -0.002310268 0.0028072034 -0.002577954 0.0018386951 0.0063656825 -0.00226909
-0.0043060286 -0.0021105965 0.0014002894 0.0038263157 -0.004758403 -0.0040320037 -0.0028106559 0.0051071863
0.0039631003 0.0006150789 0.00010517409 0.0023511103 0.0024824508 0.0019762663 -0.0004470492 -0.0003605635
-0.0030852973 -0.0019337274 -0.0014399767 -0.003842345 -0.0018972169 -0.0009347042 0.0005014178 -0.011942064

linears.5.weight f4 [40, 40]
00000000: c83a 02be 7b1f be3e 181a 7e3e 42fe c7bb
00000010: e4b0 4fbd d0ba 03be 037c 513e 948e bbbd
00000020: fb46 023c 75a6 f83c 1baa 4abb 0faa 103c
00000030: 2427 ebbd ef74 8abe fe5d 773e 0381 3d3e
00000040: b5bf c7bc 916b c1bd bb21 3d3d 279d 00bc
00000050: 395d c73d 5c7f 583d a39a 1fbd 46b5 b9be
00000060: 0ced 80bd 7729 c93d e286 28ba db7a a03d
00000070: de93 2c3d 4ea5 b2bc 5895 6b3d 6994 7f3e
00000080: fb57 753c fd0e 183e b56e b23e 559c 703d
00000090: 4e2a 9d3d 6730 87bc b241 ae3e 7732 acbc
000000a0: b307 03be 9818 79bd f0ec 81be ec4a 25bd
000000b0: c7b2 db3d b318 e33c e771 54be d948 74bd
000000c0: aa18 b73d b6df ad3d 67be 8b3c 381f 28be
000000d0: 7899 393e 8e13 bd3d 49d7 6cbc 9fce 90be
000000e0: b835 82bd 4d37 c03e 2e98 033e 96da 45bc
000000f0: 65dc 82bd cec7 1a3d 0393 febc feb1 54be
00000100: b5f4 5fbe ae10 983d ac89 f03c f3de 7d3d
00000110: ee6f 0cbb d2fe 0b3e 5bda 363d 4c1e afbe
00000120: 9183 f9bd 0adb 25be c37c 71bd 4ce3 44be
00000130: 1982 a8bd 4a8e 01be 2d0e 9dbd d447 9abe
00000140: 65c2 2ebe cb4e 14be 359d 60bd d24e 26be
00000150: 3ba5 00be 9ebc 343d b61f 2e3e 1cde 503e
00000160: 3570 063e 1167 8f3d 3d5e ab3d 8421 acbd
00000170: 7d17 03be 2a74 b93d 3eb7 b1bd 8ce5 023e
00000180: 09d4 c33e 9cbb a4bd ca71 eebd 6298 36be
00000190: 990b 81bd da92 7a3e 3946 3d3e 9b1a 8fbe
000001a0: aebd 443d d752 2e3e 124a 243d 30a6 bbbc
000001b0: f651 b63d 5965 8bbe ec78 23be 8eea 92bd
000001c0: e920 1abe e719 b9bd 13a8 713d 5266 15be
000001d0: 9ed2 8ebc 2e88 f43c be00 a13d 08c5 923c
000001e0: d654 2abe cee5 a7bb 0052 62bd 5366 5e3e
000001f0: 0fa0 bb3c 1155 b83d 34fe 273e 0007 943d
00000200: f14b c03c 0575 edbc e9cb 0ebe db47 84be
00000210: aff0 533b e922 6dbe f444 c43d b706 bcbe
00000220: 1091 cd3d 22d1 753d f74b 16bc c380 963d
00000230: d586 8cbd 59eb 263e 49c2 79be 9065 27be
00000240: bfa1 5c3e e2cc 963d 7ccc 88bc c359 5bbe
00000250: e6d0 02be ab3c 86bd b93a 903e 46b7 f7bd
00000260: 1f46 5d3e 0f2c 63be d8bb 783d 0851 a3bd
00000270: 2790 babd 47c4 b1bd 5145 2f3d 6604 85bd
00000280: 0e17 1dbd 5c66 87be 7372 c13d 518a a5bd
00000290: 334d 3d3e 0899 f93e 0cad 1d3e aecb 87bd
000002a0: adb3 8c3d a7d9 c43c 2865 16be f969 8cbd
000002b0: 04b7 d5be 9df5 f0bd f081 bcbd e2f2 07bd
000002c0: 580b aebd ba5f b33e 0907 d73e 8b96 d83d
000002d0: 1bff a03c de7d 8e3d 7eeb 8a3b 0cb6 e5bd
000002e0: abf5 80bd 596f 023e b830 9fbd 4c8b 843d
000002f0: ea35 b83d 950c 8b3e 7b43 b83d 0e17 88be
00000300: 0569 2a3e 2fe1 24be d2b4 b93c 753b 243c
00000310: 8850 9e3e e92a 923d 9589 253d 9758 6c3d
00000320: e252 9bbd 7bb5 8e3e c808 ce3e cd55 203e
00000330: 9432 1a3e 8c6f babd e4d7 b8bd 62c0 4e3e
00000340: a138 863e fc95 a43e 8ed7 673e a542 963d
00000350: 526c 053e 21ea 343e 0e2a 9d3d 4273 233e
00000360: cb78 65bd c3b0 9bbb 7050 66be 0c83 283d
00000370: 6b95 edbd 35ea d3bd 903e c0bd 86f6 b2bd
00000380: 8e03 133d 4b36 1bbe 9497 e83d 153f 1c3e
00000390: 0b4e ee3d a527 28bd 456e 7a3e 984c cabe
000003a0: c28c 473d 8b59 343e e456 523e f8a5 8b3d
000003b0: 9b6b 333e c288 4abd 9447 143e b454 7b3d
000003c0: d7e6 90be a240 963e 14bd 7a3e 0731 673e
000003d0: cc98 54be 55f3 17be 3bbd 5b3e 6657 573c
000003e0: 7c7a 153e 2b87 93bb 6727 0abe 27ce 46be
000003f0: 9c6d 4bbe 01d2 42be ddd4 1d3e 277d 733e
-0.12717736 0.37133393 0.24814641 -0.006103308 -0.050705805 -0.12864232 0.20457463 -0.09158054
0.007951493 0.03035281 -0.0030924145 0.008829608 -0.11482075 -0.27042338 0.24156949 0.18506245
-0.024383405 -0.09444345 0.046174746 -0.007849968 0.09734578 0.052855834 -0.038965832 -0.36271113
-0.06295213 0.09822362 -0.00064287905 0.07835933 0.042133205 -0.021807339 0.057515472 0.24958958
0.014974589 0.14849468 0.34850088 0.05874284 0.076740846 -0.016502572 0.34034497 -0.021020157
-0.12795906 -0.06081447 -0.2537608 -0.040354654 0.107274584 0.027721738 -0.20746575 -0.059639785
0.08940251 0.08489935 0.017058564 -0.16418159 0.1812495 0.092322454 -0.014455625 -0.2828264
-0.06357902 0.3754219 0.1285102 -0.012076041 -0.06389693 0.037788205 -0.03107596 -0.20771024
-0.21870692 0.074250564 0.029362522 0.0619802 -0.002142902 0.13671425 0.044641834 -0.34202802
-0.121832974 -0.16196838 -0.058956873 -0.19227332 -0.08227939 -0.12651935 -0.076687194 -0.30132926
-0.17066343 -0.14483182 -0.054837424 -0.16241005 -0.1256303 0.044125192 0.17004284 0.20397228
0.13128741 0.0700208 0.08367584 -0.0840483 -0.12801929 0.0905536 -0.08677529 0.12782878
0.38247707 -0.08043596 -0.11642797 -0.17831567 -0.0630104 0.24470082 0.18483819 -0.27949986
0.048032455 0.17023788 0.0401097 -0.022906393 0.089023516 -0.2722576 -0.15964097 -0.07173644
-0.15051617 -0.090381436 0.05899818 -0.14589813 -0.017434414 0.029850092 0.0786147 0.017916217
-0.16633925 -0.0051238304 -0.055253983 0.21718721 0.02290347 0.090006 0.16405565 0.07227898
0.023473712 -0.028986463 -0.13944973 -0.2583607 0.0032339504 -0.23157848 0.09583464 -0.36723873
0.10037434 0.060013898 -0.009173385 0.07348778 -0.06861655 0.16300716 -0.2439052 -0.16347337
0.21546076 0.07363297 -0.016699068 -0.2142096 -0.12775001 -0.0655454 0.28169802 -0.120955035
0.2160878 -0.22184776 0.060726017 -0.0797444 -0.09109526 -0.08680015 0.042790715 -0.064949796
-0.038352065 -0.26445282 0.094456576 -0.080830224 0.1848648 0.48749566 0.15398043 -0.06630646
0.06870208 0.024029566 -0.14687026 -0.0685615 -0.41741192 -0.11765597 -0.09204471 -0.033190615
-0.084982574 0.3503397 0.41997555 0.10575589 0.019652894 0.06957601 0.0042394986 -0.11216363
-0.062968574 0.12737788 -0.07772964 0.06471881 0.08994658 0.27158037 0.08997246 -0.2658009
0.16641624 -0.16101526 0.02266923 0.010023941 0.30920815 0.07137091 0.04041441 0.057701673
-0.07584168 0.27872834 0.40241075 0.1565773 0.15058357 -0.09103307 -0.09025553 0.20190576
0.2621508 0.3214568 0.22640821 0.0733693 0.13029602 0.17667438 0.07674037 0.15961936
-0.0560234 -0.0047512962 -0.22491622 0.0411406 -0.11600765 -0.10347406 -0.09386933 -0.08738427
0.035892062 -0.1515743 0.11357036 0.15258439 0.11635979 -0.041053433 0.24456127 -0.3951156
0.04871822 0.17612283 0.20540959 0.068187654 0.17521517 -0.04944683 0.1448043 0.061360076
-0.28301117 0.29346186 0.2448619 0.22577296 -0.20761412 -0.14838918 0.21458904 0.013143396
0.14597505 -0.0045021973 -0.13491593 -0.19414578 -0.19866031 -0.19025423 0.15413232 0.2377821

linears.5.bias f4 [40]
00000000: cc7e ccba 9006 f43a d2aa 28bb aee3 88ba
00000010: 34b2 f9ba 1c45 1dba 4ef0 b93b 414b 19bb
00000020: 1895 36bb eed8 373b 958a c73b 1cee 05bb
00000030: 00d4 193b 45b5 193b f0bc 1f3b a295 de3a
00000040: ce73 e63a 9a73 0bbb 6f48 31bb 0c29 973a
00000050: adf5 0c3b 2dc3 edba e023 d23b b78a ad3a
00000060: 764c f7ba 8425 783b 66f2 27bb b33e ed3a
00000070: d2c3 57ba 32f1 16bb b80c 363a 1f0b c9ba
00000080: d8b9 c3bb 00c0 4c3a e99f 1336 2cbf 9cba
00000090: ae2f 06bb 85a4 d5ba 0e38 9a3a 240a a4b9
-0.0015601753 0.0018617678 -0.0025736582 -0.001044383 -0.0019050301 -0.0005999373 0.0056743985 -0.0023390802
-0.0027859863 0.0028052884 0.0060895183 -0.0020436114 0.002347231 0.0023453992 0.002437409 0.001698185
0.001758212 -0.002127862 -0.002705123 0.0011532619 0.002150874 -0.0018139832 0.006412968 0.0013240193
-0.0018867392 0.0037864158 -0.0025626658 0.0018100351 -0.00082307786 -0.0023031947 0.0006944644 -0.0015338397
-0.005973082 0.00078105927 2.1997787e-06 -0.0011958829 -0.0020475197 -0.0016299641 0.0011765973 -0.00031288073

linears.6.weight f4 [3, 40]
00000000: 44fd 433c 362d 7ebe d8db 313d b3ee 6bbe
00000010: e0a1 08be 4f4f b63e 645c 3e3e b987 493e
00000020: 4797 f9be dc82 433e 738f c3bc d44e c3bc
00000030: 29a6 21be 6ea0 b5bd b3ef 0dbe 62fa bbbe
00000040: b5a7 053f 2873 743e 0fc2 8bbc 6108 c8be
00000050: 9283 46bc 6d79 e4bc be93 0e3d e5ae 7dbc
00000060: f761 0fbd 7fe1 06be 7210 273e 9aca f2bd
00000070: 47cd 8abe 97a0 423e a799 083e c7f3 9bbe
00000080: fee8 57be b724 99be f604 38be 01da e83d
00000090: cbbf 9bbb f8e9 debe f2d2 263d d56f fbbd
000000a0: e794 563e ae44 91be 0523 113d 572b d33d
000000b0: 813c a53e dbec 6b3e e43b 133b 0e17 8f3c
000000c0: 671a 8e3d 57e5 20bd 6660 3b3e 3653 d83e
000000d0: e1be 58be 98c5 03be 2c5f c0bd 34cd c03d
000000e0: 510c 67be a622 1f3e fd13 d53c 2e5d 92be
000000f0: e01b 1bbe 11ef 823e fc18 283e 580c 8abe
00000100: b9f8 963e aa0e 093e af73 063e 957d 32be
00000110: 6b7d bd3e b967 c03d a625 03be 631a 483e
00000120: 8f3c 35be db65 02bf 2d74 d1bd 5e1d fd3e
00000130: 8165 723e 9aaf d93e b8ad 82be 4650 703e
00000140: 1ba6 d539 6053 9d3d c8af 36bf 867f 9b3d
00000150: 6f09 b6bd 5ae5 ee3d 94c5 8b3d c343 fabd
00000160: 90f8 04be 2473 873d daa0 7e3e 869a 83be
00000170: 9861 a93e a89c 7d3e 2ffc 2a3e 0e25 ea3d
00000180: 01e6 90bc 8510 65be 7b02 9bbd cdac 8bbd
00000190: 2025 203e b47a b8bd f23f 813e 1223 24bb
000001a0: 7c96 adbd acf6 013f fb60 f8be cffb 183d
000001b0: 367a 4e3e 1e6f 48be 6d03 95bd a2d3 6b3d
000001c0: 8291 57be 704f 66be e736 99bd d01f d03d
000001d0: cbfa 41be 88c7 cbbe 7006 5fbd ddc1 243e
0.011962239 -0.24821934 0.04342255 -0.23040275 -0.13343 0.35607383 0.18589932 0.1968068
-0.48748228 0.19092888 -0.023872113 -0.0238413 -0.15786041 -0.0886849 -0.13860969 -0.36714464
0.52209026 0.23872054 -0.017060308 -0.39068893 -0.01211633 -0.027889932 0.034808867 -0.015483593
-0.035005536 -0.13171957 0.16314867 -0.118550494 -0.2710974 0.19006573 0.13339864 -0.30459425
-0.21084973 -0.29910824 -0.17970642 0.11369706 -0.004753088 -0.4353788 0.040728517 -0.1227719
0.20955239 -0.2837271 0.035433788 0.10311001 0.32272723 0.23039572 0.0022466118 0.017467048
0.069386296 -0.039281216 0.18298492 0.42250985 -0.21166565 -0.12868345 -0.093931526 0.094141394
-0.22563292 0.15540561 0.026010508 -0.28586715 -0.15147352 0.25573018 0.16415781 -0.26962543
0.29486635 0.133845 0.13130067 -0.17430718 0.3700975 0.093947835 -0.1280733 0.19541316
-0.17698883 -0.5093667 -0.10227237 0.49436468 0.23671533 0.42516786 -0.25523162 0.23468122
0.00040750284 0.07681918 -0.7136197 0.075926825 -0.08888518 0.11664839 0.068247944 -0.12219956
-0.12985444 0.06613758 0.24866048 -0.2570383 0.3308227 0.24766791 0.16697763 0.11432849
-0.0176878 -0.22369583 -0.075688325 -0.068200685 0.15639162 -0.09007779 0.252441 -0.0025045318
-0.08475968 0.50767016 -0.4851149 0.03734952 0.20163807 -0.19573638 -0.07276044 0.057574876
-0.210516 -0.2249124 -0.07481175 0.10162318 -0.18943326 -0.39800668 -0.0544495 0.16089578

linears.6.bias f4 [3]
00000000: 1461 883c 0a7a d2ba f11b 3e3b
0.016647853 -0.0016058099 0.0029008354

exp_avg f4 [40, 2]
00000000: 4cee 9040 6aa7 033f f661 77bf f6c4 28bf
00000010: 35d5 1dc0 30cd 12bf 69b5 77c0 f732 9e3e
00000020: ba90 dbc0 9f8a eb3e 2cac 8540 6926 473f
00000030: defb 72be 8812 0e3f 9a73 bd3f b040 2f3a
00000040: cb80 a6bf 262d 80bf 9ef3 883f b0bd 343e
00000050: 81f8 36c0 afa3 d1be be96 bfbf 01a3 7cbf
00000060: 23e6 b1c0 cd7d 7ebf 644a 8ec0 db7d 44bf
00000070: 9ae6 fc3f f64c a3be 2ba8 1040 4ee1 d23d
00000080: c75e 7c3d 2adc c93e 4341 0dc1 bb80 8bbf
00000090: b0fe 43c0 12ad 363f 7590 3640 6153 043f
000000a0: eac4 1741 4b23 473d 17fd 0840 0e5c ca3f
000000b0: 0ca0 8b40 a332 693e b6d5 0cbd 4788 16bf
000000c0: edaa dcbf 1816 53bf 1af0 44c0 e254 80bf
000000d0: 7e10 a0bf da41 b9bf 7732 0540 146b 233f
000000e0: 6f73 9fbf 52bd 05bf 394e 90bd b4b5 57bf
000000f0: e053 c0be f909 36be b851 3ebe 19e8 683f
00000100: e419 983f b118 2cbc 9cd8 a5c0 9b62 8fbf
00000110: 727b 90c0 b43d 1dbf 8850 463e b16a 6bbf
00000120: bec4 2840 89ce 603f 50a0 d1bf cd32 2bbf
00000130: ed89 f0bf 0bcc 16bf 8e32 72c0 85e7 d0be
4.529089 0.5142733 -0.9663385 -0.6592554 -2.4661381 -0.5734434 -3.8704474 0.30898258
-6.861417 0.46004197 4.177267 0.77792984 -0.23728892 0.55497026 1.4800904 0.00066853594
-1.3008054 -1.0013778 1.0699346 0.17650485 -2.8589175 -0.40945193 -1.4967878 -0.98686224
-5.559343 -0.99410707 -4.446581 -0.7675454 1.9757874 -0.31894654 2.2602642 0.1029688
0.061613824 0.39425784 -8.828433 -1.089866 -3.06242 0.71357834 2.852567 0.51689726
9.485575 0.048617642 2.1404474 1.5809343 4.363287 0.22773223 -0.034383498 -0.5880169
-1.7239662 -0.8245559 -3.0771546 -1.0025904 -1.2505033 -1.4473221 2.0812051 0.63835263
-1.2457103 -0.52242005 -0.0704617 -0.8426163 -0.37563992 -0.17777242 -0.1858586 0.9097915
1.1882901 -0.010503934 -5.1826916 -1.1201967 -4.515069 -0.61422276 0.19366658 -0.91959673
2.6370082 0.8781515 -1.6377048 -0.6687439 -1.8792092 -0.58905095 -3.7843356 -0.40801635

exp_avg_sq f4 [40, 2]
00000000: 8412 c64d 9bf7 0e4b 91c1 b24e e201 814b
00000010: 676f ed4e 64d4 bf4b eff6 7e4e 4dfc 9a4b
00000020: 8d1f 664f b21e 6e4c a4ef b04d 29af bb4a
00000030: 4569 8f4d 1b32 e54a a4d4 b04d 754e c34a
00000040: e0ed e04b 77dd 1d49 7e80 ea4b 425b 5049
00000050: 9f83 0b4d 92a8 664a 6ccb f64c ee40 354a
00000060: 824b d54e 8469 ec4b 1cad 2e4f feb6 184c
00000070: 4237 364d d1d5 114a 5301 b44e b131 cb4b
00000080: dfdf 4c4e 41de 984b dbb3 ea4f 5f48 f44c
00000090: c662 4f4d b7f1 7949 745b dd4c a456 2349
000000a0: 6f41 f84f c0c4 0c4d 4f0d 0b4f abc2 fb4b
000000b0: 95cb b94e ffba f24b cac9 744d e8e8 2549
000000c0: 1732 814e 5d45 b54b 5687 2c4f aeb0 5e4c
000000d0: 39ca 654f 5ab0 934c 9f5d ff4e 9284 e34b
000000e0: c17c e24d 1a1a f44a a31a 9f4e 8570 a74b
000000f0: ddec 6d4e db04 864b 5191 904e c732 964b
00000100: 31e0 8b4b 5098 1148 a0d8 094f dcb1 094c
00000110: 1ad1 0c4f c7ed 174c c9c4 984e be7e 4c4b
00000120: f830 cb4e 869a 064c aae3 564f 4323 874c
00000130: c7b1 f14c 0794 624a cbf1 7b4e 87fe 8d4b
4.1538778e+08 9.369499e+06 1.499515e+09 1.6909252e+07 1.9917505e+09 2.5143496e+07 1.069399e+09 2.0314266e+07
3.8608274e+09 6.2421704e+07 3.710619e+08 6.1500365e+06 3.007551e+08 7.5102855e+06 3.708407e+08 6.3998025e+06
2.948192e+07 646615.44 3.0736636e+07 853428.1 1.4629118e+08 3.7791085e+06 1.2939146e+08 2.9696595e+06
1.7892477e+09 3.0987016e+07 2.9305805e+09 4.003327e+07 1.9106717e+08 2.3893642e+06 1.5099928e+09 2.6633058e+07
8.593059e+08 2.0036738e+07 7.875311e+09 1.2807449e+08 2.174598e+08 1.02377144e+06 1.1605494e+08 669034.25
8.3300756e+09 1.4760653e+08 2.3329052e+09 3.2998742e+07 1.5585635e+09 3.1815166e+07 2.5667907e+08 679566.5
1.0837718e+09 2.3759546e+07 2.8945505e+09 5.837689e+07 3.8552353e+09 7.74315e+07 2.1421628e+09 2.982122e+07
4.7497834e+08 7.998733e+06 1.3346615e+09 2.1946634e+07 9.979308e+08 1.7566134e+07 1.2127213e+09 1.9686798e+07
1.8333794e+07 149089.25 2.3126753e+09 3.6095856e+07 2.362514e+09 3.9827228e+07 1.2815167e+09 1.340179e+07
1.704492e+09 3.528553e+07 3.6052444e+09 7.0851096e+07 1.26717496e+08 3.7122578e+06 1.05673184e+09 1.861147e+07

exp_avg f4 [40]
00000000: bdbf 68c1 4a55 11be fa3e 8d40 02fe 1241
00000010: 3cec d341 4ec9 12c1 b443 1641 0d7b a740
00000020: 511d 4641 056d fac0 00e8 9640 5ddc 1fc1
00000030: edfb a041 258f b541 c3f9 d7c0 c3a2 6bc1
00000040: 8ae3 10c1 9dd7 1542 130a 2841 817c 2fc1
00000050: c019 19c2 f8b4 fabf 94f0 a0c1 6873 0c41
00000060: dcfd 8041 9ded b841 3031 5241 9d69 fbc0
00000070: 9ec9 5d41 047d 18c0 9a25 1ebf 4ee1 e240
00000080: c980 9ec0 5526 ba41 d7d4 7d41 f045 efc0
00000090: 3ce9 44c1 2bbe 2e3f 66bd f940 bd6a cc41
-14.546811 -0.14192691 4.4139376 9.187014 26.490349 -9.174147 9.391529 5.233771
12.382157 -7.825808 4.7158203 -9.9913 20.12301 22.694895 -6.7492385 -14.727237
-9.055552 37.46056 10.50246 -10.967896 -38.275146 -1.9586477 -20.11747 8.778175
16.123955 23.116022 13.137009 -7.8566422 13.861723 -2.3826303 -0.61776125 7.090003
-4.953221 23.268717 15.864463 -7.4772873 -12.306942 0.68258923 7.80437 25.552118

exp_avg_sq f4 [40]
00000000: e4f8 054e 1050 a04e 0936 d54e f182 874e
00000010: 87d3 7a4f 95d0 804d fae1 c14d bafd e04d
00000020: 3d14 c04b d8d6 234c c20a 4f4d 78c7 aa4c
00000030: cb47 ca4e 20ef 214f 51c6 ea4c 5990 b64e
00000040: 266f 8f4e 20b6 e84f 0946 ad4b 656e 6f4b
00000050: 60c6 0250 ba8e ed4e 5aca d64e 1dc9 ac4c
00000060: dd94 954e 1d3c 3b4f 11ad 834f 4ee5 ce4e
00000070: 90c4 9e4d 32c1 a94e 6f8f 494e af28 944e
00000080: f05f 9e4b 937d f24e d3c3 1a4f c4e6 6c4e
00000090: ba3a 024f 4230 824f 17be ff4c cc9c 994e
5.6192026e+08 1.3448008e+09 1.7885441e+09 1.1367528e+09 4.2081667e+09 2.7014416e+08 4.0660154e+08 4.7184058e+08
2.5176186e+07 4.294947e+07 2.170993e+08 8.953747e+07 1.6968513e+09 2.716803e+09 1.23089544e+08 1.5314566e+09
1.203213e+09 7.8084997e+09 2.2711314e+07 1.5691365e+07 8.776155e+09 1.992777e+09 1.8017928e+09 9.0589416e+07
1.2547805e+09 3.141279e+09 4.418315e+09 1.7355671e+09 3.3296026e+08 1.4240054e+09 8.454051e+08 1.2428471e+09
2.0758496e+07 2.034158e+09 2.5965248e+09 9.936366e+08 2.1848868e+09 4.3684014e+09 1.34082744e+08 1.288595e+09
