1DCFD_PINN/1D_CFD_Rand_Eta1.e-8_Zeta1.e-8_trans_Train_PINN.pt-10000.pt (torch, 112935 bytes, 42 tensors)

linears.0.weight f4 [40, 2]
0	0xbe6204e5	-0.2207218
1	0xbeef024c	-0.4668144
2	0xbcae2118	-0.021256015
3	0xbdf53286	-0.11972527
4	0x3ea3c310	0.31984758
5	0x3f39acce	0.72529304
6	0x3b3d279f	0.0028862727
7	0xbec823ca	-0.39089805
8	0x3e425885	0.1897908
9	0xbc12b478	-0.00895416
10	0x3dc0f942	0.09422542
11	0xbe4c1b0a	-0.1993219
12	0x3dd3c54b	0.10340365
13	0x3de41bea	0.11138137
14	0x3d84785b	0.064682685
15	0x3d21718f	0.03941494
16	0x3eac8eb0	0.33702612
17	0xbef91929	-0.48652008
18	0xbc3e2c39	-0.011607223
19	0xbead2671	-0.3381839
20	0x3e9b1580	0.3028984
21	0x3c6f15ee	0.014592631
22	0x3d8793ac	0.06619963
23	0xbe2a8975	-0.16653998
24	0x3a8133d7	0.0009857368
25	0xbe003ada	-0.1252245
26	0xbdc52b75	-0.096274294
27	0x3e0133c2	0.126174
28	0x3ed726d7	0.4202182
29	0xbd777666	-0.060415648
30	0xbe84dd93	-0.25950298
31	0xbd91fdcc	-0.07128486
32	0xbdc106f4	-0.09425154
33	0x3e50c348	0.20386994
34	0x3d43cfa7	0.047805455
35	0x3e105876	0.14096245
36	0x3dc07b3b	0.09398504
37	0x3ec38f8d	0.38195458
38	0x3e9fed35	0.31235662
39	0x3ebab9e6	0.36469954
40	0xbaa9bcad	-0.0012949907
41	0x3e15b8f3	0.14621334
42	0x3ded26cc	0.115796655
43	0xbd5b672b	-0.053565186
44	0x3e873c56	0.2641322
45	0xbe2ccd35	-0.16875155
46	0xbd15520a	-0.03645519
47	0x3d8c9982	0.06865217
48	0xbe7c62b6	-0.2464703
49	0x3ec9243f	0.39285466
50	0xbef476e5	-0.4774696
51	0x3e339865	0.17538603
52	0xbe3cee3e	-0.18450257
53	0xbec03437	-0.37539837
54	0x3d4fe1d2	0.05075247
55	0x3dcba34a	0.09943254
56	0x3e47bcc2	0.19505599
57	0x3e3c5885	0.18393143
58	0xbcccabec	-0.024984322
59	0xbe781855	-0.24228032
60	0x3d9fe363	0.078070424
61	0xbef22951	-0.47297147
62	0xbc8f620b	-0.017502805
63	0x3e02859f	0.12746285
64	0x3e13304c	0.14373893
65	0xbd83275b	-0.06403991
66	0x3c4248b0	0.01185815
67	0xbe97e488	-0.29666543
68	0xbb66a000	-0.0035190582
69	0x3e8c8219	0.27443007
70	0xbee60aef	-0.44930217
71	0x3dd7ba1d	0.10533545
72	0x3ea0e281	0.3142281
73	0x3dd6f7c9	0.1049648
74	0xbe9fbc16	-0.31198186
75	0xbe6cb8ca	-0.23117366
76	0xbe12a95b	-0.14322416
77	0x3e9ded09	0.30844906
78	0x3b2f1261	0.0026713836
79	0xbdee3835	-0.116318144

linears.0.bias f4 [40]
0	0xbc82f642	-0.015986566
1	0x3baf540f	0.0053505967
2	0x3c61a905	0.013773208
3	0x3d1d6714	0.03842838
4	0xbc5be6fb	-0.013421769
5	0x3c8c7ec0	0.017150283
6	0xbcfd64bf	-0.030931829
7	0xbcd71aed	-0.026257956
8	0x3d476ea4	0.0486895
9	0x3d2d4fa4	0.04231228
10	0xbcc56085	-0.024093876
11	0xbc9fcc6d	-0.019506657
12	0xbc2d1eaf	-0.010566398
13	0xbcd2121e	-0.025643405
14	0xbd16669e	-0.036718957
15	0x3d19d594	0.0375572
16	0x3c882540	0.016619325
17	0xbb9639cf	-0.004584528
18	0xbd553746	-0.052054666
19	0xbcd6d1c0	-0.026223063
20	0xbc7ec8ea	-0.015550831
21	0xbcc6f5a8	-0.02428706
22	0xbd375342	-0.044757135
23	0x3d179da0	0.037015557
24	0xbc9ede01	-0.01939297
25	0x3d02e791	0.03195912
26	0x3d2148cc	0.039376065
27	0x3c4abb2f	0.01237373
28	0xbc229f74	-0.009925712
29	0x3ca10de3	0.019659942
30	0xbca3ac48	-0.019979611
31	0xbd01dcfa	-0.03170488
32	0x3c3d0529	0.011536875
33	0x3cb42c41	0.021993758
34	0xbd1a864a	-0.037725724
35	0x3bc42888	0.005986277
36	0x3ce01b3f	0.027356742
37	0x3d85a973	0.065264605
38	0xbc4855ef	-0.012227519
39	0xbc818e3f	-0.015814899

linears.1.weight f4 [40, 40]
0	0x3d6b01c1	0.05737472
1	0xbd417554	-0.047231033
2	0xbc206d5c	-0.009791698
3	0xbe272114	-0.16321212
4	0x3dc83774	0.09776202
5	0x3df5e137	0.12005847
6	0xbec49f0e	-0.384026
7	0x3ebf703d	0.3739032
8	0x3dab24ae	0.083566055
9	0x3b627d40	0.0034559518
10	0x3d7324a5	0.05936112
11	0xbe03c9ff	-0.12870024
12	0x3dce490e	0.10072528
13	0x3df4abf3	0.11946859
14	0xbd7ea967	-0.062173273
15	0x3dc06628	0.09394485
16	0x3ee76524	0.45194352
17	0x3dc4cd8b	0.09609517
18	0x3e90f6e6	0.2831337
19	0xbe040eac	-0.12896222
20	0xbd132d76	-0.035932027
21	0x3debd295	0.11514775
22	0x3d03a746	0.032141946
23	0xbe9031b4	-0.2816292
24	0x3e099d3e	0.1343889
25	0x3be3ed37	0.0069557684
26	0xbe9f697f	-0.31135175
27	0xbdd5e63e	-0.10444306
28	0xbe254633	-0.1614006
29	0x3d15e330	0.036593616
30	0xbe0351b5	-0.12824138
31	0xbda636e3	-0.081159376
32	0xbeb8dda8	-0.3610661
33	0xbee9bb60	-0.45650768
34	0x3e0270e9	0.12738384
35	0x3e2e5e28	0.17028105
36	0x3e0238f8	0.12717044
37	0xbebbe973	-0.36701545
38	0x3e9aa4e8	0.30203938
39	0xbe5bc765	-0.21462782
40	0xbe34c2f6	-0.17652497
41	0x3de58a6b	0.11208042
42	0xbd954075	-0.07287685
43	0x3dfa21ea	0.122135
44	0xbe119386	-0.14216432
45	0xbdaa9b4b	-0.08330401
46	0xbc14faf6	-0.009093037
47	0x3d541b64	0.051783934
48	0xbe2f32c5	-0.17109211
49	0x3e2bab8a	0.16764656
50	0x3d5a1bab	0.053249042
51	0xbe3e6cc2	-0.18596175
52	0xbe469d42	-0.19395927
53	0x3d6643dd	0.056217063
54	0xbdf00318	-0.1171934
55	0xbe88a865	-0.26690975
56	0xbd9317b1	-0.07182253
57	0xbdb33e2a	-0.08752091
58	0xbd1ba73e	-0.03800129
59	0x3e482e33	0.19548874
60	0x3e82b17d	0.25526038
61	0x3dfeaf2e	0.124357566
62	0x3e7ae67e	0.24501988
63	0xba0baf4e	-0.00053285516
64	0xbc465ce1	-0.012107105
65	0x3ea55829	0.32293823
66	0x3e4afe1c	0.19823498
67	0x3e9ea435	0.30984655
68	0x3d192ce4	0.037396327
69	0xbe51fa50	-0.20505643
70	0xbe555d65	-0.20836408
71	0xbda10df3	-0.07863989
72	0xbe591e84	-0.21203047
73	0x3ec90b4e	0.39266437
74	0xbdef3a5e	-0.116810545
75	0x3def6ea3	0.11691024
76	0x3ea9d9b5	0.3317391
77	0x3eaf7b0e	0.3427357
78	0xbe99b928	-0.30024076
79	0xbd0d27a7	-0.034461644
80	0xbd9b3569	-0.075785466
81	0x3d30c8f8	0.04316041
82	0x3e0b0f5a	0.13580075
83	0xbe0e45f6	-0.13893875
84	0xbce768bf	-0.028248189
85	0xbd9fb641	-0.07798434
86	0x3d3ba23c	0.045809016
87	0x3da81760	0.082075834
88	0x3db6e4f3	0.08930387
89	0x3ea58626	0.3232891
90	0x3cbddd63	0.023176854
91	0xbd5a40ad	-0.053284336
92	0x3d959bf7	0.073051386
93	0xbd943ecb	-0.07238539
94	0xbd9f8b90	-0.07790291
95	0xbe50816b	-0.20361869
96	0xbc5639cf	-0.013075306
97	0x3cc34ab5	0.023839334
98	0xbd13e403	-0.03610612
99	0xbe8d7a73	-0.27632484
100	0xbe26ab82	-0.16276363
101	0xbe79b2d1	-0.2438462
102	0xbe86d6f3	-0.26335868
103	0xbe9e4688	-0.30913186
104	0xbe1b0db7	-0.1514195
105	0x3d5c1084	0.053726688
106	0xbde7b9b9	-0.11314721
107	0x3e400b0b	0.18754213
108	0x3e30e361	0.17274238
109	0x3e7bed52	0.2460225
110	0x3df1185d	0.11772225
111	0x3dd16aad	0.10225425
112	0x3e665236	0.22492298
113	0xbe090ef8	-0.13384616
114	0x3d114ffd	0.035476673
115	0xbb817e49	-0.003951822
116	0xbd8080dd	-0.06274579
117	0xbdc31616	-0.09525697
118	0x3a20cf97	0.0006134449
119	0xbe0bb093	-0.13641576
120	0xbe866870	-0.26251554
121	0x3c757afd	0.014982936
122	0xbc8a58ef	-0.01688811
123	0xbdb5fdd5	-0.08886305
124	0x3ba38833	0.0049906014
125	0x3c322223	0.010872397
126	0xbe1d7252	-0.15375641
127	0xbb48494a	-0.0030561262
128	0x3d226990	0.039651453
129	0xbeae9561	-0.34098342
130	0xbe7f77b4	-0.24948007
131	0x3c0ec7b2	0.008714603
132	0x3dd88659	0.105725
133	0xbba5c1f0	-0.0050585195
134	0x3dbcfb9d	0.09227679
135	0x3c544ac1	0.012957276
136	0x3df6cd30	0.12050855
137	0x3d30c976	0.043160878
138	0x3ce405a9	0.02783473
139	0xbe21190d	-0.15732212
140	0xbe102527	-0.14076672
141	0xbc78f97b	-0.0151961995
142	0x3d97e7f2	0.07417287
143	0x3d3e029e	0.046389215
144	0xbe99c89c	-0.30035865
145	0x3d9e71f3	0.07736578
146	0x3dc4a741	0.09602214
147	0x3e735bd1	0.23765494
148	0x3ddd0046	0.10791068
149	0x3d69e416	0.057102285
150	0xbea8e2e4	-0.32985604
151	0xbd56ee49	-0.05247334
152	0xbe00cbc0	-0.12577724
153	0x3d8f0d7b	0.06984993
154	0x3dc51c0b	0.096244894
155	0x3ccff1b2	0.025383804
156	0xbe8ec0ea	-0.27881557
157	0xbe441b58	-0.19151056
158	0x3e68e926	0.22745189
159	0x3df3357e	0.11875437
160	0x3db8b7fe	0.09019469
161	0xbe046905	-0.12930687
162	0xbd8e35f6	-0.06943886
163	0xbe629b2e	-0.22129509
164	0x3c0b41ab	0.008499543
165	0x3c03e27f	0.008049606
166	0x3d0862f6	0.0332975
167	0x3db3e06a	0.08783038
168	0x3e3ae559	0.18251552
169	0xbc8c4b98	-0.01712589
170	0xbe8c5b5e	-0.27413458
171	0xbcbc9662	-0.023020927
172	0xbd8106be	-0.06300114
173	0x3c040bdf	0.008059471
174	0x3ca698ff	0.020336626
175	0x3cc25bf6	0.023725491
176	0x3bc560ff	0.0060235257
177	0x3e50874a	0.20364109
178	0x3cadb8b8	0.021206245
179	0xbd29105f	-0.04127538
180	0xbd123588	-0.035695583
181	0x3e5e4db9	0.21709336
182	0xbe950719	-0.29106978
183	0x3e4afc23	0.19822745
184	0xbcbb6b7f	-0.022878407
185	0xbe2b4186	-0.16724214
186	0x3ede6870	0.43439054
187	0xbdde0cd6	-0.10842292
188	0x3e0345e6	0.12819633
189	0x3e61c6c4	0.2204848
190	0xbe3fe2d1	-0.18738867
191	0x3c2cac05	0.0105390595
192	0x3c8ffd78	0.017576918
193	0x3e98c9fb	0.298416
194	0xbbb7eb8d	-0.0056127966
195	0xbddfbcfb	-0.10924717
196	0x3e1dc10b	0.15405671
197	0xbd902f38	-0.07040256
198	0x3b634443	0.0034678138
199	0x3e91211a	0.28345567
200	0xbd6ffca0	-0.05859053
201	0x3ebb3266	0.36561888
202	0x3cd420f1	0.025894614
203	0xbd81309d	-0.063081004
204	0x3e6a1535	0.22859652
205	0xbd95bc92	-0.073113576
206	0x3e05e96e	0.13077328
207	0x3e062cbc	0.13103002
208	0x3e25965e	0.16170642
209	0xbd96e0f9	-0.07367129
210	0xbe2cdda5	-0.16881426
211	0x3dac5214	0.08414093
212	0xbd8b818d	-0.06811819
213	0xbd9c3f85	-0.07629303
214	0x3c831821	0.016002716
215	0xbe2ea05a	-0.17053357
216	0xbe0fb384	-0.14033324
217	0x3e1a3f2e	0.15063164
218	0x3e31ed0f	0.17375587
219	0x3dd8002b	0.10546907
220	0xbd830057	-0.06396549
221	0xbde2ff38	-0.11083835
222	0xbbac22b6	-0.0052531613
223	0xbdccfb05	-0.10008816
224	0xbdf58af9	-0.119893976
225	0xbceda694	-0.029010095
226	0x3e0b3264	0.13593441
227	0xbe23b97b	-0.15988724
228	0xbd49fb32	-0.049311824
229	0x3d229607	0.03969386
230	0x3cf2d66b	0.029643258
231	0xbd9cbbdb	-0.07653018
232	0x3e955872	0.2916904
233	0xbddddb59	-0.10832853
234	0xbdf896be	-0.12138127
235	0xbdef5b97	-0.11687391
236	0xbdd3fe94	-0.10351291
237	0x3dfd356a	0.123637035
238	0x3d5deb8b	0.05417971
239	0x3d4e328d	0.050341178
240	0x3d9863d1	0.074409135
241	0xbeface17	-0.4898536
242	0x3cd705db	0.02624791
243	0x3d9abe40	0.075558186
244	0xbdb1c694	-0.08680454
245	0x3e9a3298	0.30116725
246	0x3d91b73b	0.071150266
247	0xbe0d2df3	-0.1378706
248	0xbe114022	-0.14184621
249	0x3e6feea1	0.23430873
250	0x3e5b43f5	0.21412642
251	0xbe8fcb0e	-0.28084606
252	0xbd7908b5	-0.06079932
253	0x3e69bbb4	0.2282551
254	0x3dded10f	0.108797185
255	0x3e572e1a	0.2101368

linears.1.bias f4 [40]
0	0xbd008a86	-0.031382106
1	0xbc238098	-0.00997939
2	0x3c943314	0.018090762
3	0x3c2ee2af	0.010674163
4	0x3c311f1e	0.010810642
5	0x3c08f976	0.008360257
6	0x3ba91122	0.005159513
7	0xbce06468	-0.027391627
8	0x3c4f8b68	0.012667514
9	0x3cf753a2	0.030191246
10	0xbcdfbe45	-0.027312407
11	0x3ba1b022	0.0049343267
12	0xbc53b89c	-0.012922432
13	0x3c9f0627	0.019412113
14	0x3d035b83	0.032069694
15	0x3ba13914	0.0049201343
16	0x3b41dda6	0.0029581576
17	0xbc717dcf	-0.014739468
18	0x3d18b78b	0.037284415
19	0x3c7b3eed	0.015334827
20	0x3cce3a5b	0.02517431
21	0xbce3c7cc	-0.027805232
22	0x3b959a32	0.0045655007
23	0xbcf60693	-0.030032432
24	0x3a95c6b5	0.0011427017
25	0x3d087d14	0.03332241
26	0xbcc106ea	-0.023562867
27	0xbc9dec07	-0.019277586
28	0xbcd553bc	-0.026040904
29	0x3d035c75	0.032070596
30	0xbce25f77	-0.027633412
31	0xbc76cac7	-0.015062994
32	0x3c7ee035	0.015556385
33	0x3ca442f1	0.020051451
34	0x3cb51afb	0.022107592
35	0xbced3758	-0.028957054
36	0x3bf77c9e	0.0075526973
37	0x3cbb845d	0.022890264
38	0x3c361afc	0.011114832
39	0x3d3520a2	0.044220574

linears.2.weight f4 [40, 40]
0	0xbe6f86e9	-0.23391308
1	0xbd2badaa	-0.041913666
2	0x3daf1ea4	0.08550766
3	0xbd9473ac	-0.07248625
4	0xbdf22527	-0.118234925
5	0xbd9421a9	-0.07232983
6	0x3d88ed9d	0.06685946
7	0x3e371398	0.17878568
8	0xbdc4d735	-0.0961136
9	0xbe42dc82	-0.1902943
10	0xbd9cc50a	-0.0765477
11	0xbe156e04	-0.14592749
12	0xbe11acf8	-0.14226139
13	0x3d87ad10	0.06624806
14	0xbcc6576c	-0.024211608
15	0xbd72b856	-0.059257828
16	0xbe12f314	-0.1435054
17	0xbe93e908	-0.28888726
18	0x3df81d03	0.121149085
19	0xbceb4dff	-0.028723715
20	0x3e8ee03d	0.27905455
21	0xbc596b6d	-0.013270241
22	0x3e6e40ca	0.23266903
23	0xbe5814ae	-0.21101639
24	0xbe7fb8ef	-0.2497289
25	0x3e953ee8	0.29149556
26	0x3b8a4fe6	0.0042209504
27	0xbe244324	-0.16041237
28	0x3da80b8d	0.08205328
29	0x3d3f6862	0.046730407
30	0x3bd92977	0.0066272574
31	0xbd593a85	-0.053034324
32	0xbe872752	-0.26397187
33	0xbd9a40a7	-0.07531863
34	0xbd4696d2	-0.048483677
35	0xbcd6cdd7	-0.026221199
36	0x3e7dc1b2	0.2478092
37	0x3e2e557d	0.17024799
38	0xbdcf62c3	-0.10126259
39	0xbe073016	-0.13201937
40	0xbdc69989	-0.09697253
41	0xbd924963	-0.07142904
42	0x3e5dc095	0.21655495
43	0x3d926fe7	0.0715025
44	0xbe168052	-0.14697388
45	0xbe1656ab	-0.14681499
46	0x3dd672eb	0.104711376
47	0x3dbd1152	0.09231819
48	0x3de06450	0.10956633
49	0xbe04e0d6	-0.12976393
50	0x3dd6d256	0.10489337
51	0xbe660119	-0.22461356
52	0x3e67afe3	0.22625689
53	0x3e1b4d0d	0.15166111
54	0x3d231709	0.03981689
55	0x3d72cf80	0.05927992
56	0xbe4d77d2	-0.20065239
57	0x3d30e472	0.043186612
58	0xbdaf9c8c	-0.08574781
59	0xbc9e6c45	-0.019338736
60	0x3d3a819d	0.045533765
61	0xbd38ec81	-0.045147423
62	0x3d74b998	0.05974731
63	0x3e6fc2b5	0.23414119
64	0x3d290fff	0.04127502
65	0xbcf21414	-0.02955059
66	0x3d57609d	0.052582372
67	0x3dd91b49	0.10600907
68	0x3e159f83	0.1461163
69	0xbcd9a727	-0.026568962
70	0xbe5a5cd4	-0.21324474
71	0x3cbb9dea	0.022902448
72	0xbdcd9ad3	-0.10039296
73	0xbe36ab61	-0.17838813
74	0xbcdd8c21	-0.027044358
75	0x3d42371a	0.04741583
76	0x3d3b5acf	0.0457409
77	0xbdc0e1a1	-0.09418035
78	0xbaae9a39	-0.0013321108
79	0xbda92328	-0.08258659
80	0x3d28ff9d	0.041259397
81	0x3e0593e1	0.13044693
82	0x3e4c54fa	0.19954291
83	0xbdcdddb7	-0.100520544
84	0x3d0b35b4	0.033986762
85	0x3d1daa15	0.03849228
86	0xbde1260e	-0.109935865
87	0x3c301a04	0.01074839
88	0x3e33c1e8	0.17554438
89	0x3dae0ed2	0.084989205
90	0x3e5da9cd	0.21646805
91	0x3ea23f6e	0.31689018
92	0xbc88362e	-0.016627397
93	0x3c8c2746	0.01710857
94	0x3e381e38	0.17980278
95	0xbe0de9f1	-0.13858773
96	0x3e011af9	0.12607946
97	0xbdb0b60c	-0.08628473
98	0x3d3ead32	0.04655189
99	0x3cd6be9b	0.026213935
100	0xbd55d5d5	-0.05220588
101	0x3e40966f	0.18807386
102	0x3dfa8889	0.12233073
103	0x3e5b5318	0.21418417
104	0x3e1067d1	0.14102103
105	0x3c7f6506	0.015588051
106	0xbd82030e	-0.06348239
107	0xbde03990	-0.10948479
108	0x3d67f38f	0.05662876
109	0xbdb33b66	-0.08751564
110	0xbcb4b4a6	-0.022058796
111	0xbdc84a45	-0.09779791
112	0xbdbcc0a2	-0.09216429
113	0xbe5853ad	-0.2112567
114	0xbe2e57f8	-0.17025745
115	0x3d5459bc	0.05184339
116	0xbd863320	-0.0655272
117	0xbe4d7602	-0.20064548
118	0xbd0207a4	-0.031745568
119	0x3da16d00	0.07882118
120	0x3dbc3aa3	0.091908716
121	0x3d7b7a5a	0.06139598
122	0xbc8be7be	-0.017078277
123	0x3d051b11	0.032496516
124	0x3e84edd8	0.2596271
125	0x3d41ae61	0.04728544
126	0x3e0e3ad8	0.13889635
127	0x3cacc55e	0.021090206
128	0xbe6c2e4a	-0.23064533
129	0xbd8d4bf8	-0.068992555
130	0x3dd83e7d	0.10558794
131	0x3d8aa58d	0.067698576
132	0xbbd8fea7	-0.006622154
133	0x3dc40356	0.09570949
134	0xbd2a1c0b	-0.04153065
135	0x3dfd7fd4	0.12377897
136	0xbde29834	-0.11064187
137	0x3b9b4513	0.004738459
138	0x3e87897f	0.2647209
139	0x3e86804a	0.26269752
140	0xbca96811	-0.020679506
141	0xbe576403	-0.21034245
142	0x3dbc6944	0.09199765
143	0x3e862260	0.261981
144	0xbbdbd362	-0.0067085484
145	0x3c9422cd	0.018083
146	0xbdcdf074	-0.100556284
147	0x3d9e9d1b	0.07744809
148	0x3e37df23	0.17956214
149	0x3e82d084	0.2554971
150	0x3c7d4959	0.015459382
151	0x3d088fb7	0.033340182
152	0x3db818f9	0.08989138
153	0x3d207136	0.039170466
154	0x3e7d5967	0.24741136
155	0xbe2ade47	-0.16686355
156	0xbe98a16c	-0.29810655
157	0xbe89ee1d	-0.2693948
158	0x3ddf43d5	0.1090161
159	0x3e5dcbf6	0.21659836
160	0xbd9ae1be	-0.07562588
161	0x3cd5b13e	0.026085492
162	0x3ea5e1b0	0.32398748
163	0x3cf98eac	0.030463539
164	0x3e08d94c	0.13364142
165	0x3dea0830	0.11427343
166	0x3de19b7f	0.11015987
167	0xbdc306a0	-0.09522748
168	0x3c7f505a	0.015583122
169	0xbd3f38c4	-0.046684995
170	0xbde1a57a	-0.1101789
171	0xbdbfec3a	-0.093712285
172	0xbd8aef59	-0.06783933
173	0x3d6dc0a1	0.058045033
174	0xbdc1804b	-0.09448298
175	0x3d92f55e	0.07175706
176	0x3ca2be62	0.019866172
177	0x3e0f4531	0.13991238
178	0x3e0357cd	0.12826462
179	0xbc8f1c6a	-0.017469604
180	0xbe63de7d	-0.22252841
181	0xbe825d8c	-0.25461996
182	0x3bf3a83f	0.007435828
183	0xbdce6f23	-0.100797914
184	0xbd770329	-0.060305748
185	0xbd857e4f	-0.06518232
186	0x3db712c7	0.08939128
187	0x3e8a9021	0.27063087
188	0x38b540c4	8.642816e-05
189	0xbd1d1cad	-0.038357425
190	0x3d3f2c78	0.046673268
191	0xbe632873	-0.22183399
192	0xbe745c4b	-0.23863332
193	0x3e7d2f9b	0.24725191
194	0x3d8aa42f	0.06769597
195	0xbdbec751	-0.0931536
196	0xbe04fc02	-0.12986758
197	0x3d502a20	0.050821424
198	0x3e4c4f06	0.1995202
199	0xbda3ff94	-0.08007732
200	0xbda2f041	-0.07955981
201	0xbe18c39d	-0.1491837
202	0xbde60f35	-0.11233369
203	0x3baffdf3	0.0053708493
204	0xbe373d80	-0.17894554
205	0x3dc49c40	0.09600115
206	0x3e28ca70	0.16483474
207	0xbe5720e3	-0.21008639
208	0x3abd4fe8	0.001444337
209	0x3e1126b4	0.1417492
210	0x3e36cb7f	0.17851065
211	0x3cb59c64	0.0221693
212	0x3e3f4c05	0.18681343
213	0xbd763b59	-0.060115192
214	0xbd998172	-0.07495393
215	0xbdbc41e6	-0.09192257
216	0x3e369d8c	0.17833537
217	0xbda7f8cf	-0.08201753
218	0x3d0ba9e6	0.034097575
219	0x3d3ea141	0.046540502
220	0xbe2b7f92	-0.16747883
221	0x3dce06d0	0.10059893
222	0x3cc0280d	0.023456598
223	0xbebd9559	-0.37028006
224	0xbeb18993	-0.34675273
225	0xbdae676b	-0.08515819
226	0xbdd494b8	-0.10379928
227	0xbceb5592	-0.028727327
228	0x3e3c69bc	0.1839971
229	0x3d1d6bff	0.03843307
230	0x3d0f0276	0.034914456
231	0xbe9e6d6e	-0.30942863
232	0x3e6e8b9e	0.23295447
233	0x3d809321	0.062780626
234	0x3dc9b4b3	0.09848919
235	0x3c22dcdd	0.009940353
236	0xbd9c359e	-0.07627414
237	0x3dc63ae2	0.096792
238	0x3e3b1fe0	0.18273878
239	0xbda300c0	-0.079591274
240	0xbee12f3e	-0.43981355
241	0x3e278dd8	0.16362703
242	0x3d78926c	0.060686514
243	0x3e53945c	0.20662063
244	0xbddc7ea5	-0.10766343
245	0xbd6d79db	-0.05797754
246	0xbe07fc30	-0.13279796
247	0xbe70662d	-0.23476477
248	0xbd2e15d5	-0.04250129
249	0x3e8fcb76	0.28084916
250	0x3d9c758a	0.07639606
251	0xbcc80c9d	-0.024420077
252	0xbe1239e9	-0.14279903
253	0xbe2544c7	-0.16139518
254	0xbe2846bc	-0.16433233
255	0xbe0c21ad	-0.13684721

linears.2.bias f4 [40]
0	0x3c272acd	0.010203076
1	0x3cd655ef	0.026164023
2	0xbd002517	-0.03128537
3	0x3d24db95	0.040248472
4	0xbcb6bca7	-0.022306753
5	0x3c823cb4	0.015898086
6	0x3bce2d99	0.0062920568
7	0xbc9bdd3a	-0.019026387
8	0xbcb80230	-0.02246198
9	0xbcb57d3f	-0.022154449
10	0xbc2ddd70	-0.010611877
11	0x3b18e47c	0.0023329547
12	0xbca42826	-0.020038676
13	0x3cd74259	0.026276754
14	0x3b9dd964	0.0048171747
15	0xbcbc1cf0	-0.022963017
16	0xbcd691b9	-0.026192533
17	0x3c2e0869	0.010622122
18	0x3c146be0	0.0090589225
19	0xba1f78b1	-0.0006083353
20	0x3c8535d1	0.016261013
21	0xbc15a56b	-0.009133677
22	0xbcc61e20	-0.024184287
23	0xba975585	-0.0011545873
24	0x3bec5af0	0.007212989
25	0x3b524952	0.003208716
26	0xbc9aeaf8	-0.01891087
27	0xbce6fc6d	-0.028196538
28	0x3cd58b7c	0.026067488
29	0xbc747bbd	-0.01492208
30	0x3cdfffe8	0.027343705
31	0xbb1c7369	-0.00238725
32	0xbbc93eba	-0.006141511
33	0x3cdb685f	0.026783166
34	0x3ce8f378	0.028436407
35	0xbc8e3c54	-0.017362751
36	0xbc3d7b38	-0.011565022
37	0x3cc74abf	0.024327634
38	0x3c98dbd6	0.018659513
39	0x3cbd83d5	0.023134151

linears.3.weight f4 [40, 40]
0	0x3e375e89	0.17907156
1	0xbe874dc2	-0.26426512
2	0xbdc15f11	-0.094419606
3	0xbdc78928	-0.09742957
4	0xbdedc5aa	-0.11609967
5	0x3dca9325	0.09891347
6	0x3d858170	0.06518829
7	0x3e75e736	0.24013981
8	0xbb824ab2	-0.0039761895
9	0x3e49b451	0.19697692
10	0xbe2f0003	-0.17089848
11	0xbda4d84d	-0.080490686
12	0xbd0363a3	-0.032077443
13	0x3cbb2bdd	0.022848064
14	0xbd43a7c3	-0.047767412
15	0xbc0726e2	-0.0082490165
16	0xbe1bd7ce	-0.15219042
17	0xbe01c5e1	-0.12673141
18	0x3e584fda	0.21124211
19	0x3e5b67a2	0.21426252
20	0xbe0c2526	-0.13686046
21	0x3e30599c	0.17221683
22	0x3df98bac	0.121848434
23	0xbd909cf9	-0.0706119
24	0xbd07dc2d	-0.03316896
25	0xbe48c43d	-0.19606109
26	0x3e7c521d	0.24640699
27	0xbe003b3d	-0.12522598
28	0xbdbf34de	-0.093362555
29	0xbe27f6aa	-0.16402689
30	0xbdde80ba	-0.108643964
31	0x3d3b449c	0.045719728
32	0x3d65dcdd	0.056118835
33	0xbe0bfb5e	-0.13670108
34	0x3e9b3d51	0.30320218
35	0xbe97f07e	-0.29675668
36	0x3e39662f	0.18105386
37	0x3e94a6af	0.2903342
38	0x3d503dfe	0.05084037
39	0xbd3f2a2e	-0.046671085
40	0xbdb3533f	-0.08756112
41	0xbd648c1d	-0.055797685
42	0x3eab0aac	0.3340658
43	0xbe5651eb	-0.20929687
44	0x3e177276	0.14789757
45	0xbe9d4814	-0.30719054
46	0x3e40574d	0.18783303
47	0x3da266ee	0.079297885
48	0xbe444b10	-0.19169259
49	0x3ecbaf17	0.3978202
50	0x3dc54c15	0.09633652
51	0xbcebe41c	-0.028795294
52	0xbd69875c	-0.057013854
53	0xbe2e86ad	-0.17043562
54	0x3ba91092	0.005159446
55	0x3e177f1b	0.1479458
56	0xbcc3cb90	-0.023900777
57	0x3dcd1c35	0.10015146
58	0x3e013d43	0.12621026
59	0x3e4dd1b2	0.20099524
60	0xbc01cb3c	-0.00792199
61	0xbc46d6c1	-0.012136162
62	0xbcfb6426	-0.030687403
63	0xbdfbe058	-0.122986495
64	0x3ecdfd06	0.40232104
65	0xbdc7746c	-0.097390026
66	0xbd7b967f	-0.06142282
67	0x3e03b7f5	0.12863143
68	0xbd687a13	-0.056757044
69	0x3ead8a05	0.33894363
70	0x3db178fe	0.086656556
71	0x3e44c6fe	0.19216534
72	0xbe344042	-0.17602637
73	0xbd8b1d4e	-0.06792699
74	0xbcfdd5e0	-0.030985773
75	0x3e948b14	0.29012358
76	0x3e139a23	0.14414267
77	0xbe78d4aa	-0.24299875
78	0x3e638368	0.22218096
79	0x3e18b47f	0.14912604
80	0xbdf7d51c	-0.12101194
81	0x3e0ae273	0.13562946
82	0xbc75a07d	-0.014991877
83	0x3de6c435	0.11267892
84	0x3db93618	0.09043521
85	0xbd9144ce	-0.070932016
86	0xbe2e2054	-0.1700452
87	0x3aabf0f5	0.0013118075
88	0x3d82fe8b	0.063962065
89	0x3cae2c63	0.0212614
90	0x3d90bfb3	0.07067814
91	0xbe08aa76	-0.13346276
92	0xbd1e9232	-0.03871364
93	0x3da1c618	0.078991115
94	0x3c871cb3	0.016493177
95	0x3e46b6c4	0.19405657
96	0x3d1b638b	0.03793673
97	0xbe84fff8	-0.2597654
98	0xbd52517d	-0.051347245
99	0xbe849c85	-0.25900665
100	0x3d9719d9	0.07377977
101	0xbd8b9048	-0.06814629
102	0xbe2db8ad	-0.1696498
103	0xbe7209dd	-0.23636575
104	0xbceb2497	-0.02870397
105	0xbd953a41	-0.07286502
106	0xbe9d86cc	-0.30766904
107	0x3e8469fc	0.2586211
108	0x3d3a70d5	0.04551776
109	0xbd3a8b73	-0.045543145
110	0xbe18bf92	-0.14916828
111	0x3c17f25f	0.009274094
112	0xbda4c938	-0.08046192
113	0x3e1ae444	0.15126139
114	0xbc7949d1	-0.015215353
115	0xbe1ea61a	-0.1549305
116	0xbdad512a	-0.084627464
117	0xbe789967	-0.24277268
118	0x3e767e0d	0.24071522
119	0x3e7e9c55	0.24864323
120	0xbd995ade	-0.07488035
121	0x3e3bde40	0.183465
122	0x3e6298ad	0.22128554
123	0x3e286b73	0.16447239
124	0xbe6edf5a	-0.2332739
125	0x3d82d519	0.063883014
126	0xbc59e17c	-0.013298389
127	0xbbd97f01	-0.0066374545
128	0xbe414415	-0.18873627
129	0x3d9c12bb	0.0762076
130	0xba24c96a	-0.00062861165
131	0xbd071e96	-0.032988153
132	0xbe2acdcd	-0.1668007
133	0xbe3692ec	-0.17829484
134	0x3ddff911	0.109361775
135	0x3e366f80	0.17815971
136	0x3e990092	0.29883248
137	0xbde728a9	-0.11287052
138	0x3d456bbf	0.048198458
139	0xbd4d527f	-0.050127503
140	0x3e0843b4	0.13307077
141	0x3d547579	0.051869843
142	0x3e27d125	0.16388376
143	0x3ca30b91	0.019902976
144	0xbda056ad	-0.07829032
145	0x3d2c24b5	0.042027194
146	0x3e647e4e	0.22313806
147	0x3d49eeab	0.049299877
148	0x3d97e862	0.074173704
149	0xbe054db3	-0.13017921
150	0x3db4b18d	0.088229276
151	0xbde6fcb0	-0.11278665
152	0x3def6be4	0.116905004
153	0xbda8e447	-0.082466654
154	0xbc93c927	-0.018040253
155	0x3e09c490	0.13453889
156	0x3d84adaa	0.06478436
157	0x3ea87466	0.32901305
158	0xbe11e7dd	-0.14248605
159	0x3dc11f9c	0.09429857
160	0x3e233905	0.1593972
161	0xbe16b6af	-0.14718126
162	0xbe206fda	-0.15667668
163	0x3d63000b	0.055419963
164	0x3e2b085b	0.16702406
165	0x3e6d22d6	0.2315782
166	0x3e80a39e	0.2512483
167	0x3dbb0f2d	0.09133754
168	0xbe274762	-0.16335824
169	0x3cb312b3	0.021859502
170	0xbd903029	-0.07040436
171	0xbce14c1d	-0.027502114
172	0x3e051759	0.12997188
173	0x3e54fa00	0.20798492
174	0x3e184d93	0.14873342
175	0x3e3dbfc7	0.18530189
176	0xbe5b7d63	-0.2143455
177	0x3dbc2ba6	0.09188013
178	0xbdf0a429	-0.11750061
179	0x3e014938	0.12625587
180	0x3bd907dc	0.0066232514
181	0x3e892650	0.26787043
182	0xbea79616	-0.32731694
183	0x3e18daff	0.1492729
184	0x3d3a5f07	0.04550078
185	0x3e50ac6f	0.20378278
186	0x3da145e5	0.078746594
187	0x3e058c93	0.13041906
188	0xbab55bff	-0.0013836621
189	0xbd97ab4a	-0.07405718
190	0x3e326939	0.17422952
191	0xbd757917	-0.059929933
192	0xbe34a9c0	-0.1764288
193	0xbe181a30	-0.1485374
194	0x3d65bfc3	0.05609108
195	0x3b02bfc9	0.0019950739
196	0x3bf79fb2	0.007556879
197	0xbc802572	-0.015642855
198	0xbe40987b	-0.18808167
199	0x3d736af8	0.059428185
200	0x3e52bfbe	0.20580956
201	0xbea95c80	-0.33078384
202	0x3da2e7e4	0.07954386
203	0xbbf01430	-0.0073266253
204	0x3ea30a54	0.31843817
205	0xbde83313	-0.11337867
206	0xbe4d9749	-0.20077242
207	0x3e115a02	0.14194492
208	0x3dc4d7c5	0.09611467
209	0xbddb92e2	-0.10721375
210	0xbd4e0be5	-0.050304312
211	0x3b8f399f	0.0043708826
212	0x3eaceb88	0.33773446
213	0x3dece5af	0.11567246
214	0xbe5657ed	-0.20931979
215	0x3c31cae9	0.0108516
216	0xbcf86833	-0.030323124
217	0xbe37fda1	-0.17967845
218	0x3c541310	0.012943998
219	0xbdc72204	-0.09723285
220	0x3d8d5df9	0.069026895
221	0x3eef897d	0.46784583
222	0x3e954172	0.29151493
223	0x3d9256d2	0.07145466
224	0xbe670005	-0.22558601
225	0x3e1450d0	0.14483953
226	0x3dc38411	0.09546674
227	0x3cd25808	0.025676742
228	0xbe833ae6	-0.25630873
229	0x3cdd53d0	0.027017504
230	0xbe37dd3f	-0.17955492
231	0x3e0b819e	0.13623664
232	0x3c684db1	0.014178679
233	0xbe09725a	-0.13422528
234	0xbc9088ff	-0.01764345
235	0xb9cfdb34	-0.00039645436
236	0xbe91875d	-0.28423586
237	0xbe92a144	-0.2863866
238	0x3d8c9859	0.068649955
239	0xbe1ae766	-0.15127334
240	0x3c949e60	0.018141925
241	0x3d997c65	0.074944295
242	0xbe22a911	-0.15884806
243	0xbd11fb30	-0.03563994
244	0xbe85ec5d	-0.26156893
245	0x3dce021a	0.100589946
246	0xbdf17c5e	-0.11791299
247	0xbe409517	-0.18806873
248	0x3e0d8075	0.13818534
249	0x3dd00434	0.10157052
250	0x3e2d4705	0.16921623
251	0x3d1fe132	0.039033122
252	0xbe448678	-0.19191921
253	0xbe310e71	-0.17290665
254	0xbe402749	-0.18764986
255	0xbd0cdacc	-0.03438835

linears.3.bias f4 [40]
0	0xbcf9a1ff	-0.030472754
1	0xbcc2dbaa	-0.023786385
2	0xbcc1ba03	-0.023648268
3	0xbb84fd09	-0.0040584845
4	0xbc21ed32	-0.009883212
5	0xbcdcde0d	-0.02696135
6	0xbbf6b377	-0.007528718
7	0x3cb95fd8	0.02262871
8	0x3bd71907	0.006564263
9	0x3ca0648a	0.01957919
10	0xbba6bf2e	-0.0050887084
11	0x3ad05dc6	0.0015897087
12	0xbc9d8253	-0.019227182
13	0xbc969864	-0.018383212
14	0x3c1cc0cf	0.0095674535
15	0xbc46ae11	-0.012126462
16	0x3c69e9cf	0.014276936
17	0xbb8d7157	-0.0043164897
18	0x3bf415f6	0.007448907
19	0x3c509c7f	0.012732624
20	0xbd032a77	-0.03202292
21	0xbc648d31	-0.013949678
22	0xbbee2fa6	-0.0072688637
23	0xbca351b3	-0.019936418
24	0x3cccdb91	0.025007041
25	0xbca39f36	-0.019973379
26	0x3cb7e06a	0.022445876
27	0x3c8c6b72	0.017141078
28	0x3c7ab7dc	0.015302625
29	0xbc90c1eb	-0.017670592
30	0xbbb89f9a	-0.0056342604
31	0x3c8ebab8	0.017423019
32	0xbca4a950	-0.020100266
33	0xbcc9f2a2	-0.02465183
34	0xbce2ec75	-0.027700642
35	0xbc95f03a	-0.018303026
36	0xbbeaf75d	-0.0071706013
37	0x3ca70521	0.020388188
38	0xbcbd4f16	-0.023109
39	0xbc447467	-0.011990643

linears.4.weight f4 [40, 40]
0	0x3cf252f3	0.029580569
1	0xba1fc7a0	-0.0006095115
2	0x3e37effd	0.17962642
3	0x3e8a8929	0.2705777
4	0x3d7807c1	0.06055427
5	0x3ee369d0	0.44416666
6	0xbe5f53a1	-0.21809246
7	0xbe674e84	-0.22588545
8	0x3e003bcf	0.12522815
9	0xbd9b475f	-0.07581972
10	0xbe444d5a	-0.19170132
11	0x3dfd2036	0.123596594
12	0x3ddf4cac	0.10903296
13	0xbe5336b0	-0.2062633
14	0xbd901f97	-0.07037275
15	0xb937c699	-0.00017526223
16	0x3cdb8a1a	0.02679925
17	0xbcaef881	-0.02135873
18	0xbe38f267	-0.18061219
19	0xbccbbbbb	-0.02486979
20	0x3d0c95a1	0.034322385
21	0xbd906788	-0.07050997
22	0x3dcb27c8	0.09919697
23	0xbe047fc9	-0.12939371
24	0xbc2a5ecb	-0.010398577
25	0xbdf25fe3	-0.11834695
26	0xbcc5b7b8	-0.024135455
27	0x3be33d01	0.0069347625
28	0xbdbc48af	-0.09193551
29	0xbdb71c65	-0.08940963
30	0xbebfaac3	-0.37434968
31	0x3dd37868	0.103257
32	0xbe43f51e	-0.19136474
33	0x3e9db555	0.30802408
34	0x3e354fab	0.17706172
35	0x3c2312c5	0.0099532055
36	0x3d522c6e	0.051311903
37	0x3dcf052b	0.101084076
38	0x3d890f86	0.06692414
39	0xbddb688d	-0.10713301
40	0xbea9fe34	-0.33201754
41	0x3e635109	0.22198881
42	0x3db59d6e	0.08867918
43	0xbd76e968	-0.060281187
44	0x3e9f6b55	0.31136575
45	0x3eb8bcc2	0.3608151
46	0xbddb4d96	-0.10708158
47	0x3d2574ba	0.040394522
48	0x3e25367c	0.16134065
49	0xbccb26a8	-0.024798706
50	0x3dc75f33	0.09734955
51	0x3e67cc1c	0.22636455
52	0xbe27d03c	-0.16388029
53	0x3ec3297f	0.38117597
54	0x3e51df56	0.20495352
55	0x3d7bab38	0.061442584
56	0x3dfcd92b	0.12346109
57	0xbd66520f	-0.0562306
58	0x3eb0c6e0	0.3452673
59	0xbca423d9	-0.020036625
60	0xbdb14b25	-0.08656911
61	0x3e1bd09a	0.15216294
62	0xbd22e57d	-0.03976964
63	0x3ed2d116	0.41175145
64	0x3e254e15	0.16143067
65	0xbdf33f31	-0.11877287
66	0x3e135b49	0.14390291
67	0x3e8740f0	0.2641673
68	0x3df919e9	0.12163145
69	0x3dad7ef0	0.08471477
70	0xbdf26bc4	-0.11836961
71	0x3df157b6	0.11784308
72	0xbdf49bc1	-0.1194377
73	0xbeceadde	-0.40367025
74	0xbe0ac6a7	-0.13552342
75	0xbd8d057f	-0.06885814
76	0xbe669d02	-0.22520831
77	0xbd9afd05	-0.07567791
78	0x3cb15bed	0.021650279
79	0x3d7b1006	0.061294578
80	0xbd4cbe3a	-0.0499861
81	0xbd0255d1	-0.031820122
82	0xbddf1bdd	-0.108939864
83	0xbde2db0b	-0.110769354
84	0xbd8cb5f6	-0.06870644
85	0x3c2ebc63	0.010665032
86	0x3e397eb7	0.18114744
87	0xbea0f901	-0.31439975
88	0xbdac86fc	-0.08424184
89	0x3daa085a	0.08302374
90	0x3c9102b1	0.017701479
91	0xbd917be9	-0.07103712
92	0xbc5fd30b	-0.013661156
93	0xbe0ce71c	-0.13760036
94	0xbd7bfc58	-0.06151995
95	0xbe35ceb7	-0.17754637
96	0xbe8bf4ad	-0.2733511
97	0xbd9addeb	-0.07561859
98	0xbce4c4f9	-0.027925955
99	0x3d8422e7	0.064519696
100	0x3d5c42bc	0.05377458
101	0xbe07e749	-0.13271822
102	0x3dc762d6	0.09735648
103	0xbe2730a8	-0.16327155
104	0xbe7c86aa	-0.24660745
105	0xbe335273	-0.1751192
106	0x3e122560	0.1427207
107	0x3e57896a	0.21048513
108	0x3e82373e	0.2543277
109	0xbe830c77	-0.25595447
110	0xbe299024	-0.16558892
111	0xbc5aaa12	-0.013346212
112	0xbc9c4f24	-0.019080706
113	0xbea27fe7	-0.31738207
114	0x3ecd074f	0.4004464
115	0xbceddf88	-0.029037252
116	0x3ea179bd	0.3153819
117	0x3b4c07e7	0.003113264
118	0x3e8d9699	0.2765396
119	0xbe879531	-0.26481012
120	0xbe07dab7	-0.13267027
121	0x3e08a0f8	0.13342655
122	0xbbefe7ce	-0.0073213344
123	0xbd88cff7	-0.06680291
124	0xbeb67f41	-0.35643962
125	0xbdc929a6	-0.09822397
126	0x3d8d1bbd	0.06890056
127	0x3dd05e2f	0.10174214
128	0x3d76c1af	0.060243305
129	0x3e2b4cdb	0.16728537
130	0xbe3618ad	-0.1778285
131	0xbe09088f	-0.13382171
132	0x3cf29553	0.029612219
133	0x3e447df7	0.19188677
134	0x3e2259dd	0.15854593
135	0x3e1521ae	0.14563629
136	0x3e796e15	0.24358399
137	0x3d7c0870	0.061531484
138	0x3c629e48	0.0138316825
139	0xbd6ade73	-0.05734105
140	0xbdd839be	-0.105578884
141	0xbea818ab	-0.3283132
142	0xbde081ba	-0.109622434
143	0x3d8816a3	0.066449426
144	0x3e0a7ef4	0.13524991
145	0x3df76797	0.12080305
146	0x3d449a62	0.047998793
147	0xbe581ef2	-0.21105555
148	0x3e88c685	0.26713958
149	0xbd271cb0	-0.040798843
150	0xba67a522	-0.00088365574
151	0xbe069d4b	-0.1314594
152	0xbe7f3d0c	-0.24925631
153	0xbd391f33	-0.04519577
154	0xbe368f49	-0.17828096
155	0xbce848d1	-0.028355034
156	0x3e1cae46	0.15300855
157	0x3bb1b0c6	0.0054226844
158	0x3c9f0569	0.01941176
159	0xbb933d74	-0.00449341
160	0xbe256830	-0.16153026
161	0x3db89a01	0.09013749
162	0x3e4ff455	0.20308049
163	0x3e87002e	0.26367325
164	0xbd85f71f	-0.06541275
165	0xbd82aa92	-0.0638019
166	0x3d9a17f3	0.07524099
167	0x3e776f83	0.24163632
168	0x3e8cee99	0.27525786
169	0x3ebdb54a	0.37052375
170	0x3da486ff	0.08033561
171	0x3d795e50	0.06088096
172	0x3df89977	0.12138646
173	0xbd8e0130	-0.0693382
174	0xbe66a6ad	-0.2252452
175	0x3d997786	0.074935004
176	0x3e2113ae	0.15730163
177	0xbe642cf7	-0.22282778
178	0xbd108cff	-0.035290714
179	0x3e26ae4d	0.16277428
180	0xbdde902f	-0.108673446
181	0xbe29243d	-0.1651773
182	0xbeb251fd	-0.34828177
183	0x3cbcdbe1	0.023054065
184	0x3d9a187a	0.075242
185	0x3dc59ce1	0.09649063
186	0x3e4f453b	0.20241253
187	0x3d7a6ab4	0.061136916
188	0x3e4e64fc	0.2015571
189	0xbc87ecbb	-0.016592374
190	0x3e242399	0.16029204
191	0xbe3b2680	-0.18276405
192	0x3cd7e03f	0.026352046
193	0x3e8c9825	0.27459827
194	0x3c895321	0.016763272
195	0xbda05786	-0.07829194
196	0xbcaa2823	-0.020771092
197	0xbe326c17	-0.17424046
198	0xbe12fdf8	-0.14354694
199	0x3dcf3e76	0.10119335
200	0x3c78d5e2	0.015187712
201	0xbdd1a84e	-0.1023718
202	0xbe3f653a	-0.18690959
203	0xbcd96624	-0.026537962
204	0x3d947da0	0.072505236
205	0xbe84c35c	-0.25930297
206	0x3de09a64	0.10966948
207	0xbe213f03	-0.15746693
208	0xbe00e294	-0.12586433
209	0xbb86268f	-0.004093952
210	0x3e464253	0.19361238
211	0x3d83d24f	0.064365976
212	0x3e5d4e15	0.21611817
213	0x3c2e97c0	0.010656297
214	0x3e6967ab	0.22793452
215	0x3e5528e4	0.2081638
216	0x3e64c2be	0.22339913
217	0x3de91d87	0.11382585
218	0x3d13b766	0.036063574
219	0xbe27f34b	-0.16401403
220	0xbd56ff04	-0.052489296
221	0xbea0d61b	-0.3141335
222	0x3e358649	0.17727007
223	0xbd861366	-0.06546669
224	0x3e28c96c	0.16483086
225	0xbc1a130a	-0.009403953
226	0x3d3ed2c3	0.046587717
227	0xbde6792b	-0.1125358
228	0xbd8e3d3b	-0.069452725
229	0xbdeb0b03	-0.1147671
230	0x3dcbae2a	0.099453285
231	0xbc9f61ff	-0.019455908
232	0x3dd11afc	0.10210225
233	0xbdebfae7	-0.11522465
234	0xbbd4d4cc	-0.006495094
235	0xbdef6119	-0.11688442
236	0xbe423bd9	-0.18968143
237	0x3d0ecf1c	0.034865484
238	0xbe890c77	-0.26767322
239	0x3e85b211	0.26112416
240	0xbe08e210	-0.13367486
241	0x3e0c7a6f	0.1371858
242	0x3d01c8c7	0.031685617
243	0x3e25b66e	0.16182873
244	0xbe183f99	-0.1486801
245	0xbc1b2a75	-0.009470572
246	0x3e01b6a2	0.12667325
247	0x3cfe0f21	0.031013073
248	0xbe367221	-0.17816974
249	0x3e9731cc	0.2953018
250	0x3d454956	0.04816564
251	0x3dba2825	0.09089688
252	0x3c05aea9	0.008159318
253	0x3d82c4e1	0.06385208
254	0xbe04842e	-0.12941048
255	0x3c897028	0.016777113

linears.4.bias f4 [40]
0	0xbd046a06	-0.032327674
1	0xbb17c9e2	-0.0023161103
2	0xbc8df4db	-0.01732867
3	0xbc2d78da	-0.010587895
4	0x3ccbecba	0.024893153
5	0xbd775df8	-0.06039235
6	0xbc5fd5a7	-0.0136617785
7	0x3cb4129c	0.02198153
8	0xbcafb7c7	-0.021449937
9	0x3c28a616	0.010293504
10	0xbb7eea64	-0.0038897032
11	0x3c9b2106	0.018936645
12	0xbce6868f	-0.028140334
13	0xbbf275fe	-0.0073993197
14	0x3c182514	0.009286184
15	0x3cac3dda	0.021025587
16	0x3ccff547	0.025385512
17	0xbc5a8111	-0.013336436
18	0xbcc7e501	-0.02440119
19	0x3cbf2111	0.023331197
20	0xbce789cc	-0.028263949
21	0xbca303c3	-0.019899255
22	0x3b4eb0b8	0.0031538438
23	0xb5ba7ab9	-1.3893797e-06
24	0x3cbc95d9	0.023020672
25	0xbcc3e2ca	-0.023911852
26	0xbcb708ce	-0.022343066
27	0xbcd7a822	-0.02632529
28	0xbca73202	-0.020409588
29	0xbc9ad3c2	-0.018899802
30	0xbc957701	-0.018245222
31	0xbba9372e	-0.0051640486
32	0x3cfc8fe8	0.030830339
33	0x3c6634a4	0.014050636
34	0x3cb48ca8	0.022039726
35	0x3ccf8894	0.02533368
36	0xbca8057b	-0.020510426
37	0x3cce0737	0.025149925
38	0x3cdea7c4	0.027179606
39	0xbbd2c64c	-0.0064323302

linears.5.weight f4 [40, 40]
0	0x3d9f8441	0.07788897
1	0xbd328772	-0.043586202
2	0xbe676db7	-0.22600447
3	0x3d1cd8a5	0.038292546
4	0xbe066c0d	-0.13127156
5	0x3c6aea86	0.014338141
6	0x3e2b1218	0.16706121
7	0x3e70cc09	0.23515333
8	0xbe95b8b7	-0.2924249
9	0x3d95e6ed	0.07319436
10	0x3e894ece	0.26817936
11	0xbe57a3fb	-0.21058647
12	0x3cfbcfea	0.03073879
13	0xbea088aa	-0.31354266
14	0x3e31cad8	0.17362535
15	0x3e273da0	0.16332102
16	0xbe97727b	-0.2957953
17	0xbdb5fd03	-0.08886149
18	0xbe00520f	-0.12531303
19	0x3ecd6cd6	0.40122098
20	0xbdbad631	-0.09122885
21	0x3e0e1aa7	0.13877355
22	0xbc429cc2	-0.011878194
23	0xbdc53c98	-0.09630698
24	0xbe05bf42	-0.1306124
25	0x3e3676e7	0.17818795
26	0x3d71b985	0.059014816
27	0x3d3a8ba7	0.04554334
28	0xbed144cb	-0.40872797
29	0x3e41c157	0.1892141
30	0xbe20a381	-0.15687372
31	0x3e554341	0.20826437
32	0x3e465cd8	0.19371355
33	0x3db629d8	0.088947
34	0xbe35522e	-0.1770713
35	0x3d67462a	0.056463398
36	0x3e111075	0.14166434
37	0x3e765f2d	0.24059744
38	0x3da8973a	0.08231969
39	0xbea8d1b7	-0.329725
40	0x3dab1cb1	0.08355082
41	0xbe0f5851	-0.13998534
42	0xbca91946	-0.020641934
43	0x3b41a7eb	0.002954955
44	0xbe574fff	-0.2102661
45	0x3c5e0bf2	0.013552653
46	0xbd71457c	-0.058904156
47	0xbdf7d220	-0.12100625
48	0x3e32a9d6	0.174476
49	0xbdcd3057	-0.10018986
50	0x3ecf5f93	0.40502605
51	0x3d7c4be5	0.061595816
52	0xbd998f6b	-0.07498058
53	0xbe5a2830	-0.21304393
54	0xbd0f6d58	-0.035016388
55	0x3d907ff6	0.070556566
56	0x3db57ba7	0.088614754
57	0xbe2601a0	-0.16211557
58	0xbe82e82f	-0.25567767
59	0x3d52a5b5	0.05142756
60	0xbe5ac406	-0.2136384
61	0xbf0d0c43	-0.55096835
62	0xbddee4d3	-0.108834885
63	0xbd255ba7	-0.04037061
64	0xbd099fc7	-0.03359964
65	0x3dc842b8	0.097783506
66	0xbbd71439	-0.00656369
67	0x3e1f3b5a	0.15549985
68	0xbe218114	-0.15771896
69	0x3e28cc7e	0.16484258
70	0xbd6e42fb	-0.058169346
71	0x3ce7fcfd	0.028318876
72	0x3e96efb9	0.2947977
73	0x3d7b2d92	0.061322756
74	0x3e2062a1	0.15662624
75	0x3e06d467	0.13166963
76	0xbe495fb5	-0.19665416
77	0xbda16519	-0.07880611
78	0xbe7f2b98	-0.24918973
79	0x3e2fefbe	0.17181298
80	0xbe423b24	-0.18967873
81	0xbe936d9a	-0.28794557
82	0xbe70b010	-0.23504663
83	0xbddbbcfe	-0.10729407
84	0x3d951500	0.07279396
85	0x388d9f15	6.753035e-05
86	0xbdd96b1f	-0.10616135
87	0xbdbcc967	-0.09218102
88	0xbde2bacf	-0.11070787
89	0x3ddb8289	0.10718257
90	0x3e1672a1	0.14692165
91	0xbd9e1ece	-0.07720719
92	0xbc8f0a70	-0.017461032
93	0x3ea46b56	0.3211314
94	0xbdba855b	-0.09107467
95	0x3dce779e	0.10081409
96	0x3c552ce8	0.013011195
97	0xbe7f0982	-0.2490597
98	0xbe6fa046	-0.23400983
99	0x3de6927a	0.11258407
100	0x3db5b5df	0.0887258
101	0x3e2efec6	0.17089376
102	0xbdbe950f	-0.093057744
103	0x3d9411c3	0.0722995
104	0xbdc2b0bc	-0.09506366
105	0xbdeb0b61	-0.1147678
106	0xbe06102f	-0.13092111
107	0xbd514acc	-0.051096722
108	0x3d2b59c5	0.041833658
109	0xbe213801	-0.1574402
110	0x3ed121b1	0.40846017
111	0x3e51011a	0.20410576
112	0xbdcb583b	-0.09928938
113	0x3e1f53d0	0.15559316
114	0x3e7f21bf	0.24915217
115	0xbe81ebc5	-0.2537519
116	0x3d21bd4b	0.039487164
117	0xbe4f111f	-0.20221375
118	0x3e0494a4	0.12947327
119	0xbe8bb977	-0.27289936
120	0xbc08500e	-0.008319868
121	0x3dda00f1	0.10644711
122	0xbde53bb6	-0.111930296
123	0xbd09d2d2	-0.03364832
124	0xbdf08209	-0.11743552
125	0x3e5e918c	0.21735209
126	0xbd74a548	-0.059727937
127	0xbcc3834e	-0.023866322
128	0xbcb6cf9c	-0.022315793
129	0xbda4dbbc	-0.080497235
130	0xbd85a7b4	-0.065261275
131	0xbd9923cc	-0.07477531
132	0x3e33cfc8	0.17559731
133	0xbc944468	-0.018099025
134	0x3db14a02	0.08656694
135	0x3da11a66	0.07866363
136	0x3e989c22	0.2980662
137	0x3eb2be13	0.3491064
138	0x3d41e385	0.04733612
139	0x3e219a14	0.15781432
140	0xbbfceac9	-0.0077184183
141	0xbe577db4	-0.21044046
142	0x3e6a4085	0.22876175
143	0x3c7798ad	0.015112084
144	0x3ebcc0c0	0.36865807
145	0x3d6ff15a	0.05857978
146	0xbe1e6969	-0.15469898
147	0xbe2abfdd	-0.16674753
148	0x3df1fecf	0.11816179
149	0xbddf283d	-0.10896347
150	0x3cc25c6c	0.02372571
151	0xbcef41a0	-0.029206097
152	0x3bdfbc90	0.0068278983
153	0xbe253235	-0.16132434
154	0xbe277a63	-0.1635528
155	0x3e2764f3	0.16347103
156	0x3e25e957	0.16202293
157	0x3d73eb4b	0.059550565
158	0xbd706938	-0.058694094
159	0xbe8308b3	-0.25592574
160	0x3e644f29	0.22295822
161	0x3cc49ec7	0.024001492
162	0x3e16598b	0.14682595
163	0xbd0a6490	-0.03378731
164	0xbde68b69	-0.11257059
165	0xbd860818	-0.065445125
166	0xbcc59f8f	-0.024123935
167	0x3e82daae	0.25557464
168	0xbd7f4b35	-0.062327582
169	0x3c503d3d	0.012709913
170	0x3dc1bec3	0.09460213
171	0xbd949631	-0.07255209
172	0xbe3da86d	-0.1852128
173	0x3dd6d42f	0.104896896
174	0xbe8655fc	-0.26237476
175	0xbd1d2218	-0.038362592
176	0xbd31fb45	-0.04345252
177	0xbddc7f84	-0.10766509
178	0xbcbacb46	-0.022802006
179	0x3e1878b4	0.14889795
180	0xbba67f7f	-0.0050811167
181	0x3ecb71de	0.3973531
182	0xbd1fd8ab	-0.03902499
183	0x3e1f9aa4	0.15586334
184	0x3e0de2e8	0.13856089
185	0xbe02e5c9	-0.12782969
186	0x3eacd63b	0.33757195
187	0x3d180bf0	0.03712076
188	0x3da4a0cf	0.08038484
189	0xbc3d9f57	-0.011573634
190	0x3c45394f	0.012037589
191	0x3e3cf6dc	0.18453544
192	0x3ddb9acc	0.107228845
193	0x3d859755	0.06523005
194	0x3ddf5d1c	0.10906431
195	0xbd983a33	-0.074329756
196	0xbdcdb00e	-0.100433454
197	0x3ea8a635	0.32939306
198	0x3d8a7f6e	0.067625865
199	0x3dfe54c4	0.124185115
200	0xbd46ca43	-0.048532736
201	0xbe8d736a	-0.27627116
202	0xbe3fcdca	-0.18730846
203	0x3d8a2067	0.067444615
204	0xbc8b6fb7	-0.017021043
205	0x3e09f0b3	0.13470726
206	0xbe4ccdc5	-0.2000037
207	0x3e931e23	0.2873393
208	0x3d100215	0.035158236
209	0xbe021873	-0.12704639
210	0x3d3f06ae	0.04663723
211	0x3d30df33	0.04318161
212	0x3dca4cfa	0.09877963
213	0xbcc55d20	-0.024092257
214	0x3e704f02	0.23467639
215	0x3dda8b93	0.10671153
216	0x3e3b2a4f	0.18277858
217	0x3ddbb7da	0.10728426
218	0xbdd846b4	-0.105603606
219	0x3d4f4e54	0.05061181
220	0xbd465f34	-0.048430637
221	0x3bb7ed76	0.0056130243
222	0x3dd70c6d	0.10500417
223	0x3e8a6296	0.2702834
224	0xbd457091	-0.048203055
225	0xbe19f7ff	-0.15036009
226	0x3e25e2c2	0.16199782
227	0x3be61add	0.0070222453
228	0xbe39b0e2	-0.18133882
229	0xbe3c1477	-0.18367182
230	0xbe447fd6	-0.1918939
231	0xbe160854	-0.14651614
232	0x3cc78fd6	0.024360579
233	0xbd8621ea	-0.06549437
234	0xbce579af	-0.028012125
235	0x3e819116	0.25306004
236	0xbd66295b	-0.056191783
237	0xbd738ad2	-0.05945856
238	0xbe0d6f82	-0.13812068
239	0x3bfbd6bc	0.0076855104
240	0xbd82219b	-0.06354066
241	0x3e04625b	0.12928145
242	0xbe9424aa	-0.28934222
243	0xbd2ce405	-0.042209644
244	0x3e533710	0.20626473
245	0x3c4a8bfe	0.012362478
246	0x3e005924	0.12534004
247	0x3e0a499a	0.1350464
248	0x3e997d3d	0.29978362
249	0x3e6be172	0.2303522
250	0xbd833869	-0.06407244
251	0x3d3e3513	0.046437334
252	0xbebdda59	-0.3708065
253	0x3ca3a93f	0.019978164
254	0x3da01e6e	0.07818304
255	0x3dfe544a	0.124184206

linears.5.bias f4 [40]
0	0xbc9d710b	-0.019218942
1	0x3b6575f3	0.003501293
2	0x3d11af24	0.035567418
3	0xbcb60fea	-0.022224385
4	0xbc32f709	-0.010923156
5	0x3cbe012d	0.02319392
6	0x3cd4aada	0.025960375
7	0xbccae1ae	-0.024765816
8	0x3ca682a6	0.02032597
9	0x3c77ed36	0.015132239
10	0x3c259fd1	0.010108904
11	0x3cce8a21	0.02521235
12	0xbcd96c8e	-0.02654102
13	0x3cc1c136	0.0236517
14	0x3c6084e8	0.013703562
15	0x3c61cbfb	0.013781543
16	0x3cc5c403	0.024141317
17	0x3ca48ee6	0.02008767
18	0xbc94dd9d	-0.01817208
19	0x3b86ded7	0.00411592
20	0x3bfede17	0.00777794
21	0xbc9c5911	-0.019085439
22	0xb9bfeaa4	-0.0003660518
23	0x3cbce475	0.023058156
24	0xbc7646f9	-0.01503157
25	0xbc4fccb7	-0.012683085
26	0x3cae4cb4	0.02127681
27	0xbc1e96cf	-0.00967951
28	0xbbe72bb6	-0.0070547713
29	0xbcd39acf	-0.025830654
30	0xbbc1f383	-0.0059189214
31	0x3bb26952	0.005444684
32	0x3c7e9845	0.015539234
33	0xbcaaadb5	-0.020834783
34	0x3cb272f8	0.021783337
35	0x3ca957b3	0.020671701
36	0xbcbe0e2c	-0.023200117
37	0xbc9ded09	-0.019278066
38	0xbcc26379	-0.023729073
39	0xbcbda393	-0.023149287

linears.6.weight f4 [3, 40]
0	0xbdf02e77	-0.117276125
1	0x3c9a0bb6	0.018804412
2	0x3ed0d5a2	0.4078799
3	0xbe10b4bf	-0.14131449
4	0x3e943af0	0.28951216
5	0xbe91388c	-0.28363454
6	0x3eba95b1	0.3644233
7	0xbe93662b	-0.28788885
8	0xbecae48e	-0.39627498
9	0x3dd1ab0b	0.10237702
10	0x3f07351d	0.5281542
11	0x3f18924c	0.5959823
12	0xbf5c36f8	-0.86021376
13	0x3f829c63	1.0203975
14	0x3f0e000a	0.5546881
15	0x3f907a17	1.1287259
16	0x3e711718	0.23543966
17	0xbe121973	-0.1426752
18	0xbe2bfe50	-0.16796231
19	0x3d5501d4	0.052003697
20	0x3f9ba936	1.2161014
21	0x3ed01cd1	0.40646985
22	0x3f774430	0.9658842
23	0x3dc9bc8c	0.098504156
24	0x401d7e22	2.4608235
25	0x3e65b052	0.22430542
26	0xbe7466ef	-0.23867391
27	0xbe937dd3	-0.28806934
28	0x3cbaa5df	0.022784172
29	0xbe210aec	-0.15726823
30	0x3f6a9bc3	0.91643924
31	0xbd1b613b	-0.037934523
32	0xbed29318	-0.4112785
33	0x3e9b4fe2	0.30334383
34	0x3f8d2ee8	1.102994
35	0xbe34affb	-0.17645256
36	0x3e228117	0.15869556
37	0x400d5a0d	2.2086213
38	0xbd299fca	-0.041412152
39	0xbec68007	-0.38769552
40	0x3db42ffd	0.087982155
41	0xbbe29b05	-0.0069154524
42	0xbce955aa	-0.02848323
43	0x3e93a67c	0.28837955
44	0x3d4bfe4f	0.049803074
45	0xbe93cdf8	-0.2886808
46	0xbde660fb	-0.11248966
47	0x3e24e57a	0.16103163
48	0xbd29b2a8	-0.041430146
49	0xbddf7780	-0.10911465
50	0xbe0fca49	-0.1404201
51	0xbe82a1ef	-0.2551417
52	0x3e464608	0.19362652
53	0xbd6e2189	-0.05813745
54	0xbc0d9e3c	-0.008643683
55	0xbe3331e4	-0.174995
56	0xbea4758b	-0.32120928
57	0xbd8f6f57	-0.07003658
58	0x3cd125c7	0.025530709
59	0x3e130fd6	0.1436151
60	0xbe0a64c1	-0.13514997
61	0x3e2f56fb	0.17123024
62	0xbd4ac2ff	-0.04950237
63	0xbe49e2f4	-0.19715482
64	0x3e862ab8	0.26204467
65	0x3ea12edc	0.31481063
66	0xbe23634c	-0.15955848
67	0xbd335db6	-0.04379054
68	0xbd815a4b	-0.0631605
69	0x3d189a0e	0.037256293
70	0xbc53879b	-0.012910749
71	0x3d4c3abc	0.0498607
72	0xbb0c8a9e	-0.0021444927
73	0x3e2e45c3	0.170188
74	0xbe137a68	-0.14402163
75	0xbe7b17c7	-0.24520789
76	0x3ed1c582	0.40971
77	0x3e5d423d	0.21607299
78	0x3ea20427	0.31643793
79	0x3e0dc648	0.1384517
80	0x3d17d5e0	0.0370692
81	0x3de0d28f	0.10977661
82	0x3dae5a0a	0.08513267
83	0x3d14c29a	0.0363184
84	0x3e877655	0.26457468
85	0xbd817a84	-0.06322196
86	0x3ce69fd5	0.028152386
87	0xbbbf5c65	-0.0058398717
88	0x3d76de0b	0.06027035
89	0x3d55a0f6	0.052155457
90	0x3e824439	0.25442675
91	0x3c537118	0.012905382
92	0x3de31949	0.11088807
93	0xbdf470de	-0.1193559
94	0x3db42276	0.087956354
95	0x3e30bea4	0.17260224
96	0xbcd8c27b	-0.026459923
97	0xbde0c876	-0.10975735
98	0x3dfd7ff4	0.12377921
99	0xbe9bd6fd	-0.3043746
100	0x3e8e8693	0.27837047
101	0xbe230e9f	-0.15923546
102	0x3e10ca38	0.1413964
103	0xbe0eaca5	-0.13933046
104	0x3e4cec2c	0.20011967
105	0xbe63662a	-0.22206941
106	0x3d3f9807	0.046775844
107	0x3e85324b	0.26014933
108	0x3df02d9b	0.117274486
109	0x3d048835	0.03235646
110	0x3e7aef2c	0.245053
111	0xbe26dcc7	-0.16295157
112	0xbca49c5b	-0.020094087
113	0x3cf8dc4f	0.030378489
114	0x3d8b2d12	0.06795706
115	0xbe80aa0e	-0.2512974
116	0x3e352f1d	0.17693754
117	0x3d75254b	0.05985002
118	0x3e2669a2	0.16251233
119	0x3e392052	0.18078735

linears.6.bias f4 [3]
0	0x3f52ef5b	0.8239648
1	0xbcbee036	-0.023300271
2	0xbc1743c4	-0.009232465

exp_avg f4 [40, 2]
0	0xc00790c7	-2.1182115
1	0xbdaeb2ea	-0.08530219
2	0x3f240b10	0.6407938
3	0xbda682e6	-0.08130436
4	0xbfb0a652	-1.3800757
5	0x3be53390	0.006994672
6	0x3f3809e6	0.71890104
7	0x3e8c45a7	0.2739689
8	0x3c0bcbca	0.008532474
9	0xbdf938ca	-0.12169035
10	0x3f901aad	1.1258141
11	0x3ef9658a	0.4871028
12	0x3fc70f26	1.5551498
13	0x3ebe76cb	0.37200007
14	0xbfac6a87	-1.347001
15	0xbdfb847b	-0.12281128
16	0x3ebf3294	0.37343276
17	0xbea1266c	-0.31474626
18	0xbfea5a63	-1.8308834
19	0x3e9d705d	0.3074979
20	0xbe90ec3d	-0.28305236
21	0xbf573684	-0.8406756
22	0x3f60d7ba	0.8782917
23	0xbeb1ce4d	-0.34727708
24	0xbf9e7168	-1.2378359
25	0x3e1c3c68	0.15257418
26	0x3e12debe	0.14342782
27	0x3ddae129	0.10687477
28	0x401cf3c9	2.4523795
29	0x3de003d8	0.10938233
30	0xbf95aa56	-1.1692607
31	0xbe68598c	-0.2269041
32	0xbfb83d7b	-1.4393762
33	0xbde14703	-0.109998725
34	0x3e86bb8d	0.26314965
35	0xbc4f9df9	-0.012671941
36	0xbf0790fa	-0.5295559
37	0xbd2dac72	-0.042400785
38	0x3f95f8b1	1.171652
39	0x3f1871b0	0.59548473
40	0x3e26d225	0.16291101
41	0x3d09c279	0.03363273
42	0x3e55c4d9	0.20875873
43	0x3e5ae840	0.21377659
44	0xbec8d5f9	-0.39225748
45	0x3f8356c9	1.026086
46	0x3ec13ed4	0.37743247
47	0x3e1d9c8b	0.15391748
48	0xbf210b20	-0.629076
49	0x3c92eb03	0.017934328
50	0xbfb4a247	-1.4112023
51	0xbe1e155c	-0.15437835
52	0x3fae924d	1.3638397
53	0x3cc56202	0.024094585
54	0x3fb28751	1.3947545
55	0xbca2751c	-0.019831233
56	0x3f913c67	1.1346558
57	0xbc50e239	-0.012749248
58	0xbf0b3ce4	-0.54389787
59	0xbe48a5be	-0.19594476
60	0xbf5039cf	-0.8133821
61	0x3e20797f	0.15671347
62	0x3fe7e825	1.811772
63	0xbe4f77ad	-0.20260496
64	0xbec53571	-0.38517335
65	0xbd1a63e1	-0.03769291
66	0x3ef36f05	0.4754564
67	0x3e89d2a6	0.26918525
68	0x3f4eeddd	0.808317
69	0xbdebf86a	-0.115219906
70	0xbf88efc2	-1.0698168
71	0x3f98c3b3	1.1934723
72	0xbea1d3c6	-0.31606883
73	0x3e044f95	0.12920983
74	0x3e894f61	0.26818374
75	0xbe39ae12	-0.18132809
76	0x3f10e535	0.5659974
77	0x3b46641a	0.0030272068
78	0xbedfbc24	-0.43698227
79	0x3e648885	0.22317703

exp_avg_sq f4 [40, 2]
0	0x4c0375b0	3.4461376e+07
1	0x48def9a6	456653.2
2	0x4a7da7e7	4.1558978e+06
3	0x47026beb	33387.918
4	0x4b192202	1.0035714e+07
5	0x473b1634	47894.203
6	0x4a003b5d	2.1009512e+06
7	0x46637bbb	14558.933
8	0x49d41e5a	1.7376752e+06
9	0x467e4cab	16275.167
10	0x4c545206	5.565852e+07
11	0x491c4666	640102.4
12	0x4a7b3233	4.1155968e+06
13	0x4725a07b	42400.48
14	0x4b5d9190	1.452072e+07
15	0x48354de1	185655.52
16	0x4aaa9879	5.5900765e+06
17	0x475adb1f	56027.12
18	0x4a077990	2.21962e+06
19	0x470412d8	33810.844
20	0x4bbc06fa	2.4645108e+07
21	0x489f7a78	326611.75
22	0x4b2a00eb	1.1141355e+07
23	0x474050eb	49232.918
24	0x4a97b9ee	4.971767e+06
25	0x47054247	34114.277
26	0x4ac21077	6.3590995e+06
27	0x47453122	50481.133
28	0x4ab76dae	6.010583e+06
29	0x47bf6e3e	98012.484
30	0x49c62987	1.6233449e+06
31	0x465681b2	13728.424
32	0x4a526035	3.4467972e+06
33	0x47080e36	34830.21
34	0x4ab5632d	5.9437025e+06
35	0x471413d6	37907.836
36	0x4a4cf69d	3.3581192e+06
37	0x4663d801	14582.001
38	0x4a278c3e	2.7451035e+06
39	0x46c3d9a6	25068.824
40	0x4a33bdb5	2.9448772e+06
41	0x47866107	68802.055
42	0x4bff1dcc	3.3438616e+07
43	0x4906867d	551015.8
44	0x4a7c537b	4.1341108e+06
45	0x477d64cc	64868.797
46	0x49dc40a8	1.804309e+06
47	0x469da8e4	20180.445
48	0x4bc04bc8	2.5204624e+07
49	0x48bd603b	387841.84
50	0x4ba317be	2.1376892e+07
51	0x48c1e9e6	397135.2
52	0x4b5995f5	1.4259701e+07
53	0x4749bf9e	51647.617
54	0x4aa67664	5.454642e+06
55	0x479b3349	79462.57
56	0x4998558c	1.2479215e+06
57	0x46b89990	23628.781
58	0x4abc8b38	6.178204e+06
59	0x479d43e2	80519.766
60	0x4a659f86	3.7621455e+06
61	0x47853aae	68213.36
62	0x4ae79d87	7.5895715e+06
63	0x47c36d35	100058.414
64	0x4b1d8d2f	1.0325295e+07
65	0x4846882f	203296.73
66	0x4aa1ba39	5.2994845e+06
67	0x47234240	41794.25
68	0x4aa5d8b8	5.43446e+06
69	0x476f2f1f	61231.12
70	0x49b14f3c	1.4525195e+06
71	0x4707392a	34617.164
72	0x4a97e08f	4.9767115e+06
73	0x4741773c	49527.234
74	0x49b2e1b8	1.465399e+06
75	0x46588ffe	13859.998
76	0x49cec708	1.693921e+06
77	0x4687ed3f	17398.623
78	0x4af376d5	7.9778345e+06
79	0x47c6d9c1	101811.51
