1DCFD_PINN/1D_CFD_Rand_Eta0.1_Zeta0.1_periodic_Train_PINN.pt-10000.pt (torch, 112935 bytes, 42 tensors)

linears.0.weight f4 [40, 2]
0	0xbda74124	-0.081667215
1	0xbdca771d	-0.09886
2	0xbd6e7a2c	-0.05822198
3	0x3e95b526	0.29239768
4	0x3db270c4	0.087129146
5	0xbed01f6c	-0.40648973
6	0xbcddcde9	-0.027075725
7	0xbe5b216b	-0.21399467
8	0xbe44bc55	-0.19212468
9	0x3e593ad2	0.21213844
10	0x3e2e3e22	0.1701589
11	0xbe093465	-0.13398893
12	0x3e9d59f9	0.30732706
13	0x3e5d1ce6	0.21593055
14	0x3dd7dfa0	0.105407
15	0xbee9c4f5	-0.4565808
16	0x3deb6663	0.11494138
17	0x3e1e05e1	0.1543193
18	0xbefecb51	-0.49764493
19	0xbd9eed06	-0.077600524
20	0x3e422e8c	0.18963069
21	0xbe19b47b	-0.15010254
22	0x3e93c880	0.28863907
23	0x3d3dbc1f	0.046321984
24	0xbe360d78	-0.17778575
25	0xbd72b1da	-0.059251644
26	0x3e94629a	0.28981477
27	0xbdf95824	-0.121750146
28	0x3e09a1af	0.13440584
29	0xbddac408	-0.10681921
30	0xbe8e9299	-0.2784622
31	0xbf2a901f	-0.6662616
32	0x3e03ed00	0.12883377
33	0xbe22b352	-0.15888718
34	0x3d5ee459	0.054416988
35	0xbdcf06a0	-0.101086855
36	0xbe350be9	-0.17680325
37	0x3d42a7ee	0.04752343
38	0xbe814de7	-0.25254747
39	0x3ea669c7	0.32502577
40	0xbd30e524	-0.043187276
41	0x3d6c964e	0.05776053
42	0xbdec3030	-0.115326285
43	0x3ec7b85d	0.39007846
44	0x3e2a1699	0.16610183
45	0x3e819b50	0.25313807
46	0xbe9c4e5b	-0.3052853
47	0x3d3e3f27	0.046446946
48	0xbea910a5	-0.3302051
49	0xbe196a69	-0.14981999
50	0x3ce91fed	0.028457606
51	0xbc4ef751	-0.012632207
52	0x3ecb67d6	0.39727658
53	0xbe1d15ab	-0.15340297
54	0x3eb04329	0.3442624
55	0x3e4c7873	0.19967823
56	0x3d479a35	0.048731048
57	0xbb8aad39	-0.0042320755
58	0xbe63896a	-0.22220388
59	0xbd9bda4c	-0.07609996
60	0xbd1f013a	-0.03881953
61	0x3d70daa7	0.058802273
62	0xbded69a4	-0.11592415
63	0x3f3b198c	0.73085856
64	0x3e6d6f25	0.2318693
65	0xbf11d046	-0.56958425
66	0xbdbbc613	-0.09168639
67	0x3eb8c570	0.36088133
68	0xbdc688d0	-0.09694064
69	0xbe4bd46b	-0.1990525
70	0x3e1718cc	0.14755553
71	0xbe41eff0	-0.18939185
72	0xbeb942d0	-0.36183786
73	0xbf1827bb	-0.59435624
74	0x3e1ff235	0.15619738
75	0xbe0faa67	-0.14029847
76	0xbdd533b4	-0.10410252
77	0x3d7b1af4	0.061305
78	0x3e7c7109	0.24652494
79	0xbe81c8e8	-0.25348592

linears.0.bias f4 [40]
0	0x3d732e7e	0.05937051
1	0x3bf87c02	0.0075831423
2	0x3c5afa8b	0.013365398
3	0xbcb3a01c	-0.021926932
4	0x3cacbdcc	0.021086596
5	0xbcf95c18	-0.030439422
6	0xb6021915	-1.938611e-06
7	0x3d260f61	0.04054201
8	0xbc6ed78f	-0.01457776
9	0x3cde0d4a	0.027105946
10	0xbccae67a	-0.024768103
11	0x3cb80385	0.022462616
12	0xbbbc069b	-0.005738092
13	0x3c3c8871	0.01150714
14	0xbd005332	-0.03132934
15	0x3d0e35a0	0.03471911
16	0x3c74895a	0.014925325
17	0xbc421a96	-0.011847159
18	0xbc6268c8	-0.013818927
19	0x3c362952	0.01111825
20	0x3cfa7c6f	0.030576913
21	0x3caae393	0.020860469
22	0xbcedfa37	-0.029049976
23	0xbc8bb40c	-0.017053626
24	0x3d14dc5d	0.036342967
25	0x3cd0c6f3	0.025485491
26	0x3bfa1d8f	0.007632918
27	0xbcdf538b	-0.027261516
28	0xbce45eba	-0.0278772
29	0xbc263df9	-0.010146611
30	0x3d1ca09a	0.0382391
31	0xbce0ba98	-0.027432725
32	0x3c9af53f	0.01891577
33	0xbd032706	-0.032019638
34	0xbb4e057f	-0.0031436381
35	0xbc7a099e	-0.015261082
36	0x3d492cb6	0.049114905
37	0xbcc437f1	-0.023952456
38	0x3d0afbc6	0.033931516
39	0xbca009ad	-0.019535864

linears.1.weight f4 [40, 40]
0	0x3e2b10f5	0.16705687
1	0x3e896f3c	0.26842678
2	0x3ee8b3de	0.45449728
3	0x3e7dca7e	0.24784276
4	0x3e011d58	0.1260885
5	0x3dcfe325	0.10150746
6	0x3e91e48d	0.28494683
7	0x3e82fc5f	0.2558317
8	0xbd03abb6	-0.03214618
9	0xbdb29fee	-0.087219104
10	0x3e3f9128	0.18707716
11	0x3d65a5ab	0.056066196
12	0x3d9962a1	0.07489515
13	0xbcb1fecb	-0.02172794
14	0x3bb05eda	0.005382401
15	0x3dccd0fe	0.100007996
16	0xbd990e8b	-0.07473477
17	0x3e2a179d	0.1661057
18	0x3e1fd1ea	0.1560742
19	0xbe8df7af	-0.2772803
20	0x3bdc0f89	0.006715719
21	0xbed3f368	-0.41396642
22	0xbcb4599b	-0.022015383
23	0x3e0e2726	0.13882121
24	0x3e011a97	0.126078
25	0x3d9a100e	0.075225934
26	0xbe2251da	-0.15851536
27	0x3ccf8ed4	0.02533666
28	0xbe0d3671	-0.13790299
29	0xbd83aa28	-0.06428939
30	0x3db8fc52	0.09032501
31	0xbbaa86db	-0.0052040643
32	0xbcf771cf	-0.030205635
33	0x3e7411e0	0.23834944
34	0x3dada4f0	0.08478725
35	0x3d4e43d3	0.05035765
36	0xbc25f3da	-0.0101289395
37	0x3d3b8cc8	0.045788556
38	0x3c6796a7	0.014135039
39	0xbe09d11b	-0.13458674
40	0xbe2d4dd7	-0.16924225
41	0x3d6e86bb	0.058233958
42	0xbe1e7d79	-0.15477552
43	0xbe896bad	-0.26839963
44	0xbd619c59	-0.055080745
45	0xbd636e83	-0.055525314
46	0x3e2ba8a8	0.16763556
47	0xbe37dfdf	-0.17956494
48	0x3db3f567	0.08787041
49	0xbd304f52	-0.043044396
50	0xbdafbcce	-0.085809335
51	0x3dfae4e9	0.122506924
52	0xbde5929e	-0.11209606
53	0xbe6971ae	-0.22797272
54	0xbe570dea	-0.21001402
55	0xbdc74f5f	-0.09731936
56	0xbd96e67e	-0.07368182
57	0x3ec6562c	0.3873762
58	0x3e73265d	0.23745103
59	0xbea7a779	-0.3274496
60	0x3e678d7b	0.22612564
61	0xbd25d82f	-0.040489372
62	0xbdc2421c	-0.094852656
63	0xbc6f0a88	-0.014589913
64	0x3e2c8207	0.16846476
65	0xbe941282	-0.2892037
66	0x3d9cb74b	0.07652148
67	0xbdcc98e9	-0.09990103
68	0xbe0edbe7	-0.13951074
69	0x3d76ccae	0.06025379
70	0x3e13121d	0.14362378
71	0x3f1eb74e	0.6199845
72	0x3d33922b	0.04384057
73	0x3d975853	0.073898934
74	0xbe3673b6	-0.17817578
75	0xbe1fcccb	-0.15605466
76	0x3d27d00a	0.040969886
77	0x3dc8ea94	0.09810367
78	0x3d60e99e	0.054910295
79	0x3dd5855a	0.104258254
80	0xbe67fad1	-0.22654273
81	0x3e0e1fb9	0.13879289
82	0x3ca4ff0e	0.02014115
83	0xbdbce2fd	-0.09222982
84	0x3da0dc91	0.0785457
85	0xbe121da4	-0.1426912
86	0x3b83e560	0.0040251464
87	0x3da3c918	0.0799734
88	0x3d6c7f1a	0.0577384
89	0xbd1960fd	-0.03744601
90	0x3e3947be	0.18093774
91	0x3e4490f2	0.19195917
92	0xbbbb8922	-0.0057231346
93	0xbd3c7c25	-0.04601683
94	0xbe266f26	-0.16253337
95	0x3d246aa0	0.040140748
96	0x3eae9eaf	0.3410544
97	0x3e15092e	0.14554283
98	0xbdbca020	-0.09210229
99	0xbe66670e	-0.2250025
100	0x3d8f097d	0.069842316
101	0x3ddd0c70	0.10793388
102	0xbca5d997	-0.020245356
103	0x3e6e6f0a	0.23284546
104	0xbd03a0b4	-0.03213568
105	0xbd557dd7	-0.052121963
106	0xbe37cc7a	-0.17949095
107	0x3e77456a	0.24147573
108	0xbd1d8dd9	-0.038465355
109	0x3e019860	0.12655783
110	0xbde946c5	-0.11390451
111	0xbe39b450	-0.1813519
112	0x3d3a0d64	0.045422927
113	0xbd14c8b7	-0.03632423
114	0xbe736164	-0.2376762
115	0xbd728223	-0.05920614
116	0x3dc0b1cb	0.09408911
117	0x3da131ac	0.07870802
118	0x3e57d31c	0.21076626
119	0x3e4b347d	0.19844241
120	0xbd276dd1	-0.040876213
121	0x3d37618b	0.04477076
122	0xbe1d9699	-0.1538948
123	0xbdffa2eb	-0.12482246
124	0xbdf64040	-0.120239735
125	0x3e0ccde7	0.1375042
126	0x3cd30ca0	0.025762856
127	0x3db4d4df	0.088296644
128	0xbe0a66ac	-0.13515729
129	0x3c56f322	0.013119491
130	0xbdde502e	-0.10855137
131	0x3e3bb372	0.18330172
132	0x3dafb2db	0.08579036
133	0x3e01d48c	0.12678736
134	0x3d503da0	0.05084002
135	0x3c947952	0.018124256
136	0xbe8ebd9a	-0.2787903
137	0xbd6fd1bd	-0.05854963
138	0x3d6607b1	0.05615968
139	0x3e42ca55	0.19022496
140	0xbe69b2d4	-0.22822124
141	0x3dd47002	0.10372926
142	0x3e0fb338	0.1403321
143	0x3e8f12be	0.27943987
144	0xbd827fdb	-0.06372043
145	0xbdf4fc5b	-0.119621955
146	0xbe389bd4	-0.18028194
147	0x3bbace19	0.0057008383
148	0xbd92dba0	-0.071707964
149	0x3d62d4e0	0.055378795
150	0xbe34c071	-0.17651536
151	0x3c247ed7	0.010040007
152	0xbe6a1ceb	-0.22862594
153	0x3e092e73	0.13396625
154	0x3e246b11	0.16056468
155	0xbe26ec85	-0.16301163
156	0xbe9380da	-0.28809243
157	0x3ea28c6a	0.31747752
158	0x3de3c514	0.11121574
159	0xbc4baae6	-0.012430882
160	0x3d91f94c	0.07127628
161	0xbd9d5a81	-0.07683278
162	0x3ea06483	0.31326684
163	0xbe4919d0	-0.19638753
164	0xbd43d3fb	-0.047809582
165	0x3dd7d5eb	0.105388485
166	0xbe8bf524	-0.27335465
167	0x3e9060d3	0.2819887
168	0x3e986844	0.29767048
169	0xbdcffe6d	-0.1015595
170	0xbe29325e	-0.1652312
171	0xbe7e7e63	-0.248529
172	0x3cbc8c62	0.023016158
173	0xbdc8e3cc	-0.09809074
174	0x3e5ec1dc	0.21753639
175	0xbded3cc0	-0.11583853
176	0xbd45c57e	-0.048284046
177	0xbe8bb047	-0.27282926
178	0x3d492bfd	0.049114216
179	0x3c33c2b1	0.010971711
180	0xbda0fde9	-0.078609295
181	0x3e05542f	0.13020395
182	0x3dac9365	0.08426551
183	0x3e6ee5f5	0.23329909
184	0x3dc9a532	0.09845962
185	0x3e61f7eb	0.2206723
186	0xbd964822	-0.07337977
187	0x3e005e7e	0.12536046
188	0x3dc048c7	0.09388881
189	0x3e4c2c03	0.19938664
190	0x3e1c65a1	0.15273143
191	0xbdb766a5	-0.08955125
192	0xbdcad1b4	-0.09903279
193	0xbd800470	-0.062508464
194	0xbe1cc955	-0.15311177
195	0x3e69412d	0.22778769
196	0x3d2ea3db	0.042636734
197	0x3ea49ee2	0.32152468
198	0x3e0b5a46	0.13608655
199	0xbcc51e70	-0.024062365
200	0xbe19cc6a	-0.15019384
201	0xbe2ad721	-0.16683628
202	0x3e255b36	0.16148075
203	0xbd970754	-0.073744446
204	0x3ed0efb3	0.40807876
205	0x3dfa974f	0.12235891
206	0x3d3dbb43	0.046321165
207	0xbcafc556	-0.021456402
208	0xbe0197fc	-0.12655634
209	0xbe12e1da	-0.14343968
210	0xbb827245	-0.003980907
211	0x3e1af8cd	0.15133972
212	0x3d943791	0.07237161
213	0x3d7be339	0.061495993
214	0xbe0b51c8	-0.13605416
215	0xbd7acddc	-0.06123148
216	0x3e5726aa	0.21010843
217	0x3af56d3b	0.001872457
218	0xbcd69eac	-0.026198708
219	0x3e08ef89	0.13372625
220	0x3d95cdf1	0.07314671
221	0x3d62a389	0.05533174
222	0xbdba6e1c	-0.09103033
223	0xbddc8200	-0.10766983
224	0x3e3fe525	0.18739755
225	0x3e1d8560	0.1538291
226	0xbcaf3d48	-0.021391526
227	0xbde3b60e	-0.111187086
228	0x3de038b5	0.10948316
229	0xbde3c71a	-0.1112196
230	0xbd93995f	-0.072069876
231	0x3e232e92	0.15935734
232	0x3ec8868e	0.39165157
233	0xbcf8bd30	-0.03036365
234	0xbe1a243c	-0.15052885
235	0xbd904ad4	-0.07045522
236	0xbe0c32cd	-0.13691254
237	0xbe3b13b9	-0.18269242
238	0xbe76435c	-0.24049133
239	0x3c3904ac	0.011292618
240	0x3e9bf8b8	0.30463195
241	0x3d0d54f0	0.03450483
242	0xbe3cfe74	-0.18456441
243	0xbe31959b	-0.17342226
244	0x3b8f5726	0.0043744026
245	0x3dc41294	0.09573856
246	0xbae2609c	-0.0017271223
247	0x3c9434a4	0.018091507
248	0x3e485f54	0.19567615
249	0x3e3cba51	0.18430449
250	0x3e6c56d5	0.23079999
251	0x3ea8fce8	0.33005452
252	0xbca68e0b	-0.020331403
253	0x3ea56a08	0.32307458
254	0xbdd499ed	-0.103809215
255	0x3e203855	0.15646489

linears.1.bias f4 [40]
0	0xbc13284e	-0.008981777
1	0x3badda3e	0.0053055575
2	0x3c503b80	0.012709498
3	0xbcd3dcef	-0.025862185
4	0xbc978449	-0.018495696
5	0x3c57fc0f	0.013182654
6	0xbb763c09	-0.0037572405
7	0x3c9ed853	0.01939026
8	0x3c493782	0.0122813005
9	0xbcbf407a	-0.023346175
10	0xbc90b3f5	-0.017663935
11	0xbc288d6e	-0.010287626
12	0x3bec05b6	0.0072028292
13	0x3c9a0dd4	0.018805422
14	0xbc9a2b6c	-0.018819533
15	0xbc96731e	-0.018365439
16	0xbd33e608	-0.043920547
17	0x3cdacfbd	0.026710385
18	0xbb44808d	-0.0029983849
19	0x3b3a9ffd	0.0028476708
20	0x3cf8d189	0.030373352
21	0x3d371e3d	0.04470657
22	0x3ccf6f9d	0.025321776
23	0xbc57be2e	-0.013167901
24	0x3cc67cce	0.024229433
25	0xbce82002	-0.028335575
26	0x3c69d3d8	0.014271699
27	0x3ab19a80	0.0013550073
28	0x3cef5d27	0.029219223
29	0x3c453fd5	0.0120391445
30	0x3d16aeb4	0.036787704
31	0x3d253ccf	0.040341195
32	0x3ccad70e	0.02476075
33	0x3b9afc25	0.004729765
34	0x3cec14af	0.028818456
35	0x3cc1c041	0.023651244
36	0x3bc56e6a	0.0060251253
37	0xbcbe6423	-0.023241108
38	0x3c7eb8a9	0.015546956
39	0x3ceeac12	0.029134784

linears.2.weight f4 [40, 40]
0	0x3e75ac51	0.23991515
1	0xbe6ba6c7	-0.2301284
2	0x3e321706	0.17391595
3	0x3e47922f	0.19489358
4	0xbe9a674d	-0.30156937
5	0x3e4a019d	0.19727178
6	0xbe7bd32d	-0.24592276
7	0x3e728ce1	0.23686554
8	0xbcd57c07	-0.026060117
9	0x3ce89e02	0.028395656
10	0xbd930cb4	-0.07180157
11	0xbe45a413	-0.1930087
12	0x3e1ed7c1	0.15511991
13	0xbe4dd6e9	-0.20101513
14	0x3ce9b6f6	0.028529625
15	0x3d960e74	0.073269755
16	0xbc767c29	-0.0150442505
17	0x3ccaefcd	0.024772549
18	0xbde26b0b	-0.11055573
19	0x3cd9001e	0.026489314
20	0x3c159bb5	0.009131362
21	0x3e36a531	0.17836453
22	0xbe063ef1	-0.13109948
23	0xbdfb7e33	-0.1227993
24	0xbe63fa4f	-0.22263454
25	0xbdbf43e3	-0.0933912
26	0x3db79ece	0.089658365
27	0x3e661ff7	0.22473131
28	0x3e0a056d	0.13478632
29	0x3a9b2b9b	0.0011838557
30	0x3d4937f5	0.04912563
31	0x3d9a3ec7	0.07531505
32	0xbe2382fa	-0.15967932
33	0x3c3bd784	0.011464957
34	0xbdba70ec	-0.091035694
35	0x3d8f0b5c	0.069845885
36	0x3e946cdc	0.28989303
37	0x3d4f9503	0.050679218
38	0x3de33622	0.110943094
39	0x3e0d0c57	0.13774239
40	0x3e5b187e	0.21396062
41	0x3dc25fe2	0.094909444
42	0xbe29e1d9	-0.1659006
43	0xbdd11997	-0.10209959
44	0xbd570fbf	-0.05250525
45	0x3da00745	0.078138866
46	0xbd496a97	-0.049173918
47	0x3dbba415	0.091621555
48	0x3d22d5ad	0.03975456
49	0xbe173997	-0.14768063
50	0x3e3b3068	0.18280184
51	0xbe40b9bc	-0.18820852
52	0x3e559b04	0.20859915
53	0xbe2944d0	-0.16530156
54	0xbe07a3a7	-0.13246022
55	0x3d98653b	0.07441183
56	0x3e31f8b1	0.17380024
57	0xbea8e718	-0.3298881
58	0x3ea8bcdf	0.32956597
59	0x3e272adc	0.16324943
60	0xbe244e8c	-0.16045588
61	0x3d7239af	0.059137043
62	0x3c3bbe56	0.011458954
63	0xbd7228ff	-0.05912113
64	0xbd2a7586	-0.041615985
65	0xbe53a9ec	-0.20670289
66	0x3e1dbb19	0.15403403
67	0x3e71360b	0.23555772
68	0xbe1fc1f1	-0.15601327
69	0xbde5b1d3	-0.11215558
70	0xbd25fb26	-0.040522717
71	0x3e18187f	0.14853095
72	0xbd5d7bc9	-0.05407313
73	0x3da75674	0.081707865
74	0xbd21d4ff	-0.03950977
75	0x3d789ca4	0.06069626
76	0xbe1efc49	-0.15525927
77	0xbcae8741	-0.021304728
78	0x3b4fee3a	0.0031727687
79	0x3e898082	0.26855856
80	0x3dd5b923	0.10435703
81	0xbdcd8016	-0.10034196
82	0xbe53bdc6	-0.20677862
83	0x3e45d640	0.19320011
84	0xbe27b10f	-0.16376136
85	0x3cbb0d48	0.022833481
86	0x3e32aaf4	0.17448026
87	0xbcd19ab0	-0.025586456
88	0xbd82f63e	-0.06394623
89	0x3da08f3a	0.07839818
90	0xbe19b9f9	-0.15012349
91	0xbdbd0fe4	-0.092315465
92	0x3e36c7a6	0.17849597
93	0x3e4545f6	0.19264969
94	0x3dd7c722	0.105360284
95	0xbdc13251	-0.09433425
96	0x3ded673d	0.11591957
97	0xbe031d66	-0.12804183
98	0xbcf0dd64	-0.029402442
99	0x3e5004ba	0.20314303
100	0xbc521220	-0.012821704
101	0x3df53363	0.11972692
102	0x3d897ec7	0.06713634
103	0x3de43141	0.11142207
104	0xbd39f5d0	-0.04540044
105	0xbd7d8049	-0.06188992
106	0x3d168981	0.036752228
107	0xbe540ba7	-0.2070757
108	0x3df7681f	0.120804064
109	0xbdc6b042	-0.09701587
110	0x3e738464	0.23780972
111	0x3caffad7	0.021481914
112	0xbd374f2b	-0.044753235
113	0xbe0bb37f	-0.13642691
114	0x3d94264b	0.07233866
115	0xbe03b901	-0.12863542
116	0x3e20b5ec	0.15694398
117	0x3e1ce949	0.15323366
118	0x3c1d4fc1	0.009601534
119	0x3e8cbd12	0.27488
120	0xbe1501c1	-0.1455145
121	0x3da4a31b	0.080389224
122	0xb9fb8373	-0.00047972388
123	0xbcd01329	-0.025399761
124	0xbe510a9d	-0.20414205
125	0xbc0e01a9	-0.008667388
126	0xbc32704b	-0.010891031
127	0x3e137f97	0.1440414
128	0xbe5b804c	-0.2143566
129	0x3c212d8d	0.00983752
130	0x3e1e2090	0.15442109
131	0xbd90470f	-0.07044803
132	0xbd97efc9	-0.07418782
133	0x3df6dfb2	0.12054385
134	0xbe183e4d	-0.14867516
135	0x3eb80113	0.3593832
136	0x3e6e2192	0.23254994
137	0x3e16acd3	0.14714365
138	0x3d139c6d	0.03603785
139	0x3df76929	0.120806046
140	0xbe3e8c69	-0.1860825
141	0xbe7f6ed6	-0.24944624
142	0xbc8b21d4	-0.016983904
143	0xbd933f19	-0.07189769
144	0xbbfaecd6	-0.0076576276
145	0x3da712f7	0.08157914
146	0x3c01ae19	0.007915043
147	0xbdeeac70	-0.116539836
148	0x3ca9414b	0.020661017
149	0xbd26186c	-0.040550634
150	0x3da1cc04	0.07900241
151	0xbcb07879	-0.02154182
152	0xbd993faa	-0.07482846
153	0xbd797952	-0.060906716
154	0xbd9d8905	-0.0769215
155	0x3dc81601	0.09769822
156	0xbde5a5a4	-0.11213234
157	0x3dd745d5	0.10511366
158	0x3db3d891	0.08781541
159	0xbc3b203d	-0.01142126
160	0x3e8b331c	0.2718743
161	0xbef9d0ed	-0.4879221
162	0x3d7cfbf0	0.061763704
163	0x3dbeca8f	0.09315979
164	0x3e91565f	0.28386208
165	0x3ca17fb4	0.019714214
166	0x3b24a188	0.0025120694
167	0xbcefddde	-0.0292806
168	0xbd6f802b	-0.05847184
169	0x3da69fab	0.08135923
170	0xbd5ab836	-0.053398333
171	0x3d836739	0.064161725
172	0xbec551a3	-0.38538846
173	0x3e309f74	0.17248327
174	0xbcd16bf0	-0.025564164
175	0xbdf1d953	-0.118090294
176	0xbdfb9a4a	-0.12285288
177	0xbdd0e744	-0.102003604
178	0x3e51c3d1	0.20484854
179	0x3dd16a3b	0.1022534
180	0xbd50d3b6	-0.050983153
181	0x3d4050dc	0.046952114
182	0xbdcc159e	-0.09965061
183	0xbd43ca4e	-0.047800355
184	0xbea00070	-0.31250334
185	0xbd9b306d	-0.07577596
186	0x3d8fde06	0.070247695
187	0x3e09dade	0.13462397
188	0xbdb469bb	-0.08809229
189	0x3daffb06	0.08592801
190	0xbc315a1e	-0.010824708
191	0x3c61f1e2	0.0137905795
192	0x3e39b706	0.18136224
193	0xbd88aee6	-0.06673984
194	0xbe83d2aa	-0.2574666
195	0x3ce81af4	0.028333165
196	0xbd9ef082	-0.07760717
197	0x3dcab349	0.09897477
198	0x3deefb00	0.11668968
199	0xbd61898b	-0.05506281
200	0x3da5fa4b	0.0810438
201	0x3c931a93	0.017957008
202	0xbd8c45dd	-0.06849263
203	0x3dffffac	0.124999374
204	0xbd6c4a58	-0.057688087
205	0x3e18e146	0.14929685
206	0x3e72a2af	0.23694871
207	0xbe816cda	-0.2527836
208	0xbe30e812	-0.17276028
209	0xbec932cf	-0.39296576
210	0x3ce067c2	0.027393226
211	0xbd2b4c76	-0.041820966
212	0xbe3b199d	-0.1827149
213	0x3d2d7c8f	0.042355116
214	0x3df3061c	0.118664
215	0x3e2d1414	0.1690219
216	0x3e467bae	0.19383118
217	0xbd868e8f	-0.0657016
218	0xbe99a723	-0.30010328
219	0xbd9d4e21	-0.076809175
220	0x3e0ea113	0.13928632
221	0x3dd1a4c8	0.10236508
222	0x3c857457	0.016290827
223	0x3d2fc6cd	0.0429142
224	0x3f0630f1	0.5241843
225	0xbd0a6744	-0.033789888
226	0xbd2399b7	-0.039941516
227	0x3e35f32e	0.17768547
228	0xbd28cb38	-0.04120943
229	0xbc9a0467	-0.018800927
230	0xbdffd9b1	-0.12492693
231	0x3e131a95	0.14365609
232	0xbc61f729	-0.013791838
233	0x3eaef85f	0.34173867
234	0x3de843af	0.113410346
235	0x3d91a814	0.071121365
236	0xbdca5faa	-0.09881528
237	0x3e6492f9	0.2232169
238	0x3dcd8b14	0.10036293
239	0x3c9c71fb	0.019097319
240	0xbc9b37da	-0.01894753
241	0xbe2dfb11	-0.16990305
242	0x3cfa1a18	0.03053002
243	0xbc903b8b	-0.017606517
244	0xbdae994b	-0.08525332
245	0xbe38924c	-0.18024558
246	0xbdb687d7	-0.08912628
247	0xbcd52a5f	-0.02602118
248	0xbe02cd62	-0.1277366
249	0xbdcb681c	-0.09931967
250	0x3e28d199	0.16486205
251	0x3ea51b5b	0.32247433
252	0xbbd41076	-0.006471689
253	0x3e11fa0e	0.14255545
254	0xbe8846d7	-0.26616547
255	0x3e2849be	0.1643438

linears.2.bias f4 [40]
0	0xbcb2525d	-0.02176779
1	0xbcb89577	-0.022532208
2	0x3c8c7820	0.017147124
3	0xbd0170cf	-0.031601723
4	0x3c307653	0.010770398
5	0xbc3fec58	-0.011714064
6	0x3c367849	0.011137077
7	0xbcd9211e	-0.02650505
8	0xbcf023f5	-0.02931402
9	0x3b8c8e87	0.0042894515
10	0xbd1059e0	-0.03524196
11	0x3c612588	0.013741858
12	0xbc906652	-0.017626915
13	0x3cd1a059	0.025589155
14	0xbd22d869	-0.039757166
15	0xbcbb9fa4	-0.022903271
16	0x3bf1cf26	0.0073794303
17	0x3d18e771	0.037330095
18	0x3b946bd1	0.0045294543
19	0x3cafb4ad	0.021448458
20	0xbd10790f	-0.0352717
21	0xbcad379d	-0.021144683
22	0xbc30988c	-0.0107785575
23	0xbc763127	-0.015026367
24	0x3cca06d1	0.024661453
25	0xbb7c1eec	-0.003847058
26	0x3c1f09be	0.009706913
27	0xbca8dc26	-0.020612787
28	0x3c75015d	0.014953938
29	0x3cd30151	0.025757464
30	0xbcc6ff89	-0.02429177
31	0xbcb13822	-0.021633212
32	0xbc15ed06	-0.009150749
33	0x3d003114	0.031296805
34	0x3d05da10	0.032678664
35	0xbd4509be	-0.048104994
36	0x3cbf5789	0.02335717
37	0x3cbabb6f	0.022794453
38	0xbc8656cc	-0.01639881
39	0xbcbbc94d	-0.022923136

linears.3.weight f4 [40, 40]
0	0xbd3ca15b	-0.046052318
1	0x3d61011b	0.054932695
2	0x3e8e6851	0.27813962
3	0x3d85f4cd	0.06540833
4	0x3d833e94	0.0640842
5	0xbea47d9e	-0.32127088
6	0xbc8f9284	-0.017525919
7	0x3dac0876	0.08400051
8	0x3e696c07	0.22795115
9	0x3e428555	0.18996175
10	0xbd2eaa96	-0.042643152
11	0x3cffb91e	0.0312162
12	0xbe4effe3	-0.202148
13	0xbe3e2895	-0.18570168
14	0x3d487afb	0.04894541
15	0xbdc78b2c	-0.09743342
16	0x3c90e7e7	0.017688705
17	0xbe730c16	-0.23735079
18	0x3d400a28	0.046884686
19	0xbe5d6e0d	-0.21624012
20	0x3e4420ce	0.19153139
21	0x3dfb2aa2	0.12263991
22	0x3da7ce27	0.08193617
23	0x3e75b87e	0.2399616
24	0xbd8b2896	-0.067948505
25	0x3cebc0c0	0.028778434
26	0x3d47d457	0.048786487
27	0xbd11dc8b	-0.035610717
28	0xbe68bd11	-0.22728373
29	0x3de0d395	0.10977856
30	0x3c93818e	0.018006112
31	0xbe0599a5	-0.13046892
32	0xbd3e8670	-0.04651493
33	0xbd3fea80	-0.046854496
34	0x3e64c705	0.22341545
35	0xbd275891	-0.040855948
36	0xbe182aa0	-0.1486001
37	0xbc7beafa	-0.015375847
38	0x3cf7d2f4	0.030251957
39	0x3dc3512d	0.095369674
40	0xbd8c6c62	-0.0685661
41	0xbdd9af4f	-0.106291406
42	0xbe2018de	-0.15634486
43	0xbda22128	-0.0791648
44	0xbe21d9d7	-0.15805756
45	0xbd6741b2	-0.056459136
46	0xbe4ec637	-0.201928
47	0xbd18593c	-0.037194476
48	0xbcc86349	-0.024461405
49	0x3caa52c4	0.020791419
50	0xbc420fe5	-0.01184461
51	0xbd0f3ba6	-0.034968995
52	0x3edec5a3	0.4351016
53	0x3dd40554	0.10352579
54	0x3d6bd11a	0.05757246
55	0x3dd6e729	0.10493309
56	0x3e0caadc	0.13737053
57	0xbd925080	-0.071442604
58	0xbd96d43b	-0.073646985
59	0xbdcfed7e	-0.1015272
60	0xbe704182	-0.23462489
61	0xbd34892f	-0.04407614
62	0x3e0d1b0d	0.1377985
63	0xbe199a75	-0.15000327
64	0xbcfdae5d	-0.030966932
65	0x3dd364c4	0.10321954
66	0xbe458f25	-0.19292887
67	0x3e48cae0	0.1960864
68	0x3e5f9204	0.21833044
69	0xbcc7e478	-0.024400935
70	0xbdef30d5	-0.11679236
71	0x3dcf44a1	0.10120512
72	0xbe3b5ace	-0.18296358
73	0xbcf7d19c	-0.030251317
74	0xbd3202b8	-0.043459624
75	0x3e6bf0d4	0.23041087
76	0xbe8e1f2e	-0.27758163
77	0xbcb154a5	-0.021646807
78	0x3e1a3a11	0.15061213
79	0xbe9261f5	-0.2859036
80	0x3e19fccd	0.15037842
81	0xbc482d3a	-0.012217814
82	0x3d2830bd	0.041062105
83	0x3e36f5ab	0.17867152
84	0xbdaf27f8	-0.08552545
85	0xbd20d05a	-0.0392612
86	0x3e32f7e8	0.17477381
87	0x3e3e6ae4	0.18595463
88	0x3e8953d3	0.26821765
89	0x3df56c24	0.11983517
90	0xbe0555f0	-0.13021064
91	0x3d454aac	0.048166916
92	0x3d726dbd	0.059186686
93	0x3df6a0ef	0.120424144
94	0xbe144c68	-0.14482272
95	0x3d0c681d	0.034278978
96	0xbe83d42b	-0.2574781
97	0xbbf853f9	-0.0075783697
98	0x3d1840b9	0.0371711
99	0x3e3802d9	0.17969836
100	0xbe9a1790	-0.30096102
101	0xbd6b353b	-0.05742381
102	0xbdaec517	-0.08533686
103	0xbbbc36ca	-0.005743836
104	0xbe78d37c	-0.24299425
105	0x3dc145cd	0.094371416
106	0xbd14e47e	-0.03635072
107	0xbd8a296e	-0.06746183
108	0xbdf2b502	-0.11850931
109	0x3b76a139	0.0037632717
110	0x3e3404f7	0.17580019
111	0xbc771451	-0.015080527
112	0x3d683034	0.056686595
113	0x3d47bf73	0.048766565
114	0xbdfd3fd2	-0.123656884
115	0xbe11fe47	-0.14257155
116	0xbd035ff5	-0.032073934
117	0x3cd8f90f	0.026485948
118	0x3d1b6e58	0.03794703
119	0x3e1a3536	0.15059361
120	0x3d32f283	0.04368831
121	0xbe027e8e	-0.1274359
122	0x3dfebddb	0.12438556
123	0xbe290be8	-0.16508448
124	0xbd8de1fa	-0.06927867
125	0x3caa5c78	0.020796046
126	0xbe227b0e	-0.15867254
127	0xbe61570e	-0.22005865
128	0xbd66ee69	-0.05637971
129	0xbe71c262	-0.23609307
130	0xbd8b3f2c	-0.067991585
131	0x3e884c42	0.2662068
132	0xbd981be5	-0.074271955
133	0x3eaeece7	0.34165117
134	0x3c0f3521	0.008740694
135	0x3d8c2dbd	0.068446614
136	0xbe4efe19	-0.20214118
137	0xbe0c0977	-0.13675486
138	0xbe1b9451	-0.15193297
139	0x3e0e1fa0	0.13879251
140	0x3e70f473	0.2353075
141	0x3d93effe	0.07223509
142	0x3d7da4b9	0.06192467
143	0xbdf9ba1c	-0.12193701
144	0x3db406c2	0.087903515
145	0x3dca69a4	0.098834306
146	0x3e598d08	0.21245205
147	0xbd97d89f	-0.07414364
148	0xbe317560	-0.17329931
149	0x3ea5d469	0.3238862
150	0x3e38c611	0.18044306
151	0xbe1efe7a	-0.15526763
152	0xbe9ed0bb	-0.31018624
153	0x3df1e30e	0.11810885
154	0xbd854ea6	-0.065091416
155	0x3e303ea3	0.17211394
156	0x3c94b408	0.018152252
157	0x3d6889ff	0.05677223
158	0xbe4f91a7	-0.20270406
159	0x3eb28feb	0.34875426
160	0xbe87c5b8	-0.26518035
161	0x3da70c85	0.08156685
162	0xbdcceeeb	-0.100065075
163	0x3e7eeaa1	0.24894191
164	0xbd77fee5	-0.06054582
165	0x3d2bafa3	0.041915547
166	0xbdeb414f	-0.11487066
167	0x3d5d9caa	0.054104485
168	0xbc8c16a5	-0.017100642
169	0x3e4be2e6	0.19910774
170	0xbe1ea817	-0.15493809
171	0xbdcf95b8	-0.101359785
172	0x3d0edd9d	0.034879316
173	0xbddf94d2	-0.10917057
174	0x3e7dd94f	0.24789928
175	0x3d497382	0.049182422
176	0x3d69e37c	0.05710171
177	0x3e1e9d1f	0.15489624
178	0x3e111353	0.14167528
179	0x3cb1fc2e	0.021726694
180	0x3d972631	0.07380331
181	0x3deb13b7	0.1147837
182	0xbe9fe9c7	-0.31233045
183	0xbd854a22	-0.0650828
184	0x3de992a0	0.114049196
185	0xbe68f727	-0.22750531
186	0xbe630483	-0.2216969
187	0xbaa62012	-0.0012674353
188	0x3c3d5d51	0.011557893
189	0x3e6066cc	0.21914214
190	0x3dedba00	0.11607742
191	0xbde1571c	-0.11002943
192	0xbda204b3	-0.079110526
193	0xbe320ab6	-0.17386898
194	0x3aad063e	0.0013200713
195	0x3d336956	0.043801628
196	0xbe0bcbfa	-0.1365203
197	0x3be42c66	0.0069633005
198	0x3b83f947	0.004027519
199	0x3d39a39a	0.04532204
200	0xbccfab61	-0.025350275
201	0xbd8ba64c	-0.06818828
202	0xbe79397f	-0.2433834
203	0xbd6f5f05	-0.058440227
204	0xbe63c38c	-0.22242564
205	0xbe120bef	-0.14262365
206	0x3cec5d70	0.028853148
207	0xbdcec937	-0.100969724
208	0x3d115f8a	0.035491504
209	0xbca8dc6e	-0.020612922
210	0x3d446f7a	0.047957875
211	0x3d538a7e	0.05164575
212	0x3d8a8a7f	0.06764697
213	0xbd32575b	-0.04354034
214	0xbde2a2f5	-0.11066238
215	0x3e1b5f6e	0.15173122
216	0xbceb3333	-0.028710937
217	0xbc267735	-0.010160257
218	0xbcd5a2a8	-0.026078537
219	0xbc01a982	-0.007913949
220	0xbe6f0662	-0.23342279
221	0x3e96ad7e	0.2942924
222	0xbca27c96	-0.019834798
223	0x3e678b70	0.22611785
224	0xbd04f1bd	-0.032457102
225	0xbe491683	-0.19637494
226	0x3c75633c	0.014977273
227	0xbd7d4dbb	-0.061841708
228	0x3ec4ab5d	0.3841199
229	0xbe3bc7d6	-0.1833795
230	0x3ddf8a3a	0.109150365
231	0xbdb645ac	-0.089000076
232	0xbb473d29	-0.0030401445
233	0x3d0905f4	0.033452943
234	0xbd6914c1	-0.056904558
235	0xbddab54f	-0.10679113
236	0xbd951201	-0.072788246
237	0x3e272e18	0.16326177
238	0x3dd9e6ee	0.106397495
239	0x3d20a633	0.039221
240	0x3e7e87ff	0.24856566
241	0x3e04d568	0.12972033
242	0x3e86a228	0.2629559
243	0x3c764789	0.015031704
244	0x3e15b7a8	0.1462084
245	0xbd1741ba	-0.036927916
246	0xbe812b19	-0.25228193
247	0x3e0085f4	0.12551099
248	0x3dc2cafd	0.09511373
249	0xbe4f019b	-0.20215456
250	0xbde7183b	-0.112839185
251	0x3e9fa3d0	0.31179667
252	0xbe9e0ba2	-0.3086825
253	0x3d9be360	0.07611728
254	0x3e5e23f4	0.21693403
255	0xbea4f687	-0.32219335

linears.3.bias f4 [40]
0	0xbcae4e51	-0.021277579
1	0x3c9fe0c9	0.019516366
2	0xbd04caa9	-0.032419834
3	0xbd03961e	-0.032125585
4	0x3c882e10	0.016623527
5	0x3cb0541a	0.021524478
6	0x3cc5ab25	0.02412946
7	0xbcabe7c4	-0.020984538
8	0xbcea6b7f	-0.028615711
9	0xbcc9e805	-0.024646768
10	0xbbfe5956	-0.0077621145
11	0x3c008084	0.0078431405
12	0xbceb35a3	-0.0287121
13	0xbc9219de	-0.0178346
14	0xb9834cb4	-0.00025043415
15	0xbcb99f93	-0.022659099
16	0x3c98c5ef	0.01864907
17	0x3ca6e7be	0.020374175
18	0xbc6ef2d9	-0.014584267
19	0x3c65a549	0.014016458
20	0xbcaf5a30	-0.02140531
21	0xbc85ce17	-0.016333623
22	0xbcca49fb	-0.02469348
23	0xbcadf6b7	-0.021235807
24	0x3c2e79e8	0.010649182
25	0x3c3309e9	0.010927656
26	0xbab5639f	-0.0013838894
27	0x3c331a1b	0.010931517
28	0xbc914172	-0.017731402
29	0x3c358222	0.011078389
30	0xbcb2e1df	-0.02183622
31	0x3ca90ff6	0.020637494
32	0xbcc62454	-0.024187244
33	0xbc058a9b	-0.008150722
34	0x3a4c74c2	0.00077993807
35	0x3cb0d0eb	0.021583995
36	0xbcd51cba	-0.026014674
37	0xbc8debca	-0.017324347
38	0xbcb384a2	-0.02191383
39	0xbc55a098	-0.013038777

linears.4.weight f4 [40, 40]
0	0xbe49d628	-0.197106
1	0xbdb28aa0	-0.08717847
2	0xbe52e763	-0.2059608
3	0x3dd7b94f	0.10533392
4	0x3e1de5bd	0.1541967
5	0xbe4eecd3	-0.20207529
6	0x3e418fdf	0.18902539
7	0x3daf8e23	0.08572032
8	0xbe6a984e	-0.22909662
9	0xbded1335	-0.11575929
10	0xbdc41955	-0.09575144
11	0x3d87efc1	0.06637526
12	0x3e83f1e7	0.25770494
13	0x3cc02b45	0.023458133
14	0x3e3b6877	0.18301569
15	0xbe1310fb	-0.14361946
16	0xbe902e81	-0.2816048
17	0xbdfd512f	-0.12369
18	0x3de0cbc0	0.10976362
19	0xbb54ad79	-0.003245203
20	0xbedd9b3c	-0.43282497
21	0xbcb37644	-0.02190698
22	0xbe84455f	-0.25834176
23	0x3d986a4b	0.07442149
24	0x3e238f0c	0.15972537
25	0x3eb5c598	0.35502315
26	0xbe9cff80	-0.3066368
27	0xbe2668ad	-0.16250868
28	0x3e1a5e03	0.15074925
29	0xbdfdc6fb	-0.12391468
30	0x3e0a63dc	0.13514656
31	0x3ce4d1c5	0.027932057
32	0x3e1985f9	0.14992513
33	0xbcb00bff	-0.021490095
34	0xbd7f98d6	-0.062401615
35	0x3d8e4009	0.069458075
36	0xbadfe1d1	-0.0017080848
37	0xbe1962b0	-0.14979053
38	0x3ecf9a55	0.40547433
39	0x3e491481	0.19636728
40	0xbdc47d69	-0.095942326
41	0x3c12c5c1	0.008958281
42	0xbdba9e96	-0.09112279
43	0xbe6b95ff	-0.23006438
44	0x3e85b6b3	0.2611595
45	0xbdbe5ea5	-0.09295396
46	0xbe5c04c9	-0.214862
47	0x3e07704c	0.13226432
48	0xbd9cb2b5	-0.07651273
49	0x3d8af7f2	0.06785573
50	0xbd530492	-0.05151803
51	0xbcac494d	-0.021031046
52	0xbe4e1946	-0.20126829
53	0xbcdd67e4	-0.027027078
54	0xbe6e78d5	-0.23288281
55	0xbe208486	-0.15675554
56	0x3e68e78f	0.22744583
57	0x3d2c224f	0.042024907
58	0x3dab2ab9	0.08357758
59	0xbd715b98	-0.05892524
60	0xbe38aafd	-0.18033977
61	0xbe3d44f4	-0.18483335
62	0x3dc7c51e	0.09754394
63	0xbd986516	-0.074411556
64	0xbd2a2611	-0.04154021
65	0x3da10bf8	0.07863611
66	0xbe5e32d3	-0.21699075
67	0xbdfec1cd	-0.12439308
68	0x3e824358	0.25442004
69	0x3df68b68	0.120383084
70	0xbd02f439	-0.03197119
71	0xbca5c89a	-0.020237256
72	0x3cbcd746	0.02305187
73	0x3e387177	0.18012033
74	0x3ce568d5	0.02800409
75	0xbcc1b23a	-0.023644555
76	0xbe156f91	-0.1459334
77	0xbd461e22	-0.04836858
78	0xbe4d65cc	-0.20058364
79	0xbd82559e	-0.063639864
80	0x3e63e1c2	0.22254089
81	0x3d935af9	0.07195086
82	0xbd6fa719	-0.058508966
83	0x3e06f9de	0.13181254
84	0x3d4b3670	0.049612463
85	0xbb395f7a	-0.0028285668
86	0x3bf0097b	0.007325349
87	0xbd4fa6f3	-0.050696325
88	0xbe33d0bf	-0.17560099
89	0x3c94fb84	0.018186338
90	0x3c294b9f	0.010332971
91	0xbe1660bb	-0.14685337
92	0xbb18cb95	-0.0023314704
93	0x3c5cff86	0.013488656
94	0x3e370a4c	0.17875022
95	0xbd52bcc1	-0.05144954
96	0x3d3529cf	0.044229325
97	0x3d9b835b	0.075934134
98	0x3dcec63a	0.100964025
99	0x3e1c3761	0.152555
100	0xbdcf9f7d	-0.10137842
101	0xbcb6288d	-0.022236133
102	0x3d930a74	0.07179728
103	0x3d1b6b1d	0.037943948
104	0x3e442d85	0.1915799
105	0xbcec012a	-0.028809149
106	0xbdfd0227	-0.12353926
107	0x3deecc18	0.116600215
108	0x3cc4b351	0.024011286
109	0xbd61f53c	-0.055165514
110	0x3dab389e	0.08360408
111	0xbe2442db	-0.16041128
112	0xbcc89392	-0.02448443
113	0x3e834734	0.2564026
114	0x3d028a60	0.031870246
115	0xbda20fdb	-0.079131804
116	0xbdae1707	-0.08500486
117	0x3e7d36e8	0.24727976
118	0x3ce70052	0.028198395
119	0x3d96025c	0.07324669
120	0xbe48bcb7	-0.19603239
121	0xbe8a1687	-0.26970312
122	0x3d9a900b	0.07547005
123	0xbdaeeb02	-0.08540918
124	0x3d2fd156	0.042924248
125	0xbe9ccb79	-0.30623987
126	0x3e60a4ac	0.21937817
127	0xbc5f62f0	-0.013634428
128	0x3d2f3502	0.04277516
129	0xbe18502e	-0.14874336
130	0x3e040d76	0.1289576
131	0x3e3b26f4	0.18276578
132	0x3d36f5a4	0.044667855
133	0xbd22ba1c	-0.03972827
134	0xbe0cac83	-0.13737683
135	0x3eb61720	0.35564518
136	0xbd839c27	-0.06426268
137	0xbd611327	-0.054949906
138	0xbd49a4ef	-0.04922956
139	0xbe1e6f2e	-0.15472099
140	0x3d727c9a	0.05920086
141	0x3e46acdf	0.19401883
142	0x3db7e15e	0.08978532
143	0xbbdf2da0	-0.006810859
144	0x3e13975e	0.14413211
145	0x3e6a567f	0.22884558
146	0x3e299cb3	0.16563682
147	0xbe1c872b	-0.15285937
148	0xbd779cd3	-0.060452294
149	0x3e13eb26	0.14445171
150	0xbe03d7c4	-0.12875277
151	0x3e48cf27	0.19610272
152	0xbd1227a7	-0.035682347
153	0x3dc13262	0.09433438
154	0x3e16bcd9	0.14720477
155	0xbe599c3c	-0.21251005
156	0x3d3f0d70	0.046643674
157	0x3ddfa8d3	0.109208725
158	0x3e53fd6c	0.20702142
159	0x3dce9068	0.10086137
160	0xbb5bf2f5	-0.0033561562
161	0xbdb8498a	-0.089984015
162	0xbd9df9f8	-0.077136934
163	0xbda6dced	-0.08147607
164	0x3d843e67	0.06457215
165	0xbdbf7ba9	-0.09349758
166	0xbd6f76ef	-0.058463033
167	0xbe6edbbb	-0.23326008
168	0x3cf4b7a1	0.029872717
169	0xbebe3b45	-0.37154594
170	0x3dcae123	0.09906223
171	0x3a57db33	0.00082342624
172	0x3e892279	0.26784113
173	0xbd444773	-0.0479197
174	0xbe01a634	-0.12661058
175	0xbe140bac	-0.14457577
176	0xbeced4e8	-0.4039681
177	0x3e6fda6e	0.23423168
178	0x3bb821e9	0.005619277
179	0xbde9488c	-0.1139079
180	0x3d11b001	0.03556824
181	0x3e5790a0	0.21051264
182	0x3e479fd1	0.19494559
183	0xbe331926	-0.17490062
184	0x3df8718f	0.121310346
185	0xbe9ee43e	-0.3103351
186	0x3d2a9f38	0.04165575
187	0x3d2cd027	0.042190697
188	0x3d88fe65	0.06689147
189	0x3cc223bc	0.02369868
190	0x3af3a6d9	0.0018589153
191	0xbe53e4ff	-0.20692824
192	0x3c64194d	0.013922048
193	0x3ea8c23b	0.32960686
194	0xbc8dcfd5	-0.017311016
195	0x3d20c36b	0.039248865
196	0xbdbbe347	-0.09174209
197	0xbe18a2ab	-0.14905803
198	0x3de2863b	0.11060759
199	0x3e5a8b1f	0.21342133
200	0xbe1b3f49	-0.1516086
201	0x3e5b1ed2	0.21398476
202	0x3c94129c	0.01807528
203	0xbd0c0f47	-0.034194257
204	0xbe392228	-0.18079436
205	0x3dc96fcc	0.09835777
206	0x3e8f4529	0.27982453
207	0xbc818614	-0.015811004
208	0xbcb990d1	-0.022652062
209	0x3bec154d	0.0072046877
210	0xbe6c4f3d	-0.23077102
211	0xbea66d86	-0.32505435
212	0xbd37ddfd	-0.04488944
213	0xbd864e8d	-0.06557951
214	0xbe40ed30	-0.1884048
215	0xbe2b7087	-0.16742145
216	0xbea172b0	-0.31532812
217	0xbe4716f3	-0.19442348
218	0xbd574d8c	-0.05256419
219	0x3d7161ee	0.058931284
220	0xbd0fe67c	-0.035131916
221	0x3e32d609	0.1746446
222	0xbe38fa51	-0.18064238
223	0xbc80ea45	-0.015736708
224	0x3e40e9c9	0.18839182
225	0x3e393372	0.18086031
226	0xbe8523bb	-0.26003823
227	0xbd90cc21	-0.070701845
228	0xbd06488d	-0.032784034
229	0x3e455f4d	0.19274636
230	0xbe3ebad6	-0.1862596
231	0xbce6f152	-0.028191242
232	0xbd7462c7	-0.059664514
233	0x3e6f140e	0.23347494
234	0x3e1b2d3c	0.15153974
235	0x3caa3cbb	0.020780912
236	0xbdcf2d10	-0.10116017
237	0xbdd3928d	-0.10330687
238	0x3e6a2814	0.22866851
239	0xbd1e847c	-0.038700566
240	0x3deceecd	0.11568985
241	0xbcaa9196	-0.020821374
242	0x3e279ff9	0.16369618
243	0xbb303400	-0.0026886463
244	0xbe1dd8ea	-0.15414777
245	0xbd6cd13c	-0.05781673
246	0x3df14ffd	0.11782835
247	0x3d97a46f	0.0740441
248	0x3ca3109a	0.019905377
249	0x3d13b7a4	0.036063805
250	0x3d855e48	0.06512123
251	0xbcbb81b9	-0.022889005
252	0x3d992685	0.0747805
253	0xbdd56c5c	-0.104210585
254	0x3dd65530	0.10465467
255	0x3d76c505	0.060246486

linears.4.bias f4 [40]
0	0x3c9d80f7	0.019226534
1	0x3cb27126	0.021782469
2	0xbcb00db3	-0.021490907
3	0xbc253e5e	-0.01008567
4	0xbc677aa8	-0.014128365
5	0xbb60c115	-0.0034294773
6	0xbc9079bf	-0.017636178
7	0x3ca87c7d	0.020567173
8	0xbcbca270	-0.023026675
9	0xbc964bd7	-0.01834671
10	0xbcf1000a	-0.029418964
11	0xbc9cabc9	-0.019124882
12	0xbc85f2e7	-0.016351176
13	0xbcc68857	-0.024234934
14	0x3cdadb4f	0.026715903
15	0x3bf41a63	0.0074494346
16	0xbc95fb82	-0.018308405
17	0xbcf923dc	-0.030412607
18	0xbc8fafce	-0.017539885
19	0xbc8b2e99	-0.016989993
20	0x3cd210f6	0.025642853
21	0xbcc58e76	-0.024115782
22	0x3c8fa336	0.01753388
23	0x3c40d783	0.011770132
24	0x3c56a8a0	0.013101727
25	0xbc9a8124	-0.018860407
26	0xbc054b55	-0.008135636
27	0xbcd18fb8	-0.025581226
28	0xbcb51cf4	-0.022108532
29	0xbc9148f6	-0.017734986
30	0xbcfbfc08	-0.030759826
31	0xbbc061c8	-0.0058710314
32	0x3c925e33	0.017867183
33	0xbc99e252	-0.018784676
34	0x3c8c01ed	0.017090762
35	0xbc9e2109	-0.019302862
36	0x3c9811df	0.01856321
37	0xbce91ead	-0.02845701
38	0x3cb4ed1a	0.022085715
39	0xbc6f81bf	-0.014618336

linears.5.weight f4 [40, 40]
0	0x3e0e1d22	0.13878301
1	0x3bcbed01	0.0062233214
2	0x3e124a5a	0.14286175
3	0xbeca9cf8	-0.39572883
4	0x3d1cb9b4	0.038263038
5	0xbe191619	-0.14949836
6	0x3d862777	0.06550496
7	0x3dde1a5a	0.1084487
8	0x3e6ac623	0.22927146
9	0xbdf97a62	-0.12181546
10	0x3e6a0bbc	0.22856039
11	0x3cbe010b	0.023193857
12	0xbaf3faa2	-0.0018614123
13	0xbe2f3ea4	-0.17113739
14	0xbdb0f763	-0.08640935
15	0x3e581cce	0.21104738
16	0x3decba1e	0.115589365
17	0xbad97c9e	-0.0016592925
18	0x3c93659d	0.017992789
19	0x3e3facd6	0.18718275
20	0x3e0bd7ef	0.13656591
21	0x3e85cfe6	0.26135176
22	0xbd8fc317	-0.07019632
23	0x3d65d4b9	0.05611107
24	0xbe64784c	-0.22311515
25	0xbbeeaa66	-0.0072834967
26	0xba49e0fc	-0.0007701067
27	0xbdc069e7	-0.09395199
28	0x3e52dd4c	0.2059223
29	0xbe0e2542	-0.138814
30	0x3e0526b2	0.13003042
31	0xbdda7e23	-0.1066859
32	0xbe5041b1	-0.2033756
33	0xbe05605e	-0.13025042
34	0xbddd5113	-0.10806479
35	0x3cb25af7	0.021771891
36	0x3e22058d	0.1582243
37	0x3e7e7b9c	0.2485184
38	0xbdc48c9a	-0.0959713
39	0xbdcd3aaa	-0.10020955
40	0xbd05382e	-0.03252428
41	0x3e129527	0.1431471
42	0x3c9e0b72	0.019292567
43	0xbd4b45c5	-0.049627084
44	0xbe04680a	-0.12930313
45	0xbe45f0cd	-0.1933014
46	0xbe9385b8	-0.28812957
47	0x3e097d67	0.13426743
48	0xbe2e7cf9	-0.17039861
49	0xbe104358	-0.1408819
50	0x3b05a6a5	0.0020393517
51	0x3e45a7ec	0.19302338
52	0xbe9984d7	-0.2998416
53	0x3dc78c58	0.09743565
54	0x3c952886	0.0182078
55	0xbdc0679b	-0.09394761
56	0xbe609fb4	-0.21935922
57	0xbe2612a7	-0.16218053
58	0xbeb0e4cf	-0.34549567
59	0x3d854515	0.06507317
60	0xbe3dc4bb	-0.18532078
61	0x3dae8129	0.08520729
62	0xbd1c0cb1	-0.03809804
63	0xbcad77ee	-0.021175351
64	0xbc3f8e77	-0.011691681
65	0xbe3f4d84	-0.18681914
66	0xbd31261c	-0.043249235
67	0xbe36d3b3	-0.17854194
68	0x3ddc2e8a	0.10751064
69	0x3e060625	0.13088281
70	0xbe5ec255	-0.2175382
71	0xbcf79143	-0.030220633
72	0xbe054157	-0.13013206
73	0x3d80de3a	0.06292386
74	0xbe9d52e2	-0.30727297
75	0x3e320595	0.17384942
76	0x3d9fbf0f	0.078001134
77	0x3d98f769	0.07469065
78	0x3e23fe7f	0.16015051
79	0x3d05b4c7	0.032643106
80	0xbec2b52b	-0.38028845
81	0xbc919d71	-0.01777527
82	0x3e04a5da	0.12953892
83	0x3d02f162	0.03196848
84	0xbd9df45e	-0.07712625
85	0xbd3060c3	-0.04306103
86	0xbe08b0e1	-0.13348724
87	0xbdd7095f	-0.10499834
88	0xbd0764cd	-0.033055115
89	0x3dd457cf	0.10368311
90	0x3d66402d	0.056213547
91	0xbc5cb8f5	-0.013471832
92	0xbdaa7029	-0.08322174
93	0x3daa5e0d	0.0831872
94	0xbdead937	-0.11467212
95	0x3e0472c6	0.12934408
96	0xbe661717	-0.22469746
97	0x3e7c6fa3	0.24651961
98	0xbe11f9a4	-0.14255387
99	0x3de0a878	0.10969633
100	0x3c0271c3	0.007961693
101	0xbe284545	-0.16432674
102	0xbde1148f	-0.10990249
103	0x3d0477ae	0.032340698
104	0xbd6a8bb3	-0.057262134
105	0xbadbcc0e	-0.0016769187
106	0xbe4bd5f2	-0.19905832
107	0x3d31cb02	0.043406494
108	0x3da2f091	0.07956041
109	0x3e3438b7	0.1759976
110	0x3dd900cd	0.10595856
111	0xbb049163	-0.0020228259
112	0x3db306f4	0.087415606
113	0xbca3e5b1	-0.020006986
114	0xbe2e8bc1	-0.170455
115	0x3e894f27	0.268182
116	0x3c994284	0.018708475
117	0x3dc76d65	0.09737662
118	0xbdc23feb	-0.09484848
119	0x3e3995f3	0.18123607
120	0x3e855182	0.26038748
121	0xbe4daad6	-0.200847
122	0x3e21f182	0.15814784
123	0x3ebc8cfd	0.36826316
124	0xbe1217c6	-0.14266881
125	0xbcf1c6c6	-0.029513728
126	0xbe0ba07c	-0.13635439
127	0x3df2de5d	0.11858819
128	0xbd125870	-0.03572887
129	0x3d411912	0.04714305
130	0xbd603f61	-0.054747943
131	0x3d832c73	0.064049624
132	0x3e0b717e	0.13617513
133	0xbe45519b	-0.19269411
134	0xbd1a4733	-0.037665557
135	0x3d8dcdc2	0.06924011
136	0xbdc0ab56	-0.0940768
137	0xbd63c663	-0.05560912
138	0x3d6251bd	0.055253733
139	0xbe1c847d	-0.15284915
140	0x3d73b17d	0.059495438
141	0x3e5ebddc	0.21752113
142	0xbd4d440a	-0.050113715
143	0x3cb98e1c	0.02265077
144	0xbddf4925	-0.10902623
145	0x3e23c1bc	0.15991873
146	0x3d9dea8b	0.07710751
147	0xbda8dc35	-0.08245126
148	0x3c779b9c	0.015112784
149	0x3dce2568	0.100657284
150	0xbd934f1a	-0.07192822
151	0x3e62aba2	0.22135785
152	0xbd1c8ffc	-0.03822325
153	0x3c9288b6	0.017887454
154	0x3cfe6b54	0.031057037
155	0x3d8aa998	0.06770629
156	0x3d9032c0	0.0704093
157	0xbd21b8fc	-0.039483055
158	0x3e2f2a87	0.17106067
159	0x3e67565d	0.22591539
160	0xbad1c1ad	-0.0016003154
161	0xbe3259a1	-0.17417003
162	0xbe3f2ddf	-0.18669842
163	0x3e8b1b51	0.27169278
164	0xbef2335e	-0.47304815
165	0xbd06d13e	-0.032914393
166	0x3d015178	0.031571835
167	0xbd0ae3d5	-0.033908684
168	0x3e49bc2c	0.19700688
169	0x3d1a5bfa	0.037685372
170	0xbdea4ad9	-0.11440057
171	0x3e045419	0.12922706
172	0x3dfbc433	0.122932814
173	0xbca61f2b	-0.020278534
174	0x3d3d88a9	0.046272907
175	0x3e5e56cf	0.21712802
176	0xbe09069a	-0.13381425
177	0x3e3bb57b	0.18330948
178	0xbdd67663	-0.10471799
179	0xbd417c52	-0.0472377
180	0x3da70d51	0.08156837
181	0x3e51659b	0.20448916
182	0xbd9c1126	-0.07620458
183	0xbe6db2ce	-0.2321274
184	0xbdca893e	-0.09889458
185	0x3d0e914e	0.034806542
186	0xbb14a2cc	-0.0022680042
187	0x3d52fbd8	0.05150971
188	0x3e0e24f5	0.13881285
189	0xbd931ff6	-0.071838304
190	0x3debe8e0	0.11519027
191	0x3cd1f8f6	0.02563141
192	0x3dcb3855	0.09922854
193	0xbe1475ab	-0.14498012
194	0x3e32f1ae	0.17475006
195	0xbcbc2f3d	-0.022971744
196	0x3e894984	0.268139
197	0xbdcc29c2	-0.09968902
198	0x3e463dde	0.19359538
199	0x3e1c9d70	0.15294433
200	0x3f138e73	0.57639235
201	0xbe455d2e	-0.19273826
202	0x3e111582	0.14168361
203	0x3e879d55	0.26487222
204	0x3cde22ca	0.027116198
205	0x3db1b17e	0.08676432
206	0x3dfb31f3	0.122653864
207	0xbe5a3952	-0.21310928
208	0xbd1c4901	-0.03815556
209	0xbd7ac81f	-0.061226007
210	0x3e5b6767	0.21426164
211	0xbcb5a574	-0.02217362
212	0xbe9f1e72	-0.31077915
213	0xbe11c34c	-0.14234656
214	0xbe10aa36	-0.1412743
215	0xbe4c9869	-0.19980015
216	0x3db717e5	0.089401044
217	0x3dc7a24a	0.09747751
218	0x3dd1dc59	0.10247106
219	0x3d79846b	0.0609173
220	0xbe5c79fa	-0.21530905
221	0xbdd63d00	-0.104608536
222	0xbe12479d	-0.14285131
223	0x3e986447	0.29764006
224	0xbd26f200	-0.040758133
225	0xbdae5ac9	-0.0851341
226	0x3e15c6c6	0.14626607
227	0xbdfd411c	-0.12365934
228	0xbe297a57	-0.16550575
229	0xbbea9695	-0.007159064
230	0x3d5c2cda	0.05375371
231	0x3deed106	0.11660962
232	0xbdcbad36	-0.09945147
233	0x3e561ee7	0.20910226
234	0xbdc2c5f3	-0.09510412
235	0xbe98898c	-0.2979244
236	0x3dde7528	0.108621895
237	0x3e90828f	0.28224608
238	0x3dee085d	0.11622689
239	0x3dc0f28b	0.094212614
240	0xbde07436	-0.109596655
241	0x3d988747	0.07447677
242	0xbd877284	-0.06613639
243	0xbc97c2e5	-0.01852555
244	0x3db739c1	0.089465626
245	0x3da451aa	0.08023389
246	0x3f0f46d6	0.5596746
247	0xbe5809ca	-0.21097484
248	0x3d1a751d	0.037709344
249	0xbde86d24	-0.11348942
250	0x3d9e6eb2	0.07735957
251	0x3dd51a61	0.10405422
252	0xbd3a2a1e	-0.045450322
253	0xbe5feca9	-0.21867622
254	0xbe5a5017	-0.21319614
255	0xbde2c70e	-0.11073123

linears.5.bias f4 [40]
0	0xbcb89999	-0.022534179
1	0x3caa3560	0.020777404
2	0xbbeee73f	-0.0072907503
3	0xbc1425b8	-0.009042196
4	0x3c9e23f2	0.01930425
5	0x3c82fafd	0.015988821
6	0xbc9ea3f7	-0.019365294
7	0x3c877b1a	0.016538192
8	0x3c6073b2	0.013699459
9	0xbc78a1b8	-0.0151752755
10	0xbc98f6d2	-0.01867238
11	0xbc8328dd	-0.016010696
12	0xbca13d23	-0.019682473
13	0x3c992c89	0.018697994
14	0xbca55f4b	-0.02018704
15	0x3c824b98	0.015905187
16	0x3cb21eaa	0.021743137
17	0xbc121e4a	-0.008918354
18	0x3c4b15ec	0.012395363
19	0xbc694751	-0.014238195
20	0xbc9a99ba	-0.01887213
21	0x3c4100b8	0.0117799565
22	0x3c9cf232	0.019158456
23	0xbcac4789	-0.021030204
24	0x3ca90ea1	0.020636858
25	0x3c9b7481	0.018976452
26	0x3c971982	0.01844478
27	0x3c8aa05d	0.01692217
28	0xbc9a17ce	-0.01881018
29	0xbc8014ae	-0.01563486
30	0x3bff535a	0.0077919187
31	0x3c81ae6c	0.015830241
32	0xba1884e5	-0.00058181427
33	0x3cbc8189	0.023010986
34	0xbcabe8db	-0.020985058
35	0x3c8cdc56	0.017194908
36	0x3cbd62b6	0.023118358
37	0x3c825e88	0.015914217
38	0xbc96b7dd	-0.01839822
39	0xbc7d2acf	-0.015452101

linears.6.weight f4 [3, 40]
0	0xbe032ac0	-0.12809277
1	0xbcb0a25e	-0.021561798
2	0x3e2c542e	0.16828987
3	0x3e2527e9	0.16128506
4	0xbe2b357d	-0.16719623
5	0xbe864e4f	-0.2623162
6	0x3e1d3bf7	0.15354906
7	0xbe34abb5	-0.17643626
8	0xbe1453f8	-0.14485157
9	0x3eb060a8	0.34448743
10	0xbea230a9	-0.3167775
11	0xbd8e8027	-0.06958037
12	0xbd0f018e	-0.034913592
13	0xbda2ced8	-0.079496086
14	0x3e9ff97a	0.31245023
15	0xbbe38e63	-0.006944464
16	0x3e921cac	0.285375
17	0x3e399ad8	0.18125474
18	0x3d9b4d0f	0.07583057
19	0xbdabc8b0	-0.083878875
20	0xbe39191b	-0.18075983
21	0x3e4456b3	0.19173698
22	0xbe3373f0	-0.17524695
23	0xbdc47f67	-0.095946126
24	0x3db0b796	0.08628766
25	0xbe7b0276	-0.24512658
26	0xbe7fb82f	-0.24972604
27	0xbe564fd1	-0.20928885
28	0xbed53268	-0.4164002
29	0xbe3d34c0	-0.18477154
30	0x3e497ebc	0.19677252
31	0xbe939551	-0.28824857
32	0xbca17c16	-0.01971249
33	0x3d90a30c	0.07062349
34	0x3e16d9e3	0.14731555
35	0xbd2becfb	-0.04197405
36	0x3ec2fee0	0.3808508
37	0xbd5a6bfa	-0.05332563
38	0xbc9367fa	-0.017993916
39	0x3f25cb0a	0.6476294
40	0xbe2e5daf	-0.17027925
41	0x3e45c0c8	0.19311821
42	0xbbe10609	-0.0068671745
43	0xbe22808f	-0.15869354
44	0x3e9b405b	0.30322537
45	0x3e10da1f	0.14145707
46	0xbeda75f5	-0.4266812
47	0x3e1aa2f6	0.15101227
48	0x3da434ed	0.08017907
49	0xbdb64754	-0.089003235
50	0xbda4ab2d	-0.08040462
51	0xbe52390a	-0.20529571
52	0xbe9b869b	-0.30376133
53	0x3e043dc8	0.12914193
54	0xbf2be914	-0.67152524
55	0x3bf6b24f	0.0075285803
56	0x3e9fd07b	0.31213745
57	0xbc65de34	-0.014030028
58	0xbd2d5a23	-0.04232229
59	0x3d1e754a	0.038686074
60	0xbe522323	-0.20521216
61	0xbe047713	-0.12936048
62	0x3f016c1a	0.50555575
63	0xbcd00d83	-0.025397068
64	0x3e021b34	0.1270569
65	0x3e9d3e44	0.30711567
66	0x3dde0c26	0.10842161
67	0xbcaa60ed	-0.020798171
68	0xbccfc6cb	-0.025363347
69	0xbe30e42b	-0.17274539
70	0x3e02e3ab	0.12782161
71	0x3d9fa7ad	0.077956535
72	0x3c4a2d94	0.012339968
73	0xbcc2452b	-0.023714622
74	0xbe246eb6	-0.16057858
75	0x3eb3f7fb	0.35150132
76	0x3e6296db	0.2212786
77	0x3e7c1387	0.24616824
78	0xbeba788a	-0.3642009
79	0xbd4b5f31	-0.04965133
80	0x3a4184fa	0.0007382181
81	0xbe6635f1	-0.22481515
82	0x3e0be385	0.1366101
83	0x3ed172e4	0.40907967
84	0x3d1a66b1	0.03769559
85	0xbe4bad3b	-0.19890301
86	0xbcb09e0b	-0.021559736
87	0x3dcd24fe	0.10016821
88	0x3e352f8d	0.1769392
89	0xbee53f3f	-0.44774815
90	0x3e340d83	0.1758328
91	0xbe4bd741	-0.19906332
92	0x3eba0cb0	0.36337805
93	0x3d263a45	0.040582914
94	0x3ed9d32e	0.4254393
95	0x3eb18f30	0.34679556
96	0xbd9f2318	-0.077703655
97	0xbda485e8	-0.08033353
98	0x3e52d5da	0.2058939
99	0xbe5b9adb	-0.21445791
100	0x3e28d78e	0.16488478
101	0x3f1a7e9a	0.6034943
102	0xbc9d6d7f	-0.01921725
103	0xbcf0fe7d	-0.029418224
104	0x3c6977cd	0.014249754
105	0x3d9ac861	0.075577505
106	0x3cb3cbb9	0.021947728
107	0x3df86de6	0.121303365
108	0xbe4e9243	-0.20172982
109	0xbe77bb82	-0.24192622
110	0xbe9ab2dc	-0.30214584
111	0x3d9f7afd	0.0778713
112	0xbe5a3f4b	-0.21313207
113	0x3cbbee04	0.022940643
114	0x3d86cebe	0.06582402
115	0x3e4f3c56	0.2023786
116	0xbdcbc2d7	-0.09949272
117	0x3f030edb	0.5119454
118	0x3e954412	0.29153496
119	0x3e00b602	0.1256943

linears.6.bias f4 [3]
0	0x3e1c5cc1	0.15269758
1	0x3cb35dc7	0.021895302
2	0x3c82cf34	0.015967943

exp_avg f4 [40, 2]
0	0xbf36e8d8	-0.7144904
1	0xbed54d31	-0.41660455
2	0x3f9d5901	1.2292787
3	0x3f9c2beb	1.2200903
4	0x3f7c3302	0.9851533
5	0x3dab79b9	0.08372826
6	0x3f1a0845	0.6016887
7	0xbf01e60b	-0.5074164
8	0x3fa25553	1.2682289
9	0xbeb610cd	-0.35559693
10	0x402afbc5	2.6716168
11	0xbf8bfa7d	-1.0935818
12	0xc02557a7	-2.5834749
13	0xbe16f803	-0.14743046
14	0x3fd49137	1.6606816
15	0x3f676188	0.90383196
16	0xc0159905	-2.3374646
17	0x3e3d91d5	0.18512662
18	0x4137dccb	11.491405
19	0x3e817775	0.2528645
20	0xc0193ce8	-2.3943424
21	0x3f95a89a	1.1692078
22	0xc0abe43a	-5.3716097
23	0x3e3c5f2c	0.1839568
24	0x3fa15048	1.2602625
25	0xbe99ab66	-0.3001358
26	0xc0958047	-4.671909
27	0x3eec5cd5	0.46164575
28	0x40924917	4.571422
29	0x3eaef709	0.34172848
30	0x4032ac44	2.7917643
31	0xbf49cd8e	-0.78829277
32	0xc019e14b	-2.4043758
33	0xbf03307c	-0.51245856
34	0xbf6a2b7b	-0.91472596
35	0x3f701665	0.9378417
36	0x3f8032fe	1.0015562
37	0xbdef01e2	-0.11670281
38	0xbf130d6b	-0.5744235
39	0x3f2b5a7d	0.6693495
40	0x3fa30cd2	1.2738287
41	0x3e7727d8	0.24136293
42	0xbde84f09	-0.113432
43	0xbeba0a1e	-0.36335844
44	0xc02cd5e1	-2.7005541
45	0xbd90a016	-0.07061784
46	0xc094ee54	-4.654093
47	0x3f55deff	0.8354339
48	0xc08d2fa3	-4.412065
49	0xc010fddb	-2.265494
50	0x3fe095de	1.7545736
51	0xbebea760	-0.37237072
52	0x41b01fec	22.015587
53	0xbf753a49	-0.9579206
54	0xc0c01bb8	-6.0033836
55	0x3d1f2f97	0.038863745
56	0x3fe544b6	1.7911594
57	0xbf426df9	-0.75949055
58	0xbeb5d358	-0.35512805
59	0xbee8adde	-0.4544515
60	0x3f069eed	0.5258625
61	0xbe63ec49	-0.22258104
62	0x3f2cfe05	0.67575103
63	0xbe9e252f	-0.30887744
64	0x409106b0	4.5320663
65	0xc03628fb	-2.8462512
66	0xbf237841	-0.6385537
67	0x3dfaf0ac	0.12252936
68	0x40563c8e	3.347446
69	0x3da83bb2	0.08214511
70	0xbf92edef	-1.1478862
71	0x3d981b34	0.074270636
72	0xc1135896	-9.209127
73	0x3e8a8d30	0.27060843
74	0xbf7a6e64	-0.9782469
75	0x3f378338	0.716846
76	0xbfe542c5	-1.7911001
77	0x3e438a9c	0.19095844
78	0x3fb63d87	1.4237527
79	0xbf2a4418	-0.6651015

exp_avg_sq f4 [40, 2]
0	0x4e948bff	1.2461014e+09
1	0x4af44733	8.0045055e+06
2	0x4df111cf	5.0555952e+08
3	0x4ba4c559	2.159685e+07
4	0x4f45766b	3.3128722e+09
5	0x4c0bfbdd	3.6695924e+07
6	0x4ef68dd6	2.0682452e+09
7	0x4b2a9329	1.1178793e+07
8	0x4f434a64	3.2764324e+09
9	0x4c0a1bba	3.6204264e+07
10	0x4f2c85c1	2.8944468e+09
11	0x4b2d35bf	1.1351487e+07
12	0x4f102d21	2.4188767e+09
13	0x4bda45b6	2.8609388e+07
14	0x4f82ed36	4.393168e+09
15	0x4ab23934	5.840026e+06
16	0x4e53380f	8.859166e+08
17	0x4afccaf2	8.283513e+06
18	0x4fb0d54b	5.933537e+09
19	0x4b00f38a	8.450954e+06
20	0x4eb459b3	1.5128887e+09
21	0x4b9a53ed	2.0228058e+07
22	0x50c89691	2.6922486e+10
23	0x4c4429c0	5.1422976e+07
24	0x4dffd244	5.3649626e+08
25	0x4b3e680f	1.2478479e+07
26	0x4f088192	2.290193e+09
27	0x4c8317b9	6.873031e+07
28	0x4e2f8eba	7.363416e+08
29	0x4b9a2443	2.0203654e+07
30	0x507e205f	1.7054137e+10
31	0x4b8ba72c	1.83046e+07
32	0x4ed8cf3e	1.8187302e+09
33	0x4badf89c	2.2802744e+07
34	0x4e968df5	1.2629428e+09
35	0x4bb25a0a	2.3376916e+07
36	0x4ee228e3	1.8971652e+09
37	0x4c3576fe	4.756991e+07
38	0x4e825b23	1.0935054e+09
39	0x4b95d760	1.964e+07
40	0x5058f37e	1.4559345e+10
41	0x4c52e40b	5.5283756e+07
42	0x4ee3bbc1	1.9103663e+09
43	0x4bc906ab	2.6348886e+07
44	0x506dbf82	1.5955003e+10
45	0x4c6b88b1	6.1743812e+07
46	0x4ec85340	1.6804495e+09
47	0x4babbec1	2.2510978e+07
48	0x5028cf7b	1.1328679e+10
49	0x4b890c27	1.7963086e+07
50	0x4fbc0725	6.3091697e+09
51	0x4b29f8f7	1.1139319e+07
52	0x4f0510a2	2.2324598e+09
53	0x4c51ce9c	5.4999664e+07
54	0x4f19544c	2.5724385e+09
55	0x4be54a0a	3.0053396e+07
56	0x4f1a78be	2.5916042e+09
57	0x4badbe9b	2.2773046e+07
58	0x4ee513da	1.9216417e+09
59	0x4c2d32e0	4.540301e+07
60	0x4fff834b	8.573589e+09
61	0x4baa9262	2.2357188e+07
62	0x4facd731	5.799568e+09
63	0x4c161307	3.9341084e+07
64	0x502f3088	1.1756773e+10
65	0x4cb3e191	9.430951e+07
66	0x5038881e	1.2383713e+10
67	0x4c023691	3.4134596e+07
68	0x4fd3b2b4	7.103408e+09
69	0x4cbbdb7c	9.849136e+07
70	0x4f59a932	3.6517443e+09
71	0x4c548241	5.5707908e+07
72	0x501aede3	1.0397126e+10
73	0x4ad94961	7.1200485e+06
74	0x4e9dbd7c	1.3232205e+09
75	0x4b0dafd4	9.285588e+06
76	0x4ee4ba46	1.9187064e+09
77	0x4af82e42	8.132385e+06
78	0x50800a64	1.7185317e+10
79	0x4d066027	1.4090302e+08
