1DCFD_PINN/1D_CFD_Rand_Eta0.01_Zeta0.01_periodic_Train_PINN.pt-15000.pt (torch, 112935 bytes, 42 tensors)

linears.0.weight f4 [40, 2]
00000000: 8d16 2cbd aa82 0cbf f1e0 343e c004 423e
00000010: 397f 083d 9260 94bd 7cca 693e 2473 d6bd
00000020: 5fe9 0e3e 0b96 0ebd 89c9 b83c ed21 fb3c
00000030: 7d6e 6dbe b0a1 983c 25c2 cebd 6f7f ae3e
00000040: 1684 3b3e d5d0 b03e aa3b 843e 911a 03bf
00000050: 47ef 6b3e 9541 24be d545 5dbd 0df9 35be
00000060: d004 4abe c90d 493e 9180 e3bc 6ca0 86be
00000070: a7d8 1fbe 77ac 813e 4f97 663e ec47 923e
00000080: d484 f0bd f06e f03d 45f9 cd3d 0722 43bd
00000090: b46d ccbd d994 8dbe eba2 f33e ee3b 143e
000000a0: 8acc 0cbd 8fd4 b03e 050b dc3d 59e7 883d
000000b0: 2195 893d df4f 083e 431d 8a3d 8295 ff3d
000000c0: d508 15bc 9f1f 373e 0d44 18be df1b 0ebe
000000d0: ede4 d73e 8b0c a2bd 548e 9dbe 1a70 0fbe
000000e0: ece8 ec39 3320 973e efba 2abe 2eb9 0bbe
000000f0: ad49 0abe cd71 bfbe 69c3 5bbd da46 c13d
00000100: d4fa b03e 17a7 84bd 3438 da3d 9745 1f3f
00000110: 4dbd 14bb 818b d93e d9a8 7ebc dadd 8dbd
00000120: 235d 17bc 06f6 cc3c e5f6 1abe 6fbf 143d
00000130: d039 913d 415b 87be e69e dc3e cbde 8dbd
-0.042013694 -0.5488688 0.17663933 0.18947124 0.033324454 -0.07244982 0.22831148 -0.1047118
0.13956212 -0.03481106 0.022557037 0.030655826 -0.23186679 0.018631786 -0.10095624 0.340816
0.18312106 0.34534326 0.2582677 -0.5121241 0.23040496 -0.16040643 -0.054021675 -0.17770787
-0.19728398 0.19634165 -0.027771266 -0.26294267 -0.1560999 0.25326893 0.22518657 0.28570497
-0.11744085 0.1173991 0.1005731 -0.047639873 -0.09981862 -0.27652624 0.47585234 0.14475986
-0.03437475 0.3453717 0.10744289 0.06684751 0.06717897 0.13311718 0.067438625 0.12479688
-0.009096344 0.17883156 -0.1486971 -0.1387782 0.42166844 -0.07912549 -0.3077265 -0.14007607
0.00045186968 0.29516754 -0.16672872 -0.13644859 -0.13504668 -0.3739151 -0.053653155 0.09437342
0.34566367 -0.06477182 0.10655251 0.6221556 -0.002269584 0.42489246 -0.015543186 -0.069270805
-0.009238514 0.025019657 -0.15133245 0.036315378 0.07091105 -0.2643681 0.4308998 -0.0692726

linears.0.bias f4 [40]
00000000: ce5b debd abb7 e7bd d668 b53d aea6 2b3d
00000010: c5a5 953d 8028 bebc e756 093d 5f5e 95bd
00000020: af2f c23d 19de 50bd 2193 00be cc3b cabd
00000030: e2cf a83d 1b9f 68bd 050b 23bd 1d1a 863d
00000040: 8930 bd3c 15ca ec3d 6e02 dbbd f5bd c5bb
00000050: b556 a43d 04ad 013e 925b ffbd 7deb bd3d
00000060: 35d2 773d 5531 91bd adc2 723d 3a56 e6bc
00000070: 3743 f3bb fb6f b5bd 3ea3 8ebd da35 a4bd
00000080: 333e 603d 2f87 573d 45ab 843c f312 1ebe
00000090: b8d4 debd 804d 563d 6e61 a5bd 383b 723c
-0.10857354 -0.11314329 0.088578865 0.041907005 0.07307009 -0.023212671 0.033530142 -0.072933905
0.09481751 -0.05099306 -0.12556125 -0.098746866 0.082427755 -0.05679236 -0.03980543 0.065479495
0.023094432 0.115619816 -0.10693823 -0.0060346075 0.080243506 0.12663656 -0.124686375 0.092734315
0.060503203 -0.070894875 0.05926769 -0.028117288 -0.007423784 -0.08859249 -0.0696473 -0.08018084
0.054746818 0.052619155 0.016194949 -0.15436916 -0.10880417 0.052320004 -0.08075224 0.014784627

linears.1.weight f4 [40, 40]
00000000: d9ad 07be 637e 24bd d6d5 d83d 4f2c 9ebd
00000010: 4e6d 33be 249c 4b3d 582b 173d cdab 13be
00000020: 1072 a93d 2954 4c3c 81b1 2e3e 005a cebe
00000030: 4808 30be b8b7 00be 8fbc 6c3e 1f33 523e
00000040: 56c2 98bd 2fe8 77be cdee 25be 8dfe 0abe
00000050: 97e9 493e 0a2a 563c 92d0 8d3d 101e 043e
00000060: 9392 4dbd 9488 463e ea82 db3c 0eea 9cbd
00000070: 43c3 8f3e 7185 c23c de94 67be 4189 0c3e
00000080: 09ae 76bd 79aa 92bd 3a0a 3c3d 5b29 543e
00000090: ac91 8bbe c3bc 3cbe 9731 553d 24e9 7bbd
000000a0: 9660 51bd b650 1cbb 73d7 093d c44a ae3a
000000b0: eb2d 433d ada4 c83d 1161 00be 9f59 123e
000000c0: 7cb5 853d 5e85 213c 89aa 423e 9496 90be
000000d0: 933b 98bc 6f2d e5bc a3a1 24be 6095 dd3d
000000e0: 8526 8f3d 653d a3be 11cd 14be 68df 6dbd
000000f0: 94fc 0c3e 93ce c13c 61cb 9c3c aa87 0b3d
00000100: b6bc 60bc 6a9a 583e 6e48 05be 3c5b 7a3e
00000110: c0ce cf3d 31a6 d0bd f2f8 c8bd 47cc 233e
00000120: 411b 29be 4446 b13e ead9 31bd 8b82 85bd
00000130: 78ae 16be b2ac c1bd a525 be3d cb43 a4bd
00000140: b5a0 26be bb4f ecbd b392 8b3d adde 833e
00000150: ea16 49bd ce1c 7f3d cbee 0b3c ad3d d6bd
00000160: b505 6b3e e08c d6bd d288 13be 3f08 c4bc
00000170: e10f 8cbe 9ad5 133c c835 b0be a6a9 19be
00000180: f9f9 76be e03a f73d d2ed 32be 575b 463e
00000190: 8d1b b53e 3d44 b63d 9aaa 0a3c fd89 713b
000001a0: 513f d83d b7f2 e83c 8402 f0bd 72b9 013e
000001b0: ee0b a0bc 6b45 bfbc e748 383d 6696 a03d
000001c0: b0b1 323d 556d e23c e90b 913b c049 aebe
000001d0: e169 043e bb1c 8abc 3c20 6dbd ce7d 36be
000001e0: 38de b23d ac1d 23be 2485 42be 1bfa 083e
000001f0: 5dcb 18be 5707 07bd 1f70 27be ac4a 1dbd
00000200: fe9b e3bd af6e 1b3e b724 873c d380 b83e
00000210: b94c 34bc 1b8c 193e e635 9e3e 961b 02be
00000220: cb5c a8bd 59f5 28be 3070 c13c a889 37be
00000230: 6174 2d3d 029d febd 31b5 293c e179 003e
00000240: 48de aebd a0e4 1ebe db3e 16bc a664 bc3d
00000250: 64c9 afbd ba43 1dbe 7411 4c3e 1ca4 2b3e
00000260: 5d64 c4bc 4132 9b3c 8f09 83bd f933 083b
00000270: 226d a2bc 1679 eabd 2236 91bd e5ed bebc
00000280: 54e7 10bd 0242 d13d 4fb7 2ebe e667 403e
00000290: c6cd 693c 0221 c03d 28ad 21bd 8069 443e
000002a0: 8feb cc3e cac2 5e3e 92c8 35bd 1ed3 3dbc
000002b0: 5da0 1ebe eccb cb3d 68ec 8fbd 1da8 60be
000002c0: b01c f93c b13c cbbc 2eec 3bbe cb68 15bd
000002d0: 8694 14bc 6cf9 103e 51e7 5ebd 8c46 b2bd
000002e0: c570 edbd 6427 9ebe 916e 563e b0f7 823e
000002f0: 4285 9a3c 3fa1 833d 88d1 08be c134 ec3c
00000300: 087e 303e 83c9 29be aec3 28bd 2756 01bd
00000310: bb2a 49be d50c 003e 6164 223e f4f1 6abb
00000320: f4d0 8bbd 4701 7d3e 5d48 21be e972 37bd
00000330: 312d c8be 5623 1e3e 5239 e7bc 81ef a83e
00000340: 4937 2ebe 0beb 8b3e 19d7 92bc b7a4 403e
00000350: 4af3 b03d d481 3f3b 1b77 fa3e f3a6 9fbe
00000360: c5b8 4cbd c449 72bd f197 eb3c ae14 fd3d
00000370: ebd6 64bd 7c44 3ebd 3255 303d c1c2 febd
00000380: 7d99 103d a2c9 b03e 4e18 503e 3dbe 89bd
00000390: 9b06 b33e bb70 873e 4fc8 0dbe 0d76 3fbd
000003a0: c387 a5bc c5f0 d5bd b027 963e aaad 983e
000003b0: 4148 673e 0f29 b73d 44f5 5bbe f308 b1bd
000003c0: fcfd dcbd 2639 893e 9edf d1bc a16c a5bd
000003d0: bfe3 073e c47d f13d 8664 0abe 8e1a 84be
000003e0: b19d c53d b7c1 f7bd ffc9 163d 52d4 473e
000003f0: cc7f 143e b1c4 b83d 2738 4fbe 9186 d2bd
-0.13249911 -0.040159594 0.10587661 -0.07723295 -0.17522165 0.049709454 0.03690657 -0.14421006
0.08273709 0.012471237 0.170599 -0.4030304 -0.17190659 -0.12570083 0.23118804 0.20527314
-0.07458942 -0.24209665 -0.16204377 -0.13573666 0.19718014 0.013071546 0.06924547 0.12902093
-0.050188612 0.19388038 0.026795823 -0.0766183 0.2807866 0.02374527 -0.22615382 0.13724233
-0.060224567 -0.07161421 0.04590819 0.20718901 -0.27259576 -0.18431382 0.052049246 -0.061501637
-0.051117502 -0.0023851818 0.033652734 0.0013297428 0.047651213 0.097970344 -0.12537028 0.14292
0.06528756 0.009858457 0.19010366 -0.28239882 -0.018583095 -0.027975766 -0.16077285 0.10819507
0.06989769 -0.31882778 -0.14531352 -0.058074385 0.13768226 0.023658073 0.019139947 0.034064926
-0.013716867 0.21152654 -0.13015911 0.24448866 0.10146856 -0.101879485 -0.098131076 0.15995894
-0.16514303 0.3462392 -0.04342071 -0.0651904 -0.14714992 -0.09456767 0.09284524 -0.08020743
-0.16272242 -0.11538645 0.0681509 0.25755826 -0.04909412 0.06228333 0.008540819 -0.104609825
0.22951396 -0.104760885 -0.14407662 -0.023929713 -0.27355865 0.009023095 -0.34416032 -0.15006122
-0.24118795 0.120717764 -0.17473534 0.19370781 0.35372582 0.08899734 0.008463526 0.003685593
0.10558952 0.028436048 -0.1171923 0.12668398 -0.019536939 -0.02334853 0.0449914 0.07841186
0.043626487 0.027640024 0.0044264686 -0.34040642 0.12931015 -0.016859403 -0.05789207 -0.17821428
0.08733791 -0.15929288 -0.18996102 0.13376658 -0.14921327 -0.032965984 -0.16351365 -0.03840129
-0.111137375 0.15178941 0.016497 0.36035785 -0.01100462 0.14994852 0.30900496 -0.12705836
-0.08220824 -0.16499843 0.023613065 -0.17923605 0.042347316 -0.124322906 0.010358141 0.12546493
-0.085384905 -0.15516901 -0.009170259 0.09198885 -0.08583334 -0.15357867 0.19928533 0.16761822
-0.023973638 0.018944861 -0.063983075 0.0020782931 -0.01982743 -0.114488766 -0.07090403 -0.023306796
-0.03537686 0.10217668 -0.17062114 0.18789634 0.014270252 0.09381296 -0.039471775 0.1918087
0.40023467 0.21753994 -0.044380732 -0.011585979 -0.15490861 0.099510044 -0.07027513 -0.2193913
0.030409187 -0.024809213 -0.18351814 -0.03647689 -0.009068614 0.14157647 -0.05441982 -0.08704862
-0.11593775 -0.30889428 0.20940615 0.25579596 0.01886237 0.064272396 -0.1336118 0.028833749
0.17235577 -0.16580777 -0.04120224 -0.031576302 -0.19645207 0.12504895 0.15858604 -0.0035849782
-0.06826964 0.24707519 -0.1575026 -0.04478732 -0.39096978 0.15443167 -0.028225575 0.32995227
-0.17013277 0.2732776 -0.017924832 0.18812834 0.08640154 0.002922167 0.48918995 -0.3118206
-0.049980897 -0.05915238 0.028758975 0.1235746 -0.055869024 -0.04645203 0.04305 -0.1243949
0.035302628 0.34528834 0.20321772 -0.06725738 0.34965977 0.26453194 -0.13845943 -0.04674344
-0.020206338 -0.10446314 0.29327154 0.29819995 0.22586156 0.08943378 -0.2148028 -0.08644285
-0.10790631 0.26801413 -0.025619324 -0.0807736 0.13270472 0.11791566 -0.13514909 -0.2580151
0.09649218 -0.12097495 0.036813732 0.19514588 0.14501876 0.09021891 -0.20236264 -0.10279573

linears.1.bias f4 [40]
00000000: 5d83 a53d a8d7 ad3c c67d eb3d 13ab d6bd
00000010: 1ffc f93b 82a1 bdbd 4b12 003e 9040 a53d
00000020: 1f2c ee3d 67ab dfbd c6df d4bd 0496 b13d
00000030: 2057 c8bd c1e1 4cbd 9b33 bdbd 531c c2bd
00000040: 5400 183e 9667 19be c4cf dabd 36a5 453c
00000050: c56c 0abd ffb0 f03c 8eb9 593d 67f0 2dbd
00000060: 652f b43d 539e 8cbd d00e c73d e063 aabd
00000070: 6ac9 aebd adfe 993d ce06 8d3c ab9f e9bd
00000080: e72d 2e3d 7a9b 913d 668b ebbd 1122 cb3d
00000090: 9260 d23d 6062 353c 3a6c 27bd de8b c83d
0.08081696 0.021220997 0.11498599 -0.104818486 0.007628932 -0.09259321 0.12506978 0.08068955
0.11629509 -0.10921364 -0.10394244 0.08671191 -0.09782243 -0.050019983 -0.092383586 -0.09478059
0.14843875 -0.14980921 -0.106841594 0.012063315 -0.033795137 0.029381273 0.053155474 -0.042465594
0.08798102 -0.068661354 0.09719622 -0.08319831 -0.085345104 0.07519279 0.017215159 -0.114074074
0.042524245 0.07109733 -0.115011975 0.09918607 0.102723256 0.011070818 -0.040874697 0.097923025

linears.2.weight f4 [40, 40]
00000000: 7199 823e 54a0 283f 0bbb 84bd 0691 77be
00000010: 523d d3bd ff68 82bd b0bc 03be f88d c5bd
00000020: e347 08bd fe3e 78bc 28b2 ac3c 806c 2ebd
00000030: d8a8 f9bc 06ff cfbc e6e5 dabc a89e 5f3c
00000040: b037 f3bd eece 083c 2ab4 323d c840 2cbe
00000050: d4da 12bc ff83 b03c 3ebe 18be d8d9 4bbd
00000060: db66 afbd 5925 3dbd 561c 90bd 45f5 0dbe
00000070: 85cc 96be 909b b6bd 16d1 81be 0900 f0bc
00000080: a996 843e 48b8 11bd dc8e ddbc 6316 8b3c
00000090: 46d2 afbe d8c9 43bc cd71 ecbd befa 8ebc
000000a0: 59f1 2bbe a49c 4bbe 41c2 0a3e a568 783d
000000b0: fd65 e33c ae7b 5e3d 9df4 83be fd9a b63e
000000c0: ec67 143e e20c 87bd 5a1f 383e 1b1e 003e
000000d0: ab69 c43d 10fe 65be b126 5abd 3d35 89be
000000e0: 7d9a 513d 562e 8e3e 6946 22be 860a a03d
000000f0: 0512 ccbd 53e3 383e d6db 82bc 5086 813e
00000100: 43e3 1d3e 8b70 97bb 5fe0 663e f06c 313d
00000110: 5d23 103d 5c8d f63d 7857 a4bd b26e 233d
00000120: 0f0f 9cbd 8479 abbd 1e1a 3e3e 7a69 79be
00000130: 36b9 29bd 2fab 1e3d 38ce 7e3d 42cc 983d
00000140: 1b2b bcbe 013e 0e3e 2cad 63be 8243 c23d
00000150: f73b 8fbe 5373 70b8 d2e6 b6bd dd87 17be
00000160: 5589 223e 76d3 8f3b af3f 0bbe b44b 273e
00000170: 8937 debd 7db7 573d 6a81 bcbc 7696 19be
00000180: 9449 cabe 96cf 713e d761 77be 8324 5ebb
00000190: 0c86 81bd e83a c5bd 4f9c 87be 6bb7 0e3e
000001a0: 74cc 54be 0d6e a93c b28a e5bc e1fa 793e
000001b0: b5f2 243e 228a ddbd db43 f3bd 11ea afbd
000001c0: 6c6f 1c3a 0e88 c23c 4652 9b3d 671a c43c
000001d0: 4178 67be a4ba 283d fea7 afbe 981c 4dbe
000001e0: 3dd6 27be a326 50bd 2490 28be 2af3 683e
000001f0: a61e a83d d3bf f83d 9f10 153d 3558 983d
00000200: b907 88be e4fb df3d ae5c 28bc 3a0b a93d
00000210: a407 133e a84c dabd 3e90 7dbd 4a99 a9be
00000220: 38e2 c33e fc56 ffbd e235 473e 2e9e 2c3d
00000230: 6377 01be 7025 283c 97c5 6a3e abda 713d
00000240: 52d0 1dbd 19d9 9dbd b0af cb3d e55c 3c3e
00000250: a4ff 083e c825 12bd c0bd cbbe 13c2 313e
00000260: 2dc1 5abd 8f21 6b3c 0f99 76bd f781 9b3d
00000270: 222a 113e 70e5 183e a6ee 153e 70e6 88bd
00000280: 9f03 b23d 5f5b 15bd 6786 ec3c 3a9c 0fbe
00000290: 2ef9 4c3e 5010 6fbe ef81 f8bd fcf3 d23c
000002a0: 79aa 233e 1842 ee3c 6fd8 503e 1a4d c03e
000002b0: 9e9f b63d 4ca7 993c 9454 203e b1bc f73d
000002c0: 8a58 a53e d292 463c 5c4b 5dbd 4995 1abe
000002d0: 364f 743e 9818 afbd 0bc6 ce3d 2b68 14be
000002e0: 73f7 c73e d91b 05be d050 03be cdd9 0ebe
000002f0: d6d1 fbbd b463 aebd 8964 903d 8eae 04be
00000300: ad52 ed3c 99e6 793e a47c 883d b7d2 423d
00000310: e9fa 3f3b feda a33e b634 94be f390 e63d
00000320: d14b fd3c c0f4 12be 7611 9bbb c5fd 583e
00000330: 7527 0abe 290e 8c3d e2c9 d23e 3585 973c
00000340: d931 88be 1e29 2cbd 8727 c13b 204a aabe
00000350: c851 623e fd4d a4be 5ffd 1abe def2 103e
00000360: 4027 85be 4eb1 4abe 25af f7bd b8b8 433d
00000370: 8346 e03d 1cf0 813d ef33 943c 75c7 983e
00000380: d688 b6bb 5e80 7ebe 4c10 27be 22f2 8bbe
00000390: e390 f8bd c675 fc3c deb5 1abe b3db 2f3e
000003a0: 26fe a0bc b084 6c3d 08d7 573d ed1e 1dbd
000003b0: 3ac8 aa3d 4a72 483e 3d89 a1be 353e 133d
000003c0: 29e3 8cbe 6b85 34be c1ed b9bd 9c07 903e
000003d0: 798b 6fbe 2875 38be 82bd 283d aa55 9a3d
000003e0: 80b8 bebd 9510 763e 8a68 a7bc de03 03bd
000003f0: 9897 023e 5171 8dbc cd12 573d 44c7 dd3e
0.25507692 0.6586964 -0.06480988 -0.24176416 -0.1031443 -0.06367683 -0.12864947 -0.09646219
-0.03327168 -0.015151737 0.021081045 -0.042583942 -0.030476019 -0.02539016 -0.026720952 0.013648666
-0.11875856 0.008350117 0.04362885 -0.16821587 -0.0089633055 0.021547316 -0.14916322 -0.0497683
-0.0856454 -0.046178196 -0.07036655 -0.13863094 -0.2945291 -0.0891639 -0.25354832 -0.029296892
0.25896195 -0.035576135 -0.02704566 0.016978448 -0.34340113 -0.011949979 -0.11545143 -0.017453548
-0.16791286 -0.19883972 0.13550664 0.06064667 0.027758593 0.05431717 -0.25772563 0.35665122
0.14492768 -0.06594254 0.1798071 0.12511484 0.09590467 -0.22460198 -0.053259555 -0.2679843
0.051172722 0.27769727 -0.15847172 0.07814507 -0.099643745 0.18055467 -0.015973967 0.25297785
0.15418725 -0.0046215705 0.22546528 0.04331678 0.035189975 0.12038681 -0.08024496 0.03990049
-0.0762006 -0.08372787 0.1856465 -0.24356642 -0.041436397 0.038737472 0.062208384 0.07460834
-0.36751637 0.1389084 -0.22234029 0.09485532 -0.27975437 -5.7327863e-05 -0.08930744 -0.14797921
0.158727 0.004389222 -0.13598512 0.16337472 -0.10850436 0.052665222 -0.023010928 -0.14998803
-0.3950926 0.23614344 -0.24158417 -0.0033896274 -0.063243955 -0.09630376 -0.26486441 0.13937156
-0.20781118 0.02068236 -0.028020237 0.24412109 0.1610821 -0.10817362 -0.11878177 -0.085895665
0.0005967531 0.023746517 0.07584052 0.02393837 -0.22604467 0.04119362 -0.34307855 -0.20030439
-0.16390319 -0.050818097 -0.16461235 0.2274901 0.08208971 0.121459626 0.036392804 0.07438699
-0.26568392 0.10936716 -0.010276003 0.082540944 0.14358383 -0.10659152 -0.06190514 -0.33124763
0.3825853 -0.12467763 0.19454148 0.04214304 -0.12643199 0.010262832 0.22926937 0.05904643
-0.038528748 -0.07707424 0.09945619 0.18394811 0.13378769 -0.035680562 -0.39793205 0.1735919
-0.053406883 0.014351263 -0.06020456 0.07593148 0.14176229 0.14931273 0.14641818 -0.066845775
0.08692097 -0.03646409 0.028872682 -0.1402444 0.2001693 -0.23346066 -0.12134158 0.025751106
0.15982999 0.02908425 0.20395063 0.37558824 0.08917163 0.018756531 0.15657264 0.12096537
0.32294112 0.012119966 -0.054026946 -0.1509601 0.23858342 -0.08549613 0.100963674 -0.14492862
0.39055976 -0.12998904 -0.12823796 -0.13950272 -0.122958824 -0.085151106 0.070504256 -0.12957212
0.028970087 0.24404372 0.06664398 0.047564235 0.0029293841 0.32003015 -0.28946465 0.112581156
0.030919941 -0.14351177 -0.004732306 0.21190555 -0.13491614 0.06838638 0.4116965 0.018496135
-0.2660053 -0.0420314 0.0058946046 -0.33259678 0.2210151 -0.3209075 -0.15135716 0.14155146
-0.26006508 -0.19794199 -0.12093953 0.047783583 0.10950949 0.06344625 0.01809117 0.29839674
-0.0055705113 -0.24853656 -0.1631481 -0.2733317 -0.1213701 0.030817878 -0.1510844 0.17173652
-0.019652437 0.05774373 0.052695304 -0.03835957 0.083389714 0.19574848 -0.31550017 0.035947997
-0.2751706 -0.1762902 -0.09078551 0.28130805 -0.23393048 -0.18013442 0.041196354 0.075358704
-0.09312534 0.24029763 -0.02043559 -0.03198611 0.12753141 -0.017265948 0.052508164 0.4331609

linears.2.bias f4 [40]
00000000: aff2 4d3c 0a85 6cbd fb8e d2bd 3d77 01bd
00000010: 37f3 cd3d fde8 e2bb 14e1 d9bd b830 5e3d
00000020: 0d42 39bd 51d9 dcbd 4136 e63d 5d9e aebd
00000030: 9618 17be 9e08 8fbd 8963 12be 922b 293e
00000040: b536 babd 4b7e 653d 42c0 9bba b032 433d
00000050: d36b 5fbd cd42 b8bd 352f 8fbd 3b27 dd3d
00000060: 6643 cfbd 3b5a b63d 159b f13d ea28 97bd
00000070: 72e9 0f3d 784f d0bd 16f8 173d 3c08 4fbc
00000080: 54f7 a4bd e172 38bd c07c 023d 7ba1 913c
00000090: ddff e53c 995d eabd ef1f e3bc 49de 803d
0.012570067 -0.057744063 -0.102811776 -0.031607855 0.10056155 -0.006924747 -0.10638633 0.05424568
-0.045229007 -0.10783637 0.11240817 -0.08526299 -0.14755473 -0.069840655 -0.14295782 0.16520527
-0.09092466 0.056028645 -0.0011882859 0.04765576 -0.05454619 -0.08997116 -0.06991426 0.10798498
-0.10120277 0.08903929 0.11797158 -0.073808506 0.03513474 -0.101714075 0.037101828 -0.012636241
-0.080549866 -0.045031432 0.031857252 0.017777195 0.028076107 -0.114436336 -0.027725188 0.062923975

linears.3.weight f4 [40, 40]
00000000: c03f d23d 6bd2 cbbe 0625 73bd fc2a 093e
00000010: 4f50 aebd 2838 8e3d a246 8dbd a36c d83d
00000020: c1d4 6a3d ad87 99bc 825f 52be 2f2f d4be
00000030: 109e 71be de14 1d3e a47d 273d 4f11 513e
00000040: 19ec 70bc 519b 68bd 32ae 7dbe a9ce 7ebd
00000050: 9b46 7bbe 0891 7bbc 7a79 b03d 3dff b73e
00000060: 5248 4d3d bd5e ef3d d5a1 97bd 77ea 5b3e
00000070: d4f6 aabd 8a1d 2cbe c86c c5bd c493 be3c
00000080: 7c14 4cbd de7d 043d b32f 623e 5612 dcbc
00000090: 5715 b1bd d55f 6ebd e0ea d63d 920b 943d
000000a0: e9c1 29be 7973 01be 658e b3be 68c0 28bd
000000b0: 23dd 243e d605 9bbd 8c94 9dbd 1d5b ca3d
000000c0: bb76 b1bc f923 24be b1e5 fcbd d09a 593c
000000d0: 0cbc 3a3e 032e 4bbe 64e9 a53d a73d 40be
000000e0: 9bd1 403d 8619 3abe e80c 483e 1f00 07bc
000000f0: 13f2 96bd c65b 293e ca99 2dbd 4ca3 72be
00000100: 6404 49be 3c83 2c3d e14f b03c ef5f ab3d
00000110: 6668 a43d 8a4e 26bd d06a 8dbc 0112 043e
00000120: 5541 e23e 8a73 583d 3a2a 323e ba33 693e
00000130: 9e5f 04be 72a7 bebd b6d0 1cbe 4185 033d
00000140: 6d15 9fbe cf4c a03d 37f8 c73d be9d 2b3e
00000150: 7ac8 193e 83e4 0a3d 37d5 a13b 8486 413d
00000160: d3ec 183e aaf9 ef3d 4f13 533d f7fd 083d
00000170: 870a 7ebd b554 45be 69b7 343c 967c 2a3e
00000180: feb8 1f3b f243 2e3e 66d3 013e 178b 67be
00000190: 02e0 c3bd a6d0 47be 43a4 d23d f4d6 753e
000001a0: 6e59 3e3e be32 36bd 4124 cebe f591 4f3e
000001b0: 6246 afbd 3830 35bd 1706 a5be a773 08be
000001c0: 712d 3f3e 0373 813d 3480 513e c958 283e
000001d0: 861a 7c3e 994c 60be 1839 3b3e 9b29 733e
000001e0: 2551 2bbe 5a93 10be dbc1 dcbd 90ea b1bd
000001f0: fba2 503d f112 63be 982f e7bd 60a4 45bd
00000200: 8dcc fb3c fe7f 94bd 9d42 78bd ea16 84bd
00000210: bb19 7dbe 6995 823d e515 d63d 3293 93bd
00000220: 5699 9bbd 60f9 763e 439f 183e 8747 abbc
00000230: c80b 423e 590b 913d 78c9 d03d 707d fabc
00000240: 341c c53d c9ae 083d 1aea d73d 0978 4e3e
00000250: cb77 cfbd 178b c03d dd77 1bbe 4864 0cbd
00000260: 075a 1d3e f545 4e3d 6bd8 7f3e b63b 893c
00000270: 7632 3c3d a176 27bd bc71 30bb aa06 6b3e
00000280: 5e98 d13c 1521 7c3e 9810 a7bd f9d5 a4bd
00000290: a401 15bd fc20 c4be 0d97 dd3d 9f5c 68bc
000002a0: 8b17 4d3c 451b 00be 271d 0cbe 84a9 233e
000002b0: 9113 49be e539 993d efba f0bd 6424 a83c
000002c0: 77dc 703d 6f19 8ebd 822a 9d3d 87ad 1cbe
000002d0: 7a91 ecbd dc86 8d3d ecc9 cd3a 2d8d 263e
000002e0: d3f0 353d 933b f13c 234e 2dbe 67e0 e7bd
000002f0: 9a00 72be cd8e c83d 84f7 c23c ea85 653e
00000300: 1aed 8c3d 358c e33d 4e12 12be 8e25 903e
00000310: 7141 9f3d 9973 58be b4d1 e4bd 962c 1e3e
00000320: 7170 803d 3bf5 7dbe 55c1 f53c 95b6 203d
00000330: 4d2a 743e d6cc 123e 86a7 41be 7e0e 3e3d
00000340: e7c3 973c d238 87be 7267 153d f4c9 8d3d
00000350: 6a56 2b3e 1fa4 4f3d d43e 513e d4bf cd3d
00000360: 8cd8 45bd 3787 3a3d c557 66be e4f2 fa3e
00000370: b167 74be bcc3 4bbc 0967 aa3e 0768 f3bd
00000380: cefa d73d c764 deba fab7 16bd b4ba edbb
00000390: 25c4 a93d a2d9 39bc 2f18 2dbd ba4b 023e
000003a0: 4a73 f63d 36bf bfbd 4e18 c43d 54d1 b5bd
000003b0: a802 85bc b92f e2bd b286 013d eb7c 8a3d
000003c0: 1431 d13d 2dda b23e bb26 e3bc 5edc 5c3d
000003d0: 45c8 513d f18e 58bc a7a7 1cbc f7ae b5bd
000003e0: 3879 b13d acd7 9c3e 198f 9c3e 047e f53d
000003f0: cb97 64be b5a6 1abe f2df 2f3d 9a9b dbbd
0.102660656 -0.39808974 -0.05936148 0.13395303 -0.085114114 0.06944305 -0.06898238 0.10567596
0.057331804 -0.018741453 -0.20544246 -0.41442248 -0.23595452 0.15339991 0.040891305 0.20416759
-0.014704728 -0.056788746 -0.24773481 -0.062208805 -0.24538653 -0.015354402 0.0861692 0.3593692
0.0501178 0.11687992 -0.07403914 0.2147616 -0.0834786 -0.16808143 -0.09639889 0.02326382
-0.049824223 0.0323466 0.22088508 -0.026864212 -0.086466484 -0.05819686 0.104940176 0.07228769
-0.16577877 -0.12641706 -0.35069576 -0.041199118 0.16099982 -0.075694725 -0.07694349 0.0988066
-0.02166306 -0.16029347 -0.12348498 0.013281539 0.18235797 -0.19841771 0.08101156 -0.18773519
0.047074895 -0.18173799 0.19536173 -0.008239775 -0.07370391 0.16538915 -0.042382993 -0.23695105
-0.19630581 0.042117342 0.021522464 0.08367907 0.08027725 -0.040602244 -0.017262846 0.12897493
0.4419047 0.05284456 0.1739892 0.22773638 -0.129271 -0.093092814 -0.15313992 0.032109503
-0.31071034 0.0782715 0.0976414 0.16759393 0.15017882 0.033909332 0.0049387473 0.047247425
0.14934091 0.117175415 0.051532086 0.033445325 -0.06202176 -0.19270594 0.0110300565 0.16649088
0.0024371739 0.17018107 0.12678298 -0.22611652 -0.095642105 -0.19513187 0.10285237 0.2400778
0.18588802 -0.044481985 -0.40262035 0.20270522 -0.08558346 -0.044235438 -0.3223121 -0.13325368
0.18669678 0.06320765 0.20459062 0.16440119 0.24619493 -0.2190422 0.18283498 0.2374634
-0.16730173 -0.1411871 -0.107791625 -0.08687317 0.05093668 -0.22175194 -0.11288375 -0.048252463
0.030737186 -0.07250975 -0.060610402 -0.06449683 -0.24716847 0.06376154 0.10453395 -0.0720581
-0.07597606 0.24118567 0.14904504 -0.02090813 0.18949807 0.070822425 0.10194677 -0.030577391
0.0962452 0.033369813 0.10542698 0.20162977 -0.101302706 0.09401529 -0.15182443 -0.034275323
0.15366374 0.050359685 0.249849 0.016752105 0.04594656 -0.040884618 -0.002692326 0.22951761
0.02558535 0.24621995 -0.08157462 -0.080486245 -0.036378518 -0.38306415 0.10819826 -0.014182239
0.01251782 -0.12510403 -0.13682996 0.15982634 -0.1963637 0.07481746 -0.11754405 0.020525165
0.058804 -0.06938445 0.07674123 -0.1530057 -0.11551185 0.06910488 0.0015700436 0.16264792
0.04441912 0.029447353 -0.16924338 -0.11322098 -0.23633042 0.09792862 0.023799665 0.22414365
0.06881161 0.11110727 -0.14264795 0.28153652 0.07776154 -0.21137847 -0.1117281 0.15446696
0.062714465 -0.24800579 0.029999414 0.039236624 0.23844261 0.14335951 -0.18911561 0.04640054
0.01852603 -0.26410538 0.036475606 0.06923285 0.16732183 0.050693627 0.20434123 0.10046354
-0.04830222 0.045539107 -0.22494419 0.49013436 -0.2386768 -0.012436803 0.33281735 -0.11885076
0.10545884 -0.001696729 -0.036796547 -0.0072549228 0.08289365 -0.011343392 -0.04225939 0.127242
0.120337084 -0.093626425 0.09574948 -0.08877817 -0.016236618 -0.110442586 0.031622596 0.067621075
0.10214439 0.3493208 -0.027728429 0.053921096 0.051216383 -0.013217674 -0.009561456 -0.088712625
0.08665699 0.30633295 0.30577925 0.11986926 -0.2232353 -0.15102656 0.04293818 -0.10723038

linears.3.bias f4 [40]
00000000: 2e76 933d 36ae ef3b 9645 503c e67c b7bb
00000010: d4ec 2c3d ba88 f6bc c455 763d 2726 503d
00000020: 9739 6cbd cf68 0b3d 2122 c93c e2b2 75bd
00000030: 9caf 97bd ef9b 893d 96e9 d03d bc64 9a3d
00000040: 83c9 d3bd 908b c63c 4d5e 1cbd e588 833d
00000050: 1186 7abd 606b 9c3c bd7a 35bd 0ace 443b
00000060: 2f26 d63b 52ef 21bb ab2e 55bb 1abc 473d
00000070: 2682 213c 53c9 163d da6f 35bc 6b90 743c
00000080: b356 aa3d 4295 9cba 04a3 acbd caa8 91bc
00000090: b547 913b 5c66 843d 0d2b 853d f4bf ebbd
0.07200275 0.0073144687 0.012711903 -0.005599606 0.042218044 -0.030094493 0.060140386 0.050817635
-0.05767211 0.0340355 0.024552407 -0.05998505 -0.07406542 0.06719195 0.10200803 0.07538745
-0.1034117 0.02423647 -0.03817587 0.06422595 -0.061163012 0.01909417 -0.044306505 0.0030030035
0.0065353136 -0.0024709296 -0.0032529037 0.048763372 0.00985769 0.03681309 -0.011074031 0.01492701
0.08317318 -0.0011946338 -0.0842953 -0.01778068 0.004433597 0.06464836 0.06502352 -0.115112215

linears.4.weight f4 [40, 40]
00000000: 38de 11bd fd1e fc3b 3922 12be 8412 0cbe
00000010: 8725 20bd 0343 a73e 600d 3abe 9dbf 9f3e
00000020: c0f7 36be 22f3 f2bd 1604 35be 7b5a 9a3e
00000030: e45f 4f3e ec3a 8fbd 6bd5 37bd 16bb 9cbe
00000040: 9f57 bfbd 460f 89be a115 65be e969 08be
00000050: ea30 253d d630 253d 57e4 423e 7794 58be
00000060: 4c67 0abe 5d3c f3bd 5166 2b3e 3ec0 413d
00000070: 2389 13be 8981 b8ba 16ec 57bd 1f84 883e
00000080: 977c 8b3d 2f37 00be 7e57 783d 886b bdbd
00000090: 8654 b5bb 48ed fbbc 8d21 ebbd 25f3 47be
000000a0: 8517 c73d fdd0 ffbd 5551 b5bd c191 63bd
000000b0: 19b8 23bd 29f6 103d 9328 3ebe cccf e43c
000000c0: b2ac e13c 312a b0bc 5d3e 6dbe 8998 553e
000000d0: 334d 0f3e e2a6 1bbd af8b f1bd d0bd d23e
000000e0: 0676 2c3e f8d4 e93d 1f39 1c3e b772 d53c
000000f0: 881c 653e d89f d9bc ea0d 803d c471 1a3e
00000100: aaf6 8bbc c543 4f3e 1454 80bd 4e20 3dbd
00000110: d83a f0bd 1de2 133d 6976 3f3c 88fb 5a3d
00000120: 00d2 e5bc babd 9e3e 328a 2bbe dc4f c83d
00000130: c129 69be bde7 ecbd 45b1 843e 5e8c 7e3d
00000140: ba05 613e 6db7 fe3d 0135 bfbc 8014 60bd
00000150: 1a9e 25bd 59ad 23bd e8e7 443c e914 1a3e
00000160: 8901 4e3e b828 eabd e953 e1bd 285d 30be
00000170: a0a4 fabe 17fa c43d 0ac6 b23d e469 883e
00000180: 1b5e 863d 2938 9ebd 5478 e3bd eedb 52bd
00000190: 0da0 16be a8e9 553e 5410 093e fa47 bebd
000001a0: 312f 6c3b fdcd a1bd cdaf 503e c0d5 36be
000001b0: d0ed 93be 2200 f1bd a629 8cbe 6a63 193e
000001c0: 10d2 48be a880 103e 074e 2d3d 6e65 453d
000001d0: 1f2b 8ebc 5653 0bbe 4090 ca3c 44d3 8a3d
000001e0: 26c8 123e 8e03 023e f02f 313d c5e1 87be
000001f0: 3c51 1e3e 00b9 65be 00b4 d43d c46a efbc
00000200: eb39 773d df5e b13d 2126 09bb 03a4 92bd
00000210: 14b5 653e acc6 8c3b 4407 eb3d 7beb 83b9
00000220: d013 77bd df1d 103e 12b9 ee3d 9a04 463e
00000230: 1880 c7bc 7da7 abbc fd51 0f3e 7971 f53c
00000240: 1513 36bd 42d1 8e3d 6dc4 ed3d 5123 0bbe
00000250: 5825 7fbe a518 013e 287b 51be 9237 943d
00000260: dd01 efbd f368 76bd 7cce dabd f4be 26be
00000270: 81c1 233e 7184 703e b162 b03d c161 8cbc
00000280: 83da 0dbe 6030 54be 2e94 2bbc dac2 c1be
00000290: 9a1e 9e3c 4975 5abe b405 dabd 76d4 e8bd
000002a0: 46f0 493e 846e a73c 11a1 49be 5c68 85be
000002b0: 0629 bd3d 3fa4 1fbd 95bb 233c 99a5 d5bd
000002c0: f0f4 153e 24e2 e1bd 83e8 123e b35a 9ebe
000002d0: 5467 b63e 7bcf ecbc b496 653d 3063 1bbe
000002e0: ef67 483d c640 9dbd 254a 5f3c 7214 f1bd
000002f0: 0a0b f63d 2fcf 55bd c991 563e 62ba 1fbd
00000300: 1926 3f3d 905f 06be e5dc 3d3e 80eb 8ebe
00000310: 830a 97be 8560 cbbd f962 95be e8ef 5ebe
00000320: 3642 513d 14ba da3d d7c6 0ebe 7816 ac3e
00000330: da73 80bd ec18 913d 6c60 a9be e1cf 5d3d
00000340: 5635 4abe 68cc a5be 0013 673e de43 c23d
00000350: bdd9 da3d 0b5a 803e d8fc 4bbe 5a9f 9ebd
00000360: 5227 c83d a95f 2f3d 9e33 9a3a 1270 5b3d
00000370: 6c62 7a3e 648c 2a3d 5ff6 77bc 4d4d 8e3d
00000380: 0a19 c8bd 564b 63be 7e32 e33d fce7 fc3c
00000390: e4a4 b9bc c661 83bc 53f6 8bbd 5605 3ebe
000003a0: 74bf 47be d427 37be 2c6d 0abe 3701 ae3c
000003b0: bb3b 663e e82b 9dbe 8ba9 b83d 2525 3ebd
000003c0: 7eff 7f3e 9a2c a1bd a64b 27be 8a25 dd3d
000003d0: b233 873e a5f6 813d 979d cd3d a7d2 29bc
000003e0: f4bb a9bd 6cb7 9fbd f1e9 8c3e 3fde 773e
000003f0: fcce 333d bffd 58bc e3d9 b1bd 80c6 39be
-0.035612315 0.007694124 -0.14270867 -0.13678938 -0.03909829 0.32668313 -0.18169165 0.31200877
-0.17867947 -0.1186278 -0.1767734 0.30147156 0.20251423 -0.0699366 -0.044881266 -0.30611485
-0.09342884 -0.26769465 -0.22371532 -0.13321652 0.04032985 0.040329777 0.19032417 -0.21150385
-0.13515967 -0.11876748 0.1673825 0.047302477 -0.14407782 -0.001407669 -0.052715383 0.266633
0.06810873 -0.12521051 0.060630314 -0.092490256 -0.0055337576 -0.030752793 -0.11481009 -0.19526346
0.09721283 -0.12491033 -0.088534035 -0.055558924 -0.03997049 0.035391007 -0.18570165 0.027931117
0.027548168 -0.021504493 -0.23168321 0.20858969 0.13994293 -0.03800095 -0.11794221 0.4116044
0.16841897 0.11417574 0.15256165 0.026055677 0.22374165 -0.026565477 0.06252654 0.1508246
-0.017085392 0.20240696 -0.06266037 -0.046173386 -0.117299736 0.03610431 0.011685946 0.053462535
-0.028054237 0.31004125 -0.16751936 0.09780857 -0.22769834 -0.11567638 0.25916496 0.062145583
0.21974841 0.124373294 -0.023340704 -0.05470705 -0.04043398 -0.03996024 0.012018181 0.15047039
0.20117773 -0.11433548 -0.11002333 -0.17223036 -0.48953724 0.09618013 0.08729179 0.26643288
0.06560918 -0.077255554 -0.11106935 -0.051479273 -0.14709492 0.20889914 0.13385135 -0.09291072
0.003603887 -0.07900617 0.20379563 -0.17854977 -0.28892374 -0.117676035 -0.27375525 0.1497933
-0.19611382 0.14111578 0.04231074 0.048192434 -0.017354546 -0.13606009 0.024726987 0.06778577
0.14334163 0.12696669 0.043258607 -0.26539436 0.15460676 -0.22433853 0.10385895 -0.029225715
0.06035797 0.08660673 -0.0020927268 -0.07160189 0.22432357 0.0042961445 0.11475995 -0.00025161714
-0.06032163 0.14073895 0.11656393 0.19337693 -0.024353072 -0.020953888 0.1399612 0.029961335
-0.04445179 0.069735065 0.11609731 -0.13587691 -0.2491659 0.12607057 -0.20457137 0.07237162
-0.11670277 -0.06015868 -0.10683915 -0.1628378 0.15991785 0.23488022 0.08612574 -0.017136456
-0.13852887 -0.20721579 -0.0104723405 -0.37843972 0.019301701 -0.21333803 -0.10645619 -0.11368649
0.19720563 0.02043844 -0.19690348 -0.26056182 0.0923634 -0.038974997 0.0099934535 -0.10431976
0.14644217 -0.11029461 0.14346509 -0.30928573 0.35625708 -0.028907528 0.056051925 -0.15174556
0.048927244 -0.0767837 0.013628517 -0.11771478 0.12013824 -0.05219954 0.2095405 -0.038996108
0.046667192 -0.13122392 0.18541296 -0.27914047 -0.29500207 -0.09930519 -0.29177073 -0.21771204
0.051088534 0.10680023 -0.13943039 0.33610892 -0.06272097 0.070848316 -0.33081377 0.054153327
-0.19746909 -0.32382512 0.22565842 0.09485601 0.106860615 0.25068697 -0.19920671 -0.07745238
0.09773125 0.042815838 0.0011764651 0.053573675 0.24451607 0.041637793 -0.015134423 0.06948338
-0.09770401 -0.22196707 0.11093615 0.030872338 -0.022661634 -0.016037833 -0.06834092 -0.18556723
-0.19506627 -0.17886287 -0.13518208 0.021240814 0.22483723 -0.3069756 0.09016713 -0.046422143
0.24999806 -0.07869835 -0.16337451 0.10798176 0.26406628 0.06345872 0.100398235 -0.010365165
-0.08287802 -0.07798657 0.27522233 0.24205874 0.043898568 -0.0132440915 -0.08684137 -0.18142128

linears.4.bias f4 [40]
00000000: 2de0 94bd a998 4bbd 34d2 94bd f0a0 7e3c
00000010: bf6d 6bbc 7b54 98bb 6cd6 0dbd 66ed 05bd
00000020: 483d c13c 5321 073b d874 5c3c eb09 593d
00000030: ed70 bfba 7ec0 0fbc d8f6 873c b676 f83c
00000040: 0a46 cbbb bb4e 94ba c32f 973c 5858 093d
00000050: 0d83 113d de9a 1e3d a10b 2abc fc60 e53c
00000060: 4634 2d3c 9e3b b03c c855 10bd e607 c73c
00000070: 216d f5bc a9be 113d 28c5 9dbc b74b 34bc
00000080: c63a e53c c850 3bbc 4531 513c 9376 e83b
00000090: 3e3e 8cbd 4541 80bc 4a14 323c 7c0b 11bd
-0.07269321 -0.049706135 -0.072666556 0.0155413 -0.014369427 -0.0046487427 -0.034628317 -0.032697104
0.023588791 0.0020619228 0.013455592 0.052987974 -0.0014605798 -0.008773921 0.016597196 0.030330043
-0.0062034177 -0.0011314967 0.018455392 0.033531517 0.03552537 0.03872191 -0.010378749 0.028000347
0.010571545 0.021512803 -0.035238057 0.024295758 -0.029959263 0.03558222 -0.01925905 -0.01100438
0.027982127 -0.011432834 0.012768094 0.0070942133 -0.06847809 -0.015656123 0.010869095 -0.035411343

linears.5.weight f4 [40, 40]
00000000: e9ee 7dbc 1a36 c2bd 5a41 cc3c 23d2 a2be
00000010: 963d 23be 9e42 a7bd cdb5 4dbe 77b1 4f3a
00000020: 5f00 103d c99f 85bd 2ad6 5f3d 1a6c a53e
00000030: bc61 c13d 0880 7cbd d1c2 6abd a4de 1fbe
00000040: fa8b 823d d7e1 95be 0e5e 5abe fcd0 72bd
00000050: 6fc7 133e 16fb adbb 9b78 62bd 2bc3 89bc
00000060: 2aa5 b13d 66a0 8c3e ff93 50bc 2143 6dbe
00000070: 553e 12be 485a 39bd 9072 bebd c495 393d
00000080: 0c33 3cbe c83d cdbc d215 783e af0d b3bb
00000090: 8aac 70be 53e9 b6bc a5c9 aebc d6ab bfbd
000000a0: 1cef 3dbe dcce 1e3e a94c 173e e99a ab3e
000000b0: e6b3 3c3e d833 e3bc 7874 fd3d 30a6 f0bd
000000c0: 2445 903c dda6 22be 87e2 4f3e cea8 233e
000000d0: 46c5 443e 4cfc 85bd 705f bebd 522b c1bc
000000e0: e360 52bd a8b0 a73e 28e8 37be a0a4 a63c
000000f0: 17c0 a0bd 864e 81be 55ff 2dbd 16cd 80be
00000100: faed e43d 1312 303e bdb0 1d3c 944a 86be
00000110: 2ac8 903e f2e4 973d 6665 6f3c db68 03bd
00000120: d0e7 b3bc 3514 9dbd f006 193d c81a d1bd
00000130: 4fbd 71be 92ea 29be 7b65 93be 76df 09bd
00000140: 90f2 08be fada 3dbd 592d ebbc 5d6e 993d
00000150: 5020 d3bd 5270 343e 86b1 65bd 15eb 05be
00000160: f037 153b ebce 74be 024d 733d af7f 9b3d
00000170: 008f 523d d8f8 1f3e 948e bfbd 11ed fe3b
00000180: a019 153e b83a 6d3d eeb7 51be 4647 1b3c
00000190: 5922 70bd 0a59 e2bd d2b9 6d3e 8c67 3e3c
000001a0: fbbf a53e 4aec 4cbb 9d6d 8abe 6a38 12bd
000001b0: 2e5f f5bd 2b20 243b 8b08 7d3e 02c8 de3d
000001c0: 86e2 03be 9be7 123e 5753 9f3d 0103 b73e
000001d0: 246e 293e d067 4a3d 6d26 d63c b200 0cbe
000001e0: 6dc7 fb3d 459a 4cbe 6a43 c53d bacb 87bd
000001f0: 3b80 acbd f615 aebc 8886 8fbd 9237 76ba
00000200: ab51 103c 0e23 123b 8082 8a3d 65c5 bebd
00000210: c6bf e2be 1add d7be 6721 16be beba 9dbd
00000220: 45a8 1ebd 077a 58bd 1ad3 343d 4607 7dbe
00000230: 9732 2fbe af7f 373d d738 013e ed43 903d
00000240: d43e a7bd da4e 873e ae41 76be 7eb0 4ebb
00000250: e261 cf3d 1b33 b0bd 8424 3c3d 138a cb3d
00000260: c438 4cbe 855a 973c 6d8d 843d 2ad0 b3be
00000270: d91e c1bd 99fd 4a3e b02e 6f3d 8426 10bd
00000280: 1994 263e b57d 653e e2a8 cf3d 6d53 4ebc
00000290: bb73 4d3d 81db 10be 1977 163e 67a7 6f3e
000002a0: b272 1fbe 2c62 fe3c ac09 ffbd c0bd 8bbd
000002b0: 8b33 85be 557c bcbd 00cf c5be 378f d5bd
000002c0: 9af3 733d 4e47 0dbc 63d3 c73d 9491 17bc
000002d0: 134a 0bbe 3931 96bd f554 44be 58fb 033e
000002e0: 58ec 9cbd ca25 0a3e 9085 e6bd 4fb6 8dbd
000002f0: f7bb 033e 27f4 8d3a b191 a43d c912 113e
00000300: f8ce 723c 0590 91bd 6662 533e 513a 2a3d
00000310: 5b6a 6a3e 676b 443e 0943 21be 3b6f fcbc
00000320: 07cb 77bd 7b28 06be d397 47bd 7792 8cbd
00000330: 707f c63d b1a7 1fbe 27de eebd 6599 9dbe
00000340: 07e6 78bc 7d2d 693e 1597 38bd b700 07be
00000350: ad3a 9bbd d3af 163e 5e69 bcbd 4b02 23bd
00000360: acbd 3abd d6fb c3bd 4067 74bd 549b eb3c
00000370: 31eb a43d f1a3 f0bd b4a2 f13d 9933 e63d
00000380: 4624 0f3a 0412 8c3a a081 723b 3639 67be
00000390: b8d3 853e c092 e2bb 128b 303d 8695 733d
000003a0: ae16 1a3e 5bac c8bd b0f5 9e3c 5a55 3c3e
000003b0: 641c 75bd 6cc8 4fbe 83fe b53e b648 83be
000003c0: 678f d03d 7134 16be ccb3 aabe 9490 b13d
000003d0: 4283 30bd 9342 043d 1eb8 543d 44cd a73e
000003e0: 3ffa 463d 740b 92bc adae e93d 5308 123e
000003f0: fa29 05be 91c5 01be 654a 793d 5084 713e
-0.015498855 -0.09482975 0.024933506 -0.31800947 -0.15941462 -0.08167003 -0.20088883 0.00079228677
0.035156604 -0.06524617 0.054647602 0.32309037 0.094424695 -0.061645538 -0.057314698 -0.15612274
0.06374355 -0.29273865 -0.21324942 -0.059281334 0.14431547 -0.005309473 -0.0552908 -0.016816696
0.08674081 0.27466124 -0.0127305975 -0.23170139 -0.1428159 -0.045252115 -0.09299195 0.045308843
-0.18378848 -0.025053874 0.24227074 -0.0054642777 -0.23503318 -0.022328055 -0.021336386 -0.09358947
-0.18548244 0.15508598 0.14775337 0.33516625 0.18428001 -0.027734682 0.1237573 -0.11750448
0.017611094 -0.15883966 0.20301257 0.15982363 0.19215879 -0.065422624 -0.09295547 -0.023580227
-0.05136193 0.32751966 -0.17959654 0.020342171 -0.07849138 -0.2525522 -0.04247983 -0.25156468
0.11178203 0.17194395 0.009624657 -0.26228774 0.28277713 0.07416715 0.014611578 -0.03208242
-0.021961123 -0.0766987 0.03736013 -0.10210186 -0.23607372 -0.16593388 -0.2878836 -0.033660375
-0.1337378 -0.04635141 -0.028708147 0.07491753 -0.103088975 0.17620972 -0.056077503 -0.13077958
0.0022768937 -0.23907058 0.059399612 0.07592713 0.051405907 0.1562227 -0.093533665 0.0077797254
0.14560556 0.057917327 -0.2048032 0.009477442 -0.058626506 -0.11052139 0.23215416 0.011621367
0.32373032 -0.003126877 -0.27036753 -0.035698332 -0.11981045 0.0025043588 0.2471029 0.10877992
-0.1287938 0.14346163 0.07779568 0.3574448 0.16545922 0.04941541 0.02614137 -0.1367214
0.12293897 -0.19980724 0.09631999 -0.06630655 -0.084228955 -0.021250706 -0.07008082 -0.0009392436
0.008808534 0.0022298726 0.06763172 -0.09314994 -0.44286937 -0.42160875 -0.1466118 -0.07701634
-0.038734693 -0.05285075 0.044146635 -0.24709806 -0.17109142 0.044799503 0.12619339 0.07044206
-0.081662804 0.26427346 -0.24048492 -0.0031538303 0.101260915 -0.086034976 0.04593326 0.09938445
-0.1994353 0.01847578 0.06472287 -0.35119754 -0.09429712 0.19823302 0.058394134 -0.03519298
0.16267432 0.22411235 0.10139634 -0.012593132 0.050159197 -0.14146234 0.1469387 0.23403703
-0.15571097 0.031052671 -0.12453017 -0.06823301 -0.26015887 -0.09203402 -0.3863449 -0.10427707
0.05955849 -0.008622957 0.09757116 -0.009251017 -0.13602476 -0.07333607 -0.19173034 0.12888849
-0.076622665 0.13490978 -0.11255944 -0.06919538 0.12864672 0.0010830209 0.08035601 0.14167322
0.014819853 -0.07107548 0.20643005 0.04155952 0.22892134 0.19181596 -0.15748228 -0.030814758
-0.060496356 -0.1310138 -0.048728775 -0.068638735 0.096922755 -0.15591313 -0.11663466 -0.30781093
-0.015191562 0.22771259 -0.045065958 -0.13183866 -0.07579551 0.14715509 -0.09199785 -0.03979711
-0.04559104 -0.09569518 -0.05966878 0.02876059 0.08052672 -0.11750019 0.11798611 0.1124031
0.0005460422 0.0010686521 0.0037003532 -0.22580418 0.2613809 -0.0069144666 0.043101378 0.05946877
0.15047714 -0.09798499 0.019404262 0.18391934 -0.05984153 -0.20291299 0.3554574 -0.25641412
0.10183602 -0.14668442 -0.333403 0.08670154 -0.043093927 0.032290053 0.0519334 0.32773793
0.048578497 -0.017827727 0.1141027 0.14260988 -0.13004294 -0.12673022 0.060861964 0.2358563

linears.5.bias f4 [40]
00000000: 95a8 b43b 398c 29bc 4917 1d3b 4281 0b3c
00000010: 7ec6 dbbb 1ded a0bc 729c 81ba 1ce2 3f3c
00000020: dd60 08bc 49f5 4a3b e95c e03b 59ef 703c
00000030: d019 3ebb d95d 99ba b921 963c 1a7a f6bb
00000040: b367 3abc f379 57ba 69cb 60bd cb6e 4ebc
00000050: 22a8 9f3b 01d9 833b 2ca5 493b 8682 11bd
00000060: 6adb 343b 9a0f b4bc d1ed 3dbc 1fcb 343b
00000070: 836a c03b fdbb 243a 7416 3ebd 11d9 3bbb
00000080: 0b4f 42bc 8c29 bebc 1836 caba 4015 fc3b
00000090: 979e 83bc 7ede d93a 77bc 54bb e3bf 7e3c
0.0055132606 -0.010348373 0.0023970178 0.008514704 -0.0067070117 -0.019644314 -0.0009888543 0.0117116235
-0.008323875 0.0030968955 0.0068470133 0.014705502 -0.0029007085 -0.0011700942 0.018326627 -0.00752188
-0.011377263 -0.0008219771 -0.054881487 -0.012599657 0.004872338 0.0040236716 0.0030768616 -0.035524867
0.0027596601 -0.021980096 -0.011592344 0.002758689 0.005872072 0.0006284116 -0.04640813 -0.0028663317
-0.011859666 -0.02321317 -0.0015427498 0.007692963 -0.016066832 0.0016622094 -0.0032460967 0.015548679

linears.6.weight f4 [3, 40]
00000000: 3fa2 89bf c847 8a3b e353 9ebe 72f5 87bf
00000010: 5b1e 603e 418c e8bd 445b 153f d55c 8abf
00000020: 1a74 21be 4224 7f3e a81a c43e 0b85 7c3e
00000030: a8df dc3e b7e7 243e 847f 913f 89ed 1abe
00000040: c4ac 87be 6b84 6bbe 3965 593e 6e41 77be
00000050: f49c 2b3e 7802 70be e2ea c4be 9176 df3d
00000060: 7e13 f7bd 9b09 813d 213b c53d 59b2 af3d
00000070: f194 7b3e 334a 723d 8ba1 05be 37a1 e23d
00000080: b599 44be d529 9c3e 9ecf 243e 6f6c 753e
00000090: 3d3d 003f 2b66 c4bd b8d9 57be 051a a1be
000000a0: 51ca 01bd d813 2f3e 1bd9 003d 731d 97bd
000000b0: 38ae 4b3e 9fbf 5d3e 1ecc 0a3e 44d0 743d
000000c0: 348e 6a3d e24a e7bd 080d 3c3e 5954 033e
000000d0: 05f0 e9bd eef6 2bbe 6808 6bbe 8a76 a8be
000000e0: bcc7 bebd 6875 613e b6da 30bd e4c3 4a3e
000000f0: 4307 0c3e a1a4 0e3e c309 cd3d a102 d3bc
00000100: f23d b8bd 4d53 0c3d ea76 6ebe 9fe4 1f3d
00000110: 087b 58bd 60e4 5ebd 6a4d 393d eb42 303e
00000120: b2e3 8cbe 4186 f0b8 cec9 70bd 6bc9 013e
00000130: df92 dc3d b14e 7c3d 732f d4bd f878 2d3d
00000140: 4049 1bbe 6823 8939 669c 363e 97fb abbe
00000150: 6315 253d 8ddd 2fbe bc12 0fbd b0e2 b9be
00000160: 7061 50be 87f1 f83c 78cd 973e af3a d33e
00000170: c332 103e ea66 083c 4d76 fc3d bece 173d
00000180: c851 29be ac61 aabd fea7 513e 5e3f 4fbe
00000190: 161e cb3c 0844 9bbe 2d02 0abe 1643 6c3d
000001a0: 8945 563d 1b19 5abe 48b8 003f a5f8 03be
000001b0: d68d 90be eb48 de3d d10a 38be b407 22bd
000001c0: c664 9cbe cd9a 073e 32d7 f4bb 3ce1 973e
000001d0: 91ff ffbd 7812 9e3e ed9b 2b3e 7dc3 05be
-1.0752639 0.004219983 -0.30923375 -1.0621779 0.2188658 -0.11354876 0.58342385 -1.080958
-0.15766945 0.24916175 0.38301587 0.24660127 0.43139386 0.16104017 1.136704 -0.15129675
-0.26498997 -0.22999732 0.2123002 -0.24146053 0.16759092 -0.23438442 -0.3846045 0.109112866
-0.12064265 0.0630066 0.096304186 0.08578939 0.24568535 0.059152793 -0.13049905 0.110659055
-0.1919926 0.30500665 0.16094825 0.23967145 0.5009344 -0.095897995 -0.21079147 -0.31465164
-0.031687085 0.17097414 0.031457048 -0.07378664 0.19890678 0.21655129 0.13554427 0.05976893
0.05726452 -0.1129358 0.18364346 0.12825145 -0.11422733 -0.16793415 -0.22952425 -0.32902938
-0.0931544 0.22017443 -0.04317733 0.19801289 0.13674645 0.13929988 0.100116275 -0.02575809
-0.0899619 0.03425913 -0.2328755 0.03903639 -0.052851707 -0.054417014 0.045239843 0.17213027
-0.27517468 -0.000114690985 -0.058786206 0.12674491 0.10770201 0.061598483 -0.10360613 0.042351693
-0.15164661 0.00026157056 0.17833099 -0.33590385 0.0403036 -0.17174359 -0.034929976 -0.3630576
-0.2034967 0.030388607 0.29648948 0.4125571 0.14081864 0.008325318 0.123272516 0.0370624
-0.16535103 -0.08319411 0.2047424 -0.20239016 0.02479462 -0.3032534 -0.13477392 0.057681166
0.052312408 -0.2129864 0.5028119 -0.12887819 -0.28233212 0.10853752 -0.17972876 -0.039558128
-0.30545634 0.13242646 -0.0074719423 0.29664028 -0.12499917 0.30873466 0.167587 -0.13062854

linears.6.bias f4 [3]
00000000: 7f78 9d3f 5580 293b a51d f7bc
1.2302397 0.0025863845 -0.030165503

exp_avg f4 [40, 2]
00000000: bb35 b2c1 3f95 4b3f 960d b941 2b28 2c41
00000010: a5dc 2bc1 5f97 e9bf 7e2c f9c0 f5d9 92c0
00000020: 7aa1 9441 4aad 0641 0498 10c1 796a 6fc0
00000030: 3fa1 c041 0bf3 6f40 3a62 68c1 f4a1 83c0
00000040: 8719 4541 3ac5 2340 76d0 bfc1 04e0 17c0
00000050: 639f 5abe b030 7840 ea20 1a41 74ab ee3f
00000060: 0ed6 7741 016f 2a40 b137 d9c1 968e 0ec1
00000070: 34d7 d0c0 d16c 15c0 210f 1940 38cd 99c0
00000080: cc37 5a40 6ff5 d83e 4755 b141 5a5a 8c40
00000090: 6917 7cc1 9472 4ac0 9476 50c1 9d6a 71c0
000000a0: f698 bebf 6d5d c940 d4b8 6941 e023 7040
000000b0: 845d 0b3f a4ba 3b40 b6f8 4542 0579 5940
000000c0: 1f72 6fc1 80f2 4ac1 feac 15c1 6691 8ac0
000000d0: 9c28 cec0 67e8 68c0 48e7 0741 c38c a440
000000e0: 3ed9 de41 f0cf b93f 0a02 67c0 edc5 a740
000000f0: 27cd a8c0 2c16 65c0 dd4a 68c1 41cf b8bf
00000100: b923 1ac1 aa28 a4c0 9c84 8140 3c64 9fbf
00000110: f688 5cc0 3145 bcc0 74c5 85c1 0c83 4f40
00000120: 1beb 15c2 ef4d 24c1 ba99 8fc1 edc6 f9c0
00000130: 201e 6a41 c14d fd40 3e73 0e41 2558 5b40
-22.276236 0.79524606 23.131634 10.759807 -10.741368 -1.824932 -7.786681 -4.589106
18.578846 8.417307 -9.037113 -3.7408736 24.078733 3.7492092 -14.523981 -4.1135197
12.318732 2.5589128 -23.976788 -2.3730478 -0.21349864 3.8779716 9.633036 1.8646073
15.489759 2.6630251 -27.152193 -8.909811 -6.52627 -2.3347666 2.3915484 -4.806301
3.4096556 0.4237475 22.16664 4.3860292 -15.755715 -3.1632433 -13.02895 -3.7721322
-1.489043 6.2926545 14.607624 3.7521896 0.5443957 2.9332666 49.49288 3.3980114
-14.965362 -12.684204 -9.354734 -4.330249 -6.442457 -3.6391847 8.493965 5.142183
27.856075 1.4516582 -3.6094995 5.242911 -5.275043 -3.5794783 -14.518277 -1.4438249
-9.633721 -5.129964 4.0474377 -1.2452464 -3.4458594 -5.883446 -16.721413 3.2423735
-37.479595 -10.269027 -17.950062 -7.805533 14.632355 7.9157414 8.903135 3.427255

exp_avg_sq f4 [40, 2]
00000000: 7bb3 cd4e 6eac a74b f451 4b54 4aad 834c
00000010: a9fa 6953 4bf8 464a 05cf 8e4f 57e4 e549
00000020: 6b2f 4852 3c86 a04a ff62 d152 ad74 b24a
00000030: 3e53 3a51 3460 934b 6f5a ee52 d28a 2c4a
00000040: 3ab7 1054 49f9 f84c ee9f ad53 0129 014d
00000050: 2b69 4b53 224c 794a ef6d f952 c84b c04b
00000060: 2bff fc52 e6b5 6c49 d64c 1e4f 5a5f b54b
00000070: 1d28 6c51 f077 a14a ddcb d451 d59f 024c
00000080: 7262 dd52 8409 074b 7a46 f152 a16d 304b
00000090: 1982 1753 4713 1f4b 20b9 a050 bf64 054c
000000a0: f1c4 3851 e85c 1a4b 28a2 1052 7e78 b44b
000000b0: 3b7f b853 47ef dd4b c044 0954 89aa 144c
000000c0: fd1b 1953 4721 034b 5f31 bd50 a457 ff4a
000000d0: 5e82 b051 f8e6 ca4c e107 1b52 6178 e64b
000000e0: e23a 5151 a2d5 024b bfd4 c152 4c68 f84b
000000f0: 0733 1d52 794c 794b c993 8a50 ed36 914b
00000100: 473c 1753 ba1f c74c 1f17 6351 546c 824b
00000110: a109 6751 3184 404b cdc1 b254 7440 074c
00000120: bf40 9950 c4e3 014b 3b1d 2e51 e528 4e4a
00000130: 22a1 8552 6bd0 ae4a 3beb c951 b9f1 724c
1.7255459e+09 2.1977308e+07 3.4930132e+12 6.903662e+07 1.00493276e+12 3.2599228e+06 4.791864e+09 1.8832749e+06
2.1494725e+11 5.260062e+06 4.4965452e+11 5.8476385e+06 5.001628e+10 1.931684e+07 5.1185972e+11 2.8269325e+06
2.4861973e+12 1.3053396e+08 1.491425e+12 1.3543426e+08 8.736428e+11 4.0844885e+06 5.3564562e+11 2.5204624e+07
5.4330638e+11 969566.4 2.6558356e+09 2.3772852e+07 6.339283e+10 5.291e+06 1.14244166e+11 3.4242388e+07
4.754197e+11 8.849796e+06 5.1813476e+11 1.1562401e+07 6.5072274e+11 1.0425159e+07 2.1571895e+10 3.4968316e+07
4.959863e+10 1.0116328e+07 1.5529896e+11 2.3654652e+07 1.5848171e+12 2.9089422e+07 2.3582558e+12 3.897194e+07
6.5759956e+11 8.593735e+06 2.5393035e+10 8.367058e+06 9.476268e+10 1.063792e+08 1.6646303e+11 3.0208194e+07
5.6164753e+10 8.57437e+06 4.16249e+11 3.2559256e+07 1.6879149e+11 1.6338041e+07 1.8599528e+10 1.9033562e+07
6.4955135e+11 1.0439829e+08 6.0959093e+10 1.7094824e+07 6.2018687e+10 1.2616753e+07 6.142045e+12 3.545544e+07
2.0569258e+10 8.512452e+06 4.673842e+10 3.3777212e+06 2.86967e+11 5.7283095e+06 1.0840437e+11 6.3686372e+07

exp_avg f4 [40]
00000000: 9b5e 5e41 b9c5 73c1 057d 1141 ac4d 8140
00000010: 447e 57c1 b592 6e41 4aa4 3dc1 149f 6541
00000020: cece 1d3e bb36 8241 4046 673f 30f5 28c1
00000030: e4af 49c1 ba8d 4a41 32d9 bf40 119e a4c0
00000040: fa4c 9a40 dd1c 8ec1 bbab 823f 3f83 bc40
00000050: 8e77 bfc0 8e49 84c1 12f0 1e41 49da 19c2
00000060: 7d37 1641 9d1a 5140 3ed2 2441 bfa6 2fc1
00000070: 9b98 a3c1 0bc3 6c40 31c9 8240 887e fe40
00000080: accc 1641 b28f 02c1 65ad 4e41 99ad 5c41
00000090: 2598 ac41 500f ad41 ebbe 00c1 ef3c 0dc1
13.898097 -15.235772 9.093022 4.0407314 -13.468327 14.910817 -11.85261 14.351337
0.15410921 16.276724 0.9034157 -10.55986 -12.605442 12.659601 5.995263 -5.144295
4.8218966 -17.764093 1.0208658 5.8910213 -5.983344 -16.535915 9.933611 -38.46317
9.388547 3.2672493 10.301329 -10.9782095 -20.449514 3.6994045 4.0870595 7.9529457
9.424969 -8.160082 12.917333 13.792382 21.57429 21.632477 -8.046611 -8.827376

exp_avg_sq f4 [40]
00000000: 7b7f 4c4e 375c 194f a33c 164f d6cb 744d
00000010: 4ef9 854e c6a0 1c4f 6831 aa4e 6437 1c4e
00000020: a44e 1550 09d6 184f 2147 9a4e 1251 db4e
00000030: aa8e 474d 5d46 434e bbef 0b4e 1b14 b74f
00000040: 066b 294e fa75 b44e 5d68 414f 5c30 724f
00000050: fe71 824e b935 844f c666 ca4f e56d 2a50
00000060: ce9c f54e 0abf 1e4e 0b09 1550 1cfa 694e
00000070: 5b50 9e4d 0207 b14f 652b a84e e7ff 1c4f
00000080: c19c 4950 11d5 8b4e cb0e fd4d dd2f 6850
00000090: 1ee0 244e c14c 2d4e f2f1 144f 7773 fa4e
8.5772666e+08 2.5729574e+09 2.5205563e+09 2.5668746e+08 1.1238541e+09 2.6277821e+09 1.4276823e+09 6.5521894e+08
1.0019836e+10 2.5641638e+09 1.2941764e+09 1.8397617e+09 2.0925098e+08 8.190421e+08 5.86936e+08 6.1430963e+09
7.1059085e+08 1.5138153e+09 3.2448422e+09 4.0632556e+09 1.0942543e+09 4.4362266e+09 6.791466e+09 1.1437315e+10
2.0603471e+09 6.6583e+08 1.0001591e+10 9.813706e+08 3.320083e+08 5.940053e+09 1.4107081e+09 2.6340165e+09
1.3529974e+10 1.1729983e+09 5.3070064e+08 1.5581804e+10 6.915378e+08 7.268721e+08 2.498884e+09 2.1009356e+09
