1DCFD_PINN/1D_CFD_Shock_Eta1.e-8_Zeta1.e-8_trans_Train_PINN.pt-5000.pt (torch, 112935 bytes, 42 tensors)

linears.0.weight f4 [40, 2]
00000000: ae00 8c3e bc82 323e 2da2 ed3e 28f5 313e
00000010: d548 db3d e928 313e 1a83 afbe 6f31 173d
00000020: 00a7 f83d 4764 8fbe 9874 5bbe 9eb1 4e3c
00000030: f3e3 033e aa0d 58be f784 283e 75e1 d2be
00000040: db29 7b3d c094 41be 8b36 3fbe 11ff ddbd
00000050: 410e c0be 96da 7ebe 72bd c83c 5e2e f23c
00000060: 8269 b43e 2cd4 7b3e e5a3 1fbe 840b c83d
00000070: 6279 043e 80c6 0ebd 3b54 aabe 7463 133e
00000080: 2734 e9bd b78e 7fbd 1136 b13d 0aa4 a7be
00000090: fa86 adbd cca9 b73d caf4 c0bd 2826 a6be
000000a0: 4dad a1bd 4ad2 893d 2f17 5d3e ebc8 6cbd
000000b0: 32a8 36be db65 0abe a7d8 50be 9515 7b3e
000000c0: 3222 b5bd 76d6 e23e f889 9bbc 515d d63e
000000d0: c47a d43d c280 5fbe 77cd 363e a77f 053f
000000e0: 30e1 573e 714c de3d cc27 2d3e d349 8cbe
000000f0: 73e9 45be 99d0 fa3c c94a af3e 1a93 d1bd
00000100: 4427 fbbc 4036 443e a4cc 273d 2a3b 353e
00000110: 2598 b6bd 6281 833c 286f af3c dae9 383d
00000120: ec2f 873e 2536 8e3e a63c 13bd 35b1 293e
00000130: 2996 963e b99e dc3e 513a af3d 3cd3 8ebd
0.2734427 0.17432684 0.46412793 0.17378676 0.10707251 0.17300762 -0.3427971 0.036912378
0.12141228 -0.28006193 -0.21431196 0.012615589 0.12879924 -0.21098962 0.16456972 -0.41187635
0.061319213 -0.189044 -0.1867315 -0.10839666 -0.37510875 -0.24888071 0.024504397 0.029563125
0.35236746 0.24592656 -0.15589865 0.097678214 0.12936929 -0.034857273 -0.33267388 0.14393407
-0.113869004 -0.062391963 0.086528905 -0.3274234 -0.0847301 0.08967933 -0.0942169 -0.32450986
-0.078943826 0.067295626 0.21590875 -0.057808798 -0.17837599 -0.13515417 -0.20395146 0.24519952
-0.08844413 0.44304246 -0.018986687 0.4186807 0.10374978 -0.21826461 0.17851816 0.52147907
0.21081996 0.10854424 0.16909713 -0.27400073 -0.19327335 0.030617045 0.34236744 -0.102331355
-0.030658372 0.1916132 0.040966645 0.1769835 -0.08915738 0.016052905 0.021415308 0.045144893
0.2640375 0.27775684 -0.03594651 0.16571505 0.29411438 0.43089846 0.08556045 -0.069738835

linears.0.bias f4 [40]
00000000: 21ef 49bb c306 5f3a 3f75 c7ba b069 5bb9
00000010: 2fb6 13ba 6d64 f13a 5288 2d3b 32ce 453b
00000020: 33f0 a63a d75f c93a b3be 0939 c033 d2ba
00000030: d5af bab9 a0be ccb6 69da 04bb eb9d 4e39
00000040: a3fc 913b 876d 043b c207 18bb fcf9 623b
00000050: d762 253b 13c9 8a3b 5f21 b2ba 8dc4 923b
00000060: 1647 7bb9 ae3c bdbb 5885 99bb 71fc 21bb
00000070: ec42 3a39 9e94 3b39 adcc 063b f71d 26bb
00000080: 0083 3cba e176 e83a ebc5 0f3a ab99 31ba
00000090: 1b3c a4bb 8168 b8bb 5be2 fc3a c310 d239
-0.0030812698 0.00085077825 -0.0015217437 -0.00020924839 -0.00056347525 0.001841677 0.0026478958 0.0030182716
0.001273638 0.0015363646 0.00013136379 -0.0016037151 -0.0003560769 -6.1018654e-06 -0.0020271784 0.0001970452
0.0044551655 0.0020206885 -0.0023197983 0.0034633866 0.0025235915 0.0042353957 -0.0013590268 0.004478997
-0.00023963707 -0.005775056 -0.0046850853 -0.0024717117 0.00017763273 0.00017889074 0.0020568774 -0.002534745
-0.00071911514 0.0017735624 0.0005484509 -0.00067749125 -0.005012048 -0.005627692 0.0019293533 0.0004006681

linears.1.weight f4 [40, 40]
00000000: 0191 af3e 2ed9 18be 56bb d83d f788 3d3d
00000010: 7775 dcbd 64c9 243e 1d18 073e e083 82be
00000020: c1ce 76bc e385 ba3d 68e8 453e 98f3 b73b
00000030: 7a80 113e 014a dc3c cae6 a4bb 634b cf3d
00000040: 6c03 7f3c 126f 013b 70bd 81be 3d5e 273e
00000050: 96b8 60be 1885 97bd d2a8 b6bc a125 99bd
00000060: 4d4a 53bd 8a71 debc 61e9 81bd 14ff 31be
00000070: 1186 0f3d cb2f 1b3e 8eb0 1abd f76c 49bb
00000080: a0f9 3b3e 7cd9 0ebe 808e 2abe c986 ae3d
00000090: 176c 8a3c 8a82 bfbd 61df fcbd 6aa0 4c3e
000000a0: 52d7 0abe b700 023e cc9a d4bc 689c 3bbe
000000b0: 7b0b 6bbc 3647 813d 452b 91be 3f38 453c
000000c0: d432 7dbd 8b11 00be a606 8c3d bd54 1f3d
000000d0: a4e7 7abd bba7 723d 917f 373c 6f4a ac3d
000000e0: 7667 c0bd 023d 8ebd f4d1 8a3e 50e7 1dbe
000000f0: a1a1 b73d 4fdc e93c 2cd3 603e aa13 143d
00000100: 9a97 44be be01 94bd 1f7d 863e 50ff 45be
00000110: 7140 0d3d e0f5 f5bd cc08 3ebe 1957 a63d
00000120: 4944 883e 731d 723d c3ce 233d ef13 e6bd
00000130: 4bfe a73d fb68 983e a068 6cbe 2176 6d3e
00000140: 7e9a a73e be86 5f3d b542 803e 19bf bbbd
00000150: fcfe 86bd 5d83 babd c4c0 bbbc a750 333e
00000160: f3d0 103e fce7 a0bd f945 96bb b5e3 a5be
00000170: af92 b13d 1db0 ca3e 964f a4bd b146 573e
00000180: 74ea 8ebe 032d 27be 0592 99be 2011 f53d
00000190: 3030 483e b3fe acbd c790 b9bd 229d 10be
000001a0: 32d0 6fbe ce09 713d da8f 573e f957 583b
000001b0: f122 1b3d c21a 8b3d 6284 0f3e cf5e 1a3e
000001c0: c33d 703c 8e11 f5bd d6d1 593d c9aa d63d
000001d0: 3918 9f3d 812f 95be 1be9 cb3c 50a8 843d
000001e0: 8b36 a7bb 5214 05be 30ba d73d 6ce8 12be
000001f0: 145f 863d dc9b 46be 15af dcbc 282b 323e
00000200: 4ab6 9e3e cf17 5d3e 6f72 723e f7d0 d03c
00000210: 6d6c 333e a0a1 79be 697c 1d3e f452 a4bc
00000220: 760d 313e dd74 c93d 8f5b a63d 05e8 66bc
00000230: 4f6c f83d f78b b1bd 967e 90be 0ba2 933d
00000240: d193 d8bd 49c3 1c3e fd3f 0e3e 66cf a63b
00000250: dcab cabd b224 0fbc 4485 83bc 64b4 28be
00000260: de9a 31bd 02c9 373e c88c 26bd 76a3 b2bc
00000270: 0ebc f3bc 8999 41be d1ea 3bbd 2e15 483c
00000280: 6556 a33e ca28 c93d ce16 24bd c41c 68be
00000290: f5ea 8e3e 40f0 033c 1e85 cc3d 52a2 62bc
000002a0: 0f22 273e b9b1 673d fdad 473e 2264 2abe
000002b0: 5977 dc3d e6d3 993c 1909 b43d dca5 d7bd
000002c0: e773 68be ef5d acbd 1dbc 05be 45b1 0c3d
000002d0: 702e f5bc 92eb fbbd 7743 bebe 0fda 103e
000002e0: 4fe0 b23b b486 e9bc fef3 05bd 2924 8abd
000002f0: 48b8 363d 9eeb 27be 0798 16be f8da 32be
00000300: 7e7b a23d 2fc0 8abd a379 f6bd 88ea 63bd
00000310: 5fe3 8b3d d823 c6be cf04 163d e73c a73d
00000320: c3c9 ab3b bb06 733e f017 eabd 19d4 033e
00000330: ca0b 09be d91a e4bd 0a93 c43e ee4d e63e
00000340: 8873 2f3d 172f 9c3c a81f e93b 3a04 05bd
00000350: bfbf e0be 5376 9d3e 596e 25be b1f1 03bb
00000360: fc81 ae3d 81fc 76be ecb9 dbbd 3346 893e
00000370: 18a7 ba3c c63b 023c 453b 3d3d 1687 b13d
00000380: 8f45 85be 6581 b6be 03db bfbd 85d9 48be
00000390: f46f cf3d a3fa 2fbc 47e2 21be e024 4abc
000003a0: 43e6 223e 556a cebc 8322 e03d a9c1 66bd
000003b0: 1de3 a5bd 3ab9 94bd 759d b7bd 3c78 3fbe
000003c0: 1c27 29be 0cf1 263e 8f07 88be c66e 99bd
000003d0: 8525 923e e3c1 a33d 9151 313e 62e9 d83c
000003e0: 19b0 923c b07e 6d3d 0443 933e 078f 86bd
000003f0: 1643 cebd 5967 3cbc b316 13be f1d0 8abd
0.34290317 -0.14926597 0.105826065 0.046273198 -0.10764592 0.1609245 0.13192792 -0.25491238
-0.015063942 0.09107568 0.19326937 0.0056137554 0.14209166 0.026890757 -0.005032395 0.10121801
0.015564781 0.001975004 -0.25339842 0.16344543 -0.21945414 -0.073984325 -0.022297297 -0.0747788
-0.05158453 -0.027153749 -0.063433416 -0.17382461 0.035039965 0.1515495 -0.037766032 -0.0030735114
0.18356943 -0.13950151 -0.16655922 0.08521802 0.016897244 -0.0935107 -0.12347294 0.19983068
-0.135587 0.12695585 -0.02595272 -0.18321383 -0.014345999 0.063124105 -0.28353325 0.012037336
-0.06181605 -0.12506692 0.068372056 0.038899172 -0.061256066 0.05924199 0.011199848 0.084126346
-0.093947336 -0.0694523 0.27113307 -0.1542027 0.08966375 0.028547434 0.21955556 0.036151566
-0.19198456 -0.07226895 0.26267335 -0.19335675 0.034485284 -0.120097876 -0.18558043 0.08122081
0.26614597 0.059110116 0.039992105 -0.11234271 0.082027994 0.29767594 -0.23086786 0.23189594
0.32735056 0.05457186 0.25050893 -0.09167308 -0.06591603 -0.09107087 -0.022919066 0.17511235
0.14142208 -0.078567475 -0.004585978 -0.3240029 0.08670556 0.3958749 -0.08022992 0.2102306
-0.2791325 -0.16325764 -0.29994217 0.11966157 0.19549632 -0.084470175 -0.09060817 -0.14122441
-0.23419264 0.05884724 0.21050969 0.003301142 0.03787512 0.06792213 0.14015344 0.15075229
0.014663163 -0.11966239 0.05317863 0.104817934 0.07768292 -0.29137805 0.024891427 0.064774156
-0.0051029376 -0.12996033 0.10533559 -0.14346474 0.065611035 -0.19395393 -0.026938954 0.17399275
0.3099845 0.21591114 0.23676465 0.025490267 0.1752183 -0.24378061 0.1537949 -0.020059086
0.17290291 0.09836743 0.08122932 -0.014093404 0.12130033 -0.08669274 -0.28221577 0.072086416
-0.10575069 0.1530887 0.13891597 0.005090642 -0.09896061 -0.008736776 -0.016054757 -0.16475064
-0.043360583 0.17947772 -0.040661603 -0.02180646 -0.029752757 -0.18906225 -0.045878235 0.012212081
0.3190185 0.09822233 -0.04006081 -0.22667223 0.27913633 0.0080528855 0.099863276 -0.0138326455
0.16321586 0.056565974 0.19499965 -0.1663976 0.10764951 0.018777799 0.08790798 -0.10529682
-0.22700463 -0.08416354 -0.13060041 0.034348745 -0.02992937 -0.12300791 -0.37160847 0.14145683
0.0054588686 -0.028506614 -0.032703392 -0.06745178 0.044609338 -0.16398475 -0.14706431 -0.17466342
0.079337105 -0.06774937 -0.12034919 -0.05564359 0.06830477 -0.38699222 0.03662568 0.08165913
0.0052425577 0.23733036 -0.11430347 0.12873878 -0.13383403 -0.11137933 0.38393432 0.4498133
0.04283479 0.019065423 0.0071143694 -0.032474734 -0.4389629 0.30754337 -0.16155376 -0.0020133073
0.08520886 -0.2411976 -0.10728821 0.2681137 0.022784755 0.007948821 0.046199102 0.08668344
-0.26029631 -0.35645595 -0.09367945 -0.19614227 0.10128775 -0.010740909 -0.15808974 -0.012337893
0.1590815 -0.025197187 0.109440826 -0.056337032 -0.08099959 -0.07261892 -0.089655794 -0.1869821
-0.16518825 0.1630289 -0.26568267 -0.074918315 0.2854425 0.07995965 0.17316271 0.026478473
0.017906236 0.057982147 0.28762066 -0.06570249 -0.100713894 -0.011499249 -0.14364128 -0.06778134

linears.1.bias f4 [40]
00000000: dc59 01bb 55b4 b9ba 98a3 b33a af41 203b
00000010: 5c4d bc3a 62f7 ce3b 869c 463b 192c 8d3b
00000020: e059 903b 9259 b4ba 1762 693a bce5 403a
00000030: 6b30 b53a 4909 a7ba 3314 3d3b 66f8 2f3a
00000040: 520c 093a 8e29 073b 4d95 0bbc ac41 8b3b
00000050: 4954 e239 0877 42ba 6d25 41b9 8a7f 7d3b
00000060: e322 b5ba 0db3 9fbb 2aa4 a3ba ae11 da3a
00000070: e986 b33a b931 b03b db00 8fbb 5554 00b9
00000080: b9df 423b 3079 3eba 205b 4d3b 5e06 23ba
00000090: bbf9 5e3b 8890 333b a758 cc3a a591 bfba
-0.0019737398 -0.0014168123 0.0013705371 0.0024453213 0.0014366317 0.0063161114 0.0030305698 0.0043082354
0.004405245 -0.0013759604 0.0008902861 0.0007358452 0.0013823634 -0.0012743856 0.002885115 0.00067127345
0.0005227971 0.0020624134 -0.008519483 0.004249772 0.00043168876 -0.000741825 -0.00018419856 0.0038680756
-0.0013819601 -0.0048736394 -0.0012484838 0.0016637349 0.0013696823 0.005377021 -0.0043641157 -0.00012238447
0.00297354 -0.0007265983 0.0031334832 -0.00062189053 0.0034023363 0.002739938 0.0015590385 -0.0014615549

linears.2.weight f4 [40, 40]
00000000: d53a 58be 9855 20be f437 423e 5f61 f13d
00000010: 2def b8bd 3a71 3fbd 3d23 673d 7e11 93be
00000020: c846 23bb 323d 00bf bcef 1a3e a4c4 b6be
00000030: d30b 363d 9b0e 42bd 3b5b 83bd 2614 afbc
00000040: f76a b6bd a2b9 5c3d 3bab 8dbd 548e 033d
00000050: 5d1b ec3e 4883 93bd 77c4 bfbd 291a 373c
00000060: 1a16 e33d 7328 663d 823c 70be 474e 32be
00000070: 2903 e8bc 482a a93d ff62 e73d 54b6 9ebc
00000080: a4b7 a4bc ef25 54bc efc4 39be d9f1 cebd
00000090: 91cd e1bc 70f7 ce3d 3530 f1bd b2b5 4fbd
000000a0: f2ec bb3d 3dee bb3d 36db febd 3953 d63e
000000b0: b6fd 91bc 5b18 31be 8d34 ac3e 749c 373e
000000c0: 0b76 febc c99a 0a3e bdab 35be 4c43 9dbd
000000d0: 19e7 17be 9a95 d4bd 06bd 7d3d de13 873e
000000e0: f901 53be 7ff9 a43d ba94 b13d 37ad 553d
000000f0: 8fb1 7b3d a7e2 a03d c5d3 823d d8da ef3d
00000100: 54f4 46bc d3f2 c23d f251 53be cde3 853e
00000110: 614d 483b 866f a93e 0c0d 983e 78b6 9cbd
00000120: bad4 d03d cae7 25be bf52 113d aa4c 013e
00000130: 89ce df3c f323 e2bd 8165 413d e646 10bd
00000140: b048 03be 3b6b ef3d d0d1 ecbc 1e82 16be
00000150: 48db 41be a307 863e 8bce d2bd 8024 61be
00000160: 9e21 173e a9ef 58bd 53fd c6be 6d7f 84bd
00000170: 8cd9 203d 17a8 883d de14 b1be 2deb ecbd
00000180: e3e9 483d 8645 f7bd 68e7 30be 20f6 4dbd
00000190: 5209 81be 9a31 30be 042f 81bd c2cb 35be
000001a0: 8233 4dbe cb7e 96bd 6720 933c b7d1 393e
000001b0: 6ac2 86bd 2d8f d3bc 14af 0fbe 55c3 43bd
000001c0: 4975 503e 8c6e 093e 5b88 4f3d 278e a13e
000001d0: dfbf 47be fd13 1d3e e1c2 793c 798e ab3d
000001e0: 904a 11bf 27db 5bbe 8cc9 cb3a 9d58 973d
000001f0: 8074 43be 495b 10bd 66e3 3e3d 1ee7 6a3d
00000200: acc4 94be 90d3 b1bd a355 1dbd c07a bf3d
00000210: bcec 503e 27ac aabb 440b 5abb 8d25 113d
00000220: 9e5b 243d 983f 52be 9251 28be e791 43be
00000230: ebd8 17bd 66ad 753e 17ab bb3e b665 d2bd
00000240: 40e7 173e 2a77 7fbd 4eb0 a8ba 591b 233e
00000250: 4f1c 343d 1cd2 be3e 08d1 153e 273b f53d
00000260: 0a26 b93d dcd0 4c3e 3091 dcbd 2612 f0bd
00000270: 8207 153e 8721 2bbc fe2c 583e 958e 6a3e
00000280: 7787 413c 218f 393d a708 5bbd a341 a7bd
00000290: ac18 353e cdc5 84be 2f99 27be e0ce a93c
000002a0: a315 0bbd b0d8 d93c 9a38 993e 1c98 c1bb
000002b0: 5bac a03d 5ede 65bd 73b1 d7be 59bd d1bd
000002c0: bb76 623d 104f 9c3c 9f4e 503e 79e2 343e
000002d0: 7542 4ebd 7f31 923e c05d b53e b449 96bb
000002e0: be70 923d ab16 583e c9b0 90bd 752c 47bc
000002f0: 5f75 a9bd 0e7a 1ebe 00c4 c0bd 573e 713e
00000300: 7ed9 e33d 3237 933d 25da 223d a8ef 303e
00000310: 1ca5 ed3d d7a8 9b3d 50ce 8ebd 02e6 0cbe
00000320: 2e22 ef3d 98fb ccbd 4f40 d1bc f2d7 b73e
00000330: 5070 523d 2462 4c3e 10ea d83c 6f4f e03d
00000340: 6a65 893d 49d9 f3bd f763 27be c71e 88bb
00000350: fd5d 6e3d aee5 a13e 96b3 343e f0e3 263d
00000360: fa96 0fbe fc83 84be d27f 0cbf bd24 edbb
00000370: ae16 c53d a943 47be 749d 3bbd 2702 a53c
00000380: 8d48 083e 2a2c 30bc ef83 3b3e 7c5a 97be
00000390: 3933 5b3e 0162 183e 0e72 d0be 23b9 ef3d
000003a0: 95c9 963e cabd 42be c364 003e 4c9c 023e
000003b0: 3837 db3c c1cf e9bd 2a41 303e 596b 4dbd
000003c0: 8547 283e a1a9 c53c 7afd debd 3fe7 8bbc
000003d0: d84a 193e 5c78 40be 6215 c33d 07f9 80be
000003e0: 2e4e a73d 5b24 64be 92b6 d1bc 5683 15be
000003f0: 6787 89bc c3be 0f3e e44c 733d efd8 93be
-0.21116193 -0.15657651 0.18966657 0.1178615 -0.09029994 -0.04673884 0.05643009 -0.28724283
-0.0024914015 -0.50093377 0.15130514 -0.356969 0.04444487 -0.04737721 -0.06413885 -0.021371912
-0.08907121 0.05388797 -0.06917425 0.032118157 0.46114627 -0.07202774 -0.093636446 0.011175671
0.110882 0.05619092 -0.23460582 -0.17412673 -0.02832182 0.08260018 0.11298179 -0.01937405
-0.020107098 -0.012948497 -0.1814153 -0.101047225 -0.027563842 0.10105789 -0.11776773 -0.050710388
0.09176053 0.091763 -0.12444155 0.4186037 -0.017821174 -0.17294447 0.33633843 0.17930776
-0.031062147 0.13535608 -0.17741294 -0.076788515 -0.1483425 -0.10380097 0.061947845 0.26382345
-0.20606221 0.080554 0.086709455 0.052167144 0.06144863 0.078557305 0.06388048 0.11711663
-0.012143213 0.09518971 -0.20636728 0.2615036 0.00305637 0.33092898 0.29697454 -0.07651991
0.10196824 -0.16201702 0.035479303 0.12626901 0.027320163 -0.11042013 0.047215942 -0.035223864
-0.12820697 0.116903745 -0.02890864 -0.14698073 -0.18931305 0.261777 -0.10293301 -0.2198658
0.14758918 -0.052962933 -0.38865146 -0.06469617 0.03926997 0.066726856 -0.34586233 -0.11568294
0.049051177 -0.120738074 -0.17275774 -0.05028355 -0.25202423 -0.17206421 -0.06307796 -0.17753509
-0.2003918 -0.073484026 0.017959787 0.18146406 -0.0658005 -0.025825107 -0.14031631 -0.047793705
0.2035724 0.13421077 0.050667148 0.31553766 -0.19506787 0.15339656 0.015244217 0.08376784
-0.567544 -0.21470319 0.0015547737 0.073899485 -0.1908741 -0.035243306 0.046603583 0.057349317
-0.290563 -0.086829305 -0.038411748 0.093495846 0.20402807 -0.0052085104 -0.0033270875 0.0354362
0.040126435 -0.20532072 -0.16437367 -0.19098626 -0.037072103 0.23991928 0.3665397 -0.10273306
0.14834309 -0.062369503 -0.0012869926 0.15928401 0.04397231 0.37269676 0.1463052 0.11974173
0.090404585 0.20001549 -0.1076988 -0.117222115 0.14553645 -0.010445005 0.21110913 0.22905953
0.0118120825 0.045302514 -0.05347505 -0.08166816 0.17685193 -0.2593216 -0.16367029 0.020728528
-0.03395618 0.026592582 0.29925996 -0.0059080254 0.07845374 -0.05612027 -0.4212757 -0.10241193
0.05528901 0.019080669 0.20342492 0.17664517 -0.050356347 0.28553388 0.35423088 -0.004586423
0.0715041 0.21102397 -0.07064969 -0.0121565955 -0.0827434 -0.15476248 -0.09412384 0.23558937
0.11125468 0.07188262 0.03975882 0.17278922 0.11603758 0.07600563 -0.06972945 -0.13759616
0.11676441 -0.10008925 -0.02554336 0.3590694 0.05137664 0.19959313 0.026478797 0.10952651
0.06708796 -0.11906678 -0.16346727 -0.0041540596 0.058195103 0.31620544 0.17646632 0.040744722
-0.14022437 -0.25881946 -0.5488254 -0.0072370456 0.096234664 -0.19459404 -0.045804456 0.020142628
0.13308926 -0.010752717 0.18312047 -0.29561222 0.21406259 0.14881136 -0.40712017 0.11705234
0.2945067 -0.19017711 0.12538438 0.12754935 0.026759729 -0.11416579 0.17212358 -0.050151203
0.16433533 0.024128737 -0.108881906 -0.01707804 0.14969957 -0.18795913 0.09525563 -0.25189993
0.081692085 -0.22279494 -0.025599752 -0.14600882 -0.016788198 0.14037614 0.0593995 -0.28876445

linears.2.bias f4 [40]
00000000: fe00 453b b2c2 9f3b 2811 293a a44d cd3a
00000010: 7ead 82ba 9bbc b73a 3110 85bb 07f6 003b
00000020: a3a1 d7ba 0130 09bb 4be3 573a 524c 24bb
00000030: be4a f739 c55d 1a3c f390 053b 7ad0 5b3b
00000040: 335e 9338 b9ad 1ebb e093 8e39 264d 7cbb
00000050: 9e93 d9ba eb0a 0abb beb0 2cbb d3da 21bb
00000060: d04f 163a 6e61 543a 2255 8938 2588 5c3a
00000070: 9994 96ba 9446 3e3a a7a4 333b b533 843b
00000080: c13f 063b fe60 e3ba 8b91 de3b a6be 2a39
00000090: 9b79 833b ced4 bb3a c266 153b 8969 f93b
0.0030060406 0.0048755044 0.0006449395 0.0015663397 -0.0009969918 0.0014018001 -0.004060768 0.0019677894
-0.001645137 -0.0020933154 0.00082354684 -0.0025069905 0.00047167198 0.00942177 0.0020380586 0.003354101
7.027052e-05 -0.0024212433 0.00027194526 -0.0038498132 -0.001659978 -0.0021063637 -0.0026350464 -0.002469708
0.0005733939 0.00081016764 6.548526e-05 0.0008412621 -0.0011488377 0.0007258442 0.0027411373 0.0040344843
0.0020484778 -0.0017347632 0.0067922524 0.00016283485 0.0040122992 0.0014330389 0.0022796844 0.0076114577

linears.3.weight f4 [40, 40]
00000000: 5729 08bd 0b14 853d 2e69 91be b1fc b9bc
00000010: 77b1 573c 1c3f 0ebe 0749 573e a4a4 c83d
00000020: 27b0 d73d b9f7 71bb 7234 abbd 3a70 2e3e
00000030: c034 c73d ae64 d83c 0b51 10bd 69e1 cf3c
00000040: d27a 93bd 067b e3bd 0780 173e 3160 3d3e
00000050: 4172 183e 544d 21be 142b 2fbd a291 9abe
00000060: 330b 903d 3860 d0bd fe6e 3bbe 7b0b 5dbe
00000070: 1a1f cbbe 64f9 e5ba 2fde 013e d684 a1bd
00000080: 3c79 c03d 387a 0fbe 11e4 ff3d 142d 7b3d
00000090: cd6e 56bd c619 8239 4711 863e 8ea7 02be
000000a0: fb8c 50be 495c adbe e315 17be 126b 91be
000000b0: 2621 1dbe 07ee 8c3d c814 3fbe 5942 b8bc
000000c0: 3e78 97be 0319 34be 4fc4 ebbd 1cd0 95be
000000d0: a0a8 84be bb95 f2bd 6286 043e 5824 093d
000000e0: 7076 b4bd 995e 58bd 3157 5e3e 3ce7 e0bc
000000f0: 30b2 67be 9a66 b63d 8f89 f33c 2509 2b3e
00000100: 7ef9 843e 957b 9dbd 7377 193e 56cb bc3e
00000110: 3820 09be 1400 1f3e 7f76 fbbd a53b dd3d
00000120: 0bb6 863e 3956 673d 6fbe 5bbe 1cfe 093e
00000130: 990c 573b 08cb 383e fed4 9a3e 840f aebd
00000140: ed10 aa3d 7b0f 5fbd 3bc8 b43d 3ae6 e6bd
00000150: f46c 4e3e 4610 f33d ec68 5f3e 2b54 73be
00000160: aa5d 46be 2c5e 43bd bf61 26bd b6f8 6c3e
00000170: 568f bdbd c33e ce3d 7b90 f6bd 5c83 71be
00000180: 95d1 783e 91a5 1c3c 370a 8abd 2b7b a93e
00000190: d441 93be 5bb6 7d3d d6a9 27be 9b9a 28bd
000001a0: 2848 303e 5f21 e1bd 6c50 213d e6ed 823e
000001b0: b045 35bc 128c 323d 45e3 7cbc 3799 aa3d
000001c0: c678 81bd dd18 e63c 5aae f5bd d435 2cbe
000001d0: 70db 8d3c ffa9 4f3d 2735 4bbc deac 2abe
000001e0: 0668 e2bd 1915 83be 49d7 743d 0517 2a3e
000001f0: 815e 98bc d2aa b1bd cc44 f7bc b8cf 30bc
00000200: 6569 063d bcc9 013d dc89 7cbe 6f59 aebd
00000210: 0a10 25bd 7f1c 61bc 0fcf 243e bcaa c13d
00000220: e12a a4bd 424b 64be fe77 8abc 85cb 4abd
00000230: 00ff 2bbd a0e1 333e 745f 8d3d 91c4 2f3e
00000240: cc83 3ebe d044 97bd d7ce ea3c 9509 bc3d
00000250: b152 633d 8a8a d53d 4a8e 56be 4f69 393e
00000260: 292d a9bd bb40 1fbd d7c0 49be ce8c 9c3d
00000270: 8c24 0638 70ec 123e 899b 363e ea26 80bd
00000280: d3de 92be 9f3a c23d 85bd aabe 7bce d53d
00000290: e402 973e b28a 36bd a967 4e3e 7311 073e
000002a0: 8555 083e dc16 6cbe 8250 04be 04b7 483d
000002b0: c14f ffbc 1806 8e3e a5bc 893d 20cd c2bd
000002c0: 8ca8 af3d a3b4 e4bd 4d86 0b3e ce6c 8bbe
000002d0: 511f 88bd a400 453e 0548 6a3e 0abe 5f3e
000002e0: 1cf9 c23c c794 9fbe afe4 c53d 050c d0bd
000002f0: c3af 3d3d e91c 4cbe 6948 9a3e f072 de3d
00000300: 71f7 bcbd cbb6 9d3d 9ae1 2fbe 1ac0 84be
00000310: 0d73 343d 9e53 973d 49ab 0cbe e2f5 f73d
00000320: cd08 543d 7669 e53d a840 25bc b330 57be
00000330: 558f d43d 4be1 43bd 7ec1 88bd 3b35 46bd
00000340: 16ec c0bc b4d0 0b3e 0246 703e b419 953d
00000350: e8d7 71bd 7bc0 5e3e a207 c03e 89b1 56be
00000360: 99e0 473d d484 cf3d 6118 473e 55dc 9b3c
00000370: 5f28 393e 1e95 a93d 547a 703e de9b 2bbd
00000380: dd1a 3bbe c833 1f3e 84e8 413e 16ca adbd
00000390: 9b36 133e 4e9a ba3e fef9 3ebe e0de 09bd
000003a0: efb4 3ebe 72cf f2bd 1cce 903d 7ce1 96bc
000003b0: 8778 4bbe d1d5 033d 3f74 843e cd59 32be
000003c0: 854f eb3c a5c6 6a3e 1d19 92bd c278 5bbb
000003d0: 9cae 89be 0430 173e 4231 0fbc fbf3 39be
000003e0: 670a 2b3e b734 833d ea3b 79bc 9cd4 adbd
000003f0: ea0c 383d de3f 5abe 7b3c 4dbe 8304 b6bb
-0.03324255 0.064979635 -0.28400558 -0.0227035 0.0131648695 -0.13891262 0.21023951 0.09797028
0.10531645 -0.0036921336 -0.083596125 0.17034999 0.09726858 0.026415195 -0.03523354 0.025376039
-0.072011605 -0.11107449 0.14794932 0.18493725 0.14887334 -0.15752155 -0.042765692 -0.30189234
0.07033386 -0.10174602 -0.18304059 -0.2158641 -0.39672166 -0.0017545638 0.12682413 -0.078866646
0.093981236 -0.14011467 0.12494672 0.061322287 -0.05235176 0.00024814735 0.26185057 -0.1275923
-0.2036628 -0.3385947 -0.14754443 -0.28402 -0.15344676 0.068813376 -0.18660271 -0.022492575
-0.29583925 -0.17587666 -0.11512052 -0.29260337 -0.259099 -0.11844965 0.12941888 0.033481926
-0.08811653 -0.05282459 0.21712948 -0.027454011 -0.22626567 0.089062884 0.029728679 0.16702707
0.25971597 -0.07689587 0.14986973 0.36873883 -0.13391197 0.15527374 -0.12278461 0.10802392
0.26310763 0.056478713 -0.21459363 0.13475841 0.0032813905 0.180462 0.30240625 -0.08499053
0.083040096 -0.054458123 0.088272534 -0.11274381 0.2015875 0.11868338 0.21817368 -0.23762576
-0.19371668 -0.04769723 -0.04062056 0.2314175 -0.09255855 0.100705646 -0.12039276 -0.23585266
0.24298699 0.0095609585 -0.067402296 0.33101782 -0.2876116 0.061941486 -0.16373381 -0.04116307
0.17215025 -0.10992693 0.039383337 0.25572127 -0.011063978 0.043590613 -0.015435045 0.08330005
-0.06321864 0.028088028 -0.119961455 -0.16817409 0.01731655 0.05069923 -0.012402809 -0.16667506
-0.11054997 -0.25602034 0.059775624 0.16610344 -0.01859975 -0.086751595 -0.030184172 -0.0107917115
0.032815356 0.03168653 -0.24661964 -0.08513152 -0.0402985 -0.013739704 0.16094612 0.09456393
-0.08015991 -0.22294334 -0.01690292 -0.049510498 -0.041991234 0.17566538 0.06902972 0.17164828
-0.18604964 -0.07386172 0.028663082 0.09181515 0.055498783 0.10426815 -0.20952716 0.18106578
-0.08260567 -0.03888009 -0.19702469 0.07644044 3.1982127e-05 0.14348006 0.1783277 -0.06257422
-0.28685626 0.09483837 -0.33347717 0.10439774 0.29494393 -0.044565864 0.2015673 0.1319025
0.13313873 -0.23055595 -0.12921336 0.049002662 -0.03116596 0.27739024 0.06725434 -0.09511781
0.0857707 -0.11167266 0.1362545 -0.2723145 -0.06646598 0.19238526 0.22879036 0.21849838
0.023800425 -0.31168196 0.096627586 -0.101585425 0.046310198 -0.19932903 0.3013337 0.10861766
-0.09226883 0.077008806 -0.17175904 -0.25927812 0.044055033 0.073889956 -0.13737215 0.12107445
0.051766206 0.11201756 -0.010086216 -0.21014671 0.10378901 -0.047822278 -0.06677531 -0.04839061
-0.023550075 0.13653833 0.23464206 0.07280293 -0.059043795 0.21753113 0.37505823 -0.20966162
0.048798177 0.10132757 0.19442894 0.019025961 0.18081807 0.08280395 0.23484164 -0.041896693
-0.18271966 0.15547097 0.18936354 -0.084858105 0.14376299 0.3644585 -0.18650052 -0.033659816
-0.18623708 -0.11855973 0.07070562 -0.018418066 -0.19870196 0.032186333 0.2586994 -0.17417069
0.028724441 0.2292734 -0.07133696 -0.0033488725 -0.2689103 0.1476441 -0.008739771 -0.18159477
0.16703187 0.06406539 -0.0152120385 -0.08487818 0.04493419 -0.21313426 -0.20042603 -0.005554737

linears.3.bias f4 [40]
00000000: 032f 293a 4e9a 1a3b 6813 85bb 28d8 fdb9
00000010: e558 24ba cd3a 43ba d1f7 e63b a143 c839
00000020: 53e9 213b 976e 5d3a 33fc 9bba dc31 17bb
00000030: 176f 973b 8653 93ba 115a 98bb 4f13 b13a
00000040: 5078 edba 5ec9 cd3b 3426 14ba 6483 193c
00000050: 24dc b2ba 8f51 f9ba be7f a438 b266 40bb
00000060: b11b 043b 4cc6 f939 d4d3 0b3b 51b6 803a
00000070: 4237 63bb c4ea 81bb f10c 773a a75f b63a
00000080: a876 edba 5929 64bc 0e81 fcba b9f6 8e3a
00000090: 7a68 eeba 69dc 87bb 8e5e 1fba 362f 613b
0.00064538437 0.0023590508 -0.0040611513 -0.0004841697 -0.000626935 -0.00074474217 0.007048585 0.0003819736
0.0024705722 0.000844696 -0.0011900723 -0.002307049 0.0046213972 -0.0011240102 -0.0046494086 0.0013509783
-0.0018117521 0.0062801084 -0.00056514447 0.009369705 -0.0013645929 -0.0019021499 7.843923e-05 -0.0029358086
0.0020158107 0.00047640724 0.0021335976 0.000981996 -0.0034670387 -0.003964754 0.00094242307 0.0013914005
-0.0018117027 -0.013925874 -0.0019264536 0.0010907269 -0.0018189095 -0.004146148 -0.00060794584 0.0034360415

linears.4.weight f4 [40, 40]
00000000: e4c2 23bd 5c04 9fbc 4f29 55bd 0533 dd3d
00000010: e237 99bb 4f31 b1bd 8aae fc3d 38cd 4abd
00000020: 03c0 4b3e a169 6e3e 68db de3e 281f b93d
00000030: b58d 8fbd 0357 3c3d 9df9 eb3d 44e4 553d
00000040: 4e46 aebe b81c 8c3e fb93 27be 1cee 29be
00000050: b10f ae3d 7e40 7dbd 3b39 bd3d 6a0e 8bbe
00000060: 73f6 93bd 8c67 873e ed03 f7bc 4b4c 103e
00000070: 6ec4 1a3e 432f d83e 0a5f 6dbe 3fe1 77bd
00000080: 9b79 c1bd 98b0 323e 4944 453e e840 8bbd
00000090: a35f 18be d8e1 053e 75fd 59bc 58ee 8bbc
000000a0: fa7c 0b3d 30d2 103e 75bf 5ebe ae26 f9bd
000000b0: 4540 4ebe 1bf3 d3bd e184 99bd 3e6a 85bd
000000c0: 6981 13be c1c9 063e 083a 8dbe 5659 ba3b
000000d0: 8fbf 94bd 74b9 1ebe fce5 18bd 5512 c73c
000000e0: 5da9 0cbd efd6 033e b3a4 0dbd a0bd ae3e
000000f0: 6c37 4b3b 68d4 41be 9f80 54bd 0372 1e3e
00000100: f936 b43d 2798 883e bfc8 aebc 372b 97be
00000110: 1971 113d 3c1c 9b3d 4fc7 1fbd dc6b 553e
00000120: 5e32 96bd 80d4 133d d21b afbc bb2e 2dbe
00000130: 5d66 6bbd f70c 21be 0500 47be 70ab 153e
00000140: eeff 9b3d bacf d53d 0945 413e 6fb7 d7bd
00000150: 623b d63c 7dfc 0e3d 80c0 043e c58b 10bc
00000160: e0e8 c43c 32a3 1a3e 931f 473e 2123 de3c
00000170: 6006 b9bc 8cfa 97be fe32 ae3c cf70 4dbd
00000180: 5842 25bd 101a 90bb 9932 08be 831c 2d3c
00000190: a392 223e a15c 2bbe 5a85 62bb 44ca dcbd
000001a0: 7144 393e 06fe 123e 59e8 063d e1d5 1abd
000001b0: 7c62 9b3e 1fe6 043e feeb f3bd 3452 593e
000001c0: 9434 333d 637d 96be c5c7 223e 3e69 c8bd
000001d0: 29ee 843d 4167 ca3c 489e b13d 2952 b33d
000001e0: 4d28 79be fb04 313e d955 c7bd fa84 fb3c
000001f0: 2b3b 27be dc3c 5bbe 71ef 403d ba8e bcbc
00000200: 3c29 dfbc 3e46 0bbe c310 d2bc 5946 8d3e
00000210: 8c94 ad3d cdae 2f3d fd8a 8bbe a7e3 4dbd
00000220: 0eb5 c4bd a3e9 c5bd 3cd2 87bd c515 953e
00000230: 927e 63bd e86f 3fbe a1b8 873d 1964 3bbe
00000240: 73fe 223d bf3f 2e3e 48c2 9ebe 218f 233e
00000250: 6c02 83be 6416 acbc 0be2 ef3c b98e 1cbe
00000260: 5636 13be 8143 50be 7eda 3abd e65b a6bd
00000270: 6217 b4bd d5b0 8a3b 34bf fabd 746a d03c
00000280: f074 263e f7dd 3d3d 2d35 a7bd 24d4 44be
00000290: 9f17 b7bd 9cf8 4ebb 0527 8b3d 714e 8dbd
000002a0: 4ca0 203e eae8 c33e 0706 c5bd 7d7e 9fbe
000002b0: 50a6 613e c577 e1bd 2abd 04be bf73 ebbd
000002c0: 2fdb 603e 5b4c 0f3e a653 49be 5457 7e3e
000002d0: 22cb cc3d 70a0 4b3d 2871 77be 95fd 533e
000002e0: 0002 da3d 00c3 06bd c02f 273e 4bcf 583e
000002f0: 1056 183d a8c4 88be 8bce e7bd 9a62 16bd
00000300: 8a59 33be ed0e 773e 9174 31be dbeb 703e
00000310: 71bc adbe 9f83 2bbe 98d9 b53d 0026 393e
00000320: 015b 933d 9e5a 643c 39aa 5d3e a05d 3dbe
00000330: 05cc 0abe 3d4f 343e 6c9a d6be 7ce7 623d
00000340: 79d6 fe3d 39f9 a83d 0bb6 2d3d 10a7 aa3d
00000350: 2004 4bbe d426 fa3d 42f0 aabd f7a0 443d
00000360: acfc 15be ada9 c2bd fa6e 5f3e bcb5 81be
00000370: b375 85bd a7d3 253d 72cc b13d 8a3b a2bb
00000380: 300c 9c3d 2cd7 95be ccb2 2dbd fa93 353e
00000390: d84c 383e dda2 33be 9c82 dbbd 5c7c 1cbe
000003a0: 8fd1 d83d 4bdb a6bb 7ff7 303d 202c 79be
000003b0: 484a 3f3e 88b1 afbc e4f2 913c 922f 4abe
000003c0: f384 47bd 70e8 c13e f8f5 d7bd f9f9 db3d
000003d0: ec97 10be 86b2 a2be 7c7e b5be 3fc7 d5bc
000003e0: 1faf 543e 98ee 21bd 2bc0 123d 51a7 22be
000003f0: f5a8 633e 6f9b 44bd 87a3 9e3c 4016 923d
-0.039980784 -0.019411258 -0.052041348 0.10800747 -0.004675851 -0.08651983 0.12337978 -0.049512118
0.19897465 0.23282482 0.4352677 0.09039146 -0.0700945 0.04598142 0.11522219 0.052219644
-0.34038013 0.2736566 -0.16365044 -0.16594738 0.08499087 -0.061829083 0.092394315 -0.27159435
-0.07224741 0.26446187 -0.03015324 0.14091603 0.15113994 0.42223558 -0.23180786 -0.060517546
-0.094470225 0.17450178 0.1926433 -0.06799489 -0.14880233 0.13074434 -0.013305058 -0.017081425
0.034054734 0.1414268 -0.21752723 -0.12165581 -0.20141704 -0.10349103 -0.07496048 -0.06514405
-0.14404835 0.131629 -0.27583337 0.005686919 -0.072630994 -0.15500432 -0.037328705 0.024300734
-0.034341205 0.1287496 -0.034580898 0.34129047 0.0031008376 -0.18928683 -0.051880475 0.1547318
0.08799548 0.26678583 -0.021335958 -0.29525158 0.03550825 0.07573745 -0.039008435 0.20841926
-0.073338255 0.036091328 -0.02137557 -0.16912358 -0.057470668 -0.15727602 -0.19433601 0.1461618
0.07617174 0.10440011 0.18873991 -0.10533034 0.026151363 0.03490876 0.12964058 -0.008822386
0.024036825 0.15101317 0.19445638 0.02711636 -0.022586048 -0.2968334 0.02126455 -0.05015641
-0.040346473 -0.004397638 -0.13300551 0.01056588 0.1587625 -0.16734554 -0.0034564347 -0.107807666
0.18092515 0.14354715 0.032936428 -0.037801627 0.30348575 0.12978409 -0.11910246 0.21222764
0.043751314 -0.29392537 0.15896519 -0.09785698 0.06490738 0.024707438 0.08672768 0.08755905
-0.2433178 0.17287056 -0.09733171 0.030703057 -0.16331165 -0.21409935 0.04710335 -0.023017276
-0.027241342 -0.13601014 -0.025642758 0.27592734 0.08475599 0.042891312 -0.27254477 -0.050265934
-0.09604846 -0.09663703 -0.06631896 0.2911817 -0.05554063 -0.18695033 0.06627012 -0.18299903
0.039793443 0.17016505 -0.310076 0.15972568 -0.25587785 -0.02100677 0.02928259 -0.1528882
-0.14376196 -0.2033825 -0.045618527 -0.08122997 -0.087935224 0.004232506 -0.122435 0.025441386
0.16255546 0.04635426 -0.08164439 -0.1922155 -0.08940052 -0.0031581288 0.06794552 -0.06899727
0.15686148 0.38263637 -0.0962029 -0.3115119 0.220361 -0.11009172 -0.12962785 -0.11496686
0.21958612 0.13993971 -0.19660816 0.24838 0.09999682 0.049713552 -0.2416426 0.20702203
0.10644913 -0.03290081 0.16326809 0.21172826 0.03719145 -0.26712537 -0.11318692 -0.036715128
-0.17514625 0.24126787 -0.17329623 0.23527472 -0.33932832 -0.16749428 0.08879393 0.18080902
0.07195092 0.01393762 0.21646966 -0.18492746 -0.1355439 0.17608352 -0.4191469 0.055396542
0.12443251 0.082506604 0.042409938 0.08332646 -0.19825792 0.12214437 -0.08346607 0.04800507
-0.14647168 -0.09505019 0.21819678 -0.25333965 -0.0651659 0.04048505 0.08681573 -0.0049509453
0.07619512 -0.29265726 -0.042406842 0.1773223 0.17998064 -0.17542596 -0.10718271 -0.15281814
0.10586845 -0.0050920597 0.04320478 -0.24333239 0.1868068 -0.021446958 0.017816015 -0.19744709
-0.048710775 0.37872648 -0.10544962 0.10741038 -0.14120454 -0.31776828 -0.35448062 -0.026095985
0.20769928 -0.03953418 0.035827797 -0.15884139 0.2223242 -0.047999796 0.019365085 0.0713315

linears.4.bias f4 [40]
00000000: ec74 45bb 7a31 86bb 586c 9a3a a8cc 0b3b
00000010: 6372 1a3b 293d 1dbb ae6f 003b 6862 deba
00000020: a24a a9bb ba47 87ba 3715 393a bd44 ad3b
00000030: a134 5b3b 1ae1 7439 d389 f43b b242 1dbb
00000040: bb50 393b 127c e8ba f3c4 33bb dbe1 8aba
00000050: d4d4 a43a 0069 8739 43b3 2b3b 2b79 683a
00000060: fb4b 48bb e4b7 e53a e2fc ceba d628 f0bb
00000070: 3e1e 943b e62e 26b9 af24 07bb d8fe 013c
00000080: b1b4 d4ba 6706 33ba 20b9 a03b 46f6 413b
00000090: 6a06 933b a903 ecba 8fca 4138 ffad b43b
-0.0030129505 -0.0040952535 0.0011781557 0.0021331701 0.0023566715 -0.0023992753 0.0019597816 -0.0016966583
-0.0051663676 -0.0010321059 0.0007060351 0.0052877353 0.0033448117 0.0002335351 0.007462719 -0.0023996052
0.002827688 -0.0017737171 -0.0027430623 -0.0010595875 0.0012575635 0.00025827438 0.0026199378 0.0008868153
-0.0030562866 0.0017526117 -0.0015791918 -0.007329087 0.0045202067 -0.00015848465 -0.002062123 0.007934295
-0.0016228167 -0.0006829262 0.004904881 0.0029596253 0.0044868486 -0.0018006462 4.6203433e-05 0.005513906

linears.5.weight f4 [40, 40]
00000000: dd19 563e 2e14 79bd 3ff6 45be d86e aabc
00000010: 88ca 74bd ee43 54bd 9da4 8ebd cda1 73be
00000020: f6db ccbc 9a71 483d a381 eebb c17d 2bbe
00000030: f495 613e e7fd afbd e4f0 423e f68a abbd
00000040: 928b b13c 673c f0bd 17d3 44be bb09 ec3d
00000050: 7ab8 f0bd 7113 af3d 3211 ecbd ad2f 223c
00000060: b357 3ebe c709 503e d063 773e bd91 783d
00000070: 0ff5 4abe 6927 bbbd d0c4 0c3d ba27 90bd
00000080: 2b72 ac3d cfa1 99bd 6ab7 a0be 79e6 81ba
00000090: be95 2abe 0ecd 64be 8afa 46be 2c73 c3bc
000000a0: 6941 d3bd 9f5a 1fbc d976 213e 4cbc 9dbd
000000b0: 253d 3a3d 72bd 95bd cc9c 01be 6786 9f3d
000000c0: 26ca 07be c73d 33be 562f dd3d 991b 02be
000000d0: 3828 c6bd d29b ce3d c79e 183e 86fd 6ebe
000000e0: b028 9abe e62c adbd c0a6 073e 14fb bdbc
000000f0: 78f0 523d 7dd8 87bd b98f e0bd 1db5 323e
00000100: 408d 0b3e 096a 813d daba 7c3c 3a1c 31be
00000110: dbfd a1bd 4dd4 ba3a 8470 63bd 9f9e 183e
00000120: ce8f ccbd fe62 d73d 8880 fcbd c02c 7c3d
00000130: 59d1 96be ef4a ea3c 0cd8 bf3c 8ae5 37be
00000140: d10c 86be 3387 0abe ffcb 313e d51d f53d
00000150: 2d08 c63d 27b3 743d 4e49 023e 6803 283e
00000160: 4952 62be e152 453d 1605 283e 6172 193e
00000170: a786 9abc 93d4 333e e36c 513e 5013 21be
00000180: 3fe3 863d 147d a5bd faa6 afbc 8f20 243e
00000190: 3c18 8cbe 5395 a23d 4311 f4bd 7d40 3cbd
000001a0: 2256 1dbe 05ed 56bd 992c 723e dd0b 8cbe
000001b0: bf39 a1bd 35cd a6bd 1f14 443e 7f62 283e
000001c0: 0294 ccbd 0d18 4fbe 2881 b43d 3901 253d
000001d0: cf0c c8be 6115 183e 166a 053c b547 2d3d
000001e0: f3fc cbbd 1ba5 dbbd 561e 463e 9b0e 7d3d
000001f0: d9c6 58be 2e0d b83c 40f0 aebc f893 69be
00000200: 4378 61be e5b4 093d 05c3 1bbe f58d a83c
00000210: bbad 953e 2d0f cfbd b6d4 663e e4a9 00bd
00000220: 616b 8f3d 4cf3 033e 2a8a 07bd a2f9 f73c
00000230: cddc febc 1e7d 03bd 7fc1 66be ea1c 9bbe
00000240: 78cf 29be 8bac 25be 45bb 243e bbe0 2b3d
00000250: f6ad a63e 9ee3 a93d 2b7a 80be 873c fb3d
00000260: 4da2 033e 8226 573c e609 ad3d 16f0 183e
00000270: 20d2 87be f5a1 053d 6c19 57be e79e 953c
00000280: 414a 113e f377 df3d 78a9 07bc 1456 39bd
00000290: 9181 16be d41b 643e bba2 a4bd 6056 b43e
000002a0: ccb2 93be b54f 423e ac33 24be d5b8 37be
000002b0: 439a 33be 207a cb3c 63d7 77be 4b7a f7bc
000002c0: 3f29 a13e 54b0 0d3d 891e 443c d39d 893e
000002d0: 3ac3 0b3e 163c 1e3e 18f1 89be c9cd 52be
000002e0: 0ec9 75be 5cd5 1a3c 6669 56be 14d4 b1bd
000002f0: 54c4 05be 83f9 153e df74 4b3e 588b f7bd
00000300: 06b5 8fba d20b 0a3d 1cfb 44be bea1 c1be
00000310: f66b 223c 4a6a e03c 33c4 b7be 2b4f 3e3e
00000320: 530b 153d 22f3 143e 53df 0c3d 0296 d93d
00000330: 32f3 a73e 4212 e93d 9c37 f0bc 35ff b1bd
00000340: e7c5 19be 1bfe fbbd 01f8 023e e37a 843e
00000350: 2b84 92bd 1798 623e 7b02 ea3c 3112 09be
00000360: 43d0 b9bd 3bd1 6ebe cb5d 803d a435 e9bd
00000370: dc8e d73e d34f 82be 55fa fb3c 3dba e53d
00000380: 62be 62be 62f3 8bbe 92e5 fabd a950 e7bc
00000390: ba96 933d fcde 253c 945e 7c3e ccc5 c73d
000003a0: 35f7 d53b 51d7 0dbe 4c0f e9bd 618e 3bbd
000003b0: e222 333d d3e6 09be 31f4 753e af23 a5bd
000003c0: a334 643d b586 61be 87ae 33be 3371 6fbd
000003d0: 3653 323e 02f1 0c3d 2922 93be cb52 be3e
000003e0: 9623 623d 15b7 053e 6c35 16bd d218 a43e
000003f0: 870e acbd 702f 9e3d 80cf e33d a14b 003e
0.20908304 -0.06081026 -0.19332217 -0.020804808 -0.05976346 -0.051822595 -0.06964991 -0.23792191
-0.02500723 0.048936464 -0.0072786375 -0.1674719 0.22029859 -0.0859335 0.19037205 -0.08376114
0.021672998 -0.11730271 -0.1922115 0.115252934 -0.11753936 0.0854863 -0.11526717 0.009899062
-0.18588142 0.2031623 0.24159169 0.06068586 -0.19820045 -0.09138376 0.034367383 -0.07038827
0.08420213 -0.07501566 -0.31389934 -0.0009910605 -0.16658685 -0.22343847 -0.1943151 -0.02385863
-0.1031521 -0.009726196 0.15767993 -0.077019304 0.04546847 -0.073115245 -0.1265747 0.07789307
-0.13260707 -0.17504035 0.10800044 -0.1270584 -0.0967564 0.10088314 0.14904319 -0.23338899
-0.30109167 -0.08455829 0.13247204 -0.023191012 0.05149886 -0.06633089 -0.10964913 0.17451902
0.13628101 0.06319053 0.015425408 -0.17295924 -0.07909747 0.0014253944 -0.055527225 0.14904259
-0.09988366 0.10516928 -0.12329203 0.061566114 -0.29456595 0.028600184 0.023418449 -0.17958656
-0.26181653 -0.13528137 0.17362975 0.11968581 0.09669528 0.059741165 0.12723276 0.1640755
-0.22101702 0.048174743 0.1640819 0.14985038 -0.018863035 0.1756156 0.20451693 -0.15730023
0.065863125 -0.080804974 -0.021441925 0.16028045 -0.2736224 0.079386376 -0.11917355 -0.04595994
-0.15364888 -0.052472133 0.23649825 -0.273528 -0.07872342 -0.08144609 0.191483 0.16443823
-0.09989168 -0.20224018 0.08813697 0.04028437 -0.39072272 0.14851905 0.008142969 0.042304713
-0.099603556 -0.10724851 0.1934751 0.061781507 -0.21169604 0.022467222 -0.021354795 -0.22810352
-0.22018532 0.03361978 -0.15211113 0.020575503 0.29234108 -0.101103164 0.2254208 -0.03141202
0.07002903 0.12885779 -0.033090748 0.030270401 -0.031111145 -0.032101743 -0.2253475 -0.30295497
-0.1658305 -0.16179101 0.16087063 0.041962367 0.32554597 0.08295368 -0.25093207 0.12267404
0.12854882 0.01313174 0.084491536 0.14935336 -0.265275 0.032625157 -0.21005791 0.018264247
0.14188482 0.109115504 -0.008280151 -0.045248106 -0.14697863 0.2227624 -0.08038851 0.3522215
-0.2884735 0.18975718 -0.16035336 -0.17941602 -0.17539315 0.024838507 -0.24203257 -0.030209681
0.3147678 0.034591988 0.011970171 0.26878223 0.13648692 0.15452608 -0.26941752 -0.20586313
-0.24002478 0.009450283 -0.20938644 -0.08683029 -0.13063174 0.14645962 0.19868802 -0.120871246
-0.0010963983 0.03370268 -0.19236416 -0.37818712 0.009913435 0.027394433 -0.35891876 0.18584888
0.036387753 0.14545873 0.034392666 0.10624315 0.3280273 0.113804355 -0.029323392 -0.08691255
-0.150169 -0.12304326 0.12789918 0.25875005 -0.07154115 0.2212833 0.028565636 -0.13385846
-0.09072926 -0.23322003 0.062678896 -0.11387184 0.4210118 -0.25451526 0.030759016 0.11217163
-0.22142938 -0.27334124 -0.12250818 -0.028236704 0.07206483 0.010123964 0.24645454 0.09754524
0.0065297135 -0.13851668 -0.11379871 -0.04579008 0.04373444 -0.13466959 0.24018933 -0.08063447
0.05571426 -0.22024043 -0.17547046 -0.058457565 0.17414555 0.03440953 -0.28737 0.3717254
0.05520972 0.13058122 -0.03667204 0.32050186 -0.08401208 0.07723892 0.11123562 0.1252885

linears.5.bias f4 [40]
00000000: 7228 faba ffcf 9cbb 1bf1 b33b 6ab3 fd3b
00000010: 0a1a 2bbb cb78 e13a b76a d53b 3c4e 42bb
00000020: 8d91 743a 55c3 57b9 cc62 8c3b 48fa 0aba
00000030: f9be 793b beb1 c23a 2ae8 a4bb 3996 bbba
00000040: 836c 763a 013b f73a 9b3f d5b9 82a0 8abb
00000050: d6fb 213b 3f78 a339 8964 c03b 14bc 413b
00000060: b0cf e8ba 5730 cdb9 9187 e5ba db4e c23a
00000070: 8ed1 d13a a2e2 78ba 4551 3f3b 1e6e a33b
00000080: fcd7 0a39 6fd3 c8b9 1b0e b2bb c7a9 743a
00000090: c99e 97bb 9340 95bb 839d e3ba bccc e4ba
-0.001908554 -0.0047855373 0.0054913885 0.007742335 -0.002610805 0.0017202137 0.0065129655 -0.0029648682
0.000932955 -0.00020576765 0.0042842384 -0.0005301577 0.0038108213 0.0014853997 -0.005032559 -0.0014311738
0.0009400325 0.0018862189 -0.00040673916 -0.00423056 0.0024716756 0.00031179373 0.0058713597 0.0029561566
-0.0017762091 -0.00039136663 -0.0017511715 0.0014824526 0.0016007887 -0.000949422 0.0029192728 0.004987492
0.00013241166 -0.00038304503 -0.0054338104 0.000933316 -0.004627083 -0.004554817 -0.0017365668 -0.0017456035

linears.6.weight f4 [3, 40]
00000000: f1df b03d 686c 84be da1d 533e 9824 fa3e
00000010: 8192 85be 1ed7 0c3e da28 b63e 02e2 073f
00000020: eba5 4f3e f953 013e 048d 91be 48b2 86be
00000030: 307d 7c3e 2f8d 253e 218a 55be 486e aa3d
00000040: d87a 15bf c6c0 91bd 1ba0 56be 7223 833d
00000050: fc2b ae3d 0d06 53be 1a50 8d3e 6bc5 a53e
00000060: 812d 13be 495a 703e b7f4 d5bd b22b 2cbe
00000070: 43d7 8c3b e307 fd3d 0246 d5be b4da 4f3d
00000080: 5c68 c43e 3d08 61bd 20c4 b6bd e64c 333b
00000090: 2017 803e 23eb 5bbe 45e1 54be e5f9 31be
000000a0: 0ecf 37bd c17e e03e ac5e 85bc a03f f5bd
000000b0: a6df 37be 5f7d 9b3e 7cec 97bd b105 a3bb
000000c0: d2aa b33c c916 bdbe eed2 42be 83ba a73e
000000d0: 6902 003d 76e0 8c3e a7f2 cebc 5984 d8be
000000e0: 9183 263e 7946 1d3d 8d4b 933e 7a13 7f3e
000000f0: 611d 213e 8ea6 8a3e f892 3cbe a0be 523d
00000100: 1490 dcbd 34c8 a9bb 951b 6dbe f1ab 843d
00000110: 6ce7 853e 24ef 8dbd b440 66be 5b94 f9b9
00000120: 6b3d a8be fc3a 09be ca1a 493d bdf8 cc3e
00000130: fd59 da3d eef6 2f3e f456 983e 0b7c 03be
00000140: fae1 f5bd 1fa7 d4be 6f28 923e 91be c03d
00000150: 779c b8be cbe2 973e ad2b 333e 8d7c a1be
00000160: 1ec4 d6bc efb8 0c3d c14d a63e a1d3 25bc
00000170: e480 f13d bae9 293e e99a 96bd a324 90be
00000180: 1777 b13e e08a 1f3e c4b3 4bbd 1645 8ebe
00000190: 55ca 033f 47d9 b13d 373b e33e 7dd4 3c3e
000001a0: 1586 c5bd 95e2 b8bd b783 72be 36b7 313e
000001b0: 9a08 a13e 55c9 e5bd 309d 2c3e f743 843e
000001c0: 05ec 10bc ce0e 33bd d31f 81be 23b6 8fbd
000001d0: 5cb1 02bf b069 53be 506d ebbd f0a8 5dbd
0.086364634 -0.25863957 0.20616856 0.48856044 -0.26088336 0.13753936 0.35578042 0.53079236
0.20278136 0.1262969 -0.284279 -0.26307893 0.2465713 0.16167139 -0.20853473 0.08321816
-0.5839057 -0.07116847 -0.20959513 0.06403245 0.08504483 -0.20607777 0.27600175 0.3237718
-0.14372827 0.23471941 -0.10447066 -0.16813543 0.004298122 0.1235502 -0.41654974 0.05074568
0.3836087 -0.054939497 -0.089241266 0.0027359067 0.25017643 -0.21476416 -0.20789059 -0.17380483
-0.044875197 0.43846706 -0.016280495 -0.11975026 -0.17956409 0.30369088 -0.07418153 -0.0049750437
0.02193204 -0.36931446 -0.19025776 0.32759485 0.0312523 0.27515 -0.02526219 -0.42288473
0.16261126 0.038397286 0.28768578 0.24909773 0.15733863 0.27080196 -0.18415439 0.051451325
-0.10769668 -0.005181337 -0.23155053 0.06478108 0.26153123 -0.06930378 -0.2248562 -0.00047603514
-0.32859358 -0.13401407 0.049097814 0.40033522 0.10661695 0.1718404 0.2975384 -0.12840287
-0.12005992 -0.41533753 0.28546473 0.09411348 -0.36056873 0.29665217 0.1749713 -0.31540337
-0.026216563 0.034356054 0.32481197 -0.010121257 0.11792162 0.16593066 -0.073537655 -0.28152952
0.3466117 0.1558032 -0.049731985 -0.27787083 0.5148061 0.086840205 0.44381115 0.18440433
-0.09644715 -0.09027592 -0.23683058 0.17355046 0.31451875 -0.11220042 0.16856837 0.25833103
-0.008845334 -0.04371529 -0.25219592 -0.07017162 -0.5105188 -0.20645785 -0.11495459 -0.05411619

linears.6.bias f4 [3]
00000000: 9c0f 183e 9f67 0939 881d 963b
0.14849705 0.0001310394 0.004581157

exp_avg f4 [40, 2]
00000000: fb26 523f 33ce 0fbf a0c8 ae40 7bf8 173f
00000010: e82f a9c0 0eff f03e c482 55bd 8f90 40bf
00000020: 3ca5 11c0 412a 9e3e 3d35 0340 4fe7 8bbe
00000030: 51af 3c41 bd8f a2be cb1a cb40 b567 4abf
00000040: d5a6 ac40 ba09 16bf 19d9 8b40 7448 f0be
00000050: 8c81 8940 681c 09be 0e29 253f f36f 253f
00000060: 3ccd 9fc0 ba49 013f 8a91 3a40 6c3c d8bd
00000070: 1d10 d03e 23fd 203f 6453 0bc0 ea51 a8bb
00000080: e838 0141 9a66 d6bc d6a1 a93d c3cc 763e
00000090: e6d1 e3c0 b431 2cbc 0f22 ab3e b3a5 6ebe
000000a0: 6606 8340 7239 ff3e 0115 c940 a507 17bf
000000b0: 1466 b2c0 5d2a b4be 625a ed40 2a0e 0f3f
000000c0: 8840 e5bf 13b4 29bd b63d 99c0 c0f6 2f3d
000000d0: 82cc b6bf 15d9 36be a509 09c1 1089 acbe
000000e0: 2887 873e 1001 d6be eb50 c1c0 a070 583f
000000f0: 1533 89c0 2aa7 b5be e2c7 0ebf 1834 97bf
00000100: 23d0 87c0 39d9 96bd 629b 5440 8a6e 1b3f
00000110: 4807 e4bf be4d 7ebe c9ca bb3e 100b 293e
00000120: 64ab c7c0 157e d4be 5a10 39c1 cba9 c83e
00000130: 2ebb 5240 a581 0abf d886 a440 d307 cfbd
0.8209073 -0.5617401 5.4619904 0.59363526 -5.287098 0.4706959 -0.05212666 -0.7522058
-2.27571 0.30891612 2.0501244 -0.27324912 11.792802 -0.3175029 6.3470206 -0.79064494
5.395365 -0.5860859 4.370251 -0.46930277 4.297064 -0.13389742 0.6451577 0.64623946
-4.993803 0.5050312 2.915133 -0.105583996 0.40637293 0.62886256 -2.1769648 -0.005136718
8.076393 -0.026171971 0.08282821 0.24101548 -7.1193724 -0.010509897 0.33424422 -0.23305397
4.094531 0.49848515 6.283814 -0.5899604 -5.5749607 -0.3518857 7.417283 0.5588099
-1.7910318 -0.041431498 -4.788783 0.04295993 -1.4281161 -0.17856248 -8.564855 -0.3369832
0.26470304 -0.41797686 -6.0411277 0.8454685 -4.2874856 -0.354791 -0.55773747 -1.1812773
-4.2441573 -0.07365651 3.3219838 0.60715544 -1.7814722 -0.24834344 0.3667815 0.16508126
-6.2396717 -0.41502443 -11.566492 0.39192042 3.2926745 -0.5410407 5.1414604 -0.10108914

exp_avg_sq f4 [40, 2]
00000000: ce56 6b4b 99ab d948 5a86 344b 8c27 7648
00000010: 940d 4d4c 45da 3549 d0dc 304a 0868 3a47
00000020: eb97 0b4b 8f16 1348 e6db 104b 6293 e547
00000030: a94d b54b 0aee b448 58c6 244c 77c8 4349
00000040: 85b0 834b 1786 5b48 de05 544c 55da 2e49
00000050: 9c6e 334a 4428 8a46 a2d0 c849 bbd3 0947
00000060: 573e 0e4b 37ee 9747 9895 f54a dae4 4848
00000070: 9966 e148 bb45 d946 c0b1 9049 3595 bf46
00000080: b113 1d4b f6c0 ff47 5fe0 b148 a215 8446
00000090: 4d6b a74b 1b1b ac48 0abd 6549 4082 2347
000000a0: 4e9d c54a 94b2 ba47 ae77 e54a 9b56 6047
000000b0: 8f21 b74a d92e b847 6e9b 254b 4657 ef47
000000c0: 71a5 4c4c 90fb 3349 325a c74a 6573 cb47
000000d0: c4f0 6f4a 2182 c447 09bb 394c 5bc6 2849
000000e0: 6bd4 474b d2f0 0548 a911 f24b d84f ad48
000000f0: 7031 7f4b 1d4f 5848 98c4 214c faf4 4d49
00000100: c042 954b 1b33 6048 5e26 af49 5b19 8846
00000110: 880c 194b 770e 0648 c49c 6f4b 265c 8548
00000120: 6ead 7f4a 9898 4447 e1c2 c34b 194b 1e49
00000130: 996a 9d4b 71cc 2148 3bc4 ba49 d6fc 6746
1.5423182e+07 445788.78 1.1830874e+07 252062.19 5.3753424e+07 744868.3 2.897716e+06 47720.03
9.148395e+06 150618.23 9.493478e+06 117542.766 2.3763794e+07 370544.3 4.319472e+07 801927.44
1.726081e+07 224792.36 5.5580536e+07 716197.3 2.939815e+06 17684.133 1.6450762e+06 35283.73
9.322071e+06 77788.43 8.047308e+06 205715.4 461620.78 27810.865 1.185336e+06 24522.604
1.0294193e+07 130945.92 364290.97 16906.816 2.1943962e+07 352472.84 941008.6 41858.25
6.475431e+06 95589.16 7.519191e+06 57430.605 6.0008395e+06 94301.695 1.085323e+07 122542.55
5.3646788e+07 737209.0 6.532377e+06 104166.79 3.931185e+06 100612.26 4.8688164e+07 691301.7
1.3096043e+07 137155.28 3.1728466e+07 354942.75 1.6724336e+07 221500.45 4.2406496e+07 843599.6
1.9563904e+07 229580.42 1.4348278e+06 17420.678 1.0030216e+07 137273.86 1.5703236e+07 273121.2
4.1890195e+06 50328.594 2.5658818e+07 648369.56 2.0632882e+07 165681.77 1.5299914e+06 14847.209

exp_avg f4 [40]
00000000: e586 b4c0 def4 96c1 5e31 be41 a5cf 1ec0
00000010: e1c2 5e41 095f 22c1 6805 4bc2 903c fac1
00000020: 370c d9c1 6f37 94c1 08d4 95c1 1798 1c3f
00000030: b300 ca41 ec75 79c1 fc2a 35c0 a671 1641
00000040: 89ca 19c2 dafa 1ebe 6348 f841 0fb1 5fc0
00000050: f455 93c1 23d9 eac1 cbdd c541 382f f4c1
00000060: 21f3 2541 ca50 a941 c53f ee40 4dcc 1842
00000070: dda5 0bc0 d248 d741 a433 9641 2283 15c0
00000080: 2058 9441 aaf0 7cc1 9800 0341 eb84 3240
00000090: 55b6 cc41 c2c2 3f42 6e93 62c1 3fd3 9ec1
-5.6414666 -18.869564 23.774105 -2.4814236 13.922578 -10.148202 -50.75528 -31.279572
-27.130964 -18.527067 -18.72853 0.6116957 25.250341 -15.5912895 -2.8307486 9.402746
-38.44779 -0.1552538 31.035345 -3.4951818 -18.41697 -29.356024 24.733297 -30.523056
10.371858 21.164448 7.4452844 38.199512 -2.1819985 26.910557 18.775215 -2.3361287
18.54303 -15.808756 8.187645 2.7893627 25.58903 47.940193 -14.160994 -19.853148

exp_avg_sq f4 [40]
00000000: b182 0d4c 0a9d c84b 12fa 894c a0ad 204a
00000010: 2f3f 0e4b 3166 094b 0b5a ae4b 3a47 9c4c
00000020: a8e8 794b cea2 5b4c 3282 b649 625f b949
00000030: 4319 9e4a 1dec 3c4b d070 0849 25ea 5049
00000040: bd80 374b 5d5b 9948 5cb4 984b 3900 314a
00000050: 169a f34a 1dfe bf4a f112 e54a b148 294b
00000060: 0ab1 5e4c 2183 3c4b ae9b d14a caf7 9a4c
00000070: 36f6 544b d102 ce4b 220a 774b f93e 854c
00000080: 26ca 854b 8770 8f49 61cd 184b 4b78 a54b
00000090: ade8 914a 66d0 2d4c f36a 7a4b 6f3a c349
3.7096132e+07 2.6294804e+07 7.23396e+07 2.632552e+06 9.322287e+06 9.004593e+06 2.285263e+07 8.19348e+07
1.6378024e+07 5.757625e+07 1.4951102e+06 1.5185722e+06 5.1805775e+06 1.2381213e+07 558861.0 855714.3
1.2026045e+07 314074.9 2.0015288e+07 2.8999822e+06 7.982347e+06 6.2912145e+06 7.5062965e+06 1.1094193e+07
5.8377256e+07 1.2354337e+07 6.868439e+06 8.124782e+07 1.3956662e+07 2.7002274e+07 1.6189986e+07 6.985927e+07
1.7536076e+07 1.1750569e+06 1.0014049e+07 2.168847e+07 4.7811425e+06 4.556431e+07 1.6411379e+07 1.5993099e+06
