1DCFD_PINN/1D_CFD_Rand_Eta0.01_Zeta0.01_periodic_Train_PINN.pt-5000.pt (torch, 112935 bytes, 42 tensors)

linears.0.weight f4 [40, 2]
-0.11261611 -0.35567358 0.23743632 0.1680493 0.029361622 -0.08627804 0.2065645 -0.07547521
0.16891763 -0.012538415 0.038242836 0.025963841 -0.3155342 0.039949503 -0.07441376 0.2531293
0.18806419 0.24402608 0.29206964 -0.4088701 0.28931445 -0.13965261 -0.03769847 -0.07687658
-0.23158924 0.11460271 0.03380131 -0.12596919 -0.20556799 0.26792386 0.21490894 0.1830248
-0.15415938 0.04430746 0.11049905 -0.030586451 -0.08357131 -0.13621695 0.5387232 0.19382273
-0.06253205 0.23432297 0.14388052 -0.008867158 0.11416686 0.16164559 0.047155418 -0.00933353
-0.07600434 0.17588799 -0.08421285 -0.016757276 0.4355214 -0.076937206 -0.32700273 -0.04103872
0.0332699 0.22220863 -0.16725197 -0.059592493 -0.12969185 -0.20583738 -0.0869156 0.14676026
0.33964953 -0.09588519 0.13345607 0.41218084 -0.06754637 0.26752287 0.0022294791 -0.0031629186
0.028853917 0.1620746 -0.17698202 -0.053773616 0.11658706 -0.13501258 0.4565202 -0.049332082
00000000: 46a3 e6bd d91a b6be 8222 733e 1e15 2c3e
00000010: c987 f03c 8bb2 b0bd a585 533e bf92 9abd
00000020: bef8 2c3e ed6d 4dbc 85a4 1c3d 1fb2 d43c
00000030: b38d a1be 17a2 233d 3e66 98bd 2a9a 813e
00000040: e693 403e f9e1 793e 278a 953e 6c57 d1be
00000050: 0621 943e 1801 0fbe b669 1abd 7871 9dbd
00000060: bb25 6dbe d3b4 ea3d 3e73 0a3d 11fe 00be
00000070: 6a80 52be 512d 893e 1711 5c3e da6a 3b3e
00000080: f5db 1dbe bd7b 353d 534d e23d 7090 fabc
00000090: 6f27 abbd 757c 0bbe c3e9 093f 7779 463e
000000a0: ce10 80bd 5cf2 6f3e 6a55 133e 8e47 11bc
000000b0: 51d0 e93d 6c86 253e 0a26 413d aaeb 18bc
000000c0: 2aa8 9bbd fb1b 343e c977 acbd 8e46 89bc
000000d0: a9fc de3e 4191 9dbd e76c a7be 3818 28bd
000000e0: 0546 083d a98a 633e 1a44 2bbe 4217 74bd
000000f0: f1cd 04be 09c7 52be ce00 b2bd 5248 163e
00000100: 8be6 ad3e 745f c4bd b5a8 083e 5e09 d33e
00000110: c055 8abd c2f8 883e 741c 123b f848 4fbb
00000120: 0d5f ec3c e2f6 253e c63a 35be b941 5cbd
00000130: 32c5 ee3d bd40 0abe 04bd e93e 7010 4abd

linears.0.bias f4 [40]
0.0035080013 0.0010131273 0.0031476957 0.0064655803 0.004019586 -0.0003922374 -0.0011244378 0.0003319004
-0.00076985627 0.0036612554 0.0012609551 0.0011582305 -0.0017399592 -0.00025026867 -0.0028505633 -0.0025801994
-0.00373051 0.00095601415 0.0026149615 0.009149882 0.00088416954 0.00055778417 0.0021406312 -0.0027654606
-0.003084452 0.0035350071 -0.00050236145 0.003922675 0.0001855816 0.00030404623 0.008108555 0.0003185124
-0.00072131783 -0.007976723 -0.0029063863 -0.0008056675 0.0012915018 -0.0010787076 0.003692957 0.001046805
00000000: 7fe6 653b e9ca 843a 9249 4e3b 38dd d33b
00000010: bbb6 833b 36a5 cdb9 df61 93ba eb02 ae39
00000020: 2ed0 49ba acf1 6f3b a246 a53a c4cf 973a
00000030: 580f e4ba 7e36 83b9 84d0 3abb 9018 29bb
00000040: 927b 74bb 069d 7a3a c65f 2b3b 63e9 153c
00000050: 9dc7 673a 4338 123a d549 0c3b bb3c 35bb
00000060: 8424 4abb 94ab 673b e8b0 03ba c889 803b
00000070: ae98 4239 6568 9f39 bfd9 043c 03fe a639
00000080: d216 3dba cdb0 02bc 1279 3ebb 6e33 53ba
00000090: 9c47 a93a 6c63 8dba 8a05 723b f234 893a

linears.1.weight f4 [40, 40]
-0.090217136 -0.06895945 0.107123844 -0.10138476 -0.20180602 0.023487024 0.06271178 -0.14337754
0.04974649 -0.0058519873 0.14943887 -0.3655608 -0.14944774 -0.119440384 0.24869491 0.17676297
-0.05004518 -0.26958662 -0.12803087 -0.16571346 0.19238149 -0.017348742 0.040189523 0.10517208
-0.043175045 0.21958807 0.00091551477 -0.049749803 0.22418332 0.05218859 -0.1948863 0.15198006
-0.08438988 -0.11130673 0.043161485 0.26187274 -0.3134165 -0.15781242 0.033030182 -0.087470956
-0.08213056 0.028715292 0.10409533 0.03776343 0.08383564 0.13465881 -0.16251181 0.08661941
0.09686174 0.053707 0.22918822 -0.3149251 -0.05755602 0.0248913 -0.20337728 0.14314915
0.03198069 -0.28060764 -0.1791348 -0.024596253 0.08364549 0.062107947 0.04425378 0.07886624
-0.059110977 0.17171635 -0.09329877 0.20693767 0.12653826 -0.1384196 -0.13026577 0.10940168
-0.12654942 0.37538585 -0.09686397 0.0065990086 -0.14220026 -0.13011113 0.13321333 -0.044198994
-0.13081172 -0.12895559 0.04155198 0.25164485 -0.06276525 0.049988694 0.017118137 -0.12465207
0.20750879 -0.10170314 -0.1479301 0.013968638 -0.27000678 0.03946454 -0.34355295 -0.16481183
-0.23461197 0.10844822 -0.14910135 0.18418323 0.32313746 0.070596926 -0.004909802 -0.0065500555
0.091739975 0.04065421 -0.1241614 0.13536459 -0.08560147 -0.0067913057 0.06361862 0.07886153
0.037148554 -0.002486959 0.0061536487 -0.25245005 0.12405863 -0.0070738173 -0.06005955 -0.18512593
0.072358556 -0.15579967 -0.20454419 0.13334632 -0.14626646 -0.033086922 -0.16474123 -0.023541532
-0.10420859 0.14620438 0.013655035 0.3502728 -0.008950723 0.13192853 0.31138596 -0.12584217
-0.08327899 -0.16272257 0.016584719 -0.17725179 0.059081398 -0.11918669 0.015841167 0.12334567
-0.079717904 -0.1522422 -0.010082548 0.09238433 -0.05468991 -0.1571156 0.1946105 0.17523876
-0.025619445 0.029121222 -0.05712516 -0.12371173 -0.0007310514 -0.115410745 -0.0713522 -0.024258709
-0.012632565 0.085189074 -0.20696877 0.16821556 -0.0033070962 0.081934504 -0.01953756 0.21833873
0.38177556 0.195851 -0.06368124 0.0087839225 -0.13493708 0.07239812 -0.0501752 -0.23886016
0.049237702 -0.048883453 -0.16365512 -0.057286188 0.01626256 0.12031193 -0.07005009 -0.114887334
-0.09115319 -0.28926694 0.1880298 0.277235 0.0037939271 0.08319715 -0.11185641 0.0560464
0.15109926 -0.18446356 -0.024830988 -0.012948182 -0.20342797 0.14228089 0.14164643 -0.025173005
-0.06355451 0.22150132 -0.111672014 -0.06834258 -0.40700495 0.108512364 -0.008211886 0.38667524
-0.18117912 0.24086381 -0.04628844 0.172965 0.11417333 -0.0826048 0.51152915 -0.33044088
-0.025063183 -0.06362494 0.035998978 0.10587973 0.025744794 -0.050171934 0.011540322 -0.13163482
0.06152347 0.37511984 0.18286423 -0.04492006 0.36247867 0.27698344 -0.12405342 -0.026604481
-0.041102204 -0.1214181 0.3253437 -0.027247364 0.16203088 0.11900137 -0.2415491 -0.10613301
-0.088529654 0.25462872 -0.0463397 -0.09039174 0.116391964 0.10971061 -0.12222386 -0.2649492
0.079719074 -0.12678313 0.028274814 0.2181049 0.15389496 0.09905316 -0.19103841 -0.114978075
00000000: c3c3 b8bd 9d3a 8dbd bf63 db3d d0a2 cfbd
00000010: 3da6 4ebe dc67 c03c 096f 803d 90d1 12be
00000020: fac2 4b3d 07c2 bfbb 8106 193e c92a bbbe
00000030: d408 19be 299d f4bd e1a9 7e3e 5a01 353e
00000040: 2dfc 4cbd 4207 8abe 861a 03be cab0 29be
00000050: a7ff 443e f31e 8ebc c59d 243d 7664 d73d
00000060: 51d8 30bd b2db 603e 28ff 6f3a 73c6 4bbd
00000070: 5090 653e b4c3 553d 4690 47be a9a0 1b3e
00000080: 9ad4 acbd c8f4 e3bd 19ca 303d 2f14 863e
00000090: 2178 a0be 9499 21be a84a 073d f923 b3bd
000000a0: 1134 a8bd 553c eb3c ef2f d53d d4ad 1a3d
000000b0: 05b2 ab3d 00e4 093e 7f69 26be 8465 b13d
000000c0: 735f c63d dffb 5b3d 51b0 6a3e dd3d a1be
000000d0: dcbf 6bbd d7e8 cb3c 2242 50be b195 123e
000000e0: 2ffe 023d ceab 8fbe 1d6f 37be 157e c9bc
000000f0: 544e ab3d e764 7e3d 7443 353d a084 a13d
00000100: 5a1e 72bd 69d6 2f3e 6d13 bfbd 78e7 533e
00000110: 3f93 013e debd 0dbe 6464 05be fd0d e03d
00000120: 2c96 01be 9332 c03e 9e60 c6bd 7f3c d83b
00000130: f29c 11be da3b 05be 1369 083e 010a 35bd
00000140: 82f3 05be ef0c 04be 6932 2a3d 98d7 803e
00000150: 118b 80bd f2c0 4c3d 563b 8c3c 9649 ffbd
00000160: 2f7d 543e bc49 d0bd fd7a 17be b7dc 643c
00000170: 543e 8abe 92a5 213d 2ce6 afbe 6fc4 28be
00000180: 1f3e 70be 1a1a de3d 06ae 18be 879a 3c3e
00000190: 4672 a53e 1f95 903d 68e2 a0bb d9a1 d6bb
000001a0: 2be2 bb3d 0785 263d 5548 febd 049d 0a3e
000001b0: d34f afbd 9a89 debb 7b4a 823d 2782 a13d
000001c0: 1529 183d 40fc 22bb 8ca4 c93b 2241 81be
000001d0: 7312 fe3d 7bcb e7bb 0101 76bd a791 3dbe
000001e0: b930 943d f389 1fbe 0874 51be f08b 083e
000001f0: e0c6 15be 2786 07bd edb1 28be 2cda c0bc
00000200: 506b d5bd 9ab6 153e 5eb9 5f3c f556 b33e
00000210: 0ea6 12bc 4618 073e fb6d 9f3e c5dc 00be
00000220: 2d8e aabd bfa0 26be addc 873c 7e81 35be
00000230: 56ff 713d 2718 f4bd 56c5 813c a89c fc3d
00000240: 2443 a3bd 61e5 1bbe 4531 25bc ff33 bd3d
00000250: 8702 60bd e9e2 20be fa47 473e ca71 333e
00000260: dfdf d1bc a18f ee3c 12fc 69bd 935c fdbd
00000270: 07a4 3fba 785c ecbd 1a21 92bd 33ba c6bc
00000280: d1f8 4ebc 9c77 ae3d 9fef 53be b340 2c3e
00000290: debb 58bb 47cd a73d 3c0d a0bc 3094 5f3e
000002a0: 1678 c33e 2a8d 483e 4f6b 82bd 71ea 0f3c
000002b0: f22c 0abe 7745 943d 8384 4dbd c297 74be
000002c0: 79ad 493d 043a 48bd 3595 27be eca4 6abd
000002d0: 0f39 853c 1a66 f63d 6c76 8fbd 0d4a ebbd
000002e0: 86ae babd cc1a 94be e28a 403e bff1 8d3e
000002f0: 89a3 783b 4463 aa3d f914 e5bd e990 653d
00000300: c4b9 1a3e 04e4 3cbe 5b6a cbbc 9d24 54bc
00000310: 6c4f 50be 15b2 113e c30b 113e 9e37 cebc
00000320: de28 82bd 3ed1 623e 4cb4 e4bd 32f7 8bbd
00000330: f462 d0be bb3b de3d 258b 06bc 4cfa c53e
00000340: 0587 39be 01a5 763e f298 3dbd bd1d 313e
00000350: b5d3 e93d b52c a9bd 93f3 023f 8c2f a9be
00000360: 4e51 cdbc cb4d 82bd aa73 133d 79d7 d83d
00000370: bfe6 d23c 1681 4dbd 9e13 3d3c 47cb 06be
00000380: 0900 7c3d b50f c03e c340 3b3e 19fe 37bd
00000390: ce96 b93e c6d0 8d3e b80f febd a4f1 d9bc
000003a0: c95a 28bd 0eaa f8bd 7393 a63e dd35 dfbc
000003b0: 6ceb 253e feb6 f33d a658 77be 435c d9bd
000003c0: 094f b5bd b25e 823e b3ce 3dbd 4e1f b9bd
000003d0: e95e ee3d f5af e03d 8150 fabd 6ca7 87be
000003e0: c143 a33d 70d3 01be 95a0 e73c e456 5f3e
000003f0: a496 1d3e 62dc ca3d 939f 43be a079 ebbd

linears.1.bias f4 [40]
-0.0002687806 -0.003713206 -0.0038374616 0.00010382177 0.0010371734 -0.0002862996 -0.002103571 -0.00020808572
0.0036554486 0.0028572327 0.0024250683 -0.0046100705 -0.0010100588 -0.0039604213 0.0025265827 -0.0003964347
-0.0022653218 -0.0026820116 0.0018567934 0.002452486 -0.0018949586 0.00077024737 0.0052638287 -0.0018495152
-0.0007351864 -0.0043772114 -0.0014598413 0.0006350595 0.0021891752 -0.0032369965 -0.0033266973 -0.00011753566
-0.004224589 -0.0012333144 0.0032918954 -0.0023829576 -0.0011071467 0.0008599463 0.0029895224 -0.0004227609
00000000: 1feb 8cb9 4259 73bb ec7d 7bbb e3ba d938
00000010: c4f1 873a 7b1a 96b9 11dc 09bb 9631 5ab9
00000020: 4090 6f3b 6940 3b3b e5ed 1e3b 1310 97bb
00000030: f363 84ba 6cc6 81bb 0695 253b 91d8 cfb9
00000040: cb75 14bb b0c4 2fbb a65f f33a e3b9 203b
00000050: 4260 f8ba 6dea 493a 327c ac3b 6f6b f2ba
00000060: 86b9 40ba b66e 8fbb 2558 bfba 1f7a 263a
00000070: 4478 0f3b ca23 54bb b804 5abb 7a7d f6b8
00000080: 6c6e 8abb 2aa7 a1ba d7bc 573b 652b 1cbb
00000090: ae1d 91ba 056e 613a ddeb 433b 02a6 ddb9

linears.2.weight f4 [40, 40]
0.2875019 0.6354739 -0.07203119 -0.24188235 -0.10547921 -0.061889067 -0.13877267 -0.07979127
-0.045645848 -0.048938595 0.021904483 0.030843655 -0.036334906 -0.0120785795 -0.0697062 0.0075346367
-0.08748284 -0.012651621 0.01977616 -0.14222336 -0.014157015 0.034526087 -0.1531452 -0.019978037
-0.09360264 -0.028478274 -0.08859445 -0.19200209 -0.27684245 -0.12759863 -0.24394761 -0.089638226
0.29506356 0.020571446 -0.03536934 0.030267233 -0.29758215 -0.008895499 -0.1626687 -0.021635408
-0.18806614 -0.16499464 0.12647322 0.052092094 -0.021493936 0.054511134 -0.23322144 0.31666124
0.14223605 -0.066923566 0.17199795 0.104948744 0.13864474 -0.23650597 -0.028465357 -0.26502353
0.068299286 0.29880723 -0.19115962 0.029943181 -0.071869 0.22977367 -0.03279148 0.36829132
0.12897438 -0.017061014 0.15737905 0.026011184 0.008976548 0.01948021 -0.063168205 0.076995246
-0.10500444 -0.10663548 0.19699933 -0.24655525 -0.06667698 0.016714573 0.07906202 0.10506513
-0.32733256 0.18860997 -0.20958067 0.07825903 -0.29619277 -0.044277202 -0.07633103 -0.13373627
0.18541442 -0.0061981115 -0.14948422 0.1812833 -0.13749167 0.06295815 -0.045665137 -0.16096555
-0.3875855 0.19590686 -0.24480733 -0.06325829 -0.089140706 -0.06686288 -0.32821575 0.123929374
-0.20662849 0.019200515 -0.030567097 0.19014819 0.13487054 -0.13282494 -0.07337343 -0.07322805
0.056707237 0.0028521789 0.053579982 0.04331951 -0.19710764 0.061023425 -0.33814543 -0.19084199
-0.19951905 0.0019258789 -0.18528658 0.22012204 0.087154016 0.0850236 0.062416054 0.039978705
-0.2549308 0.1500557 -0.0143503565 0.024599258 0.13069661 -0.097399935 -0.014582394 -0.3208637
0.3447205 -0.14977898 0.19082563 -0.04634183 -0.12858336 0.031827495 0.19190493 0.05816206
-0.07093874 -0.0839447 0.08714431 0.16449006 0.09758556 -0.031773444 -0.4004671 0.21586913
-0.08275863 -0.052510586 -0.04951926 0.07862692 0.10467274 0.12446826 0.20480204 -0.062189277
0.117590405 -0.054688595 -0.002552114 -0.11475652 0.24822621 -0.2680771 -0.15283193 0.05315149
0.18626446 0.08280923 0.22603928 0.39477283 0.10374919 0.052948035 0.12819593 0.06963095
0.26771846 0.023134964 -0.039795313 -0.12007693 0.21640585 -0.090251274 0.12988146 -0.20060547
0.3758064 -0.107418366 -0.12646152 -0.20973195 -0.112863675 -0.12142818 0.053030904 -0.15143734
0.05747756 0.2997993 0.12007297 0.079222605 0.020439789 0.30996504 -0.33913076 0.09857524
0.065734744 -0.16534054 -0.013340095 0.18450329 -0.079120174 0.042316776 0.40469944 0.101788856
-0.2649682 -0.09170968 -0.027350023 -0.26824856 0.15603083 -0.31205973 -0.19432133 0.102740236
-0.24043952 -0.21829575 -0.17136614 0.08365842 0.08620212 0.040099517 0.06110129 0.28224185
0.034744095 -0.24151556 -0.13953476 -0.33170986 -0.11748643 -0.019841498 -0.16218203 0.09054103
0.00898371 0.16268434 0.013566814 -0.015291714 0.124933556 0.20149073 -0.37179333 0.05116642
-0.29995656 -0.15771091 -0.07247711 0.2689434 -0.31520826 -0.15235998 0.062355924 0.0028948467
-0.11624944 0.22894488 -0.031101933 -0.050033838 0.14674254 -0.029579472 0.081385314 0.4736792
00000000: 7333 933e 6bae 223f 1785 93bd 02b0 77be
00000010: 7c05 d8bd 647f 7dbd 6c1a 0ebe 9b69 a3bd
00000020: 24f7 3abd d673 48bd 0871 b33c d5ab fc3c
00000030: e9d3 14bd 3ce5 45bc 20c2 8ebd 1de5 f63b
00000040: 342a b3bd bf48 4fbc 9d01 a23c 00a3 11be
00000050: d3f2 67bc 3a6b 0d3d 18d2 1cbe fba8 a3bc
00000060: beb2 bfbd 454b e9bc 0271 b5bd 329c 44be
00000070: 4bbe 8dbe 37a9 02be 67cd 79be 3f94 b7bd
00000080: 9212 973e 7385 a83c 71df 10bd fdf2 f73c
00000090: b05c 98be 6dbe 11bc a092 26be bd3c b1bc
000000a0: 6994 40be 5bf4 28be 3282 013e 855e 553d
000000b0: 0d14 b0bc 1147 5f3d 9ad1 6ebe 6c21 a23e
000000c0: 54a6 113e 390f 89bd 3b20 303e 5eef d63d
000000d0: e3f8 0d3e 9f2e 72be 2e30 e9bc 2ab1 87be
000000e0: 7fe0 8b3d 43fd 983e 59bf 43be 674b f53c
000000f0: 0e30 93bd ca49 6b3e 5c50 06bd ae90 bc3e
00000100: dc11 043e 8ac3 8bbc f927 213e 6815 d53c
00000110: 5f12 133c f694 9f3c 555e 81bd afaf 9d3d
00000120: 910c d7bd b463 dabd 31ba 493e fb78 7cbe
00000130: f18d 88bd 00ed 883c 45eb a13d 632c d73d
00000140: 2298 a7be f922 413e 519c 56be 4546 a03d
00000150: 94a6 97be 035c 35bd 7153 9cbd 29f2 08be
00000160: 47dd 3d3e 8719 cbbb 6412 19be 54a2 393e
00000170: 9eca 0cbe 34f0 803d 5e0b 3bbd 27d4 24be
00000180: 9b71 c6be cf9b 483e c6ae 7abe 908d 81bd
00000190: 678f b6bd 68ef 88bd e50b a8be afce fd3d
000001a0: 6b96 53be 664a 9d3c d967 fabc 35b6 423e
000001b0: 811b 0a3e 4303 08be cf44 96bd 96f8 95bd
000001c0: d945 683d 9feb 3a3b af76 5b3d cc6f 313d
000001d0: 96d6 49be b3f3 793d 6621 adbe 156c 43be
000001e0: b94e 4cbe c66d fc3a c4bb 3dbe ac67 613e
000001f0: ce7d b23d da20 ae3d faa7 7f3d b6c0 233d
00000200: 4a86 82be 34a8 193e c21d 6bbc 6284 c93c
00000210: 55d5 053e 9e79 c7bd feea 6ebc 3f48 a4be
00000220: 357f b03e a95f 19be cb67 433e eed0 3dbd
00000230: 5bab 03be 8c5d 023d ba82 443e 573b 6e3d
00000240: 5548 91bd 33eb abbd b778 b23d 1570 283e
00000250: f0da c73d df24 02bd 060a cdbe cc0c 5d3e
00000260: 5b7d a9bd 5715 57bd b5d4 4abd 2707 a13d
00000270: a95e d63d 37e9 fe3d a0b7 513e 2fba 7ebd
00000280: 3dd3 f03d 2601 60bd 5e41 27bb 7705 ebbd
00000290: 032f 7e3e 6741 89be f97f 1cbe 60b5 593d
000002a0: 1cbc 3e3e e397 a93d d776 673e aa1f ca3e
000002b0: 757a d43d 0ae0 583d cb45 033e ac9a 8e3d
000002c0: 6512 893e 8985 bd3c 6900 23bd e5ea f5bd
000002d0: 7f99 5d3e a9d5 b8bd a5ff 043e 856b 4dbe
000002e0: b269 c03e 29fe dbbd 217f 01be f9c3 56be
000002f0: 1225 e7bd 56af f8bd ef36 593d 6412 1bbe
00000300: 976d 6b3d 4b7f 993e d1e8 f53d 763f a23d
00000310: 5871 a73c bdb3 9e3e 8ca2 adbe d1e1 c93d
00000320: f09f 863d 084f 29be 6a90 5abc 6eee 3c3e
00000330: c209 a2bd 5b54 2d3d c434 cf3e ad76 d03d
00000340: e9a9 87be 49d2 bbbd 280d e0bc e057 89be
00000350: 8cc6 1f3e 4bc6 9fbe 2cfc 46be 7969 d23d
00000360: c735 76be ec88 5fbe 9b7a 2fbe 1b55 ab3d
00000370: bd8a b03d 643f 243d 5945 7a3d 0182 903e
00000380: d34f 0e3d db4f 77be 33e2 0ebe e0d5 a9be
00000390: ba9c f0bd a38a a2bc 0c13 26be 936d b93d
000003a0: 6930 133c b996 263e 5847 5e3c 198a 7abc
000003b0: 2add ff3d 9653 4e3e b25b bebe e193 513d
000003c0: e893 99be f87e 21be e16e 94bd f3b2 893e
000003d0: fa62 a1be 4104 1cbe ed68 7f3d 78b7 3d3b
000003e0: 3014 eebd 8770 6a3e 7bc9 febc 48f0 4cbd
000003f0: ad43 163e a650 f2bc 58ad a63d 1586 f23e

linears.2.bias f4 [40]
-0.0033052196 -0.013025467 0.0017558192 0.009857334 0.008138764 -0.0017654726 -0.0005623718 0.0017347257
0.00066822954 0.0033482788 -0.0010028825 0.0047138426 0.0014214419 -0.0035656681 0.0014307182 0.0046886187
0.00064178254 -0.00011656283 -0.0012728701 0.0021957578 0.004213914 -0.0020095815 0.002112067 -0.0042611267
-0.00015076376 -0.0036785598 -0.003353595 0.0030722935 0.0016336414 0.001238511 0.00021629015 0.0060853944
0.0025839547 0.001282915 0.0028561044 0.00073297083 -0.0020402754 -0.00089393114 -0.0010905758 -0.0012447749
00000000: 629c 58bb c568 55bc 8423 e63a a880 213c
00000010: 7358 053c 6e67 e7ba 226c 13ba bc5f e33a
00000020: 202c 2f3a cc6e 5b3b 2773 83ba 9476 9a3b
00000030: ad4f ba3a fcad 69bb f086 bb3a fca2 993b
00000040: 4c3d 283a 3173 f4b8 6fd6 a6ba b4e6 0f3b
00000050: df14 8a3b 2fb3 03bb 9b6a 0a3b eca0 8bbb
00000060: 5716 1eb9 fe13 71bb fdc7 5bbb 8858 493b
00000070: e91f d63a 8855 a23a f2cb 6239 fd67 c73b
00000080: 9157 293b 7c27 a83a 7b2d 3b3b d724 403a
00000090: 24b6 05bb b456 6aba a7f1 8eba b727 a3ba

linears.3.weight f4 [40, 40]
0.060311947 -0.36805886 0.01712482 0.12560122 -0.033385452 0.11148803 -0.07605017 0.12784348
0.06118098 -0.04595017 -0.18245988 -0.42374045 -0.15690671 0.17363144 0.11758507 0.16548428
0.026441649 0.025198188 -0.3102145 0.0011924373 -0.31128144 0.030872097 0.2045806 0.34875304
0.03194144 0.014364635 -0.17775327 0.26273435 -0.022219598 -0.09980413 -0.03330865 0.04134347
0.025939424 -0.0012178419 0.21732774 -0.06397168 -0.14363484 0.0019211905 0.13570853 0.06443002
-0.18982597 -0.087516636 -0.33786967 -0.018031336 0.1568907 -0.09240589 -0.035154033 0.057187848
-0.0075479294 -0.130308 -0.17719597 0.05559269 0.22169638 -0.17366262 0.12290785 -0.21940771
0.06949741 -0.23867318 0.19507103 0.0046293694 -0.03731229 0.20792693 -0.10244664 -0.16949405
-0.17440553 0.093745716 -0.004991119 0.11231833 0.11924441 0.0008906965 -0.021187851 0.13821903
0.48803008 0.056479134 0.11169858 0.15700889 -0.08669972 -0.052647687 -0.15348539 0.007111048
-0.3074014 0.00030456117 0.10826743 0.18348311 0.15282378 -0.021368537 -0.053380072 -0.042790312
0.16014768 0.15955485 0.030613678 0.053016055 0.077003784 -0.08853248 -0.034000758 0.21539125
0.10932827 0.12641604 0.12286919 -0.21238266 -0.059714757 -0.18180032 0.08191163 0.14119498
0.279299 -0.015380744 -0.41000193 0.17925866 -0.035252627 -0.0950229 -0.3587687 -0.14364864
0.17371792 0.08735441 0.27383745 0.19630386 0.29817587 -0.25779048 0.2524118 0.11314188
-0.20893769 -0.17122939 -0.15567692 -0.036164936 0.03475461 -0.23562078 -0.13259102 -0.09789632
0.0026949733 -0.055473503 -0.04150783 -0.069923535 -0.21409021 0.13317609 0.0812026 -0.052594587
-0.036206465 0.30201253 0.06935955 -0.03671399 0.1828447 0.036910072 0.18648173 -0.15925878
0.14462358 -0.0822178 0.028660057 0.22994666 -0.10268123 0.100098185 -0.18891446 -0.043633793
0.13663751 0.0005666779 0.31988522 0.077401064 0.011038027 -0.045213684 0.004360431 0.16948234
0.021230077 0.24742757 -0.03775157 -0.13011049 0.008442748 -0.3591703 0.09448932 -0.010520241
0.032128215 -0.12734996 -0.12827569 0.16299312 -0.15369579 0.10902226 -0.095491976 -0.0009019574
0.09698344 -0.0713568 0.09082259 -0.10753795 -0.13757402 0.10038108 0.011266215 0.18557313
0.06103398 0.024642196 -0.2114409 -0.12448733 -0.18644184 0.09666829 0.059022456 0.2444896
0.068462834 0.09546763 -0.13589028 0.2924574 0.08636519 -0.20077518 -0.09069045 0.14567122
0.12531559 -0.27392453 -0.0050239265 0.05989422 0.20740972 0.0951211 -0.17921698 0.039008953
0.025990726 -0.2527498 -0.0068420256 0.08664857 0.12906134 0.019880282 0.13965324 0.12925288
-0.07844102 -0.056267202 -0.20362957 0.4534874 -0.18102102 -0.01815346 0.24249281 -0.08485522
0.11199929 0.088866726 0.050733738 -0.043931752 0.04058035 -0.040725365 -0.05266902 0.09210755
0.11599746 -0.08460398 0.08968799 -0.0798564 0.02988342 -0.14843133 0.00032466766 0.079324216
0.10564176 0.34134537 0.030661106 0.054848053 0.07477547 -0.011069315 -0.074495494 -0.1564575
0.08528125 0.35190463 0.29880878 0.15531121 -0.12380348 -0.09420587 0.020663276 -0.1357765
00000000: a909 773d 3672 bcbe 5a49 8c3c 9b9d 003e
00000010: 2fbf 08bd d653 e43d 31c0 9bbd 67e9 023e
00000020: e898 7a3d 3f36 3cbd c3d6 3abe 82f4 d8be
00000030: 27ac 20be 71cc 313e 71d0 f03d b674 293e
00000040: 289c d83c 6e6c ce3c 6fd4 9ebe 8e4b 9c3a
00000050: 4860 9fbe 7be7 fc3c 947d 513e c28f b23e
00000060: 07d5 023d a559 6b3c f404 36be 1e85 863e
00000070: e005 b6bc 1c66 ccbd a76e 08bd c557 293d
00000080: ea7e d43c fe9f 9fba 2a8b 5e3e 9603 83bd
00000090: 0315 13be 75d0 fb3a 2df7 0a3e e3f3 833d
000000a0: bd61 42be ec3b b3bd 41fd acbe 74b6 93bc
000000b0: f5a7 203e 4d3f bdbd adfd 0fbd ce3d 6a3d
000000c0: 9f54 f7bb 766f 05be dc72 35be 29b5 633d
000000d0: 6004 633e 9dd4 31be 1cb7 fb3d 6aac 60be
000000e0: a854 8e3d be66 74be b3c0 473e f7b1 973b
000000f0: c6d4 18bd ccea 543e 8bcf d1bd d98f 2dbe
00000100: 5d97 32be c1fd bf3d 8a8c a3bb 2707 e63d
00000110: 6a36 f43d a17d 693a 2592 adbc 4a89 0d3e
00000120: 14df f93e aa56 673d 3ac2 e43d f0c6 203e
00000130: 9f8f b1bd 1aa5 57bd 462b 1dbe cb03 e93b
00000140: b763 9dbe 82ad 9f39 50bb dd3d ffe2 3b3e
00000150: d67d 1c3e 120d afbc 10a5 5abd e544 2fbd
00000160: c1fd 233e 5962 233e 89c9 fa3c 5d27 593d
00000170: 29b4 9d3d 8450 b5bd 6144 0bbd 868f 5c3e
00000180: 80e7 df3d 3573 013e d8a2 fb3d d77a 59be
00000190: 7697 74bd dd29 3abe 49c1 a73d 6b95 103e
000001a0: 4700 8f3e 84ff 7bbc c6eb d1be 958f 373e
000001b0: 0f65 10bd 5e9b c2bd 88b0 b7be a118 13be
000001c0: 1ce3 313e dee6 b23d 6c34 8c3e e103 493e
000001d0: 82aa 983e 1dfd 83be 1f3c 813e eeb6 e73d
000001e0: c3f3 55be c256 2fbe c569 1fbe af21 14bd
000001f0: da5a 0e3d 9346 71be f1c5 07be de7d c8bd
00000200: 269e 303b 2f38 63bd 1d04 2abd 1234 8fbd
00000210: 773a 5bbe 505f 083e 8c4d a63d 6c6d 57bd
00000220: 3b4d 14bd 63a1 9a3e 610c 8e3d 6961 16bd
00000230: a43b 3b3e 042f 173d 11f5 3e3e bc14 23be
00000240: 3418 143e ce61 a8bd 7fc8 ea3c 2377 6b3e
00000250: 894a d2bd 4700 cd3d cb72 41be 59b9 32bd
00000260: b4ea 0b3e 1c8d 143a ffc7 a33e 7384 9e3d
00000270: d7d8 343c fc31 39bd f2e1 8e3b c78c 2d3e
00000280: b3ea ad3c a75d 7d3e 64a1 1abd af3b 05be
00000290: 7453 0a3c 2be5 b7be 9e83 c13d 175d 2cbc
000002a0: e098 033d 0768 02be b45a 03be abe7 263e
000002b0: 6e62 1dbe 1047 df3d 4c91 c3bd 5671 6cba
000002c0: 419f c63d 8423 92bd 3201 ba3d db3c dcbd
000002d0: 34e0 0cbe 9894 cd3d ee95 383c e206 3e3e
000002e0: c4fe 793d 6ede c93c f783 58be 37f3 febd
000002f0: 9cea 3ebe 06fa c53d 88c1 713d 7b5b 7a3e
00000300: 3e36 8c3d 8884 c33d d226 0bbe fabc 953e
00000310: 3ce0 b03d 0298 4dbe eabb b9bd d62a 153e
00000320: bb52 003e d63f 8cbe c09f a4bb a453 753d
00000330: 3763 543e dace c23d a884 37be dac7 1f3d
00000340: 81ea d43c 6c68 81be 1233 e0bb ce74 b13d
00000350: a828 043e f9db a23c 4201 0f3e de5a 043e
00000360: afa5 a0bd 7078 66bd 4584 50be 802f e83e
00000370: 935d 39be 91b6 94bc 0950 783e 93c8 adbd
00000380: e25f e53d c2ff b53d 2ece 4f3d c8f1 33bd
00000390: 9537 263d a4cf 26bd 78bb 57bd e2a2 bc3d
000003a0: 1490 ed3d da44 adbd 56ae b73d c18b a3bd
000003b0: 13ce f43c 62fe 17be 2838 aa39 bc74 a23d
000003c0: b55a d83d d2c4 ae3e 002d fb3c 5aa8 603d
000003d0: e223 993d 125c 35bc 1891 98bd 6536 20be
000003e0: f0a7 ae3d d82c b43e 77fd 983e e709 1f3e
000003f0: ae8c fdbd 02ef c0bd 0846 a93c ff08 0bbe

linears.3.bias f4 [40]
0.00310356 -0.00015628083 0.009047626 0.0030338198 0.00066513265 0.0008051021 0.005228058 0.00542635
-0.0016103099 0.001130463 0.0038988523 0.0021038973 -0.0008510834 -0.00074420474 -0.0020007952 -0.005587598
0.0007057694 0.00710345 0.005196167 -0.0015153311 0.004187599 0.003366625 -0.0030585874 -0.0035257319
-0.0007481316 -0.0017319869 -0.0014408504 -0.0019345754 0.0014474157 -0.0005005353 0.005888741 0.0039178478
-0.0022340978 0.0033670617 -0.0015580633 -0.0023532482 0.0024177288 0.0020333224 -0.0056880917 -0.0006012508
00000000: 1965 4b3b 51df 23b9 7e3c 143c 0dd3 463b
00000010: 4c5c 2e3a 7d0d 533a 2150 ab3b 86cf b13b
00000020: 0911 d3ba 0b2c 943a e383 7f3b 8ae1 093b
00000030: 3d1b 5fba bc16 43ba c61f 03bb 2b18 b7bb
00000040: 6203 393a 0fc4 e83b 9c44 aa3b 139e c6ba
00000050: 2038 893b 98a2 5c3b 9572 48bb f70f 67bb
00000060: 431e 44ba d603 e3ba ebda bcba 9491 fdba
00000070: 36b7 bd3a 5b36 03ba 57f6 c03b 4a61 803b
00000080: f169 12bb eca9 5c3b ee37 ccba f438 1abb
00000090: c272 1e3b 7d41 053b 2c63 babb 429d 1dba

linears.4.weight f4 [40, 40]
-0.039437175 0.023900889 -0.14593229 -0.12271962 0.029927246 0.22516386 -0.12672319 0.32727164
-0.13896202 -0.14079082 -0.22890261 0.36887658 0.21352257 -0.00026952237 -0.07370248 -0.35619882
-0.099730976 -0.25046834 -0.15743114 -0.18708035 0.12778781 0.11268258 0.11904111 -0.19293638
-0.13650966 -0.16222142 0.09346248 0.16872175 -0.14105673 -0.06572498 -0.0057503767 0.3086728
0.020100856 -0.043879487 0.10152301 -0.05702974 -0.067639045 -0.065805405 -0.11810344 -0.16460773
0.10482509 -0.18001008 -0.07747284 -0.0018669267 0.0023652988 0.028332017 -0.19938515 -0.035354197
-0.016448174 0.023822812 -0.22358863 0.20162873 0.10396953 -0.044504125 -0.09353277 0.4532509
0.10348834 0.1700195 0.13634248 0.049172442 0.26359624 -0.047729358 0.088448904 0.15781263
-0.025667818 0.22716032 -0.009199602 -0.05381251 -0.07673061 0.086260945 0.017628998 0.049444523
-0.0013745419 0.29612866 -0.23060323 0.08891181 -0.18194748 -0.07598945 0.20706457 0.02579306
0.20080878 0.103627846 0.04152644 0.006707843 -0.04520798 -0.04679222 0.018697562 0.15805553
0.2085222 -0.10279771 -0.059409086 -0.17290358 -0.5134844 0.060975704 0.06586439 0.25029868
0.09655313 0.002186442 -0.12448344 -0.089557916 -0.13920037 0.21093483 0.12761202 -0.13758118
-0.051802665 -0.09936614 0.20925552 -0.22334643 -0.2322192 -0.08571084 -0.19040515 0.19401768
-0.21046957 0.13613914 0.052560423 0.021987144 -0.0076860012 -0.1351108 -0.080669604 0.10227059
0.07485972 0.07213882 0.06934412 -0.21995416 0.112642065 -0.18436663 0.15644261 0.0100645805
0.0689104 0.10384143 0.027131848 -0.07875741 0.22300398 0.052513305 0.14487994 0.035924338
-0.04724899 0.17874053 0.08768397 0.18046439 0.029405644 -0.05032306 0.14432068 0.007859915
-0.08772653 0.05601294 0.15751456 -0.1882892 -0.22576903 0.15869091 -0.2085477 0.085025035
-0.10429456 -0.026784023 -0.09954002 -0.18637693 0.19083923 0.25277373 -0.0009579937 0.03220694
-0.16138878 -0.22877161 0.030197786 -0.35286626 0.040606204 -0.22188285 -0.10929268 -0.16212107
0.1788391 0.0044545843 -0.1960953 -0.2579468 0.091775924 -0.077330366 0.0117440075 -0.08962053
0.16420452 -0.07346812 0.1365513 -0.30060533 0.40677652 -0.055030156 0.09715512 -0.112308875
0.058455255 -0.062163197 0.047756616 -0.09615608 0.13290618 -0.060445648 0.15900609 -0.022720661
0.056173746 -0.16894178 0.16494559 -0.2787218 -0.28711024 -0.09943188 -0.3035537 -0.21518736
0.01884336 0.08628636 -0.077148356 0.38293 -0.06969103 0.06511848 -0.3421542 0.04726216
-0.20299359 -0.332581 0.23058881 0.10307326 0.09715355 0.23080285 -0.21244505 -0.078254245
0.11988826 0.07823922 0.00034843135 0.054767136 0.2658394 0.03501252 0.006650187 0.08686525
-0.10020612 -0.23862481 0.12608819 0.047723897 0.013636036 -0.040619243 -0.08660284 -0.15682404
-0.19401795 -0.20280157 -0.1521472 0.015353417 0.23407103 -0.30627552 0.064818464 -0.030883987
0.17886949 -0.077388264 -0.08359803 0.15142225 0.2462337 0.054865755 0.12537786 0.017889088
-0.05626802 -0.094509475 0.2992247 0.26271072 0.05751067 -0.03698919 -0.12706394 -0.2137444
00000000: e088 21bd cccb c33c 466f 15be 6d54 fbbd
00000010: fc29 f53c 5b91 663e b9c3 01be 2690 a73e
00000020: 0f4c 0ebe 782b 10be 7265 6abe 64dd bc3e
00000030: a9a5 5a3e ae4e 8db9 53f1 96bd b15f b6be
00000040: c13f ccbd 633d 80be a135 21be fe91 3fbe
00000050: cfda 023e 20c6 e63d d3cb f33d 1d91 45be
00000060: 30c9 0bbe 5f1d 26be 4269 bf3d 65c5 2c3e
00000070: 2d71 10be d19a 86bd a86d bcbb 5c0a 9e3e
00000080: 8daa a43c faba 33bd 4ceb cf3d 0498 69bd
00000090: 5786 8abd fcc4 86bd 37e0 f1bd ee8e 28be
000000a0: 89ae d63d 9054 38be 15aa 9ebd aab3 f4ba
000000b0: 2103 1b3b 8c18 e83c 9f2b 4cbe 90cf 10bd
000000c0: 52be 86bc 0f28 c33c 6bf4 64be c377 4e3e
000000d0: faed d43d f549 36bd 1c8e bfbd 8110 e83e
000000e0: b2f1 d33d 9819 2e3e 5d9d 0b3e 0b69 493d
000000f0: 16f6 863e dc7f 43bd b324 b53d a299 213e
00000100: 5145 d2bc b79c 683e edb9 16bc 826a 5cbd
00000110: f024 9dbd 94a9 b03d b06a 903c 5786 4a3d
00000120: f929 b4ba 2d9e 973e 4123 6cbe 6517 b63d
00000130: 7150 3abe 5ba0 9bbd bc08 543e f84b d33c
00000140: d1a0 4d3e d63a d43d a117 2a3d 77cd db3b
00000150: 012c 39bd 33a9 3fbd a12b 993c 4fd9 213e
00000160: d886 553e 9b87 d2bd f156 73bd a30d 31be
00000170: b773 03bf a9c1 793d e9e3 863d 2627 803e
00000180: a6bd c53d 694a 0f3b 2cf1 febd 246a b7bd
00000190: 8b8a 0ebe 4dff 573e baac 023e 15e2 0cbe
000001a0: 082f 54bd 7a80 cbbd 1447 563e edb4 64be
000001b0: dfca 6dbe 2a89 afbd 91f9 42be 92ac 463e
000001c0: 5685 57be 0f68 0b3e 9949 573d 621e b43c
000001d0: dada fbbb 7c5a 0abe 1b36 a5bd 3e73 d13d
000001e0: 0e50 993d 85bd 933d 4a04 8e3d aa3b 61be
000001f0: e2b0 e63d 9bca 3cbe 7e32 203e e9e5 243c
00000200: e520 8d3d d1aa d43d 9c43 de3c 914b a1bd
00000210: 285b 643e 3118 573d 685b 143e 6625 133d
00000220: 2888 41bd c207 373e a793 b33d a8cb 383e
00000230: 1be4 f03c 8e1f 4ebd cdc8 133e dfc6 003c
00000240: f8a9 b3bd d36d 653d 7f4b 213e e2ce 40be
00000250: ff2f 67be df7f 223e 878d 55be 9b21 ae3d
00000260: 6398 d5bd 2b6a dbbc a3db cbbd 98d9 3ebe
00000270: 5c6b 433e 8f6b 813e de21 7bba 6deb 033d
00000280: 1a43 25be 1b43 6abe 5961 f73c e3aa b4be
00000290: b152 263d 4235 63be d7d4 dfbd 1103 26be
000002a0: 9921 373e c3f7 913b 35cd 48be 9a11 84be
000002b0: 04f5 bb3d 625f 9ebd f069 403c f88a b7bd
000002c0: 3b25 283e 7476 96bd 1bd4 0b3e f1e8 99be
000002d0: 0345 d03e 4d67 61bd 43f9 c63d 3202 e6bd
000002e0: c76e 6f3d d69e 7ebd 719c 433d 7bed c4bd
000002f0: 8f18 083e db95 77bd 7ed2 223e ae20 babc
00000300: 7116 663d 13ff 2cbe 7fe7 283e a0b4 8ebe
00000310: 1d00 93be f1a2 cbbd 646b 9bbe 135a 5cbe
00000320: 645d 9a3c e7b6 b03d f5ff 9dbd 670f c43e
00000330: 2cba 8ebd d65c 853d d62e afbe f795 413d
00000340: 8ddd 4fbe 0f48 aabe 791f 6c3e 1318 d33d
00000350: 71f8 c63d 9557 6c3e 328b 59be c343 a0bd
00000360: fa87 f53d e23b a03d aaad b639 8153 603d
00000370: 1a1c 883e 4a69 0f3d d0e9 d93b 68e6 b13d
00000380: de38 cdbd 105a 74be 431d 013e 227a 433d
00000390: ae69 5f3c 5d60 26bd d45c b1bd 7b96 20be
000003a0: a4ac 46be 37ab 4fbe 7acc 1bbe e68c 7b3c
000003b0: 51b0 6f3e 25d0 9cbe 8bbf 843d 6a00 fdbc
000003c0: 9029 373e bd7d 9ebd 7235 abbd 6f0e 1b3e
000003d0: b024 7c3e eaba 603d 0e63 003e 238c 923c
000003e0: 4c79 66bd 2f8e c1bd fb33 993e 0582 863e
000003f0: 4f90 6b3d fa81 17bd 0d1d 02be d0df 5abe

linears.4.bias f4 [40]
0.0009160619 0.0009386257 0.0029588433 0.005912389 0.0023174284 0.0024060549 0.0035547202 0.0045679794
-0.0030983337 0.007409792 0.0044233585 0.0036510336 -0.0005771257 -0.0029582076 -0.0047326586 0.007773806
0.00066698506 -0.0054120193 -0.0007430745 0.0023560612 0.00020441522 -0.0060439575 -0.009362776 4.08371e-05
-0.00097655336 -0.0037233501 0.015965313 0.005722736 -0.0027678509 -0.0022741323 -0.00306585 0.0014584963
-0.0027209532 0.004312011 0.00258087 -0.0047984673 -0.0019646003 0.004409858 -0.0052304203 0.0028322951
00000000: e023 703a 1b0e 763a 27e9 413b b7bc c13b
00000010: ffdf 173b e7ae 1d3b 4ff6 683b fdae 953b
00000020: 6a0d 4bbb d7cd f23b d2f1 903b 2e46 6f3b
00000030: 404a 17ba 7dde 41bb 6b14 9bbb 69bb fe3b
00000040: 9cd8 2e3a 4f57 b1bb e3ca 42ba 2668 1a3b
00000050: 4b58 5639 640c c6bb 5466 19bc 8148 2b38
00000060: 63ff 7fba 7303 74bb b0c9 823c ca85 bb3b
00000070: d564 35bb 9c09 15bb 6dec 48bb 042b bf3a
00000080: 0552 32bb c54b 8d3b d023 293b 763c 9dbb
00000090: 86c0 00bb 9280 903b f263 abbb 079e 393b

linears.5.weight f4 [40, 40]
-0.0232524 -0.12074259 0.007756055 -0.32144135 -0.15633604 -0.13371328 -0.24026038 -0.016104264
0.049315374 -0.057053052 0.041039642 0.31843123 0.09414947 -0.1057756 -0.048674315 -0.18071441
0.10234075 -0.26749483 -0.22686167 -0.0285336 0.13886234 0.020238582 -0.05963519 0.042075437
0.10381921 0.27806053 0.0023531145 -0.23014964 -0.1403614 -0.050916817 -0.08100867 0.025314683
-0.15195963 -0.06534312 0.2512236 0.010704762 -0.22940911 -0.059517138 -0.014024189 -0.13108961
-0.1911657 0.18711203 0.14405654 0.34904942 0.19777046 0.005031364 0.13306354 -0.115059905
0.005453708 -0.18316701 0.19450366 0.17086327 0.15742913 -0.036555354 -0.105912425 -0.023843078
-0.07915122 0.31861445 -0.1545071 -0.027411172 -0.07719128 -0.25637555 -0.053199805 -0.2795785
0.09493275 0.16246617 0.020531513 -0.2629024 0.24853516 0.09879523 -0.0015519059 -0.022608312
-0.059822276 -0.07369959 0.036676645 -0.10616015 -0.27836892 -0.13993548 -0.2832452 -0.019459859
-0.1317464 -0.0020979138 -0.026338987 0.078687124 -0.095499694 0.22604236 -0.037168358 -0.12215202
-0.009960877 -0.26026118 0.05515487 0.08113547 0.014323591 0.19684625 -0.1058247 0.013063548
0.12129843 0.042160545 -0.18311471 -0.04174254 -0.06081562 -0.114285 0.22736266 -0.01586877
0.30611554 -0.007907562 -0.27242526 -0.041616414 -0.14694868 0.022256812 0.2316185 0.12308836
-0.16524836 0.15145084 0.06776304 0.35500738 0.1351442 0.080911346 0.030362016 -0.118837826
0.11196886 -0.19045277 0.0730593 -0.06717576 -0.089628264 -0.07155112 -0.11382093 -0.03110007
0.017360969 0.006604529 0.057471875 -0.097171135 -0.4446486 -0.4700082 -0.13493347 -0.100960836
0.008842791 -0.03133536 0.039874826 -0.22255923 -0.17413975 0.07147443 0.11502086 0.13201788
-0.059164636 0.26758978 -0.21346308 0.0017128601 0.09354342 -0.082753554 0.05271007 0.08155736
-0.16008334 -0.018952386 0.07949008 -0.33411714 -0.10092749 0.1606234 0.059567027 -0.077994704
0.16059093 0.28898504 0.09936985 -0.0007976093 0.06877666 -0.09777576 0.15745285 0.23879987
-0.17545332 0.010987954 -0.13727243 -0.058176674 -0.29899043 -0.05860166 -0.39977852 -0.103386976
0.032306965 -0.019970877 0.12235334 -0.058554504 -0.13391118 -0.07518865 -0.20787117 0.103984505
-0.09267121 0.12666434 -0.09825884 -0.06960902 0.101853855 0.02398869 0.0500591 0.15721911
-0.01803239 -0.07139176 0.20504814 0.036105085 0.18897134 0.22130042 -0.14964025 -0.017474392
-0.067706294 -0.072006 -0.06349405 -0.051516492 0.12323749 -0.12827165 -0.12148039 -0.30496135
-0.03352981 0.20517918 -0.07161088 -0.12684071 -0.124805816 0.17087966 -0.11368037 -0.05481714
-0.0735694 -0.09868769 -0.034560934 -0.02518016 0.07549821 -0.108963735 0.09485356 0.09720315
-0.014931718 -0.011564838 0.033986475 -0.23408382 0.2298858 0.020009048 0.01382937 0.070311725
0.11425094 -0.11480052 0.0250214 0.1904018 -0.11129041 -0.1853073 0.37049899 -0.25156984
0.10075243 -0.09869057 -0.3406784 0.095462374 -0.02808989 0.07145904 0.057164695 0.3334311
0.03799621 -0.040514294 0.10057998 0.15269402 -0.17939538 -0.093299426 0.04547161 0.23433411
00000000: d17b bebc e447 f7bd 8126 fe3b f693 a4be
00000010: 8e16 20be 22ec 08be d106 76be 17ed 83bc
00000020: ebfe 493d 76b0 69bd 2f19 283d 6b09 a33e
00000030: 70d1 c03d e1a0 d8bd b85e 47bd 330d 39be
00000040: 0798 d13d 15f5 88be 6d4e 68be 4cbf e9bc
00000050: ee31 0e3e 62cb a53c 0744 74bd 4b57 2c3d
00000060: 2a9f d43d f35d 8e3e b636 1a3b 59ac 6bbe
00000070: e6ba 0fbe 278e 50bd e0e7 a5bd bd60 cf3c
00000080: 4e9b 1bbe 9dd2 85bd 61a0 803e 0763 2f3c
00000090: 39ea 6abe 3ec8 73bd b6c5 65bc 5b3c 06be
000000a0: f1c0 43be 4c9a 3f3e 8f83 133e 9bb6 b23e
000000b0: 5784 4a3e 24de a43b cf41 083e 87a4 ebbd
000000c0: 05b5 b23b 2290 3bbe f82b 473e c8f6 2e3e
000000d0: 1a35 213e 11bb 15bd 9de8 d8bd 8f52 c3bc
000000e0: 091a a2bd 6f21 a33e 1c37 1ebe 658d e0bc
000000f0: 7616 9ebd a843 83be 0ae8 59bd ea24 8fbe
00000100: 1a6c c23d 885d 263e b431 a83c 259b 86be
00000110: 0080 7e3e 2755 ca3d 5269 cbba 1135 b9bc
00000120: 3408 75bd d0ef 96bd 403a 163d 7e6a d9bd
00000130: 5f86 8ebe 3f4b 0fbe 8405 91be 486a 9fbc
00000140: 87e8 06be 277d 09bb dcc4 d7bc b726 a13d
00000150: 5895 c3bd a677 673e d93d 18bd d72a fabd
00000160: f232 23bc f440 85be 13ea 613d 5a2a a63d
00000170: 7fad 6a3c 1092 493e 9fba d8bd 7e08 563c
00000180: 506b f83d 89b0 2c3d 6c82 3bbe 3afa 2abd
00000190: cd19 79bd 410e eabd c2d1 683e 39ff 81bc
000001a0: 2dbb 9c3e b88e 01bc 537b 8bbe f975 2abd
000001b0: b779 16be eb53 b63c 662d 6d3e c015 fc3d
000001c0: de36 29be ee15 1b3e 59c7 8a3d 87c3 b53e
000001d0: 3e63 0a3e d9b4 a53d c3b9 f83c 3f61 f3bd
000001e0: ee4f e53d 0d06 43be 1da0 953d 7293 89bd
000001f0: 068f b7bd 6589 92bd f31a e9bd 93c5 febc
00000200: 9738 8e3c ce6a d83b a167 6b3d a901 c7bd
00000210: fba8 e3be eaa4 f0be 002c 0abe 8ec4 cebd
00000220: 5be1 103c 8259 00bd c953 233d 91e6 63be
00000230: b151 32be 3061 923d 0f90 eb3d b22f 073e
00000240: 9e56 72bd 8701 893e 1196 5abe 0c82 e03a
00000250: b193 bf3d b27a a9bd 84e6 573d 8c07 a73d
00000260: e3ec 23be 0942 9bbc b2cb a23d 6711 abbe
00000270: 12b3 cebd 767a 243e 8efc 733d b0bb 9fbd
00000280: f371 243e d9f5 933e 6b82 cb3d a716 51ba
00000290: c7da 8c3d a83e c8bd 523b 213e f487 743e
000002a0: 09aa 33be d206 343c 2591 0cbe aa4a 6ebd
000002b0: 4615 99be 4b08 70bd c5af ccbe 8dbc d3bd
000002c0: 4f54 043d f799 a3bc 6394 fa3d d9d6 6fbd
000002d0: 0320 09be 82fc 99bd 2edc 54be d4f5 d43d
000002e0: 67ca bdbd 4cb4 013e ee3b c9bd 2d8f 8ebd
000002f0: c198 d03d ee83 c43c c50a 4d3d 0cfe 203e
00000300: aab8 93bc d835 92bd 24f8 513e ede2 133d
00000310: b481 413e 949c 623e 4b3b 19be 7526 8fbc
00000320: 99a9 8abd e277 93bd 2b09 82bd f502 53bd
00000330: f063 fc3d a559 03be b6ca f8bd e523 9cbe
00000340: 8e56 09bd 7e1a 523e baa8 92bd 88e2 01be
00000350: 319a ffbd 14fb 2e3e 41d1 e8bd f087 60bd
00000360: 8eab 96bd c61c cabd c48f 0dbd 9f46 cebc
00000370: ce9e 9a3d 6128 dfbd 9542 c23d 7212 c73d
00000380: 2aa4 74bc 727a 3dbc 6735 0b3d abb3 6fbe
00000390: 2f67 6b3e 04ea a33c 9594 623c 98ff 8f3d
000003a0: 66fc e93d 891c ebbd aef9 cc3c b1f8 423e
000003b0: 3aec e3bd 32c1 3dbe 0bb2 bd3e c3cd 80be
000003c0: 4a57 ce3d 481e cabd 666d aebe c781 c33d
000003d0: c51c e6bc 1e59 923d 8725 6a3d 7bb7 aa3e
000003e0: eaa1 1b3d 51f2 25bd e0fc cd3d d25b 1c3e
000003f0: 6cb3 37be c513 bfbd 7040 3a3d 48f5 6f3e

linears.5.bias f4 [40]
-0.0048805443 -0.00027565125 0.0037172923 -0.0040791905 0.0012872127 -0.0037902866 -9.534201e-05 -0.0056612967
-0.0058035003 0.0022715537 0.0016480659 0.0053332127 0.0033800632 0.0013301078 0.0023912878 0.0013341459
-0.0038835441 -0.0010989322 0.005855986 -0.0017624346 0.00020518899 -0.0042226664 -0.0036899748 0.0054738554
0.0029147845 -0.0058058384 0.0052252556 -0.0040724613 -0.006626173 0.0010831184 -0.005132857 -0.0004591624
-0.0036213023 0.00625108 0.0010686633 0.004539653 -0.001535881 0.006381225 0.0015110333 -0.006651101
00000000: f9ec 9fbb 4985 90b9 d19d 733b bbaa 85bb
00000010: b1b7 a83a 7566 78bb 5af2 c7b8 6682 b9bb
00000020: 4a2b bebb 59de 143b ea03 d83a 3bc2 ae3b
00000030: 0d84 5d3b 0357 ae3a 27b7 1c3b 82de ae3a
00000040: 0f83 7ebb 0c0a 90ba 92e3 bf3b 7e01 e7ba
00000050: 0028 5739 4b5e 8abb 81d3 71bb 075e b33b
00000060: f805 3f3b e73e bebb 9f38 ab3b 4872 85bb
00000070: 5e20 d9bb 6cf7 8d3a 8631 a8bb bcbb f0b9
00000080: 5f53 6dbb dcd5 cc3b 6412 8c3a 5fc1 943b
00000090: 9d4f c9ba 9819 d13b dd0d c63a 7bf1 d9bb

linears.6.weight f4 [3, 40]
-0.17898014 -0.23574169 -0.15295961 -0.5778201 0.19072305 -0.12283053 0.20496589 -0.3001358
-0.15390728 0.21332002 0.30957723 0.20911658 0.15723673 0.1415226 0.44448707 -0.06078357
-0.20452896 -0.21018615 0.06606957 -0.21188304 0.1108073 -0.079553746 -0.32174763 0.041206222
-0.19967897 0.060917027 0.114632145 0.22972207 0.17487983 -0.28802663 -0.09385705 0.08035338
-0.15377578 0.22196391 0.06018098 0.12406677 0.19895878 -0.20262246 -0.19899826 -0.15557905
-0.07472336 0.21940215 0.11916221 -0.081977494 0.2824634 0.22281319 0.19001274 0.055172786
0.061276417 -0.10419616 0.24594326 0.1516697 -0.15382157 -0.20135313 -0.22474639 -0.35696116
-0.14748134 0.29697645 -0.037435982 0.27805108 0.2129309 0.17064208 0.13340148 -0.036511753
-0.17062238 0.023249252 -0.24981631 0.061456677 -0.059656758 -0.14609009 0.06680828 0.2129205
-0.32731304 -0.016814591 -0.11485134 0.14523631 0.113151565 0.06500274 -0.10550187 0.04186547
-0.23445038 0.017708467 0.13452931 -0.26000503 0.12179285 -0.26375487 -0.013000842 -0.41782063
-0.28232598 0.053764053 0.39028808 0.49202523 0.1821837 0.05964689 0.12958355 0.1476394
-0.14342804 -0.035268538 0.2492618 -0.119918875 0.026107417 -0.34669465 -0.1597384 0.16097221
0.12027769 -0.20999074 0.5793612 -0.14792584 -0.33027872 0.07509014 -0.26938307 -0.016798778
-0.34796774 0.15895174 0.00497653 0.3969233 -0.05557727 0.4038629 0.05341942 -0.15326358
00000000: 9246 37be 4566 71be 72a1 1cbe 05ec 13bf
00000010: e74c 433e 938e fbbd 94e2 513e 66ab 99be
00000020: df99 1dbe 9070 5a3e e880 9e3e a822 563e
00000030: aa02 213e 4deb 103e cf93 e33e 31f8 78bd
00000040: 0a70 51be 0a3b 57be 7c4f 873d def7 58be
00000050: f0ee e23d 13ed a2bd 1bbc a4be dbc7 283d
00000060: a578 4cbe 2284 793d 42c4 ea3d 433c 6b3e
00000070: b313 333e 3a78 93be 2038 c0bd 5090 a43d
00000080: 6677 1dbe 824a 633e 5580 763d b816 fe3d
00000090: dabb 4b3e 437c 4fbe 33c6 4bbe 1d50 1fbe
000000a0: 9008 99bd f5aa 603e 510b f43d d1e3 a7bd
000000b0: 0b9f 903e 2429 643e b392 423e dcfc 613d
000000c0: fbfc 7a3d cc64 d5bd 8dd8 7b3e 4d4f 1b3e
000000d0: 6783 1dbe 842f 4ebe eb23 66be 9dc3 b6be
000000e0: 5905 17be 4c0d 983e 7956 19bd b65c 8e3e
000000f0: 8f0a 5a3e ccbc 2e3e 669a 083e 598d 15bd
00000100: a2b7 2ebe 3775 be3c d9cf 7fbe ffb9 7b3d
00000110: a55a 74bd a498 15be c8d2 883d d507 5a3e
00000120: 9395 a7be c1be 89bc 2e37 ebbd d4b8 143e
00000130: 02bc e73d 2820 853d 5d11 d8bd 217b 2b3d
00000140: c313 70be 5911 913c 0dc2 093e 611f 85be
00000150: 886e f93d e10a 87be 7c01 55bc 96ec d5be
00000160: 088d 90be b237 5c3d d7d3 c73e bbea fb3e
00000170: 5d8e 3a3e 4c50 743d 8db1 043e c82e 173e
00000180: cdde 12be be75 10bd 7c3e 7f3e 0798 f5bd
00000190: 39df d53c f681 b1be 7792 23be e6d5 243e
000001a0: 2654 f63d d007 57be 0451 143f df79 17be
000001b0: 4b1a a9be dcc8 993d 94ec 89be 979d 89bc
000001c0: d428 b2be 3fc4 223e 2912 a33b 8839 cb3e
000001d0: fea4 63bd 1ec7 ce3e 52ce 5a3d 21f1 1cbe

linears.6.bias f4 [3]
0.18497086 -0.0003079089 0.006270837
00000000: 0069 3d3e d56e a1b9 987b cd3b

exp_avg f4 [40, 2]
-280.56274 -6.0313783 -121.39585 28.151869 129.6656 -7.568749 -39.85131 4.9653544
-49.91223 8.816465 -173.21333 -15.626804 105.98377 -17.605442 -355.8638 6.230964
621.8504 -72.74516 -459.56644 17.733582 -70.15816 8.129214 -83.02163 50.794304
198.27072 -31.034678 -67.71206 -34.25218 69.22014 18.12943 200.81491 -17.637087
46.00148 -37.63443 190.36015 6.647419 -277.15103 32.688904 1.8557506 14.700721
-96.487175 11.384045 204.25273 30.304619 -219.9892 -31.318727 1063.6613 -1.5656326
-20.971846 7.0683274 -164.35228 4.2939095 44.251205 -56.018036 -123.61109 -17.347149
328.64365 39.686386 -190.42395 34.22819 -238.47585 2.744828 -198.59154 33.87983
215.9497 -38.20069 73.17296 -5.626678 71.59827 5.608697 -70.68938 12.024684
-339.91052 -0.17022115 150.81197 -42.56531 -1.3449122 8.208721 -19.01168 -44.13093
00000000: 0848 8cc3 0d01 c1c0 adca f2c2 0737 e141
00000010: 65aa 0143 3133 f2c0 be67 1fc2 2fe4 9e40
00000020: 20a6 47c2 3e10 0d41 9d36 2dc3 6407 7ac1
00000030: b1f7 d342 f2d7 8cc1 91ee b1c3 0f64 c740
00000040: 6d76 1b44 867d 91c2 81c8 e5c3 60de 8d41
00000050: fa50 8cc2 4311 0241 130b a6c2 5e2d 4b42
00000060: 4e45 4643 0547 f8c1 936c 87c2 3b02 09c2
00000070: b670 8a42 1309 9141 9ed0 4843 c118 8dc1
00000080: 8401 3842 a889 16c2 335c 3e43 a8b7 d440
00000090: 5593 8ac3 70c1 0242 3c89 ed3f 2736 6b41
000000a0: 6ff9 c0c2 0c25 3641 b340 4c43 dc6f f241
000000b0: 3cfd 5bc3 c18c fac1 29f5 8444 a666 c8bf
000000c0: 57c6 a7c1 bd2f e240 2f5a 24c3 b567 8940
000000d0: 3c01 3142 7812 60c2 e138 f7c2 f6c6 8ac1
000000e0: 6352 a443 dcbe 1e42 886c 3ec3 abe9 0842
000000f0: d179 6ec3 43ab 2f40 6f97 46c3 f284 0742
00000100: 20f3 5743 82cd 18c2 8e58 9242 bf0d b4c0
00000110: 5032 8f42 727a b340 f660 8dc2 1b65 4041
00000120: 8cf4 a9c3 744e 2ebe ddcf 1643 e142 2ac2
00000130: 1526 acbf ec56 0341 ec17 98c1 1386 30c2

exp_avg_sq f4 [40, 2]
4.3299435e+06 85237.15 5.6022828e+07 1.3747052e+06 2.2893372e+06 65953.375 4.6627995e+06 127033.71
3.893929e+07 737011.2 8.7342e+07 1.8514009e+06 1.8021778e+07 482761.8 7.4928696e+07 2.156891e+06
8.757061e+07 1.9961238e+06 7.375026e+07 2.3706845e+06 9.468337e+06 276280.88 1.5050736e+08 3.2047672e+06
3.6356372e+07 1.1180691e+06 3.622528e+07 791819.7 1.8698532e+07 544552.7 1.6305072e+06 34911.53
1.3802724e+07 560479.75 2.7334922e+07 664286.56 3.5798732e+07 903961.4 7.3814565e+06 145532.98
4.413148e+07 1.2206536e+06 5.261118e+07 1.2127705e+06 9.467706e+07 2.172583e+06 2.6280869e+08 7.2637535e+06
1.8380276e+07 568381.75 8.944172e+06 251978.17 9.568852e+07 2.0570631e+06 1.5898144e+07 499749.72
9.811421e+07 2.0469159e+06 4.5272696e+07 1.0440199e+06 4.4529605e+06 126965.945 1.6177617e+07 335627.22
3.0919208e+07 831097.7 3.526194e+06 66716.87 5.445722e+06 96888.85 5.819613e+06 182439.16
1.1664382e+08 2.7291392e+06 7.053334e+07 1.4397614e+06 1.3294028e+07 393710.4 1.2794946e+07 390296.53
00000000: af23 844a 937a a647 cbb5 554c 8acf a749
00000010: e5ba 0b4a b0d0 8047 1f4c 8e4a db1c f847
00000020: a68a 144c 33ef 3349 7697 a64c 4700 e249
00000030: c97e 894b 3ab9 eb48 47ea 8e4c 6ca5 034a
00000040: 1607 a74c deaa f349 deaa 8c4c f2b1 104a
00000050: b179 104b 1ce7 8648 f688 0f4d 7d9a 434a
00000060: 45b0 0a4c a97b 8849 4030 0a4c bb50 4149
00000070: 92a8 8e4b 8bf2 0449 5a09 c749 885f 0847
00000080: e49c 524b fcd5 0849 858c d04b e92d 2249
00000090: b38f 084c 96b1 5c49 a143 e14a 3f1f 0e48
000000a0: 2659 284c 6d01 9549 1bb2 484c 140b 9449
000000b0: 0895 b44c 9c9a 044a 47a2 7a4d 13ac dd4a
000000c0: fa3a 8c4b dcc3 0a49 2c7a 084b 8b12 7648
000000d0: e982 b64c 391b fb49 2096 724b b704 f448
000000e0: 5423 bb4c 1fde f949 9eb3 2c4c 3ee3 7e49
000000f0: c1e4 874a f9fa f747 d1d9 764b 67e1 a348
00000100: 14e5 eb4b 9be7 4a49 c838 574a 6f4e 8247
00000110: b430 a64a 6d3c bd47 ba99 b14a ca29 3248
00000120: fe7a de4c cd92 264a 1c88 864c 8bc0 af49
00000130: ccd9 4a4b cd3d c048 423c 434b 1193 be48

exp_avg f4 [40]
34.660202 249.47868 -113.45174 -18.250956 52.793488 62.253315 -103.57915 234.86104
-557.5337 333.5811 83.719955 241.62363 -221.58157 -160.41429 67.53967 -133.91132
-215.87161 -54.418125 245.82599 31.878384 116.5445 82.59481 -53.180756 -348.52087
43.723152 140.29991 -245.33125 -21.780685 111.177704 200.07832 94.134476 187.47342
-288.4329 -7.9443283 23.487198 93.40023 146.50308 -234.09196 -59.204933 -254.84567
00000000: 0ca4 0a42 8b7a 7943 4ae7 e2c2 f501 92c1
00000010: 882c 5342 6503 7942 8628 cfc2 6ddc 6a43
00000020: 2862 0bc4 61ca a643 9e70 a742 a69f 7143
00000030: e294 5dc3 0f6a 20c3 5014 8742 4ce9 05c3
00000040: 22df 57c3 29ac 59c2 74d3 7543 ee06 ff41
00000050: c916 e942 8b30 a542 18b9 54c2 ac42 aec3
00000060: 82e4 2e42 c74c 0c43 cd54 75c3 d83e aec1
00000070: fc5a de42 0d14 4843 da44 bc42 3279 3b43
00000080: 6937 90c3 f037 fec0 c8e5 bb41 ebcc ba42
00000090: ca80 1243 8b17 6ac3 dad1 6cc2 7ed8 7ec3

exp_avg_sq f4 [40]
4.450912e+06 6.9281784e+07 2.8951865e+06 3.3579928e+06 3.258726e+07 6.9972344e+07 2.3710846e+07 8.6885624e+07
9.9667656e+07 9.1310744e+07 1.3750353e+07 1.3311285e+08 4.5553924e+07 3.813785e+07 2.1527954e+07 1.6361406e+06
2.5261554e+07 2.492819e+07 3.646903e+07 2.8410605e+06 5.316932e+07 5.9036532e+07 1.0462645e+08 3.108431e+08
2.3288786e+07 9.030171e+06 8.509656e+07 2.0261922e+07 1.06316824e+08 4.3076176e+07 7.03778e+06 1.7459352e+07
3.680835e+07 4.4222735e+06 4.1282302e+06 7.583332e+06 1.2563395e+08 6.765793e+07 1.5323e+07 2.1824584e+07
00000000: c0d4 874a ff24 844c 4ab5 304a a3f4 4c4a
00000010: fe9e f84b 2f76 854c 3fe6 b44b 9fb8 a54c
00000020: d919 be4c 5329 ae4c 51d0 514b 82e4 fd4c
00000030: 41c6 2d4c fe7b 114c c93e a44b 65b9 c749
00000040: f9ba c04b df2f be4b 4a1e 0b4c 9267 2d4a
00000050: 2ad3 4a4c dd34 614c 228f c74c b738 944d
00000060: e9ad b14b 1bca 094b 0e4f a24c 1196 9a4b
00000070: 83c8 ca4c 9452 244c a8c6 d64a 4c34 854b
00000080: a869 0c4c 03f5 864a 99f7 7b4a c86c e74a
00000090: b4a0 ef4c 190c 814c 78cf 694b 2482 a64b
