1DCFD_PINN/1D_CFD_Rand_Eta0.01_Zeta0.01_periodic_Train_PINN.pt-10000.pt (torch, 112935 bytes, 42 tensors)

linears.0.weight f4 [40, 2]
00000000: cf61 d0bd 2a7f 02bf d74b 573e 9f2a 183e
00000010: 34c2 383c c7b3 ebbd 42c1 443e 3deb 13be
00000020: 5be0 043e 58d5 57bd 1e6f 863d 5895 95bb
00000030: 93d5 83be 2346 423c c214 a7bd d1bf a33e
00000040: b4aa 243e e86a ae3e 0d07 913e c278 f9be
00000050: 342d 913e 5a23 2cbe 3033 10bd cfcf f6bd
00000060: dae4 64be f73e 223e acf4 263d 90e0 6abe
00000070: de25 11be ba23 913e 4e95 603e 35fe 823e
00000080: ee85 13be 9c8d d23d bd9d 893d 9baa 15bd
00000090: 398d acbd a432 63be a6cb f63e 66bd 3d3e
000000a0: 6060 8abd 83ed a13e 361d ca3d f1a9 523d
000000b0: 795e ae3d 9595 0c3e 5fed 383d 5cbc 9a3d
000000c0: 797c efbc 338d 363e 719c 08be d5cb ccbd
000000d0: e124 d13e 0f94 84bd 69e4 aabe 3430 cebd
000000e0: 1e43 f03c a369 8d3e 7532 1cbe b2ea f3bd
000000f0: 260f e7bd 546e a4be a077 9bbd 3f79 cc3d
00000100: 91f7 a63e 9864 67bd ce2a 1d3e 5a6c 113f
00000110: 7c96 14bd a07a cd3e 198f 0e3c 4560 2bbd
00000120: 5b69 7b3c fa06 ba3d b849 3ebe b19e 333c
00000130: 299c c23d 3e6c 52be 4285 d73e f73d 75bc
-0.101749055 -0.50975287 0.21025024 0.14860009 0.01127677 -0.11508899 0.19214347 -0.14445205
0.1297621 -0.052693695 0.06564163 -0.0045649223 -0.25748882 0.011857542 -0.08158256 0.31982282
0.16080743 0.34065938 0.28325692 -0.48724943 0.283548 -0.1681036 -0.035205066 -0.12051355
-0.22352925 0.15844332 0.04076068 -0.22937226 -0.14174601 0.2834757 0.21931955 0.2558457
-0.14406559 0.10280916 0.06719539 -0.036539655 -0.084253736 -0.22187287 0.48202246 0.18529281
-0.06756663 0.3162652 0.09868853 0.0514316 0.08514113 0.13728936 0.04514825 0.07555458
-0.029234158 0.178273 -0.13340928 -0.099998154 0.4084845 -0.064735524 -0.33377388 -0.10067788
0.029328879 0.27619657 -0.15253623 -0.11909999 -0.11282186 -0.32115424 -0.07591176 0.09984063
0.32610753 -0.056492418 0.1534836 0.56805956 -0.036276326 0.40132618 0.008701109 -0.041839857
0.015344943 0.09083362 -0.18582809 0.010963128 0.095024414 -0.20549104 0.42093855 -0.014968387

linears.0.bias f4 [40]
00000000: 0d53 1bbd 05c4 98bc fe5a b73c d794 aabc
00000010: 1dbf 433c 0b0e bebc 206e a8bc c2c5 063d
00000020: d006 283d 4393 a9bc fd5d d1bc 1ca2 f9bc
00000030: a3ae b23c 06b2 53bd 2d0b 86bb 0cb9 b73c
00000040: f75f 743c 74aa c23c 06c5 11bd 9c75 c03c
00000050: 4d42 713d 17dc 853d ef15 d2bc eb6a e93c
00000060: fc4c 2e3c 71cf e2bc 6e7c fc3c 07de 85bc
00000070: b41d 013d 3695 30bd 9f1a 44bc 1a3e 01bd
00000080: 4b9b d83c ee73 d33c 17d1 713c 5990 e4bc
00000090: bec1 12bd 6a18 253d 539a 89bc 0c16 d53c
-0.037921 -0.018648157 0.022382256 -0.020822925 0.01194742 -0.023200056 -0.020560324 0.03290344
0.041022122 -0.020700103 -0.025557512 -0.030472808 0.021811789 -0.05168345 -0.0040906877 0.022427104
0.014915458 0.023762919 -0.035588287 0.02349358 0.05890112 0.065361194 -0.025645224 0.028493365
0.010638472 -0.027686806 0.030821051 -0.016341222 0.031522468 -0.04311105 -0.011969238 -0.031553365
0.026441237 0.025812116 0.014759324 -0.027900862 -0.0358293 0.040306486 -0.01679722 0.02601149

linears.1.weight f4 [40, 40]
00000000: d905 cdbd d711 83bd 1674 8b3d 3460 cebd
00000010: 7b18 4ebe 1b35 df3c 842c 803d be61 f7bd
00000020: 3c5b 613d 1757 42bc b7e7 163e ca10 bdbe
00000030: ec97 17be 1a86 10be edf7 823e 8739 373e
00000040: f928 4ebd 75c2 8abe 5913 07be d638 25be
00000050: df97 5c3e 9418 93bc d87d 453d 4dbc c83d
00000060: 7809 f5bc 8bc9 613e 4f47 993a 7fd3 4fbd
00000070: 5892 773e 7d42 523d bb0f 4cbe c040 293e
00000080: daa1 afbd 3f61 cebd 9c7e 873d 0497 783e
00000090: c9e7 93be 474c 24be c7cf f33c efa4 b1bd
000000a0: ce6f c5bd a3e1 163d 8de0 a43d 8660 283d
000000b0: ebc9 b43d 09d5 103e 580f 2abe 55e3 cb3d
000000c0: ab65 d93d d118 533d b932 6c3e f831 a6be
000000d0: af9d 72bd 62a0 7e3c 467f 4ebe c402 193e
000000e0: 548a eb3c e543 8ebe 3ea8 3fbe 1703 8dbc
000000f0: df57 c53d 85f9 853d 235a 663d 91b4 9b3d
00000100: 45c3 56bd 9830 2e3e 59dc b6bd 8cd7 4f3e
00000110: e5dc 1a3e 12d7 12be f771 0dbe ff28 ed3d
00000120: c229 febd d726 c73e 5c4e b3bd 2825 afbc
00000130: f1a3 e7bd 5ead 0abe c1e2 083e 4f62 23bd
00000140: 5767 07be 9e7b 12be 0b04 c83b 194b 693e
00000150: 537a a6bd bc89 113d 25fd 203d 0c64 94bd
00000160: e912 4b3e a8bf 0abe c34f 31be 6541 5e3c
00000170: 86ba 79be 33fe 5abc 13b4 9fbe c5ca 38be
00000180: d94d 58be 3537 ae3d 351c 11be 51ea 273e
00000190: 5c20 c23e 0a8b 533d f41f 67bc 823b 05bd
000001a0: e845 0a3e 9704 783d feda 17be 86bd 203e
000001b0: e3f7 5dbd 6dfe 213c f18e 963d 4aa9 eb3d
000001c0: ad6a 4a3c 9ee9 90ba 2e3f 2c3d 978c 86be
000001d0: fb55 013e b1f8 373c 41b9 b4bd 7fc9 55be
000001e0: a86c 7e3d 8079 0ebe 730e 24be c861 1d3e
000001f0: 72b0 02be 507d 5abc e669 3dbe ca3f 6cbd
00000200: 3f6b b5bd 1a4e 303e 81e9 143d 89c2 aa3e
00000210: f75d 00bd f4c6 283e 10ba 933e d6fd d7bd
00000220: e6b1 d2bd 53ea 10be a620 fab9 1b37 22be
00000230: fc1b d43c 2147 cbbd 6e77 ea3c 9406 1a3e
00000240: 99b4 d4bd 3b95 35be adb7 443c 75ab 903d
00000250: 8f00 61bd afae 34be a1da 353e b9c5 133e
00000260: 9bef 33bb da2b 2c3d 79ee a9bd 37a7 a9bd
00000270: 2de1 9cbb c3d5 09be fe00 52bd ae1d 1ebb
00000280: f8ef 7cbb 12ed 983d fee6 51be d76f 243e
00000290: 1006 6ebc 561e 893d 781e 38bc e803 613e
000002a0: 4140 be3e 0841 423e c409 93bd 3e47 a13c
000002b0: 1c72 02be 7833 8b3d 0e6b 2bbd d5ba 7dbe
000002c0: 6f96 6e3d 8458 61bd d670 1dbe 43cc 83bd
000002d0: 5341 923c 0482 e23d fb16 a6bd dcf6 f0bd
000002e0: 26f5 b3bd 6ebd 8fbe 2454 393e 737c 913e
000002f0: a664 42bc 625c be3d cea9 d6bd 4a97 763d
00000300: 8594 133e 07e4 47be 57d2 40bc 9191 10bd
00000310: ed8d 62be 5226 1c3e 1072 073e 9316 02bd
00000320: 29d5 b9bd afcd 873e 541b 8fbd 989e a3bc
00000330: 61f4 b7be dce1 283e dbb7 62bd 5f52 983e
00000340: dba3 12be 1b99 9a3e 3d56 ab3b dace 133e
00000350: ce40 7d3d e5cf 423c 6aa6 e93e 65eb 92be
00000360: ee36 99bd 06ef a5bc 729a 38bb 77c4 163e
00000370: 06ed 92bd d328 39bb 0dad 453d 8df1 acbd
00000380: baed 083c 50a2 a13e c1d0 6c3e 0df9 bcbd
00000390: a6b4 c13e f43b 6d3e 79ff 21be e09f b6bd
000003a0: 7805 0b3c ab3d afbd ee28 7c3e a7ca 273d
000003b0: 1a48 473e 0319 8f3d 7700 41be eb15 74bd
000003c0: 1f7f c2bd dceb 833e 1f6c 81bd 49de bbbd
000003d0: 7be4 f33d 72d3 e03d 7182 fabd f73b 7cbe
000003e0: e974 ac3d f52f 08be 8736 d43c 1574 593e
000003f0: 5e48 203e c1e8 a93d b997 41be 53be e9bd
-0.10010881 -0.06399887 0.06809251 -0.10076943 -0.20126526 0.027247002 0.06258491 -0.1207919
0.05501865 -0.011861584 0.1473683 -0.36926872 -0.14804047 -0.14113656 0.25579777 0.17893039
-0.050332043 -0.27101484 -0.13190974 -0.16134962 0.21542309 -0.017956056 0.048215717 0.098015405
-0.029911742 0.22049539 0.0011694225 -0.050738808 0.2417692 0.05133294 -0.19927876 0.16528606
-0.085757926 -0.10077142 0.06615946 0.24276358 -0.28887776 -0.16044722 0.029762162 -0.08674037
-0.09640466 0.036836278 0.08050642 0.041107677 0.08827575 0.14143766 -0.16607416 0.099554695
0.10615095 0.05153734 0.23066224 -0.32459998 -0.05923241 0.015541168 -0.20165738 0.14942461
0.028752483 -0.27786174 -0.18716523 -0.017213387 0.09635901 0.06541733 0.056238305 0.076028
-0.052432317 0.17010725 -0.08928747 0.20297068 0.15123327 -0.14339855 -0.13813005 0.11580085
-0.124103084 0.3889682 -0.0875518 -0.021380022 -0.11310566 -0.13542697 0.1336775 -0.039888676
-0.13223015 -0.14304969 0.0061039976 0.22782554 -0.081288 0.035531744 0.039303917 -0.07245645
0.19831432 -0.13549674 -0.17315583 0.013565396 -0.2438756 -0.01336627 -0.31192073 -0.180461
-0.21123447 0.08506624 -0.14170916 0.16397978 0.37915313 0.05164627 -0.014106739 -0.032527454
0.1350323 0.060551252 -0.14829633 0.15697297 -0.05419148 0.00988732 0.07351483 0.11506899
0.012354535 -0.0011055951 0.04205244 -0.26279137 0.12630455 0.011228726 -0.08824397 -0.20877646
0.06211534 -0.13913536 -0.16021137 0.15369332 -0.12762621 -0.013335541 -0.18497428 -0.05767802
-0.08858346 0.17217293 0.0363555 0.33351544 -0.03133961 0.16482145 0.28852892 -0.10546462
-0.10287838 -0.14151888 -0.0004770804 -0.15841334 0.02589225 -0.09925676 0.028621402 0.15041572
-0.10386009 -0.17732708 0.012006682 0.07063953 -0.054932173 -0.17644762 0.17759182 0.14430894
-0.0027456048 0.042034008 -0.08297438 -0.08283847 -0.004787585 -0.1346045 -0.051270477 -0.0024126577
-0.003859518 0.074670926 -0.20498273 0.16058289 -0.014527813 0.06695239 -0.011237733 0.21974146
0.37158397 0.1897012 -0.07179597 0.019687291 -0.12738842 0.06796926 -0.041850142 -0.24778302
0.058248933 -0.055016056 -0.15375075 -0.06435444 0.017853415 0.11059955 -0.08109852 -0.11765835
-0.08786993 -0.2807421 0.18098503 0.2841526 -0.011864817 0.092949644 -0.104816064 0.060202874
0.14412124 -0.1952058 -0.011768899 -0.035295073 -0.22124453 0.15248993 0.13227105 -0.03175981
-0.0907386 0.26524112 -0.06987634 -0.019973084 -0.35928634 0.16492409 -0.05535112 0.29750344
-0.14320318 0.30194935 0.0052287863 0.14434376 0.06182938 0.011890386 0.45634776 -0.28695217
-0.0748118 -0.020255577 -0.0028168228 0.14723383 -0.07174115 -0.0028253093 0.048260737 -0.0844451
0.00835746 0.31569147 0.23126508 -0.0922719 0.37833136 0.23167402 -0.15820111 -0.089172125
0.008485191 -0.08556684 0.24624988 0.04096475 0.19461098 0.069871925 -0.18847834 -0.059591215
-0.09496903 0.25765884 -0.063194506 -0.09173257 0.119088136 0.1097783 -0.12231911 -0.2463225
0.08420736 -0.13299544 0.025904907 0.21235688 0.15652606 0.082963474 -0.18905534 -0.114132546

linears.1.bias f4 [40]
00000000: 0edd 063d 72b2 183d f744 0c3d 6add 1fbd
00000010: 1578 f2bc 7055 103c bb09 553d c779 be3b
00000020: 74eb e33c 3847 eabc 8e88 31bd 2f62 bc3c
00000030: ed13 0dbd b975 2c3d df89 d4bc 3f54 b2bc
00000040: cc8f 393d e5b7 0bbd 2b08 17bd 80af 24bd
00000050: 3f6f 933c a6db 2a3c a764 c6bc 6378 063d
00000060: 9402 023d 59b4 0cbb b3f7 3b3c c1ba 19bd
00000070: 9bf3 0dbd c646 3b3b 51b8 a1bc d78d f9bc
00000080: a8bb 223c 4179 133d f96a 16bd ce37 363d
00000090: 2b12 0d3d 77e8 4a3c eabd 5ebc eaf7 f33c
0.032925658 0.037279554 0.034245458 -0.039029516 -0.029598275 0.008809432 0.052011233 0.005812857
0.027822234 -0.028598413 -0.04334312 0.022996036 -0.03444283 0.042104457 -0.025944648 -0.021768687
0.04530315 -0.034110922 -0.036873024 -0.040206432 0.017997382 0.010428345 -0.024217917 0.032829653
0.03174074 -0.00214698 0.01147263 -0.037531618 -0.03465615 0.002857612 -0.01974121 -0.030463142
0.009932436 0.03600431 -0.03672311 0.044486813 0.034441154 0.0123845255 -0.013595084 0.0297813

linears.2.weight f4 [40, 40]
00000000: 8fd6 8c3e fa00 263f 874d 35bd 2a34 7bbe
00000010: f2ac b8bd 1b3d c2bd ef39 09be fde0 c2bd
00000020: 9f19 87bc b8e0 c6bc 7f99 833c 6be0 b8bb
00000030: 4d8d 39bd 7e1d 2ebc a31f 5bbd 917b bfbb
00000040: 0400 f0bd 7d71 06bd 2008 173d ea12 25be
00000050: 8856 edbc 2661 263c 8d25 15be cfbc 7bbd
00000060: 572c acbd da5f 4dbd 1fb2 91bd 7e30 39be
00000070: 2f9e 95be 8787 9fbd bfac 83be 3d1e 74bd
00000080: 4b61 913e ddf0 f5bc 022e 0dbd 33b7 2b3d
00000090: 983d 9fbe 0e7b 36bc 9431 0fbe 230f 99bc
000000a0: f390 41be b56a 35be 8655 de3d 23fc 8e3d
000000b0: 5668 c3bc 9a5d a23d 02c8 7cbe cfba a13e
000000c0: a10f f53d 3a31 64bd 2eff 3e3e b5f8 c73d
000000d0: 7807 1d3e 50d5 6dbe 2d24 ddbc 7cf4 70be
000000e0: e7de 7c3d 4450 a03e a906 18be 7c29 473d
000000f0: b967 83bd 2e05 6d3e 78cd 4dbd 3636 a33e
00000100: d1de 013e d57e cb3b 8371 373e 3648 8f3d
00000110: b806 c03c 6465 a53d adf4 70bd 5975 b93d
00000120: 930f c7bd 17b3 12be 42fd 4f3e c32a 89be
00000130: baf6 89bd 9241 363d 3cd0 ac3d ccd6 a73d
00000140: 9e63 aabe b175 4b3e 6dc7 3abe b21f 7e3d
00000150: c6c3 95be 0266 1bbd 1a90 70bd 05e7 06be
00000160: 8db2 423e 7dfe 18bd 2b10 32be 3bcf 4b3e
00000170: 2a44 19be ee30 563d 1e05 34bd 8d69 2ebe
00000180: 77cf b3be 9966 443e fe57 8cbe 02fc 9cbd
00000190: d190 81bd ecfe 88bd 7eeb a5be 0e85 3b3e
000001a0: c58b 41be c006 843c f39f 05bd a2ab 493e
000001b0: b0af f73d f309 eebd 835e 97bd a74e d7bd
000001c0: 46d4 453d afb3 4b3d 7ae0 0b3d 159b 7d3d
000001d0: 9f66 49be 7310 903d 211e aebe 35c2 2dbe
000001e0: f210 3abe ffac 89bc f7ff 37be 0756 713e
000001f0: e9b8 803d da8e 023e 5153 5a3d 3959 833d
00000200: 78b4 94be d244 dd3d 886c 22bc 0916 983d
00000210: a1a8 123e aa22 cfbd 74cf 27bd bbd5 9dbe
00000220: 8e43 c83e e7ec febd 3077 4b3e 06b4 c3bc
00000230: 3d83 c5bd 5cbb 743d 976a 303e 313b c43d
00000240: d2bc 80bd 624f 5bbd 069f 6e3d 387f 3e3e
00000250: 6a10 ff3d 6769 aebd 2880 c0be fd2e 483e
00000260: 123b 80bd 1b81 efbb d287 71bd f450 7d3d
00000270: 7335 063e a006 1d3e 151f 363e fe98 9fbd
00000280: 820b d93d 6f5e 71bd c61f 023d f22c d0bd
00000290: b4d0 853e 0e32 79be 510f 18be 1633 2d3d
000002a0: a942 2f3e c553 833d fde2 763e 2a60 c13e
000002b0: 2ac0 df3d c2c3 063d 01d1 0b3e aee9 ec3d
000002c0: a98d 973e 7b03 b23c a8b3 e6bc aff7 d7bd
000002d0: d679 5f3e 59b8 dbbd 925a 0e3e fd3d 53be
000002e0: e1b1 bb3e 4fd2 ebbd fd58 f4bd ebea 12be
000002f0: a32c c1bd 7ffd 8fbd 6ec9 5f3d 3e63 1cbe
00000300: a656 413d a401 7e3e 4062 f73d 1aa8 6e3d
00000310: 7441 813c cd54 9c3e 0fa3 a3be 0d96 b53d
00000320: 1a93 513d c0a5 24be c223 333c cdd6 433e
00000330: cb26 81bd 83f7 033d f2df cf3e f8d9 b53d
00000340: a449 80be 8735 90bd dae7 cebc 5b7d 99be
00000350: e3f5 1f3e a4d9 a1be 7fca 36be 13d3 f23d
00000360: 838f 83be 4e11 6bbe c7dc 19be 7876 a33d
00000370: d7c3 973d 80b0 933c 68f2 6e3d e93c 713e
00000380: b566 143d 60b6 80be 6d80 edbd 2476 9abe
00000390: 7122 f1bd 5b16 6a3d 8343 29be 6f15 e43d
000003a0: e076 e838 e095 e03d 6fdc 9b3c d02a 8ebc
000003b0: 8828 e43d dfa7 4d3e fd1e b3be 496e 2d3d
000003c0: e4f2 97be 2c14 1abe 5a81 cfbd 304c 833e
000003d0: 8cb7 a2be 9ebc 2bbe 236f 8b3d c529 003c
000003e0: 9172 e0bd 080c 613e 0b4b 26bd d2c7 04bd
000003f0: 974f 133e f094 03bd 9f7a 9d3d e9d5 e43e
0.27507445 0.6484524 -0.04426339 -0.24531618 -0.09017362 -0.09484311 -0.13401006 -0.09515569
-0.01649171 -0.024277076 0.016064404 -0.005641987 -0.04530077 -0.010627149 -0.053496968 -0.0058435877
-0.11718753 -0.032823075 0.036872983 -0.16120496 -0.028971925 0.010154998 -0.14565106 -0.06145936
-0.08406895 -0.05014024 -0.07114052 -0.18084905 -0.29222247 -0.07789522 -0.25717732 -0.05959915
0.2839454 -0.03002208 -0.034467705 0.04192276 -0.3110168 -0.011137737 -0.13983756 -0.018683976
-0.1890295 -0.17716487 0.10856156 0.06981685 -0.023853462 0.07928009 -0.24685672 0.31587836
0.119658716 -0.05571101 0.18652031 0.09764234 0.1533488 -0.23225904 -0.026994789 -0.23530763
0.061736014 0.31311238 -0.1484629 0.048623547 -0.06416268 0.23146507 -0.05024478 0.31877297
0.12682654 0.006210188 0.17914395 0.06996195 0.023440704 0.08075979 -0.05882709 0.090555854
-0.097197674 -0.1432613 0.20311454 -0.26790437 -0.067365125 0.044496126 0.08438155 0.08195266
-0.33279127 0.19869114 -0.18240137 0.062041946 -0.29250926 -0.03793908 -0.058731176 -0.13174064
0.19013424 -0.037352074 -0.1738898 0.19903271 -0.14967409 0.052292757 -0.043950193 -0.17032452
-0.3511922 0.19179763 -0.27410883 -0.07665254 -0.0632645 -0.066892475 -0.3240623 0.18312475
-0.18900974 0.0161165 -0.032623243 0.19694379 0.120940566 -0.116229914 -0.073910736 -0.105130486
0.048298143 0.049731907 0.034149624 0.061915476 -0.19668053 0.070343874 -0.34007362 -0.16968615
-0.18170527 -0.016806124 -0.17968737 0.23567973 0.06285269 0.12749806 0.053302113 0.06413502
-0.29043937 0.10804142 -0.009913571 0.07426078 0.1432214 -0.101140335 -0.040969327 -0.30827126
0.3911404 -0.12447529 0.19869685 -0.023889553 -0.09644172 0.059748992 0.17228161 0.09581602
-0.062860146 -0.053542502 0.058257125 0.18603218 0.124543026 -0.08516198 -0.37597775 0.19549175
-0.06261267 -0.0073090917 -0.05896742 0.06184478 0.13106327 0.15334558 0.17785294 -0.07792853
0.10597898 -0.05892795 0.031768583 -0.10164823 0.2613579 -0.243355 -0.14849593 0.042285047
0.17115273 0.06412462 0.24110027 0.3776868 0.10925324 0.032901533 0.13653947 0.11568008
0.29600266 0.021730175 -0.028161839 -0.10545289 0.2182382 -0.10728521 0.13901737 -0.20629115
0.36659148 -0.115147226 -0.11931036 -0.14347427 -0.09432342 -0.070307724 0.054635458 -0.15272233
0.047201775 0.24805313 0.120792866 0.058265783 0.01577828 0.30533448 -0.3196034 0.088665105
0.051165678 -0.16078854 0.010933818 0.19124909 -0.06306227 0.032218467 0.40600544 0.08879465
-0.25056183 -0.070414595 -0.02525704 -0.2997845 0.15621142 -0.3161136 -0.17850684 0.118566655
-0.25695428 -0.2295582 -0.15025626 0.079815805 0.074104 0.018028498 0.058336645 0.23558392
0.03623076 -0.2513914 -0.11596761 -0.3016826 -0.11774147 0.057150226 -0.1652966 0.11136901
0.00011084764 0.109660864 0.01902601 -0.017354399 0.11140543 0.20083569 -0.3498458 0.042341504
-0.29677498 -0.15046757 -0.10132094 0.25644064 -0.3178066 -0.1677117 0.06808307 0.007822459
-0.10959352 0.21977246 -0.04059891 -0.032417126 0.1438583 -0.03212446 0.07689404 0.4469445

linears.2.bias f4 [40]
00000000: d83a cb3c 6b92 ddbb 0046 20bd a6c9 31bc
00000010: 1b62 793c 9b7c c03c 2047 31bc 8238 d7bc
00000020: 3314 77bc ba6f 1fbd 1a6c 053d 37fd bebc
00000030: 5ee6 f4bc 6c0c 223b 317c 26bd 3a5a a33d
00000040: 34a1 0fbd f3b3 d7bc 09e2 213d 2262 a43b
00000050: 5712 b6bc 7bc4 c1bb c625 20bd dfd0 583d
00000060: fd17 28bb 886f 0b3d 3ff7 433d 7c3c dbbc
00000070: ff0a 073d 52fa f8bc 4277 263d a330 70bc
00000080: dc75 50bd 2dc2 e13c 48a0 2ebd 2d61 6bbc
00000090: 46e3 123d 34de 23bd a1df 853c a271 f43c
0.024808332 -0.006761839 -0.039129257 -0.010851299 0.015221144 0.023496917 -0.01082018 -0.026272062
-0.015080499 -0.03892491 0.032573797 -0.023314102 -0.029895004 0.0024726642 -0.040645782 0.07976194
-0.035065845 -0.026330924 0.039522205 0.005016581 -0.022225542 -0.005913315 -0.039098524 0.05293357
-0.0025649064 0.03404191 0.047843214 -0.02676224 0.03296947 -0.0303928 0.040641077 -0.014660033
-0.05089365 0.02755841 -0.042633325 -0.01436643 0.035861276 -0.04000683 0.016341986 0.02983934

linears.3.weight f4 [40, 40]
00000000: 5760 bd3d bd37 d2be 07ea 18bd 21ed 003e
00000010: 5218 90bd 6e7d cc3d 367c 87bd e57b ba3d
00000020: d629 673c ea8a 28bd ce4b 48be 564a dbbe
00000030: 6ca0 2dbe 4b79 3d3e 0e2e 563d 70bb 5f3e
00000040: 94b6 033d 7e08 daba 723a 92be 713d 43bd
00000050: f778 8fbe 117a eebc 036e 163e d7c5 ac3e
00000060: 8f7b 893d 2fad 803d a4ba fcbd 133a 6f3e
00000070: 4e01 92bd e6e7 19be 55dd 89bd a52f 513d
00000080: 49b2 5abd 1e50 d8bc 0f03 7c3e 2695 9fbc
00000090: 8be2 bebd dc54 5cbd cc84 ed3d 863e 6b3d
000000a0: 0c41 50be 6e7f a2bd 60e3 a7be c8a2 d1bb
000000b0: 2bd9 0c3e d660 d3bd ddf9 a7bc 54db 893d
000000c0: bac8 8e3c 9ec2 00be 1523 34be 1cb2 6c3d
000000d0: a8d7 5e3e cff7 28be df2e 023e d50e 6abe
000000e0: 0b3c 9f3d 440c 5bbe fdfb 3c3e f1c4 053b
000000f0: 1366 1abd 3da8 5c3e 877b a8bd 5048 44be
00000100: f0ea 2cbe 8126 a93d 0ddd 3abc aa6c f93d
00000110: 8799 dc3d 7a41 693c 2a4d 4ebd 3a7a e13d
00000120: a9b7 f93e 9d5b ae3d cf97 da3d 9973 2a3e
00000130: 2402 d8bd 9c5d 32bd b417 20be db31 233c
00000140: ceaf 9fbe c17c 6c3d 8168 c93d b543 2c3e
00000150: bfb7 2d3e 38ee e63c c082 a2bc 9886 fa3b
00000160: 3a1b 2e3e 1da2 db3d 873b 8f3d f9c0 9e3c
00000170: 40c8 90bc a2cf 1bbe 1650 b03b ec35 343e
00000180: 213a 513d 545d 2a3e 4f1d 183e 2e48 47be
00000190: 20e5 e1bd a512 5bbe 1fdc d33d 331e 473e
000001a0: 76bd 713e 7a37 36bd afe9 dfbe 4c63 2a3e
000001b0: f36d 0dbd 0d02 aabd 16e0 a6be ee64 22be
000001c0: 2fd8 483e b12e 9d3d 3583 6b3e 54df 3c3e
000001d0: cfc1 953e 5d8f 7ebe 2155 813e 4233 3b3e
000001e0: a740 32be e079 26be e42e 28be 2387 b7bd
000001f0: 5a15 a83d a95b 46be 6f5a 17be 4d41 8bbd
00000200: 913c 4ebc 301f c5bd dcd7 acbc 2a54 c7bd
00000210: 4ac1 82be af5d bb3d 884e 953d 7ef1 6ebd
00000220: 6014 91bd fe29 9b3e 481c f63d 27a0 a6bc
00000230: 2956 1a3e 2a44 d63c 686a 253e 4ebb c2bd
00000240: 0400 e43d f680 85bd e24b 293d 36bc 433e
00000250: 4e99 9ebd 620d 913d e14e fcbd a490 d4bc
00000260: ebe5 003e 8221 18bd e9c2 953e 29a9 513d
00000270: a543 383d d7cd 90bd 7b4c ee3c 0264 4a3e
00000280: 9211 0c3d a35c 6e3e 4e2a 70bd 8923 e6bd
00000290: 4a36 e9bc 9d04 babe 9b11 c23d fb38 2ebd
000002a0: e963 b1b8 9f4d 00be 4dca 06be 2c1c 213e
000002b0: eab4 16be 0149 ea3d 129b f2bd 5091 943c
000002c0: 25f4 cd3d 39b3 a9bd 4264 b13d affb fcbd
000002d0: fb31 fabd ecfd 853d 5cdc 033c b6c9 2f3e
000002e0: 9265 a33d 4f8a 103d 6c04 42be b276 f6bd
000002f0: ba2d 58be adaf b53d 7de2 a63c 772b 823e
00000300: aa9a 623d 8bf6 d83d 95a3 fdbd e0ba 973e
00000310: 98a0 d73d 1084 5bbe 3380 d8bd 314e 0f3e
00000320: 8b95 a33d 040f 6bbe 78e8 cb3c 1e18 7f3d
00000330: d6c3 593e f826 c83d e9dd 2dbe 590e 653d
00000340: 9f52 8c3d df2b 78be d49f b53c 2b96 bc3d
00000350: 2c36 053e ded1 c83c a71a 4c3e 6eea b73d
00000360: 4c99 a0bd eda0 ebbb 0565 51be ba04 f83e
00000370: fb58 4ebe 10b0 213c 1c3f 8f3e 091d cdbd
00000380: 5026 c23d ed6f 3c3d f6f8 0c3c 2f17 81bc
00000390: 29eb 813d 39a9 9ebb 4f29 81bd eb5f 7f3d
000003a0: 9c27 173e 92c4 f9bc 9f9c 8f3d d446 c9bd
000003b0: 0a29 aabc 5ad5 d7bd 5191 563c 1104 a53d
000003c0: dd8c 8a3d 1217 ca3e 7de8 9d3c f0c9 b03d
000003d0: 6fd4 0f3d 4b18 0dbc 4dff 23bd f39b 04be
000003e0: 4aef c73d f090 b23e d013 963e e2e8 233e
000003f0: 341b 39be b200 c8bd 1e67 c33d 67c1 21be
0.09246891 -0.4105815 -0.03733256 0.12590457 -0.07035889 0.09984861 -0.06615488 0.09105662
0.014109096 -0.041148104 -0.19560167 -0.4283015 -0.16955727 0.18503301 0.052290015 0.21848845
0.032156542 -0.0016634611 -0.28560215 -0.047666017 -0.28021976 -0.02911094 0.14690404 0.3374469
0.0671302 0.06283032 -0.123402864 0.23361997 -0.07129155 -0.15029868 -0.06731669 0.051070828
-0.053392682 -0.02640539 0.24610542 -0.0194803 -0.093205534 -0.053791866 0.115975946 0.057432674
-0.20337313 -0.079344615 -0.3279066 -0.006397579 0.13754718 -0.10321204 -0.020504886 0.06731287
0.017429698 -0.1257424 -0.17591508 0.057787046 0.21761954 -0.16500781 0.12713192 -0.2285722
0.07775124 -0.21391398 0.18455501 0.0020411576 -0.037695 0.21548553 -0.08226686 -0.1916821
-0.16886497 0.08259297 -0.011405242 0.12178929 0.107714705 0.014236802 -0.050366558 0.11009641
0.48772934 0.085135676 0.106734864 0.1664566 -0.10547283 -0.043546304 -0.15634042 0.009960617
-0.31188816 0.057736162 0.09834386 0.16822703 0.16964625 0.028189763 -0.019837737 0.0076454394
0.17002574 0.1072428 0.06993776 0.019379126 -0.017673612 -0.15215924 0.0053806407 0.17598695
0.051080827 0.16637164 0.1485493 -0.19461128 -0.1103003 -0.21393831 0.10344719 0.19445114
0.2360743 -0.0444865 -0.43732974 0.16639441 -0.034528684 -0.083011724 -0.3259284 -0.15858814
0.19613717 0.07674921 0.2299927 0.18444568 0.29249427 -0.24859376 0.2526026 0.18281272
-0.17407475 -0.16257429 -0.16424137 -0.08961322 0.082071975 -0.19370903 -0.14780591 -0.067995645
-0.012587682 -0.09625089 -0.021099024 -0.0973285 -0.25538093 0.09148728 0.07290369 -0.058335774
-0.07083964 0.30305475 0.12017113 -0.020340038 0.1507193 0.02615555 0.16153872 -0.09508382
0.111328155 -0.06518738 0.041332133 0.19114766 -0.07744084 0.07082631 -0.123197325 -0.025947876
0.12587707 -0.03714133 0.29250267 0.051186714 0.044986386 -0.07070511 0.029089203 0.19764712
0.034196444 0.23277526 -0.058634095 -0.112372465 -0.02846827 -0.36331645 0.09476014 -0.04253481
-8.4586274e-05 -0.1252961 -0.13163109 0.15733403 -0.1471745 0.11439706 -0.118459836 0.018135697
0.100563325 -0.08286137 0.08661701 -0.12352692 -0.12216564 0.065425724 0.008048143 0.1716679
0.079783574 0.03528815 -0.18947 -0.12034358 -0.21111193 0.08871398 0.02037167 0.25423786
0.05532328 0.10593899 -0.123847164 0.29634762 0.10528678 -0.21437097 -0.10571327 0.13994671
0.079875074 -0.22954947 0.024891123 0.06227886 0.21266112 0.09773058 -0.16979183 0.055921886
0.06851696 -0.24235485 0.022170939 0.0920833 0.13008946 0.024514135 0.19932042 0.08980261
-0.07841739 -0.0071908147 -0.20448692 0.48441106 -0.20151131 0.009868637 0.27977836 -0.10015304
0.09479964 0.04600518 0.008604279 -0.015758125 0.06343681 -0.0048419503 -0.06306707 0.062347334
0.14761204 -0.03048924 0.07012295 -0.098279625 -0.020771522 -0.105387405 0.01309617 0.08057416
0.06765149 0.39470726 0.019275898 0.086322665 0.0351147 -0.008611749 -0.040038396 -0.12950115
0.09762438 0.34876204 0.2931199 0.16006806 -0.18076783 -0.097657576 0.095411524 -0.15796433

linears.3.bias f4 [40]
00000000: 5b78 28bb 5ce1 f7bb 26ee d7bc 7d4b e2bc
00000010: 2d4e 2fb8 38a3 703c eaba 033c 86e9 bcbc
00000020: a365 133d abdf d4ba 3bdb 9d3b 512d b3bc
00000030: 0cf8 073c e7e2 24bc fa37 443d e741 203d
00000040: 72c7 55bd 315d 993b 5676 2a3c afbf 8f3c
00000050: d883 e2bc b2b1 1ebc abe0 b13c d4f3 b23c
00000060: e654 2b3d ec59 083d 4193 c03c c204 273d
00000070: 09c2 9cbc 3552 9c3c daeb e7bc 547f 2abd
00000080: 149f f33c 2681 8ebc 28a9 723c 936f 9f3c
00000090: 0d14 1b3a 6c8e 3fbc 052d 093d 538b 20bd
-0.0025706503 -0.0075647067 -0.026358675 -0.027623886 -4.179606e-05 0.014687352 0.008040169 -0.023060571
0.0359856 -0.0016240975 0.004817394 -0.021872194 0.008298885 -0.010063863 0.047904946 0.03912535
-0.05219216 0.0046802987 0.01040419 0.017547457 -0.027650759 -0.009685921 0.021713575 0.021844782
0.041829012 0.03328888 0.023507716 0.04077602 -0.019135492 0.019082168 -0.028310705 -0.041625336
0.02973894 -0.017395567 0.014810838 0.019462382 0.00059157686 -0.011691671 0.0334902 -0.03919537

linears.4.weight f4 [40, 40]
00000000: f53b b7bc d385 cf3c 3bc7 3bbe f5ee 39be
00000010: ca2e cd3c 0083 993e 8370 1bbe 233b 913e
00000020: e1fa 3cbe a19b e9bd 07d4 4ebe 01fb a13e
00000030: 34e0 523e 2824 d6bc 4d2a 14bd e75e a3be
00000040: 4971 09be ca38 91be 36b6 4bbe 6a06 17be
00000050: af1d 813d 87e2 683d d3f1 2d3e d34a 32be
00000060: 65a2 bdbd bc53 f4bd fd34 123e cb0e d33d
00000070: 9137 38be 3310 31bc b663 d9bc ec00 903e
00000080: cb1a 7d3d d383 c9bd f31e 853d f012 7fbd
00000090: 9b7e c8bc 7ddc 1ebd 0ffc a9bd fb6b 49be
000000a0: 9dbb f13d 603a 20be dc36 a1bd 5b25 0abd
000000b0: ef06 d43b 8409 713d 6e3e 4dbe c4f0 d0bc
000000c0: e9bb 4dbc 927a 593c 43e8 4cbe a85a 373e
000000d0: e87a f93d 1785 8abd 4a4e a7bd 8e00 e83e
000000e0: c23d e53d 5f85 203e 94f6 f93d ee76 5a3d
000000f0: 4ef9 633e da12 63bd bde1 b43d 5a1a f63d
00000100: 753f 2fbd 85cc 6f3e 08bb b8bc f826 96bd
00000110: 2d5f b8bd 5210 c53d e6a4 3b3d bff8 d63c
00000120: 7df2 fab9 6e25 943e 7e8c 51be 7cbe 873d
00000130: c69d 4cbe f028 b0bd 40c4 5e3e fe91 ee3c
00000140: eba1 7e3e fd40 b73d dc8e e3ba 7db5 d8bc
00000150: c7e6 b5bb 2377 acbb 9c9f 8abc 84c0 eb3d
00000160: f824 2c3e 37b2 c1bd aabf 8bbd e48a 57be
00000170: 3010 03bf e173 3f3d 2f9b eb3d 89ff 973e
00000180: 45bb 0e3d f7b5 17bd 40b7 15be 17a9 abbc
00000190: e4d6 31be 680e 333e a26e 2b3e 161a fcbd
000001a0: 53e3 b1bc cf18 33bd ef1b 803e 38a8 6cbe
000001b0: 06c2 84be 9268 8cbd 8549 6abe ad6b f63d
000001c0: 5e18 29be 22dc df3d 3413 663c 7901 253c
000001d0: 09d8 583c 9f30 efbd cee7 8dbc b1de 173d
000001e0: d32d f93d 1aa4 903d 1409 363d 32df 63be
000001f0: cdbc 1b3e d6f2 49be a8c5 033e 8c31 13bc
00000200: 5f17 7c3d 655e cd3d 3f80 553c c622 c7bd
00000210: 846d 523e d064 0a3d 80a9 2c3e 2705 843d
00000220: ca65 8ebd c73b 243e 7e58 8e3d 41ed 4d3e
00000230: 3301 c3bb 3c39 80bd eca9 163e 696d c1bb
00000240: 0e06 dcbd 7ba5 dd3d 89b9 2f3e 043b 32be
00000250: 6e56 7ebe 72d0 2d3e 5091 63be 6ba2 9c3c
00000260: 60d5 acbd 401d 05bd ac51 c4bd 4b0d 3fbe
00000270: 189a 383e 170a 803e 2600 af3c 6408 93bb
00000280: 364c 0dbe 5460 4bbe 35b3 ec3c b15a c5be
00000290: 44d4 623d 0a9c 4ebe b6b2 e5bd ab8a 1cbe
000002a0: e6b8 3f3e 615b 12bb 0c7f 36be bf42 8cbe
000002b0: 4467 d03d 9df4 c8bd 2345 9b3c d1ce b8bd
000002c0: c166 313e bfe7 bdbd f3b4 003e 00fc 9abe
000002d0: 3872 b83e cc98 5ebd 1ae8 b23d 55af 1fbe
000002e0: 6379 f63c 8db6 61bd ab74 f63c b41d e0bd
000002f0: 7f8a fa3d b89d 53bd 73f2 423e 77b2 57bd
00000300: d411 5d3d 04b9 2abe a2de 493e 266a 97be
00000310: 06d0 9bbe f4ed cbbd b85b 95be cc7e 5fbe
00000320: 5ba6 543d 258c dd3d 13cc b8bd 13cd b53e
00000330: f1d0 51bd 1042 bb3d c984 b7be 735d 363d
00000340: 0bef 51be ebfe abbe 6d0e 7e3e f686 9d3d
00000350: b589 d63d f52b 523e a6ab 45be 7571 86bd
00000360: 1d60 f03d 5375 643d a96a 96bc ea7f 853d
00000370: 82e9 5f3e d8bf b53c cb46 2d3c df37 4a3d
00000380: 3478 f5bd c7f9 51be fbe4 ff3d 1c97 d33c
00000390: 0475 45bb cb4a bcbc 52af 8fbd fcb4 4abe
000003a0: 3a94 3abe 8a75 58be 1302 09be aa7a f2ba
000003b0: 1aef 693e ca92 9bbe 9ed7 a93d e31f 4dbd
000003c0: fc0a 783e 4b90 a5bd 8724 fbbd 190a 033e
000003d0: c02c 913e 249d a83d 9e20 b03d 21fd 97bc
000003e0: 552e adbd ab7a b4bd 49b1 973e 8850 663e
000003f0: a4c5 453d 67a1 79bd b86e abbd 68e6 2cbe
-0.022367457 0.025332367 -0.18337719 -0.18157561 0.025046725 0.29982758 -0.15179639 0.2836543
-0.18455078 -0.11406637 -0.2019807 0.31636813 0.20593339 -0.026140288 -0.036173154 -0.31908342
-0.13422121 -0.2836364 -0.19893727 -0.1474854 0.0630449 0.05685666 0.1698678 -0.17411356
-0.0925949 -0.119300336 0.14278026 0.10305556 -0.17989947 -0.010807085 -0.026536804 0.28125703
0.06179313 -0.098395966 0.06500044 -0.06227392 -0.024474433 -0.038784493 -0.083000295 -0.19670098
0.118033625 -0.15647268 -0.07871792 -0.03372703 0.006470553 0.058846965 -0.20043346 -0.025505431
-0.012557008 0.013273852 -0.20010476 0.17905676 0.12181646 -0.06763666 -0.08169229 0.45312923
0.1119342 0.15675877 0.12205234 0.053336076 0.22263071 -0.0554379 0.08832119 0.12016745
-0.042785127 0.23417862 -0.022550121 -0.073316514 -0.09002528 0.096222535 0.045811556 0.026241658
-0.00047864384 0.28934807 -0.2046375 0.06628129 -0.19982061 -0.08601558 0.21754551 0.029122349
0.24866454 0.089479424 -0.0017361301 -0.026453728 -0.0055511924 -0.0052632256 -0.01692181 0.11511329
0.16810977 -0.0945782 -0.068236664 -0.21049076 -0.51196575 0.04674137 0.11504208 0.29687145
0.034846563 -0.03703877 -0.14620686 -0.020954652 -0.1736713 0.17485964 0.16741422 -0.12309663
-0.021714842 -0.04372483 0.25021312 -0.23111045 -0.25929278 -0.06855883 -0.22879608 0.12032256
-0.16513202 0.10930659 0.014042664 0.010071152 0.013235101 -0.116791956 -0.017322447 0.03707761
0.121669434 0.0706255 0.04444225 -0.22253111 0.1520874 -0.19721541 0.12868369 -0.008983981
0.061545726 0.1002777 0.0130310645 -0.097234294 0.2054959 0.03378755 0.16861534 0.06446295
-0.069530085 0.16038428 0.06950472 0.20110036 -0.0059510707 -0.062609166 0.14713258 -0.0059029353
-0.10743342 0.108225785 0.1716062 -0.17405325 -0.24837658 0.16974047 -0.22223401 0.019120416
-0.084391356 -0.032498598 -0.0958589 -0.18657415 0.18027532 0.25007698 0.021362375 -0.004487084
-0.13798603 -0.19860965 0.028894046 -0.38545755 0.055378214 -0.20176712 -0.11215727 -0.15287273
0.18722877 -0.0022332298 -0.17821902 -0.27394673 0.10175946 -0.09812281 0.018953865 -0.09023822
0.17324354 -0.09272718 0.12569027 -0.30270386 0.36024642 -0.054344937 0.08735676 -0.15594228
0.030087179 -0.055105735 0.030084928 -0.109431654 0.12233447 -0.051664084 0.190378 -0.05266043
0.05397208 -0.1667214 0.19713834 -0.29573172 -0.30432147 -0.09957495 -0.29171538 -0.21825713
0.05191646 0.10817746 -0.09023299 0.35508022 -0.051224653 0.0914346 -0.35843495 0.044522714
-0.20501344 -0.33592924 0.2481019 0.076917574 0.10475484 0.20524581 -0.1930376 -0.06564609
0.11737082 0.05577595 -0.018361406 0.06518538 0.2186642 0.022186205 0.01057596 0.04936969
-0.119858176 -0.20505439 0.124948464 0.02582889 -0.0030129561 -0.022984883 -0.070158616 -0.19795603
-0.18220606 -0.21138588 -0.13379698 -0.0018499692 0.22845116 -0.3038543 0.08293079 -0.050079238
0.2422294 -0.08084162 -0.122628264 0.1279682 0.28354454 0.08233097 0.08599971 -0.018553318
-0.08456103 -0.088124596 0.29627445 0.22491658 0.048284188 -0.06094494 -0.08370727 -0.16884768

linears.4.bias f4 [40]
00000000: 23cb efbc 81c5 df3b 3291 21bd db85 b53a
00000010: 66d3 173c c814 183b c0db 14bd 828e 21bc
00000020: af40 ecbb 7338 aa3b 5758 343b b29e 163c
00000030: af8e 1ebc ad66 17ba 0084 11bc c90c 233c
00000040: 3729 05bc 06dd dbba efa6 2c3c da33 8bbb
00000050: 4b23 04bc 592e c83c 15ab 9cbc 218f a03c
00000060: 6710 853c bc66 2eba 4075 973c 3fc3 b43b
00000070: bf9a a1bc 899b b73b 521c 4abc 8244 b83c
00000080: 1f05 0b3c d19e 62bb 1cba 8f3c 69cf d23c
00000090: 6afe 8a3b e16e 09bd 60f2 e03c d22d fabc
-0.029271668 0.006828964 -0.03944511 0.0013849096 0.00926671 0.0023205746 -0.036342382 -0.009860637
-0.0072098593 0.0051947176 0.0027518475 0.009193109 -0.009677573 -0.0005775493 -0.008881569 0.009951779
-0.008127502 -0.0016774244 0.010537847 -0.0042481245 -0.008065055 0.024436163 -0.019124547 0.0195995
0.016243173 -0.0006652882 0.018488526 0.005516439 -0.019727109 0.005603258 -0.012335854 0.022493605
0.008485108 -0.0034579525 0.017544799 0.025733666 0.0042417543 -0.033553008 0.027459323 -0.030539427

linears.5.weight f4 [40, 40]
00000000: 28eb 4b3a 3179 debd 8ee2 22bb f3b3 a8be
00000010: 6d56 25be e58e cbbd 599e 69be bf97 603b
00000020: 287c 473d fc5f 37bd d4a6 ab3d a29d a13e
00000030: bdfd c23d d3ca babd d36c 84bd 9e82 2dbe
00000040: 0384 cd3d 03a4 88be 471b 62be ab9a 16bd
00000050: 3e03 123e 2098 843c c9ad 49bd 7037 663c
00000060: d356 933d 6d6a 973e 3a39 75bc fec6 6fbe
00000070: d880 02be c202 59bd 1713 aebd ef56 0a3d
00000080: 1a4a 3dbe a678 65bd 20f2 633e 621a 1c3b
00000090: a40c 7cbe 92d0 0ebd 2d71 1aba b080 eebd
000000a0: 2f7e 4bbe a3e8 213e 93c7 243e 2538 b43e
000000b0: 0182 543e 99eb 83bc e9e2 083e a89b e8bd
000000c0: 2b73 503c c90b 34be 680b 303e f5a9 323e
000000d0: 1e7a 2a3e e898 1dbd f7c6 c6bd a646 cabc
000000e0: af36 91bd 671f 9f3e 4439 37be 046f babb
000000f0: 5a15 a3bd 514a 87be 4ddc 37bd b298 84be
00000100: 8460 de3d 9c22 1a3e 6302 863c 786a 84be
00000110: a456 893e 9ca4 a13d fee3 b93b 9e86 eebc
00000120: 16b8 10bd 5ec0 97bd 196b 613d 8766 ddbd
00000130: 74f1 7bbe 975e 23be 4676 96be bec7 b0bc
00000140: a742 14be 19c2 eabc 4133 28bc 2f7c ab3d
00000150: 1ac3 afbd afc6 4b3e d7e3 1fbd 7d17 01be
00000160: 7fa0 a2bb 688d 83be f8d1 cf3c 21f1 b13d
00000170: abc3 ad3c e50e 433e ee62 c1bd 5f4f 443c
00000180: 4d93 033e 5618 0c3d 3a0d 51be ba03 a2bc
00000190: 1788 7cbd 5d3e f8bd a131 6b3e a237 ee3b
000001a0: 5580 a63e 3064 b2bc 71d7 89be e92b 11bd
000001b0: f618 07be 2412 c13b 96df 733e ccab ea3d
000001c0: 2493 0cbe 21bd 183e 2e44 bd3d e2e8 b43e
000001d0: 795c 2a3e 0319 753d c00e 863c a730 fbbd
000001e0: 40fe 0c3e 3631 3bbe d7c4 893d 0ba7 99bd
000001f0: 0725 c3bd 56ca 0abd 413f cabd 591a 89bb
00000200: 20bd 853c b753 bd3c 6a7c c83d b055 c7bd
00000210: cbc6 e1be b49a e7be 7b44 1bbe ce19 b1bd
00000220: c661 863b 1bf4 e9bc 40f1 2a3d c216 67be
00000230: 9cdc 2cbe 5565 873d 0017 003e b68b d33d
00000240: a5b4 c1bd 5cbb 913e fb82 6fbe 8bd1 d6ba
00000250: 767a f03d e4d9 b6bd 13fe 443d 347b bc3d
00000260: f3f2 48be c7b2 1abc 2201 443d f470 b1be
00000270: 0798 e5bd f940 403e 96fa a13d deab 75bd
00000280: 7b5a 1b3e 35a5 853e 4c60 eb3d e0c0 453b
00000290: e09e a03d d4d9 f5bd 81ec 203e 04ef 733e
000002a0: 6fba 2cbe f953 8c3c 276a 26be 628a 5abd
000002b0: b605 95be 021c 7cbd 0410 c8be 0b8c d6bd
000002c0: 1557 243d e45a e2bc 13e2 ca3d a178 1bbd
000002d0: 94a8 0bbe d708 a9bd 1c18 4fbe b261 003e
000002e0: 73b3 9ebd 2367 e93d a81e cdbd 024f 86bd
000002f0: 2a12 f53d 7e21 b33b 207d 6b3d 3185 193e
00000300: 66dc e23b f364 93bd 8ca4 653e ca69 0e3d
00000310: 389f 603e 65ea 4d3e 9b95 25be 9448 a2bc
00000320: 0228 8bbd f673 d8bd 1b03 34bd 6d46 53bd
00000330: 33f4 093e 464b 14be d9b6 eebd 61fb 97be
00000340: 37fc b4bc 0cbb 603e 4db1 a9bd ea9e fcbd
00000350: c7ba e1bd 5466 323e 7a2a dbbd fc5a 56bd
00000360: 89fd 7bbd 6297 dfbd 7dee 84bd 11eb 60b8
00000370: 0950 9a3d 9e78 fabd 7fb8 e63d 42ec e83d
00000380: e543 0ebc 6e34 a4bc 063d aa3c eb6b 67be
00000390: 225b 833e d20b f9bb 303c c13c a72f 823d
000003a0: 0da9 093e 74d5 e1bd da37 1b3d d0b1 3b3e
000003b0: 0bb2 90bd 7c9f 4ebe 9b7b b83e c0f9 81be
000003c0: 102f c13d d32e 03be 50fd a5be 05bb c83d
000003d0: 6695 95bc 2e87 533d f3ac 6f3d df21 ac3e
000003e0: e443 3a3d 598f 04bd cf18 a13d c111 203e
000003f0: 339f 2dbe ca17 c1bd f488 5b3d 9399 6f3e
0.00077788765 -0.10862959 -0.0024854275 -0.3294979 -0.1614625 -0.09939364 -0.22814311 0.0034270135
0.04870239 -0.044769272 0.08381429 0.31565577 0.09521053 -0.09120717 -0.06466069 -0.16944358
0.10034945 -0.2668763 -0.22080718 -0.036768597 0.1425905 0.01618582 -0.049238 0.014051303
0.07194295 0.29573384 -0.014967257 -0.23415753 -0.12744462 -0.052981146 -0.08499735 0.033774313
-0.18485299 -0.056023262 0.22260332 0.0023819436 -0.24614197 -0.034866877 -0.00058914983 -0.11645639
-0.19872354 0.158114 0.16091757 0.35199085 0.20752718 -0.016103553 0.1336781 -0.11357814
0.012722771 -0.1758262 0.17191851 0.17447646 0.16648147 -0.0384759 -0.09705918 -0.02469189
-0.07090508 0.31078646 -0.17892939 -0.0056895036 -0.07963057 -0.26423886 -0.04488783 -0.25897747
0.10858253 0.15052265 0.01635856 -0.2586248 0.26823914 0.07892725 0.0056729307 -0.029116925
-0.035331808 -0.07409738 0.055033777 -0.10810571 -0.24603826 -0.15954052 -0.2938711 -0.02157962
-0.14478551 -0.028657006 -0.010266126 0.083732955 -0.085821345 0.1990001 -0.039035644 -0.12606616
-0.0049629803 -0.25693822 0.025368676 0.0868857 0.021211466 0.1904865 -0.094426975 0.011981814
0.1284916 0.034202896 -0.20415202 -0.019777168 -0.061653223 -0.1212127 0.2296815 0.0072698155
0.32519785 -0.021776289 -0.2692218 -0.035442267 -0.13193116 0.005892055 0.2381576 0.11458549
-0.13728005 0.14915897 0.0924152 0.35333925 0.16636838 0.059838306 0.016364455 -0.12265139
0.13768864 -0.18280491 0.06726997 -0.07502564 -0.09528547 -0.03388437 -0.09875346 -0.004184049
0.016325533 0.023111207 0.09789355 -0.097331405 -0.4409698 -0.45235217 -0.15162842 -0.086475
0.004101011 -0.028558781 0.04173398 -0.22567275 -0.16881031 0.066111244 0.12508774 0.10329382
-0.09458283 0.28463256 -0.23389809 -0.0016389353 0.117421076 -0.08928278 0.048093867 0.09203187
-0.19623928 -0.009442038 0.047852643 -0.3465649 -0.112106375 0.18774785 0.079091236 -0.05997836
0.15171234 0.26102605 0.114929765 0.0030174777 0.07842803 -0.12004438 0.15715219 0.23821646
-0.16867994 0.017129885 -0.16251431 -0.05335463 -0.2910592 -0.061550148 -0.3907472 -0.1047593
0.04012211 -0.02763123 0.099064015 -0.037956838 -0.13638526 -0.08253639 -0.20224041 0.12537268
-0.07749071 0.11396625 -0.10015613 -0.06558038 0.11966355 0.005466639 0.057492375 0.14992215
0.006923246 -0.07196989 0.22426051 0.034768857 0.21935737 0.20108946 -0.16170351 -0.019809999
-0.0679474 -0.10568993 -0.043948274 -0.051580835 0.13472061 -0.1448184 -0.11655969 -0.29683974
-0.022092922 0.21946353 -0.082857706 -0.12334998 -0.11021953 0.17421848 -0.10701461 -0.052332863
-0.061521087 -0.10917546 -0.064908005 -5.3624684e-05 0.07534797 -0.12230037 0.112656586 0.113731876
-0.0086831795 -0.020044532 0.020781051 -0.22599761 0.25655466 -0.007600286 0.02358827 0.06356745
0.13443394 -0.11027041 0.03789506 0.18329549 -0.07065209 -0.20178026 0.36031803 -0.25385857
0.094328046 -0.12810831 -0.32419825 0.09801296 -0.018259715 0.05164259 0.058514547 0.33619592
0.0454749 -0.03236327 0.0786606 0.15631773 -0.16955261 -0.094283655 0.053597406 0.23398428

linears.5.bias f4 [40]
00000000: 24f9 10bc 98a3 5c3b 0f74 423c 8541 d4bb
00000010: b0db d33b b364 e9ba 75f7 7f3b ead8 fabb
00000020: 925f 00bc 50c2 dbba c171 313c 8227 6e3c
00000030: f2d7 be3a d5b9 3fbb c4ac 45b9 f1ba 2dbb
00000040: 6d73 3ebc 773b 243b 3ac1 063c 753e 733a
00000050: 957b a93b ece3 76bb c434 13bb dba6 ca3b
00000060: 1b41 d6b9 5dc5 11bc 119b d23b 56b7 32bb
00000070: dadd 47bc fa23 a2bb 7f4c cabb 7266 573b
00000080: b913 36bc 9579 f83b 9579 7dbb 9a98 633c
00000090: e279 c03a 090e 283c b106 dbba 5633 35bc
-0.008848462 0.0033666845 0.011868491 -0.006477537 0.006465398 -0.00178065 0.0039057408 -0.0076552527
-0.007835286 -0.0016766284 0.010830344 0.014535787 0.0014560206 -0.0029255052 -0.00018851744 -0.002650913
-0.011624199 0.0025059858 0.00822478 0.0009279021 0.005172203 -0.0037672473 -0.002246187 0.0061844415
-0.00040865768 -0.008897153 0.0064271768 -0.0027269921 -0.01219889 -0.0049481364 -0.00617367 0.0032867459
-0.011113101 0.007582853 -0.0038677205 0.0138913635 0.0014684761 0.0102572525 -0.0016710368 -0.011059603

linears.6.weight f4 [3, 40]
00000000: 251f 96bf df78 033e 59c0 b5be ec33 95bf
00000010: 0699 fd3d 962f 3fbe 7e0d fa3e 20cd 99bf
00000020: 9051 8dbe f4c1 553e 12e3 de3e 2675 9c3e
00000030: 50cb d03e a6fd cf3d efb8 a43f 78fc 62be
00000040: 5405 a3be f650 5abe 9cad 873e d5c3 a9be
00000050: 5c03 883e c688 4fbe 3609 aabe 34a5 433e
00000060: e006 f1bd 9e21 04be c46b 513e 6f14 233e
00000070: 6db3 173e f904 1b3e 2411 65be cde7 62bb
00000080: fe33 9abe abf8 ba3e ae8c 173e ba5f a13e
00000090: 5788 103f 4674 99bc b461 79be 6388 d2be
000000a0: 24df 45bd 708e 373e 48bc d13d 3a20 a1bd
000000b0: de0b 6c3e f53f 643e d16b 2b3e 3547 533d
000000c0: 7660 653d 4981 c8bd 373a 793e e360 0c3e
000000d0: a399 0fbe 7e9f 40be d795 66be fd46 afbe
000000e0: 6c33 dfbd 1691 8e3e 1e18 03bd f641 623e
000000f0: 00e3 173e 68a1 243e 1296 f83d 7333 a1bc
00000100: 207a 0fbe 7dff 193d c22c 6bbe eec6 6c3d
00000110: 792a 46bd 57a3 5abd 933d 693d 7898 343e
00000120: af6f 95be 6e79 ffb9 00bb b8bd 8fa5 0f3e
00000130: 923a d33d 76cd 923d 52b5 eabd 16f5 4a3d
00000140: b090 2bbe f1a1 86bc b772 243e 6598 b1be
00000150: 64d6 4d3d 8673 54be c021 9abd 3d85 b9be
00000160: 6294 66be 9926 fcbb f7c9 aa3e 15dc ee3e
00000170: d249 f93d 42e0 25bc 51b8 cf3d ec09 a13d
00000180: 9c68 18be 56f1 d4bd aa80 5c3e e40c 40be
00000190: 949a c23b bdbc 8cbe d4e6 dcbd 1883 e73d
000001a0: 4ae1 a43d db71 2ebe 704e 083f f29d c9bd
000001b0: ff39 9fbe 4d60 4c3d 6c73 5dbe e7ac 3cbd
000001c0: d009 9bbe 8745 163e cec0 06bd 636d ab3e
000001d0: bee5 d5bd 2e65 af3e f978 d63d 1349 0bbe
-1.1728255 0.12839077 -0.35498312 -1.165647 0.123827025 -0.18670496 0.4883842 -1.2015724
-0.2760129 0.20874768 0.43532616 0.30558127 0.40780115 0.101558015 1.2868937 -0.22166622
-0.31840003 -0.21319947 0.2649964 -0.3315722 0.26565063 -0.20267019 -0.33210152 0.19105989
-0.117688894 -0.12903449 0.20451266 0.15925764 0.14814539 0.15138616 -0.2236982 -0.0034623027
-0.30117792 0.36517844 0.14799759 0.31518346 0.5645804 -0.018732201 -0.24353677 -0.4111968
-0.048308507 0.1792543 0.1024099 -0.07867475 0.23051402 0.22290023 0.16740347 0.05158158
0.056000195 -0.09790284 0.24338613 0.13708834 -0.14023452 -0.18810841 -0.22518097 -0.34233847
-0.1089848 0.27845067 -0.03200542 0.22095475 0.14832687 0.16077197 0.12137999 -0.019677853
-0.1401143 0.03759717 -0.22966293 0.0578069 -0.04838035 -0.05337843 0.056943487 0.17636287
-0.2918677 -0.00048727862 -0.090200424 0.14028 0.10313906 0.07168095 -0.11460365 0.04955014
-0.16754413 -0.016434642 0.16059385 -0.3468658 0.050253287 -0.20747194 -0.075259686 -0.36234465
-0.22517541 -0.007695031 0.33357212 0.46652284 0.12172283 -0.010124268 0.101425774 0.078632206
-0.14883655 -0.10397594 0.21533456 -0.18754917 0.0059388373 -0.27487746 -0.107862145 0.11304301
0.08050783 -0.1703562 0.53244686 -0.09844579 -0.31098935 0.049896527 -0.21626061 -0.04606333
-0.30280924 0.1467496 -0.032898717 0.33481893 -0.104442105 0.3425688 0.104722925 -0.13602094

linears.6.bias f4 [3]
00000000: 2faf 9f3f 7831 883b 27c5 07bc
1.2475337 0.0041562878 -0.008286751

exp_avg f4 [40, 2]
00000000: ac00 5540 2fba 583e c2ca 8441 b177 773f
00000010: 34a6 a440 de9c 4f3f dafd 2540 867d 83be
00000020: 0db1 80c1 a9d3 a7bf b1f1 4f41 40eb 9abe
00000030: e816 7141 67e0 5d40 15a0 6a3e 8246 49be
00000040: e399 1a40 0b1e 0d3f 4a72 c93f 40d5 143f
00000050: 30ad c73f d34f fc3e b0eb 48c1 b4b5 90bf
00000060: 0630 01bf b84c a2bd 33f1 fc40 145e 423e
00000070: dfe3 3a41 5ec5 1f40 c218 6241 75af 313f
00000080: 900c a5bf 6973 5a3e 4f27 46c1 f2f1 ccbe
00000090: ab05 a840 2780 083e 567e 8dc0 a9a8 a1bf
000000a0: 48e3 af3f c8f8 223e d824 8cc1 73d5 46bf
000000b0: d19f 3d41 7f1c 013e 2af8 1341 a1ef ba3f
000000c0: 53b3 b1c0 525c ab3e 94b6 d4c1 ca2e 9ebf
000000d0: dc28 b440 61cb 7140 2bbf 2bbe 5c05 2ebf
000000e0: 3234 6c41 9d94 a73f f97d dc3f ff1e 2e3f
000000f0: 22f3 5cbf bec0 50bf ab34 b7c0 fde6 2f3c
00000100: fdeb f7bf c995 3abf a55e e4c0 bb66 4c3e
00000110: a0e1 cd3f dd36 a93e c424 92c0 8c16 7e3e
00000120: 9c1c b73f 8b4f cdbe a1aa 7d41 406d eb3f
00000130: 3cee a841 ad80 b43f 42b9 7abe 300c e3bf
3.328166 0.21164773 16.599003 0.9666701 5.1452885 0.81098735 2.5936189 -0.25681704
-16.08645 -1.3111469 12.996507 -0.30257607 15.068092 3.4668214 0.22912629 -0.19655803
2.4156425 0.55123967 1.5738003 0.58137894 1.5599728 0.4927965 -12.557541 -1.1305451
-0.504639 -0.07924789 7.9044433 0.189812 11.680633 2.4964213 14.131044 0.6940835
-1.2894459 0.21333088 -12.384597 -0.4002834 5.250692 0.13330136 -4.421672 -1.2629596
1.3741236 0.15915215 -17.51799 -0.7766945 11.851518 0.12608527 9.248087 1.4604379
-5.55314 0.33468872 -26.58915 -1.2358029 5.6299877 3.7780383 -0.16772144 -0.6797693
14.762743 1.3092228 1.7225944 0.68016046 -0.8630849 -0.815441 -5.725179 0.010736224
-1.9368893 -0.72884804 -7.1365533 0.19961064 1.608448 0.3304967 -4.566988 0.24813288
1.4305606 -0.4009975 15.854157 1.8392715 21.116325 1.4101769 -0.24484733 -1.7738094

exp_avg_sq f4 [40, 2]
00000000: 9d4d 1f4d f573 2648 0be8 0b4c a57e e847
00000010: e556 a14c 39f1 d548 d916 7c4c 4bf6 c247
00000020: 571e 864b 969c 2547 96c7 514c 0714 2548
00000030: 3fd4 ae4b dde2 8547 734d b54b a373 5847
00000040: db55 dd4d b262 7349 1901 014e e5e3 8749
00000050: 0236 024b 447b 3d47 6850 a34d f6fb 0c49
00000060: 1fc5 0b4d 6da8 a548 058a 5b4c 9cf9 0c48
00000070: b992 814c 19b5 5c48 f17a 824d 127d ac48
00000080: 5b21 4b4d a9cc d948 5a25 594c fb6f 0648
00000090: d22e 864d d4ad e748 7763 454c e683 2a47
000000a0: 1b91 924c 4ac5 8947 00b4 a34b eaa2 5747
000000b0: b973 064d 6988 e447 af62 044f d0c1 884a
000000c0: 0adb 104d fb27 c248 c475 f54c 740c 0048
000000d0: 9663 6f4a 97e2 ab46 a0ad b54b ab62 0548
000000e0: 7bdb 5c4d 550a 0249 b7f6 df4c 749b 2848
000000f0: bcc9 7f4d ad9a 1149 923e dd4c c8ce 5d48
00000100: 2089 314c dbda 3548 b99d 2f4d 792f 0448
00000110: ff20 104d 7c61 6348 a691 714a 72e2 b946
00000120: dd1d 0b4d 968a 8c47 9366 2d4c d2be 1748
00000130: 7a56 844d 2d34 1e49 9761 154b 2f0c 3d47
1.6704149e+08 170447.83 3.6675628e+07 119037.29 8.458833e+07 438153.78 6.6083684e+07 99820.586
1.7579182e+07 42396.586 5.499247e+07 169040.11 2.2915198e+07 68549.73 2.3763686e+07 55411.637
4.6417392e+08 996907.1 5.410832e+08 1.1132126e+06 8.533506e+06 48507.266 3.4249446e+08 577471.4
1.4655947e+08 339267.4 5.7550868e+07 144358.44 6.793364e+07 226004.39 2.736369e+08 353256.56
2.1299755e+08 446053.28 5.6923496e+07 137663.92 2.8140192e+08 474478.62 5.174422e+07 43651.9
7.6843224e+07 70538.58 2.1456896e+07 55202.914 1.4098318e+08 117008.82 2.2210598e+09 4.481256e+06
1.5189213e+08 397631.84 1.2869174e+08 131121.81 3.9221495e+06 22001.295 2.3812928e+07 136586.67
2.3158571e+08 532645.3 1.17421496e+08 172653.81 2.6821318e+08 596394.8 1.1599579e+08 227131.12
4.6539904e+07 186219.42 1.8414683e+08 135357.89 1.511301e+08 232837.94 3.9578655e+06 23793.223
1.4587438e+08 71957.17 4.5455948e+07 155387.28 2.7753248e+08 648002.8 9.789847e+06 48396.184

exp_avg f4 [40]
00000000: 8ea7 8040 048a be42 78de 56c2 0363 84c1
00000010: bf28 d0c1 430b 4341 a4c3 a2c1 a977 5542
00000020: d248 98c2 3afd 7b42 6996 2342 c4ea 1242
00000030: 1997 0dc2 253f 18c2 8997 1540 42d7 33c2
00000040: c26b e1c1 7f83 34c2 0d34 4342 b662 0941
00000050: a79d 8a41 a7cd 85c1 88c5 b642 fb61 c7c2
00000060: bacf 99c2 497f 3441 afd8 39c1 0a42 c0c1
00000070: 106e a341 2709 3742 b85d 6741 7cd8 c541
00000080: 40cc 31c2 2ac8 26bf 0357 9640 1ce4 2942
00000090: 458e 8fc1 6683 8041 c6cb 6742 eff2 e0c1
4.0204535 95.26956 -53.717255 -16.548346 -26.019896 12.190249 -20.345528 53.366856
-76.14223 62.99729 40.896885 36.729263 -35.397556 -38.061665 2.337374 -44.960213
-28.177616 -45.128414 48.80083 8.586599 17.326979 -16.725416 91.3858 -99.69137
-76.905716 11.2810755 -11.615401 -24.032246 20.428741 45.758938 14.460381 24.730705
-44.449463 -0.65149176 4.6981215 42.472763 -17.944468 16.06416 57.948997 -28.11862

exp_avg_sq f4 [40]
00000000: 0832 9f4b a349 6c4b 61e0 2f4c fa57 814b
00000010: 9283 cf4a 72ae 674b 4fdf 754a dd20 964a
00000020: 896e 144d 9cf4 1d4d 4b47 224a 5ab1 914c
00000030: 740b 294c acca 404b d219 9c4b 734c 1e4c
00000040: 53d2 894c 1818 004b 9995 844c ec1c a24a
00000050: baa4 a24a 9823 604a 4390 084b df56 fb4d
00000060: 733a 1c4c 62d3 d34a c068 174a 235e 5e4b
00000070: 48a8 604c 32ea b94b 2434 a04c cce1 b64b
00000080: 2b8f e04b 75dc 9b4b d3cb b24b f10d 1d4a
00000090: 53c6 a54a 17ed 4b4b 987c 8c4c 03e3 174b
2.0866064e+07 1.5485347e+07 4.6104964e+07 1.6953332e+07 6.799817e+06 1.5183474e+07 4.0283718e+06 4.9194065e+06
1.55642e+08 1.6562835e+08 2.6587708e+06 7.638498e+07 4.4314064e+07 1.2634796e+07 2.0460452e+07 4.1497036e+07
7.22582e+07 8.394776e+06 6.951239e+07 5.312118e+06 5.329501e+06 3.672294e+06 8.949827e+06 5.270968e+08
4.0954316e+07 6.941105e+06 2.480688e+06 1.4573091e+07 5.8892576e+07 2.4368228e+07 8.399286e+07 2.3970712e+07
2.943343e+07 2.0429034e+07 2.3435174e+07 2.5731802e+06 5.4321055e+06 1.3364503e+07 7.365549e+07 9.954051e+06
