1DCFD_PINN/1D_CFD_Rand_Eta0.1_Zeta0.1_periodic_Train_PINN.pt-15000.pt (torch, 112935 bytes, 42 tensors)

linears.0.weight f4 [40, 2]
-0.064106695 -0.03690403 0.051339604 0.0942073 -0.07618411 0.1127283 -0.091129206 0.10026683
-0.15114607 -0.28419033 0.1072445 -0.44183806 0.15013924 -0.29755968 -0.044264294 -0.2778467
0.06603373 -0.037379853 0.24771614 0.28290322 0.010245697 0.05073981 0.0130376825 0.0049163764
-0.05266657 -0.23883146 0.09437181 -0.18546025 0.12569645 0.07167703 -0.025461016 0.46204147
-0.14134598 -0.057446938 0.022489037 0.103230886 -0.35953987 0.10659208 0.20451082 0.07977471
0.01877355 -0.06179478 -0.03797918 -0.063573726 0.20435192 0.17314255 0.27598253 -0.2537095
-0.008838227 0.013939667 0.09989916 -0.23948392 0.068521366 -0.4708167 0.07126902 0.4450103
-0.41274574 0.17675686 0.116935015 -0.19044322 -0.053420417 -0.21649069 -0.029366268 0.42911986
0.078986526 0.22716407 0.22152767 0.29352307 -0.004370294 0.43708533 0.28406215 -0.27780214
-0.18126607 0.053075068 -0.2088248 0.02772529 -0.24245498 0.5418605 0.17237504 -0.08794248
00000000: 5f4a 83bd ae28 17bd 7a49 523d c2ef c03d
00000010: 6a06 9cbd 18de e63d f3a1 babd b258 cd3d
00000020: 09c6 1abe 6581 91be 01a3 db3d 9938 e2be
00000030: 1abe 193e be59 98be 7a4e 35bd ec41 8ebe
00000040: b13c 873d 9e1b 19bd 4da9 7d3e b1d8 903e
00000050: 91dd 273c 8cd4 4f3d 019c 553c 8e19 a13b
00000060: e7b8 57bd 3c90 74be 0246 c13d 4be9 3dbe
00000070: 92b6 003e 68cb 923d 9f93 d0bc b390 ec3e
00000080: 00bd 10be 7b4d 6bbd ee3a b83c b76a d33d
00000090: 9c15 b8be f34c da3d 496b 513e ec60 a33d
000000a0: fdca 993c 861c 7dbd 0f90 1bbd f132 82bd
000000b0: a141 513e 484c 313e 954d 8d3e 36e6 81be
000000c0: 36ce 10bc 3363 643c ee97 cc3d 463b 75be
000000d0: ee54 8c3d e30e f1be 7ef5 913d 64d8 e33e
000000e0: 6953 d3be c0ff 343e a07b ef3d 8c03 43be
000000f0: 5ecf 5abd bcaf 5dbe 8791 f0bc 99b5 db3e
00000100: b0c3 a13d b39d 683e 26d8 623e a848 963e
00000110: af34 8fbb a6c9 df3e 9870 913e 153c 8ebe
00000120: d09d 39be 3e65 593d 2bd6 55be 2620 e33c
00000130: 1e46 78be 5fb7 0a3f 1583 303e 301b b4bd

linears.0.bias f4 [40]
-0.020729901 -0.029241834 -0.005952059 -0.018272376 0.0059558554 -0.007989865 -0.016047977 -0.004318728
-0.02818186 -0.046878245 -0.0069256583 -0.015349406 -0.022696564 0.04325091 -0.04449971 -0.0163273
-0.0041913027 -0.042105474 0.03678421 -0.011389781 -0.004062332 0.04679349 -0.023535857 -0.039618723
0.026473641 -0.023461508 -0.0012448273 -0.057178766 0.017140348 -0.026641587 0.00456992 -0.012974327
0.021866146 -0.03077045 0.021011503 -0.020539068 0.03768692 0.043654744 0.047073346 -0.051398996
00000000: c1d1 a9bc 928c efbc 7d09 c3bb f3af 95bc
00000010: 5629 c33b ece7 02bc 0c77 83bc 1e84 8dbb
00000020: a5dd e6bc 6703 40bd a2f0 e2bb 137c 7bbc
00000030: 25ee b9bc de27 313d 5445 36bd d4c0 85bc
00000040: 3257 89bb ca76 2cbd 0aab 163d 349c 3abc
00000050: 501d 85bb 88aa 3f3d 45ce c0bc 3e47 22bd
00000060: 40df d83c 5932 c0bc 7929 a3ba 4834 6abd
00000070: ea69 8c3c 753f dabc 44bf 953b 4692 54bc
00000080: a220 b33c 5012 fcbc 5120 ac3c 8c41 a8bc
00000090: 9a5d 1a3d 51cf 323d fbcf 403d c187 52bd

linears.1.weight f4 [40, 40]
0.40774792 -0.25303966 0.15041009 0.40262428 0.022374786 -0.38654622 0.12003009 -0.099266574
-0.263038 0.25272658 -0.063063264 0.02350967 -0.06808979 0.061243154 -0.071608834 0.011323153
-0.04588696 0.030268356 0.011107415 -0.17654239 -0.18195799 0.06135783 -0.16560026 -0.14821273
0.27177846 -0.06752571 -0.034756035 0.065059654 0.004324318 0.040004462 0.126828 0.4479135
-0.06925779 0.10337581 -0.056896828 0.19513331 -0.25150388 0.17776558 0.18738079 0.34125948
0.17778182 0.09596342 0.21323662 0.05083018 -0.4021771 0.07847231 -0.30663404 0.12028826
0.016762141 -0.028677786 -0.21752536 -0.051974498 0.2603092 0.15466987 0.1394569 -0.037882827
-0.056376558 -0.24066857 0.09976492 0.06551487 0.09643747 -0.0135457115 0.026540672 0.14837192
-0.07261514 -0.145093 0.0805744 0.18006696 -0.060918987 0.027258115 -0.07985449 0.036890414
-0.06466228 0.19211897 -0.14698565 -0.09905271 -0.025334587 0.13229464 -0.0034684285 -0.029495897
-0.30554384 0.10197919 0.28251928 0.062144503 -0.032708835 -0.035226792 0.12115173 -0.15993844
0.19803639 -0.032578025 0.0036101944 0.22852226 -0.3313463 -0.16890073 0.11375659 0.06515811
0.34733248 0.07721367 0.10337416 -0.1342118 0.24069689 0.06711515 0.016067779 0.015862115
0.1213807 -0.16397288 -0.035711914 -0.058516804 -0.29789212 -0.037636027 0.0024145993 0.12938373
0.08661645 -0.018352972 0.31455964 0.12945963 -0.12436328 0.04626447 -0.023560464 0.1442408
0.34805933 0.14601701 0.292338 0.20526262 -0.10007164 0.27606192 0.14121704 -0.10534202
0.23309965 -0.022643268 -0.19082958 0.20694238 -0.24656525 0.024838846 0.07116019 0.13399807
0.034448817 0.14747363 0.074350536 -0.13234387 -0.33920318 0.028415168 -0.019553872 0.027522761
-0.113513485 -0.09358429 0.059628367 0.07479536 -0.13555126 0.043045614 -0.017107418 0.1376911
0.04766077 -0.1612445 0.30124763 -0.057619683 -0.022001099 -0.33636305 -0.28543293 -0.2334752
-0.15743837 0.28617236 -0.040474124 0.053466316 0.036833756 0.07610954 0.10737339 0.18458952
-0.049674425 0.07971687 0.018372182 0.32738677 0.17167377 -0.090181 -0.0090864785 -0.25900415
-0.34489357 -0.07499366 0.004693908 -0.12721421 -0.10068311 0.026339293 -0.0054734885 -0.11528589
0.19592355 0.1280481 -0.0778589 -0.17052579 -0.1891345 0.044195566 -0.32970545 -0.19573955
0.25436494 -0.11782235 -0.11173765 0.040528074 -0.08134814 0.059673708 0.13970733 0.15342285
0.20148969 0.09322542 -0.1172343 0.052359343 -0.07559428 0.16414805 -0.097283326 -0.35800803
-0.0045399405 -0.11872401 -0.067172125 0.052232534 0.118081585 0.08579144 0.17342882 -0.022192542
-0.19612402 0.010448865 0.040138785 -0.3011915 0.016155737 0.10546408 -0.22093552 0.19320254
0.32490915 0.13978444 0.0035913184 -0.08144124 -0.04797915 -0.2094288 0.12508582 -0.24321412
-0.34249586 -0.28045282 -0.13372284 0.05685309 -0.003551667 0.0024102724 -0.05232115 -0.12690009
0.2820321 0.18314524 -0.02160258 0.040847212 -0.19692713 -0.17368904 0.032300748 0.14846183
0.03839176 0.039633572 -0.13657314 0.001459913 0.21605322 -0.0026155212 0.24940267 0.24684899
00000000: 56c4 d03e 6a8e 81be 1a05 1a3e c524 ce3e
00000010: 544b b73c 63e9 c5be 56d2 f53d 464c cbbd
00000020: ebac 86be 6165 813e 5027 81bd 5a97 c03c
00000030: a972 8bbd 1ada 7a3d a7a7 92bd bf84 393c
00000040: f7f3 3bbd 58f5 f73c e0fb 353c 87c7 34be
00000050: 3253 3abe 5952 7b3d 1d93 29be 14c5 17be
00000060: 8c26 8b3e eb4a 8abd 585c 0ebd ff3d 853d
00000070: 02b3 8d3b b8db 233d 33df 013e eb54 e53e
00000080: 07d7 8dbd b2b6 d33d a60c 69bd 07d1 473e
00000090: 1ec5 80be 2e08 363e c0e0 3f3e 90b9 ae3e
000000a0: 700c 363e 7888 c43d b35a 5a3e 4f33 503d
000000b0: 28ea cdbe 17b6 a03d 23ff 9cbe b159 f63d
000000c0: c250 893c aded eabc f8be 5ebe 36e3 54bd
000000d0: 3f47 853e c761 1e3e cacd 0e3e 062b 1bbd
000000e0: 1beb 66bd d271 76be 8d51 cc3d a92c 863d
000000f0: 0281 c53d d5ee 5dbc d36b d93c cfee 173e
00000100: 3fb7 94bd 4293 14be 3104 a53d 7963 383e
00000110: 3086 79bd 694c df3c c08a a3bd 671a 173d
00000120: a86d 84bd d6ba 443e 6883 16be 26dc cabd
00000130: 7b8a cfbc 3f78 073e 934e 63bb 61a1 f1bc
00000140: 3e70 9cbe 77da d03d 5ea6 903e 3c8b 7e3d
00000150: b3f9 05bd f849 10bd 661e f83d e7c6 23be
00000160: 0dca 4a3e 8970 05bd 0399 6c3b bd01 6a3e
00000170: 39a6 a9be 50f4 2cbe 37f9 e83d 9d71 853d
00000180: 90d5 b13e 3322 9e3d d5b5 d33d d16e 09be
00000190: 3f79 763e ab73 893d 93a0 833c 44f1 813c
000001a0: 7296 f83d 82e8 27be a846 12bd 51af 6fbd
000001b0: 5185 98be 3c28 1abd 413e 1e3b 2b7d 043e
000001c0: f763 b13d f958 96bc f60d a13e 1191 043e
000001d0: 2db2 febd d07f 3d3d e001 c1bc dcb3 133e
000001e0: d534 b23e 7c85 153e 54ad 953e 5d30 523e
000001f0: 5cf2 ccbd fd57 8d3e 339b 103e 8fbd d7bd
00000200: adb1 6e3e 607e b9bc d468 43be b4e8 533e
00000210: 9a7b 7cbe d67a cb3c 6fbc 913d ca36 093e
00000220: 341a 0d3d 5403 173e 1845 983d 2785 07be
00000230: 0aac adbe edc6 e83c 712f a0bc 6a77 e13c
00000240: c279 e8bd 1fa9 bfbd e03c 743d 4f2e 993d
00000250: f3cd 0abe 9950 303d db24 8cbc e5fe 0c3e
00000260: f137 433d 471d 25be 213d 9a3e 9e02 6cbd
00000270: a63b b4bc c737 acbe 4424 92be 1f14 6fbe
00000280: 8637 21be 2f85 923e 32c8 25bd 7fff 5a3d
00000290: fede 163d 52df 9b3d 94e6 db3d 0905 3d3e
000002a0: 6977 4bbd 9942 a33d 4281 963c 3d9f a73e
000002b0: 40cb 2f3e d1b0 b8bd 74df 14bc 319c 84be
000002c0: e495 b0be 4796 99bd 5bcf 993b 7144 02be
000002d0: f232 cebd 80c5 d73c f35a b3bb 021b ecbd
000002e0: 2fa0 483e 0b1f 033e 7d74 9fbd 509e 2ebe
000002f0: 79ac 41be 6906 353d 27cf a8be f36f 48be
00000300: 1f3c 823e d84c f1bd b6d6 e4bd c400 263d
00000310: db99 a6bd 6b6c 743d 700f 0f3e e11a 1d3e
00000320: 5053 4e3e f8ec be3d 8918 f0bd c076 563d
00000330: 2dd1 9abd 6d16 283e 7b3c c7bd d44c b7be
00000340: c8c3 94bb 9325 f3bd 8a91 89bd c8f1 553d
00000350: c2d4 f13d 6cb3 af3d 5397 313e 22cd b5bc
00000360: bcd4 48be b731 2b3c 9168 243d c635 9abe
00000370: 0959 843c 8dfd d73d ec3c 62be e3d6 453e
00000380: 7e5a a63e a723 0f3e 535c 6b3b aaca a6bd
00000390: c985 44bd 8174 56be 7f16 003e 1f0d 79be
000003a0: 9e5b afbe 8397 8fbe a4ee 08be c9de 683d
000003b0: 16c3 68bb a9f5 1d3b b44e 56bd 19f2 01be
000003c0: 8366 903e 6d8a 3b3e e5f7 b0bc 684f 273d
000003d0: 44a7 49be 8adb 31be ca4d 043d 6106 183e
000003e0: ae40 1d3d d056 223d d4d9 0bbe 8d5a bf3a
000003f0: 0e3d 5d3e 2a69 2bbb 6a63 7f3e fbc5 7c3e

linears.1.bias f4 [40]
-0.04638629 0.006492507 0.04038317 -0.027256977 0.013445637 -0.03250891 0.012752324 0.031437922
0.032644663 -0.024658924 0.009381097 0.007444847 -0.024773078 -0.026605837 0.020210348 -0.0059612654
0.008718631 0.008984098 -0.029307578 -0.016063811 -0.0108789615 0.01828827 -0.03285366 -0.020534845
0.023353638 0.010056806 -0.003107402 0.046981886 0.027001651 -0.028482577 0.007979057 0.01309139
0.0136626735 0.010398944 -0.046443507 0.0152804 0.034034614 -0.041106824 0.036882903 -0.0077890093
00000000: 8dff 3dbd 19bf d43b d368 253d 064a dfbc
00000010: 174b 5c3c 1028 05bd 20ef 503c 0dc5 003d
00000020: 69b6 053d 8301 cabc 2cb3 193c e7f3 f33b
00000030: e9f0 cabc 7cf4 d9bc 2c90 a53c b856 c3bb
00000040: 97d8 0e3c 0a32 133c 7216 f0bc 4198 83bc
00000050: ac3d 32bc 48d1 953c 8f91 06bd b138 a8bc
00000060: 2150 bf3c 4dc5 243c 8ea5 4bbb 1470 403d
00000070: 9132 dd3c 4b54 e9bc 97ba 023c 457d 563c
00000080: 68d9 5f3c 5560 2a3c 8c3b 3ebd a55a 7a3c
00000090: e167 0b3d a15f 28bd 8712 173d f23a ffbb

linears.2.weight f4 [40, 40]
-0.035788134 -0.007942282 0.043050773 0.18181047 -0.17838006 0.2148959 0.27379626 0.0027743762
0.058832232 -0.079118825 0.29887807 -0.026259247 0.1562765 -0.0043607866 -0.26692867 -0.08960592
0.072066925 -0.18086536 0.24073839 -0.1618074 -0.21492942 0.013574039 -0.073953256 0.21718276
-0.0882234 -0.08159197 0.25172308 -0.018699817 0.036397535 -0.08506721 0.22642273 -0.2004611
0.02104744 -0.23378174 0.028323738 -0.062540345 0.1916726 -0.15634137 0.10059937 -0.065819986
0.14242485 -0.019645877 0.37387896 0.028289275 -0.12986016 0.20602766 -0.16808245 -0.24223946
0.12918209 0.21280095 0.027640874 0.023465648 -0.020905362 -0.13234398 -0.12869197 -0.32049054
0.058445536 0.09996633 0.0851422 0.16249143 0.12134076 -0.3745223 0.07878253 0.26141858
-0.089445 -0.10473068 -0.18553697 -0.09669208 -0.25441647 -0.16352354 -0.09810451 -0.16134241
-0.019698188 0.100243725 0.14694649 -0.008127313 -0.00483958 0.094134904 0.06033329 -0.03106811
0.2294814 -0.099442996 0.061531715 0.19020183 -0.19828306 0.13681978 -0.022893827 -0.04377789
0.0011457073 0.15499198 0.07237086 -0.34570315 -0.19613974 -0.12777886 0.09571191 0.24795339
-0.15719983 0.24266624 0.09586534 -0.19105765 -0.03416603 -0.31367445 0.073349394 0.08031718
-0.23776284 -0.030636178 -0.04368023 -0.20133807 0.20411865 0.1479974 -0.24096571 -0.12498677
0.39254564 -0.03790411 0.0305343 0.10219484 -0.007184203 0.2599494 -0.19787613 -0.06592458
-0.023171213 0.2180874 0.22019485 -0.12635538 -0.07747293 0.32523057 -0.060623027 -0.04908132
-0.08109405 0.21157919 0.15822423 0.20691027 0.46081918 0.26256046 -0.031064186 0.032696147
0.14407681 -0.088497855 -0.23392276 -0.029630896 -0.006494928 0.23819387 0.17574374 0.19784278
0.07025204 -0.24434839 -0.21152541 0.09318194 -0.08139402 0.09779928 -0.03598646 -0.09585176
0.08063109 -0.014343939 -0.073948845 0.028978815 0.0766269 -0.20198041 0.20260371 -0.2744133
-0.2523529 0.18704553 -0.06605427 -0.06908966 0.21759935 -0.05416205 -0.15655378 -0.09594149
0.06590933 -0.16933402 0.020477265 0.26589155 -0.17557475 -0.022416607 0.06331853 -0.008237969
0.18884711 -0.058892235 0.01855768 0.087168 -0.1773582 0.09562637 -0.051524855 0.075504445
0.030395113 -0.020062825 -0.20147713 0.014980838 0.049946837 -0.33056846 -0.026024314 -0.066662885
-0.14099522 -0.14832826 0.106519245 -0.058623906 -0.17124468 -0.014211413 0.14418322 0.17568944
0.051101957 -0.21423256 -0.016419746 0.004528736 -0.3415096 -0.034758374 -0.1876407 0.0043174406
0.05618337 0.2344641 -0.042096563 -0.02613324 0.15977186 0.09783933 0.1938128 -0.1826782
-0.23981972 -0.14591198 0.20220658 0.04257728 0.06903567 0.04817353 -0.15843596 0.23880649
-0.13548765 0.0201289 0.29774597 0.10754726 -0.14953564 0.034741446 -0.065607965 -0.14811336
0.00767385 0.20119323 0.056790296 0.01758226 -0.03135448 0.15125133 -0.17969468 0.15500726
0.06632098 0.07122072 0.09808577 0.10848048 -0.03090868 0.16519047 -0.15621147 0.24185002
-0.17543966 -0.28980213 0.26592478 -0.02512274 -0.34781787 0.10245555 0.038759008 0.2265219
00000000: 9496 12bd 5820 02bc 0256 303d 862c 3a3e
00000010: 43a9 36be ac0d 5c3e 062f 8c3e 4fd2 353b
00000020: 11fa 703d 0d09 a2bd 8c06 993e a21d d7bc
00000030: f206 203e eee4 8ebb e0aa 88be 4f83 b7bd
00000040: d397 933d c534 39be 2084 763e d7b0 25be
00000050: 7516 5cbe a565 5e3c ce74 97bd 2865 5e3e
00000060: 78ae b4bd b119 a7bd d9e1 803e 5c30 99bc
00000070: 9515 153d b837 aebd 5cdb 673e ad45 4dbe
00000080: ae6b ac3c 7b64 6fbe 2f07 e83c 2715 80bd
00000090: d245 443e f417 20be 0b07 ce3d a1cc 86bd
000000a0: d2d7 113e 64f0 a0bc 106d bf3e e9be e73c
000000b0: 10fa 04be eaf8 523e ce1d 2cbe 9f0d 78be
000000c0: 4f48 043e 7ee8 593e 1d6f e23c 083b c03c
000000d0: b941 abbc 2e85 07be d4c7 03be 5617 a4be
000000e0: 9664 6f3d 26bb cc3d 095f ae3d 2764 263e
000000f0: 8181 f83d 63c1 bfbe bc58 a13d a8d8 853e
00000100: f12e b7bd 0a7d d6bd 67fd 3dbe 7f06 c6bd
00000110: e042 82be b772 27be 04eb c8bd f236 25be
00000120: 185e a1bc 954c cd3d 2479 163e 6c28 05bc
00000130: 5795 9ebb cdc9 c03d 0a20 773d 8d82 febc
00000140: 2cfd 6a3e c5a8 cbbd ae08 7c3d 45c4 423e
00000150: b70a 4bbe 7c1a 0c3e d68b bbbc 7250 33bd
00000160: 8f2b 963a 38b6 1e3e 2c37 943d 0100 b1be
00000170: dbd8 48be 76d8 02be 9b04 c43d 7ee7 7d3e
00000180: fef8 20be 807d 783e 0c55 c43d 9ea4 43be
00000190: aef1 0bbd f099 a0be 3538 963d 557d a43d
000001a0: 1a78 73be b9f8 fabc 0aea 32bd 912b 4ebe
000001b0: 7b04 513e a18c 173e b7bf 76be 10f9 ffbd
000001c0: befb c83e 5741 1bbd 1123 fa3c 874b d13d
000001d0: 7669 ebbb 1618 853e 0aa0 4abe 7703 87bd
000001e0: 8ed1 bdbc 4e52 5f3e c27a 613e 4e63 01be
000001f0: 21aa 9ebd 9f84 a63e da4f 78bd 7f09 49bd
00000200: a314 a6bd 37a8 583e 8805 223e 49e0 533e
00000210: 7ef0 eb3e 536e 863e 527a febc 65ec 053d
00000220: df88 133e 5d3e b5bd 7389 6fbe 7ebc f2bc
00000230: 68d3 d4bb 18e9 733e 2bf6 333e 4c97 4a3e
00000240: 4de0 8f3d 7736 7abe 1e9a 58be 2cd6 be3d
00000250: e8b1 a6bd fd4a c83d 8a66 13bd ed4d c4bd
00000260: ea21 a53d d702 6bbc 7e72 97bd fb64 ed3c
00000270: 90ee 9c3d f4d3 4ebe 5977 4f3e e67f 8cbe
00000280: 6634 81be dd88 3f3e 7647 87bd e17e 8dbd
00000290: 5dd2 5e3e 07d9 5dbd a24f 20be f97c c4bd
000002a0: 79fb 863d e665 2dbe f0bf a73c f022 883e
000002b0: dec9 33be 08a3 b7bc 25ad 813d 8cf8 06bc
000002c0: 2361 413e fc38 71bd 4706 983c 2385 b23d
000002d0: 639d 35be c2d7 c33d ba0b 53bd 13a2 9a3d
000002e0: 2cff f83c cb5a a4bc 0550 4ebe 3072 753c
000002f0: 0e95 4c3d 4540 a9be f130 d5bc 8d86 88bd
00000300: 0d61 10be 5de3 17be c326 da3d 9f1f 70bd
00000310: c45a 2fbe fdd6 68bc c4a4 133e efe7 333e
00000320: 4950 513d c85f 5bbe b482 86bc cb65 943b
00000330: 59da aebe cc5e 0ebd e224 40be 5179 8d3b
00000340: 8920 663d 5b17 703e 726d 2cbd 6015 d6bc
00000350: 3c9b 233e fd5f c83d dd76 463e fe0f 3bbe
00000360: 4d93 75be f369 15be 3e0f 4f3e 8465 2e3d
00000370: 9362 8d3d 9b51 453d 093d 22be b089 743e
00000380: 46bd 0abe 5de5 a43c 2972 983e bd41 dc3d
00000390: df1f 19be 0c4d 0e3d 785d 86bd 07ab 17be
000003a0: eb74 fb3b 9905 4e3e f19c 683d ac08 903c
000003b0: 8e6d 00bd a1e1 1a3e e201 38be 39ba 1e3e
000003c0: 4bd3 873d 2bdc 913d 31e1 c83d 042b de3d
000003d0: 3334 fdbc b127 293e e6f5 1fbe 88a7 773e
000003e0: 74a6 33be f260 94be 4b27 883e 34ce cdbc
000003f0: 2f15 b2be 37d4 d13d c4c1 1e3d 5bf5 673e

linears.2.bias f4 [40]
-0.019871015 -0.012022906 0.030989934 0.007425516 0.0046080193 -0.035673626 0.031208772 -0.0010132508
0.019168306 -0.015408145 -0.0059080976 0.0070825787 0.0073959096 -0.01671762 -0.019257708 -0.02621787
-0.02962612 0.0046689403 0.014731933 -0.012347029 0.0071465964 -0.011308502 0.0017466067 0.0030847266
-0.00088054105 -0.008368125 -0.012122966 -0.004724754 0.01599291 -0.024009192 -0.009664005 0.0035937016
0.007207106 0.0072415643 0.03582041 -0.013926997 0.020365527 -0.01256052 -0.020739567 0.011086795
00000000: 8ac8 a2bc b9fb 44bc 9ade fd3c be51 f33b
00000010: defe 963b 821e 12bd 8aa9 ff3c 0ecf 84ba
00000020: da06 9d3c 7272 7cbc b798 c1bb fa14 e83b
00000030: 6359 f23b 64f3 88bc 57c2 9dbc dcc6 d6bc
00000040: 7ab2 f2bc e9fd 983b 355e 713c 314b 4abc
00000050: ff2d ea3b 4c47 39bc 65ee e43a 2029 4a3b
00000060: 1cd4 66ba 761a 09bc 689f 46bc 1cd2 9abb
00000070: 9003 833c edae c4bc c655 1ebc 4f84 6b3b
00000080: 9629 ec3b a54a ed3b 6cb8 123d 0f2e 64bc
00000090: 9bd5 a63c a4ca 4dbc 06e6 a9bc 63a5 353c

linears.3.weight f4 [40, 40]
-0.21747708 -0.100280166 0.010017102 -0.10685023 0.08896635 0.0049330383 0.21053003 -0.16407146
-0.1281169 0.14552233 -0.04307748 0.034081582 0.0977085 0.14912716 -0.013406249 0.04302506
0.109701894 -0.18689305 -0.23867473 -0.04233372 -0.11076152 0.08326953 -0.13527115 0.24429628
0.11812738 0.14121409 -0.20143719 0.123926364 -0.05974296 0.05206474 0.3563149 -0.37380242
-0.07966807 0.091509625 0.11446148 -0.042540215 0.081381306 -0.13040695 0.3038165 -0.17856897
-0.086055145 -0.22684297 -0.37816426 -0.100441344 0.26894167 0.019565118 -0.13713057 -0.41955897
0.046908565 0.13899966 0.01990211 -0.045929004 0.061752703 0.19212475 -0.041975547 0.24213912
0.22688286 0.25800675 0.18576573 0.017935406 -0.22212258 0.03410199 -0.0837741 -0.25325534
0.11168026 0.057535626 -0.28579766 0.35169345 0.108201355 0.014415253 0.117816016 0.08410274
0.10224944 0.0874756 -0.05550697 0.052256126 -0.14315194 0.17466088 0.034965314 -0.101060115
0.12224843 0.24385273 0.2590873 -0.12773347 -0.15007737 -0.06391262 0.17586051 0.079223596
0.13305189 0.21843885 0.37642586 0.19685899 -0.1396297 -0.2014569 0.020670429 0.16483559
-0.21617213 -0.03382853 -0.30075634 0.2457699 0.026827808 -0.11801363 -0.30525714 0.12250094
-0.01240785 0.017964315 0.12444822 0.39985114 -0.035321124 0.012342653 -0.0046567526 0.14791177
-0.072155185 0.086489156 -0.016927226 0.09870181 -0.19313452 0.06659872 -0.31659824 -0.1870783
-0.09887237 0.23827171 0.15814634 -0.09983931 -0.22061042 -0.056553982 -0.027558897 0.24851646
0.13542014 -0.022520414 0.21157764 -0.058011245 0.2431573 0.05034811 -0.17753503 0.33767933
0.26427144 -0.034125797 0.015490077 -0.07385692 0.0727523 0.13988754 -0.074179865 0.14737186
-0.16666104 -0.038048122 -0.08578412 -0.26167783 0.08494726 0.023151843 0.1577374 0.13322079
-0.1841585 0.12725437 -0.07114052 -0.20555821 0.083564974 0.20951994 -0.051885784 -0.13436005
0.057651415 -0.04857984 -0.19969524 0.051689167 0.32478014 0.042230427 0.07902342 0.22086899
0.09062529 0.035835452 -0.23862797 0.10915689 -0.080645524 -0.22209167 -0.13389407 -0.030374818
0.110189386 0.13947482 -0.15204413 -0.18725908 -0.20711681 -0.0035432368 0.12336269 0.0789827
0.116656005 -0.06993227 0.041645464 -0.20179082 -0.13267669 -0.04765662 0.05657045 0.26438716
0.014100005 -0.10603566 -0.13008437 0.08390959 0.097185805 0.050031245 0.12447631 -0.4695712
0.065979384 -0.04683768 0.04070466 0.10537148 0.1052109 0.18626781 -0.113400586 -0.34156758
-0.066936344 0.019167898 -0.0749505 -0.10128775 -0.1785598 -0.12716429 -0.04909068 -0.015704948
-0.09976336 0.09868081 0.0076485607 0.15821943 0.02455829 0.105643034 -0.0018624612 -0.05712992
-0.07668648 0.06522833 0.048237376 0.092761114 -0.08601855 -0.017375212 0.07554796 -0.15515271
-0.046865497 0.2537119 0.18524279 -0.18074992 -0.23102197 0.070055075 0.210829 0.32036808
0.026567595 -0.10067168 -0.013990406 -0.023301762 -0.43462816 -0.113220066 -0.02556123 -8.122574e-05
-0.25665542 -0.0037976936 0.002173237 -0.20980409 0.26304635 -0.10702531 -0.052236985 0.22882687
00000000: 50b2 5ebe b05f cdbd c51e 243c 4bd4 dabd
00000010: fd33 b63d 53a5 a13b 2f95 573e 5902 28be
00000020: 1431 03be ce03 153e 0372 30bd 2199 0b3d
00000030: 651b c83d cab4 183e e2a5 5bbc 0c3b 303d
00000040: 63ab e03d e460 3fbe 2667 74be 1f66 2dbd
00000050: f0d6 e2bd 3789 aa3d 8584 0abe ce28 7a3e
00000060: c5ec f13d 6d9a 103e 8d45 4ebe 1bcd fd3d
00000070: 09b5 74bd d641 553d e86e b63e 0863 bfbe
00000080: 0329 a3bd 6669 bb3d c86a ea3d a63e 2ebd
00000090: 3eab a63d 6689 05be d68d 9b3e c9da 36be
000000a0: ae3d b0bd 8649 68be bf9e c1be 31b4 cdbd
000000b0: b9b2 893e 0747 a03c f56b 0cbe 6fd0 d6be
000000c0: 3223 403d ed55 0e3e c009 a33c 0d20 3cbd
000000d0: 67f0 7c3d 5abc 443e 8dee 2bbd 51f3 773e
000000e0: fb53 683e 7619 843e 5f39 3e3e 46ed 923c
000000f0: 1a74 63be 87ae 0b3d c191 abbd afaa 81be
00000100: 9fb8 e43d 7aaa 6b3d 1254 92be 2a11 b43e
00000110: ac98 dd3d f42d 6c3c 8649 f13d 0f3e ac3d
00000120: 2868 d13d 6826 b33d 475b 63bd 850a 563d
00000130: 6c96 12be 4dda 323e ca37 0f3d 9bf8 cebd
00000140: 635d fa3d 88b4 793e 17a7 843e 90cc 02be
00000150: e2ad 19be 9fe4 82bd c714 343e fb3f a23d
00000160: c13e 083e 6fae 5f3e e4ba c03e 6795 493e
00000170: 17fb 0ebe b84a 4ebe 0855 a93c a9ca 283e
00000180: 3a5c 5dbe c98f 0abd bcfc 99be 1bab 7b3e
00000190: fec5 db3c 21b1 f1bd aa4a 9cbe c6e1 fa3d
000001a0: 4b4a 4bbc e629 933c b5de fe3d 4ab9 cc3e
000001b0: e2ac 10bd d738 4a3c ac97 98bb 2f76 173e
000001c0: 19c6 93bd 3a21 b13d f7aa 8abc 2d24 ca3d
000001d0: 0ec5 45be e964 883d 2a19 a2be 7491 3fbe
000001e0: 997d cabd 80fd 733e 1df1 213e 8d78 ccbd
000001f0: b3e7 61be 26a5 67bd 32c3 e1bc 197b 7e3e
00000200: 94ab 0a3e bb7c b8bc cfa7 583e 339d 6dbd
00000210: 3afe 783e d239 4e3d becb 35be 4ee4 ac3e
00000220: 964e 873e 7ec7 0bbd 18ca 7d3c 4c42 97bd
00000230: 28ff 943d ae3e 0f3e 9deb 97bd a6e8 163e
00000240: 31a9 2abe 59d8 1bbd 96af afbd a3fa 85be
00000250: d4f8 ad3d efa8 bd3c ea85 213e 086b 083e
00000260: 0c94 3cbe f84e 023e 1fb2 91bd da7d 52be
00000270: 1d24 ab3d 658c 563e 3086 54bd ae95 09be
00000280: e423 6c3d a8fb 46bd e97c 4cbe 05b8 533d
00000290: 9549 a63e d0f9 2c3d 08d7 a13d 7b2b 623e
000002a0: c199 b93d 32c8 123d e45a 74be a68d df3d
000002b0: 7b29 a5bd 006c 63be 871b 09be 9cd4 f8bc
000002c0: f9aa e13d 7dd2 0e3e 75b1 1bbe d8c0 3fbe
000002d0: 6e16 54be a635 68bb 94a5 fc3d afc1 a13d
000002e0: 58e9 ee3d a638 8fbd 6f94 2a3d 41a2 4ebe
000002f0: 66dc 07be 9733 43bd 6bb6 673d c15d 873e
00000300: b503 673c 3929 d9bd d634 05be cbd8 ab3d
00000310: 5a09 c73d 90ed 4c3d 70ed fe3d a36b f0be
00000320: 3320 873d ded8 3fbd eeb9 263d 01cd d73d
00000330: d078 d73d fdbc 3e3e 913e e8bd f2e1 aebe
00000340: ec15 89bd ff05 9d3c a67f 99bd f46f cfbd
00000350: 61d8 36be 5b37 02be 4f13 49bd aaa7 80bc
00000360: bc50 ccbd 2a19 ca3d c7a0 fa3b 4604 223e
00000370: 782e c93c 605b d83d d41d f4ba 1001 6abd
00000380: cd0d 9dbd 6e96 853d 8e94 453d 8af9 bd3d
00000390: 7e2a b0bd 7656 8ebc e4b8 9a3d 5ae0 1ebe
000003a0: 09f6 3fbd 87e6 813e 49b0 3d3e 8216 39be
000003b0: 0691 6cbe 0979 8f3d 8fe3 573e 4907 a43e
000003c0: 49a4 d93c f42c cebd 0438 65bc 56e3 bebc
000003d0: 9587 debe ecdf e7bd c965 d1bc bd57 aab8
000003e0: 5768 83be bae2 78bb de6c 0e3b e2d6 56be
000003f0: 03ae 863e 1630 dbbd 73f6 55bd 9751 6a3e

linears.3.bias f4 [40]
0.012746538 -0.012279366 0.009384437 -0.0077547743 0.003072095 -0.01327122 0.029648634 0.0056132036
-0.004432259 0.015685853 0.007943528 0.035311412 -0.008419143 -0.024179019 0.008607909 0.03419776
0.008986356 -0.013147489 0.0072349873 -0.010499244 0.025133926 0.010054587 -0.01722864 0.0049921144
0.0060635866 -0.009622824 0.00014020388 0.009193855 -0.0015957677 0.00016512595 -0.005066848 0.0091635715
-0.0046520825 -0.0018609167 0.0070634168 0.002651393 0.01695164 -0.002201758 -0.025685573 0.010450168
00000000: dbd6 503c 652f 49bc 2fc1 193c c31b febb
00000010: 3455 493b 886f 59bc b1e1 f23c f7ee b73b
00000020: 7c3c 91bb 9e7f 803c 9225 023c b3a2 103d
00000030: 72f0 09bc 1413 c6bc 3008 0d3c f312 0c3d
00000040: 823b 133c 9168 57bc 7913 ed3b 0505 2cbc
00000050: aae5 cd3c ffbb 243c 1423 8dbc e494 a33b
00000060: 0db1 c63b 0da9 1dbc b103 1339 d3a1 163c
00000070: 1429 d1ba a925 2d39 cd07 a6bb ce22 163c
00000080: 7f70 98bb 01ea f3ba 3c74 e73b fec2 2d3b
00000090: 2ade 8a3c 5f4b 10bb 8d6a d2bc 2e37 2b3c

linears.4.weight f4 [40, 40]
-0.028636647 -0.052970294 -0.13024698 -0.0011310312 -0.18555932 -0.2712708 -0.10108493 -0.08660752
-0.04757726 0.09924466 -0.20292154 -0.2647617 0.11529432 -0.073941745 -0.14406513 0.05212762
-0.2235397 0.16541258 0.05934041 0.20635374 0.1799793 -0.25170302 0.31659558 0.16256495
0.03801464 0.0035387909 -0.084867 0.066430986 -0.22741905 -0.14482224 -0.16210568 -0.119257554
0.4093913 0.08764219 -0.08142635 0.011039269 0.10645175 0.06628942 0.1305096 0.12067984
0.23746668 -0.05941239 0.09227916 -0.21685623 -0.28572217 -0.08834412 0.074690774 0.020586459
0.057584047 0.06421157 0.058222063 -0.09607859 -0.25163403 -0.16764924 -0.13497083 0.12511696
-0.3436271 -0.045955475 -0.19197358 0.020271994 -0.099759474 0.1544736 0.19421366 -0.19741881
-0.014255709 -0.12741911 -0.04863885 0.13215901 0.062622435 -0.03866612 -0.09276978 0.01703989
0.3844758 0.01463523 0.20465197 0.040866148 0.29947928 -0.082029 -0.31033194 -0.11724436
-0.003051906 0.22774258 -0.008169886 0.060023498 0.0008035409 0.18343665 0.1598688 0.10116543
-0.026786208 0.041567817 -0.31995678 0.02967083 0.06452866 0.112542115 -0.12815836 0.2723252
0.06375027 0.23747137 0.18648838 -0.03833206 0.028243374 0.13968651 -0.31048808 0.03541774
0.078309245 0.03543436 -0.100203805 0.26724994 0.20071411 0.16245092 0.14000684 0.020701567
-0.078074306 0.027603703 -0.3075422 0.25748414 0.049406316 0.1620262 0.09977089 0.100846976
0.09588065 0.08616109 0.018224683 0.18504997 0.006279611 -0.021520056 -0.022438908 -0.11411096
0.28638867 -0.0991906 -0.067641206 -0.074122675 0.05789241 0.039455146 0.19713591 -0.1482575
0.11865937 0.117621526 0.10369997 -0.21680228 0.24694791 0.15500301 0.025037711 -0.11631482
0.110174775 -0.08460453 0.03267882 -0.17593823 -0.32596898 -0.24799293 -0.09019847 -0.036817297
-0.22020748 0.3026862 0.108647 -0.14656474 0.48653382 -0.005466474 0.1373418 0.13306789
0.04371612 -0.08774912 0.018016329 0.0155970855 -0.23636408 0.029432537 0.07566324 -0.017714947
0.05326634 0.03346973 0.011293508 0.15149163 0.21691553 0.16326296 0.2665856 -0.11090472
-0.015695125 -0.09852537 -0.06484924 -0.18492955 -0.083360076 -0.023884451 0.14215523 0.07506699
-0.09535864 0.23151882 0.17621998 0.31042796 -0.08658711 -0.15566497 0.09053287 0.018278895
0.06808251 0.030950366 -0.18219718 0.0060994034 0.19003579 0.12103815 0.21118338 -0.40380645
0.03261682 0.14858745 -0.014066206 0.1377447 -0.019153494 0.13610677 -0.069659576 0.0590917
0.018997354 0.19297816 -0.057482805 -0.10480278 0.14400305 -0.16413845 -0.13448416 0.041856684
0.34487662 0.08299025 0.032885294 -0.23679733 0.08449125 0.014478435 0.05565334 -0.017302549
-0.14736855 -0.023929462 -0.3527389 -0.23477364 -0.28702328 -0.07719836 0.111815885 0.19443043
-0.19756424 0.41314662 -0.0825549 -0.048165653 -0.23181646 0.028215062 0.20993468 -0.029480547
-0.07684544 -0.3493891 0.0057825316 -0.00023991404 0.16597106 0.18991388 -0.03916888 0.03977715
-0.034480028 0.011690152 -0.10944329 -0.26624215 -0.09792043 0.06924921 0.15841602 0.017433496
00000000: 6797 eabc 61f7 58bd 775f 05be 1c3f 94ba
00000010: 4303 3ebe 02e4 8abe 9e05 cfbd 495f b1bd
00000020: 5fe0 42bd c940 cb3d aaca 4fbe d88e 87be
00000030: 6e1f ec3d c56e 97bd cf85 13be c583 553d
00000040: 97e7 64be ea61 293e ee0e 733d 654e 533e
00000050: 7e4c 383e 38df 80be d118 a23e 6d77 263e
00000060: 3db5 1b3d 0feb 673b c0ce adbd f80c 883d
00000070: 8ae0 68be 484c 14be 08ff 25be 4e3d f4bd
00000080: bd9b d13e c07d b33d dcc2 a6bd 0dde 343c
00000090: 6003 da3d bfc2 873d 4fa4 053e fe26 f73d
000000a0: 772a 733e 685a 73bd dbfc bc3d 8f0f 5ebe
000000b0: 2d4a 92be c3ed b4bd 7af7 983d efa4 a83c
000000c0: 40dd 6b3d 5b81 833d 427a 6e3d dac4 c4bd
000000d0: 2dd6 80be 3eac 2bbe cb35 0abe a91e 003e
000000e0: e4ef afbe cf3b 3cbd b994 44be 7411 a63c
000000f0: b24e ccbd 542e 1e3e f2df 463e 2828 4abe
00000100: c790 69bc 287a 02be 8839 47bd b154 073e
00000110: 3140 803d 5e60 1ebd 15fe bdbd 3d97 8b3c
00000120: 03da c43e 9bc8 6f3c 4990 513e 4363 273d
00000130: 5955 993e d2fe a7bd d4e3 9ebe d01d f0bd
00000140: 7c02 48bb 5a35 693e fcda 05bc 33db 753d
00000150: b8a4 523a d1d6 3b3e a6b4 233e d22f cf3d
00000160: c06e dbbc 0443 2a3d 60d1 a3be 3e10 f33c
00000170: 9a27 843d 7b7c e63d f23b 03be 356e 8b3e
00000180: 808f 823d b22b 733e cff6 3e3e 1402 1dbd
00000190: a65e e73c fb09 0f3e 4bf8 9ebe 3112 113d
000001a0: 9960 a03d 9f23 113d a737 cdbd fcd4 883e
000001b0: 0088 4d3e 8959 263e f45d 0f3e 5596 a93c
000001c0: 6ce5 9fbd 2921 e23c 2c76 9dbe f6d4 833e
000001d0: 475e 4a3d 32ea 253e ae54 cc3d dc88 ce3d
000001e0: 135d c43d 3a75 b03d ee4b 953c bd7d 3d3e
000001f0: 32c5 cd3b d44a b0bc cdd1 b7bc 02b3 e9bd
00000200: 89a1 923e 7124 cbbd 7987 8abd a1cd 97bd
00000210: 9720 6d3d b89b 213d ffdd 493e d0d0 17be
00000220: af03 f33d 8ee3 f03d a660 d43d 6b01 5ebe
00000230: eadf 7c3e 1cb9 1e3e e31b cd3c 7736 eebd
00000240: 50a3 e13d 2445 adbd 3ada 053d 2729 34be
00000250: 68e5 a6be dcf1 7dbe fab9 b8bd bccd 16bd
00000260: 127e 61be b0f9 9a3e 5182 de3d 1115 16be
00000270: f61a f93e 1c20 b3bb 54a3 0c3e f342 083e
00000280: ad0f 333d d0b5 b3bd fb96 933c eb8a 7f3c
00000290: 6d09 72be 811c f13c 54f5 9a3d f01e 91bc
000002a0: ce2d 5a3d 8e17 093d 6808 393c 9f20 1b3e
000002b0: 1b1f 5e3e 682e 273e e87d 883e 0422 e3bd
000002c0: 1093 80bc abc7 c9bd aecf 84bd 2c5e 3dbe
000002d0: b0b8 aabd 53a9 c3bc 2491 113e b9bc 993d
000002e0: 644b c3bd 4513 6d3e 0373 343e 6af0 9e3e
000002f0: 9554 b1bd a366 1fbe 4c69 b93d 9fbd 953c
00000300: d86e 8b3d 9f8b fd3c e691 3abe 81dd c73b
00000310: be98 423e d9e2 f73d 7540 583e b8bf cebe
00000320: 3799 053d 4f27 183e f275 66bc f20c 0d3e
00000330: cae7 9cbc 935f 0b3e aea9 8ebd 230a 723d
00000340: 57a0 9b3c 119c 453e 1773 6bbd d7a2 d6bd
00000350: 8975 133e e913 28be 37b6 09be ea71 2b3d
00000360: ab93 b03e cbf6 a93d bbb2 063d 007b 72be
00000370: c009 ad3d f536 6d3c c2f4 633d 13be 8dbc
00000380: c8e7 16be b807 c4bc 319a b4be 8068 70be
00000390: b7f4 92be 2c1a 9ebd baff e43d c518 473e
000003a0: 484e 4abe f487 d33e 8b12 a9bd 5949 45bd
000003b0: 4b61 6dbe 4623 e73c 1ef9 563e 3081 f1bc
000003c0: 2461 9dbd 21e3 b2be 647b bd3b 6f91 7bb9
000003d0: 51f4 293e c978 423e 8c6f 20bd 5ded 223d
000003e0: ee3a 0dbd 0d88 3f3c ce23 e0bd e450 88be
000003f0: 828a c8bd 88d2 8d3d cf37 223e b1d0 8e3c

linears.4.bias f4 [40]
0.008434271 0.030516183 0.0093769245 -0.007591218 0.016243473 -0.0031511679 -0.029131727 0.024255527
0.012285868 -0.011185755 0.006641237 -0.024930172 0.015966244 0.018410085 0.0048951944 -0.019479485
0.010263205 0.000251417 -0.018822983 -0.0014416828 0.017523842 0.011953746 0.00965406 -0.005634353
-0.01230232 0.01303871 -0.019877328 0.018665744 0.0137202805 -0.013556644 0.002470149 0.016968606
-0.013594282 -0.0037488765 0.0016503083 -0.009844832 -0.0032042034 -0.014610013 -0.008608719 -0.014044112
00000000: e62f 0a3c 13fd f93c aca1 193c c1bf f8bb
00000010: 0811 853c d383 4ebb a9a5 eebc 87b3 c63c
00000020: aa4a 493c 7544 37bc bc9e d93b 5c3a ccbc
00000030: a4cb 823c bfd0 963c de67 a03b 7193 9fbc
00000040: 0027 283c 9ed0 8339 a832 9abc d9f6 bcba
00000050: 298e 8f3c a5d9 433c 102c 1e3c 61a0 b8bb
00000060: ac8f 49bc 50a0 553c c7d5 a2bc e7e8 983c
00000070: 07cb 603c b01c 5ebc 39e2 213b bf01 8b3c
00000080: 8dba 5ebc b6af 75bb 284f d83a 384c 21bc
00000090: 9dfd 51bb d65e 6fbc 960b 0dbc 4619 66bc

linears.5.weight f4 [40, 40]
-0.00064271275 -0.22823666 -0.078843914 -0.107890345 -0.06811143 0.18346845 0.111060224 -0.10898
-0.14510894 0.122334495 -0.07068595 -0.052188966 0.083448984 0.3037708 -0.037821192 -0.31086975
-0.099446654 0.3351988 0.15362664 0.15724453 0.020181723 0.27279428 0.10632823 -0.041867625
-0.091006815 0.039419297 0.24680704 -0.100618675 0.26768625 0.09118252 -0.007459113 -0.06742102
-0.10404555 0.22647002 0.00591548 0.08803133 0.06080837 0.24973808 -0.15917277 -0.12682366
-0.08771511 0.15261649 0.27064183 0.27427983 0.0112221455 -0.1470202 -0.03729171 0.18357435
0.2428698 -0.11766074 0.062788054 0.114915445 -0.17824195 0.21949326 0.043316633 -0.11173727
0.04809991 -0.22186603 0.08431518 -0.1528608 0.011466724 -0.059173703 0.0034776302 -0.07689211
0.0816509 0.036663774 0.06490964 0.07910295 -0.00898573 0.1917856 0.21739772 -0.18353555
-0.09518555 0.18238683 -0.14553016 0.10624411 0.0034929393 -0.04336724 0.12139199 -0.18513355
0.022308283 -0.39252126 -0.058783576 0.017315693 -0.20846474 -0.3108564 0.029578717 -0.30722946
0.009309895 -0.08957946 0.18944226 0.23540284 -0.14430778 -0.31590575 0.10562716 -0.01874467
0.024345672 0.20040606 -0.12427629 -0.00070152833 -0.0029271902 -0.18173587 -0.017734023 -0.119504
0.109806515 -0.27661195 -0.07798526 0.08837706 -0.016468996 0.03319196 0.08753256 -0.035722163
-0.07874354 -0.01477203 -0.03765483 -0.068980195 0.17295225 -0.3267266 -0.2426105 -0.102859326
-0.05306557 0.006169706 -0.078048065 0.065092295 0.030568814 0.19905359 0.0077290633 -0.0026572987
-0.15796454 0.08812377 -0.15959455 -0.09053179 0.15095577 -0.087623596 -0.21610524 -0.014765709
-0.14230421 -0.039919585 -0.02028163 -0.21502651 -0.006951572 -0.058470853 0.00886303 -0.19192782
-0.05895593 0.05267076 0.19723834 -0.09468073 0.16667661 -0.2116859 -0.06297905 0.037926476
0.10014188 -0.09598189 0.024918722 -0.052510228 0.23909704 0.17734 -0.108881906 0.044176526
-0.34445524 -0.028418398 0.04476803 0.16863398 -0.008102874 0.07149649 -0.15722042 0.011475073
-0.05238322 -0.05293663 0.045221496 -0.06529897 0.023885107 0.13093096 0.1520704 -0.2197011
0.09623599 0.038279295 -0.20594184 -0.12803148 -0.034435455 -0.03251929 -0.014668782 -0.096262224
0.067618065 0.12573169 0.04291788 0.06763317 -0.022719653 -0.101350345 -0.006746344 -0.0004638642
-0.01930052 0.19976589 0.01409531 -0.11374431 0.011181118 -0.28114328 0.015997984 -0.01454804
-0.080286466 -0.014313659 -0.06051186 0.3607462 0.06083758 -0.04875924 0.16408649 0.2759953
-0.06045204 0.1102837 0.05850912 0.01840477 -0.057340138 -0.2970999 -0.15183619 -0.00350618
0.0073899594 -0.29194498 -0.0054418137 -0.070610434 -0.01668126 -0.024716178 0.0005787532 0.15707672
0.05521026 -0.083514504 -0.18103077 0.0652901 -0.12785086 -0.24364802 0.095214896 -0.017131004
-0.06018188 -0.06682405 -0.13080488 0.10471629 -0.17348126 0.022075312 -0.14944972 0.24721204
-0.001218219 -0.09498471 0.19749713 -0.12143222 0.17074934 -0.07052873 -0.1446778 -0.27092123
0.08174974 0.1334051 0.14393751 -0.03410723 -0.117657326 -0.03282065 0.1453038 0.014995199
00000000: b97b 28ba dfb6 69be eb78 a1bd 9df5 dcbd
00000010: 017e 8bbd 27df 3b3e 8b73 e33d e830 dfbd
00000020: 7097 14be 828a fa3d ccc3 90bd 19c4 55bd
00000030: 4de7 aa3d d987 9b3e 65ea 1abd 522a 9fbe
00000040: b0aa cbbd 2d9f ab3e 4d50 1d3e b604 213e
00000050: 2454 a53c b1ab 8b3e 9dc2 d93d 637d 2bbd
00000060: c861 babd 2176 213d fcba 7c3e 2a11 cebd
00000070: 2c0e 893e e7bd ba3d 936b f4bb 0814 8abd
00000080: d515 d5bd c2e7 673e a5d6 c13b c549 b43d
00000090: 3312 793d 57bb 7f3e 30fe 22be 10de 01be
000000a0: fba3 b3bd 7f47 1c3e 9191 8a3e 686e 8c3e
000000b0: 17dd 373c 778c 16be 31bf 18bd eafa 3b3e
000000c0: dcb2 783e 1df8 f0bd 0697 803d ca58 eb3d
000000d0: 0f85 36be d7c2 603e c86c 313d 83d6 e4bd
000000e0: 6904 453d d930 63be 70ad ac3d 8b87 1cbe
000000f0: edde 3b3c 2060 72bd f4e8 633b 9c79 9dbd
00000100: 9638 a73d c12c 163d 58ef 843d ba00 a23d
00000110: e238 13bc 7263 443e 829d 5e3e bef0 3bbe
00000120: a4f0 c2bd 9dc3 3a3e dc05 15be 8396 d93d
00000130: cce9 643b d9a1 31bd 5d9c f83d a693 3dbe
00000140: dcbf b63c 8cf8 c8be 0cc7 70bd a4d9 8d3c
00000150: c877 55be 9228 9fbe 114f f23c 2e4d 9dbe
00000160: 8888 183c 7075 b7bd 27fd 413e 710d 713e
00000170: 6bc5 13be 66be a1be 0d53 d83d 6c8e 99bc
00000180: 9370 c73c 3f37 4d3e 9184 febd c5e6 37ba
00000190: 1ad6 3fbb f818 3abe f146 91bc 83be f4bd
000001a0: 3de2 e03d 15a0 8dbe bcb6 9fbd 08ff b43d
000001b0: fde9 86bc 4bf4 073d 4544 b33d 6751 12bd
000001c0: 4b44 a1bd 6206 72bc f33b 1abd 7d45 8dbd
000001d0: 651a 313e b548 a7be e36e 78be e9a7 d2bd
000001e0: 485b 59bd 3f2b ca3b aad7 9fbd 1c4f 853d
000001f0: 736b fa3c b4d4 4b3e 1544 fd3b 1326 2ebb
00000200: 75c1 21be 3c7a b43d c16c 23be bb68 b9bd
00000210: 2694 1a3e 0074 b3bd b14a 5dbe dfeb 71bc
00000220: 32b8 11be b882 23bd a925 a6bc e92f 5cbe
00000230: 03ca e3bb 227f 6fbd 3e36 113c ba88 44be
00000240: c67b 71bd 4bbd 573d d9f8 493e f8e7 c1bd
00000250: 46ad 2a3e 30c4 58be 29fb 80bd cb58 1b3d
00000260: 3017 cd3d 2792 c4bd 5922 cc3c f714 57bd
00000270: dbd5 743e 9e98 353e 7afd debd 72f2 343d
00000280: 705c b0be b3cd e8bc af5e 373d 63ae 2c3e
00000290: ebc1 04bc c06c 923d 64fe 20be f201 3c3c
000002a0: ca8f 56bd 14d4 58bd 2d3a 393d 77bb 85bd
000002b0: b3aa c33c c412 063e 58b8 1b3e 53f9 60be
000002c0: 6017 c53d c0ca 1c3d 6be2 52be af1a 03be
000002d0: 310c 0dbd f232 05bd 5555 70bc 2125 c5bd
000002e0: 577b 8a3d cfbf 003e a9ca 2f3d 4283 8a3d
000002f0: 911e babc c590 cfbd 6f10 ddbb cd32 f3b9
00000300: 201c 9ebc 6e8f 4c3e 04f0 663c c7f2 e8bd
00000310: 0231 373c 03f2 8fbe 340e 833c e75a 6ebc
00000320: 3b6d a4bd d683 6abc 49db 77bd bab3 b83e
00000330: d430 793d c5b7 47bd 4a06 283e 424f 8d3e
00000340: 8f9c 77bd 6cdc e13d 42a7 6f3d 9ac5 963c
00000350: 7edd 6abd 7a1d 98be f27a 1bbe f0c7 65bb
00000360: 7927 f23b d079 95be 3e51 b2bb 349c 90bd
00000370: 23a7 88bc 9579 cabc 78b7 173a b8d8 203e
00000380: 2724 623d a709 abbd 2160 39be d1b6 853d
00000390: 56eb 02be de7e 79be 0700 c33d 5256 8cbc
000003a0: 4681 76bd 0cdb 88bd b7f1 05be 7f75 d63d
000003b0: 12a5 31be 49d7 b43c 5909 19be 2725 7d3e
000003c0: a6ac 9fba 5887 c2bd b03c 4a3e 75b1 f8bd
000003d0: ead8 2e3e 5e71 90bd 6b26 14be 30b6 8abe
000003e0: 686c a73d 599b 083e 5b64 133e 06b4 0bbd
000003f0: 53f6 f0bd f26e 06bd 85ca 143e 6cae 753c

linears.5.bias f4 [40]
0.02039835 0.024514668 -0.014523456 0.0065371906 0.0139182275 0.014287689 0.013525861 0.014089281
-0.00854253 -0.016200742 -0.005069052 -0.013017958 -0.021475222 0.025370149 0.014775456 0.0154281035
0.023174195 -0.0007058977 0.009792357 -0.006725057 0.0041734176 0.009544967 -0.01407981 -0.0070553515
0.00898216 -0.014769943 -0.013205962 -0.019664345 -0.0023180766 0.0217619 0.012207548 -0.0106245
-0.008675606 0.016647205 0.015517994 -0.012492196 -0.02124179 0.0046047447 -0.014597832 0.013637909
00000000: 711a a73c fcd2 c83c caf3 6dbc ee35 d63b
00000010: 4709 643c e916 6a3c 939b 5d3c bad6 663c
00000020: f8f5 0bbc 6bb7 84bc 4a1a a6bb 4649 55bc
00000030: ceec afbc 0fd5 cf3c c114 723c 28c6 7c3c
00000040: cfd7 bd3c fe0b 39ba 1f70 203c de5d dcbb
00000050: 2ac1 883b 7e62 1c3c 01af 66bc 9430 e7bb
00000060: e929 133c a2fd 71bc d25d 58bc 1f17 a1bc
00000070: dfea 17bb 0346 b23c 2b02 483c 6212 2ebc
00000080: 2124 0ebc b85f 883c 2f3f 7e3c 11ac 4cbc
00000090: 4303 aebc 66e3 963b bf2b 6fbc 8971 5f3c

linears.6.weight f4 [3, 40]
0.3068678 -0.06563454 -0.15490763 -0.13910724 0.34979105 0.09416735 -0.10242956 0.023478031
-0.39827758 -0.01653311 0.1982155 0.049209293 -0.09362404 -0.103982404 -0.31341848 -0.023162898
0.27457222 0.06630683 -0.1601496 0.16509935 0.2656285 0.13666274 -0.015274988 0.00869929
0.027389653 0.08275219 0.20389223 -0.040967863 0.19774747 0.051361028 0.101436935 -0.26754066
-0.23334675 0.13502544 0.03781959 0.36447066 0.44759968 -0.13968351 0.009065613 0.28539753
0.12793529 0.13222884 0.05397874 -0.20545483 -0.07799371 -0.07418662 -0.13072042 -0.007907607
-0.08067669 -0.011206031 0.28025675 0.087735705 -0.17025007 0.072849385 0.10291772 -0.024903772
0.11026676 0.18851198 -0.14725946 0.19825801 -0.19961096 -0.301127 0.020802751 0.20450209
-0.34185326 0.06901824 -0.07283358 -0.116426684 0.39189523 0.16136117 0.052195072 0.47420284
0.3569076 0.07041466 0.091017626 -0.004581124 -0.15929203 -0.12707491 0.024562327 -0.0034459953
0.20580791 0.23224813 -0.17729576 0.042774342 0.5103164 0.109693386 0.53335863 -0.0029479307
-0.008442581 -0.06413069 -0.03140332 -0.15894388 -0.2255469 0.10134647 0.5029621 0.25658762
0.1484693 0.08472666 0.15465264 -0.036010213 -0.02981726 0.0600978 -0.07171582 0.010839683
0.20790173 -0.22881399 -0.5252864 -0.25670832 0.07391518 0.1731776 0.06776888 -0.32202584
-0.044030607 0.30104503 0.45977494 -0.2182625 -0.20603491 0.004216843 -0.23297079 0.313
00000000: c71d 9d3e 676b 86bd 1ba0 1ebe 2172 0ebe
00000010: d017 b33e d0da c03d 97c6 d1bd 0055 c03c
00000020: 0aeb cbbe 7270 87bc 01f9 4a3e af8f 493d
00000030: f6bd bfbd baf4 d4bd 6378 a0be 1ec0 bdbc
00000040: bb94 8c3e e0cb 873d 42fe 23be ce0f 293e
00000050: 7500 883e 51f1 0b3e f143 7abc 7887 0e3c
00000060: 4460 e03c fb79 a93d 20c9 503e ebcd 27bd
00000070: 507e 4a3e f15f 523d 2bbe cf3d 17fb 88be
00000080: 73f2 6ebe 1c44 0a3e b7e8 1a3d e69b ba3e
00000090: c92b e53e 3209 0fbe f087 143c a01f 923e
000000a0: 7801 033e ff66 073e d018 5d3d c062 52be
000000b0: 2bbb 9fbd 28ef 97bd 93db 05be e88e 01bc
000000c0: d239 a5bd 8099 37bc d07d 8f3e c7ae b33d
000000d0: 0956 2ebe 0f32 953d 87c6 d23d ff02 ccbc
000000e0: 8ad3 e13d 4909 413e 2fcb 16be 2604 4b3e
000000f0: d166 4cbe 512d 9abe 886a aa3c ff68 513e
00000100: 6407 afbe 6f59 8d3d c629 95bd 1d71 eebd
00000110: 7ea6 c83e dd3b 253e 80ca 553d b7ca f23e
00000120: 98bc b63e 9035 903d 7367 ba3d 411d 96bb
00000130: 731d 23be ed1f 02be ef36 c93c 35d6 61bb
00000140: 4fbf 523e 74d2 6d3e 058d 35be 2634 2f3d
00000150: 18a4 023f eda6 e03d 318a 083f 1232 41bb
00000160: c052 0abc f456 83bd c5a0 00bd 2fc2 22be
00000170: c4f5 66be bd8e cf3d 20c2 003f 745f 833e
00000180: 5608 183e 2c85 ad3d 435d 1e3e 727f 13bd
00000190: 5443 f4bc 1c29 763d bedf 92bd ed98 313c
000001a0: 31e4 543e 374e 6abe 2b79 06bf 466f 83be
000001b0: d860 973d 7855 313e 69ca 8a3d 92e0 a4be
000001c0: 7059 34bd 9322 9a3e 9f67 eb3e 3480 5fbe
000001d0: d1fa 52be 712d 8a3b e58f 6ebe 8941 a03e

linears.6.bias f4 [3]
0.08492797 -0.0051296665 0.015058672
00000000: b7ee ad3d c316 a8bb a6b8 763c

exp_avg f4 [40, 2]
-2.437851 -0.66945875 -2.1579268 -0.14248127 -0.660772 0.12710422 -0.5655852 0.08562399
0.27119893 -0.44774526 2.7189667 -0.43220696 0.52396345 -0.081776254 0.19137621 -0.21161923
0.027504671 -0.36877894 -0.44887796 0.15444444 -2.243288 -0.074248455 -5.2767463 -0.27615327
3.3631861 0.48921198 2.1850724 -0.6316489 -6.903625 -0.9034651 -0.99397224 0.49557412
0.18133281 0.96344995 1.3325405 -0.21557416 0.2668427 -1.6997516 -0.005270395 0.6718178
5.975972 0.18662253 -1.3595704 -0.38934693 -1.6908346 -0.1501017 -0.16920781 0.3964426
-1.6563072 -0.42716393 1.4288093 -0.10659291 4.1309533 -0.2713381 -0.820852 0.55498266
-1.4389726 0.44941607 2.1110063 0.13432615 -0.011123534 0.3360263 -4.7210164 -0.60953766
-2.1949089 -0.2182869 -1.3506701 0.5597422 -6.740728 -0.8878411 0.34099555 -1.1881825
-0.047977008 0.0015790161 0.86568505 0.18698303 -0.41316876 -0.004869572 1.9274733 0.66073066
00000000: c005 1cc0 a661 2bbf 791b 0ac0 9ce6 11be
00000010: 5b28 29bf 9c27 023e 31ca 10bf a15b af3d
00000020: 96da 8a3e de3e e5be 8d03 2e40 3b4a ddbe
00000030: 7822 063f 4f7a a7bd 20f8 433e b6b2 58be
00000040: 7a51 e13c 98d0 bcbe 55d3 e5be af26 1e3e
00000050: 0892 0fc0 930f 98bd 1bdb a8c0 f663 8dbe
00000060: 713e 5740 fe79 fa3e 3ad8 0b40 beb3 21bf
00000070: 7fea dcc0 7d49 67bf f774 7ebf e4bb fd3e
00000080: 4faf 393e a8a4 763f b090 aa3f 79bf 5cbe
00000090: 9b9f 883e 7691 d9bf 47b3 acbb 40fc 2b3f
000000a0: 2a3b bf40 fa19 3f3e 6706 aebf 7b58 c7be
000000b0: 456d d8bf 43b4 19be d044 2dbe 86fa ca3e
000000c0: e001 d4bf 3bb5 dabe 39e3 b63f 624d dabd
000000d0: c530 8440 d4ec 8abe 5b23 52bf 5813 0e3f
000000e0: 4130 b8bf dd19 e63e ba1a 0740 cb8c 093e
000000f0: 7c3f 36bc a40b ac3e 9112 97c0 a90a 1cbf
00000100: 6379 0cc0 9a86 5fbe c2e2 acbf 444b 0f3f
00000110: 0bb4 d7c0 8e49 63bf f896 ae3e 5d16 98bf
00000120: 8a83 44bd fdf6 ce3a 899d 5d3f 7b78 3f3e
00000130: db8a d3be ee90 9fbb 72b7 f63f a525 293f

exp_avg_sq f4 [40, 2]
1.0785475e+08 1.5026284e+06 4.332473e+07 739389.4 1.6297245e+08 2.894582e+06 3.020281e+07 407237.28
1.4199971e+07 100870.8 1.4471716e+07 151611.52 2.4915394e+07 383467.9 4.649019e+07 611095.4
2.2494632e+07 155418.62 2.1740058e+07 292299.16 2.4561454e+07 620171.56 2.0660844e+07 463580.16
2.1670438e+07 495925.88 8.060381e+06 68779.234 5.0085384e+07 157663.89 2.0529576e+08 2.515367e+06
1.0653641e+08 1.5622598e+06 4.289269e+07 723422.0 3.869952e+07 446808.66 1.843453e+07 131916.86
1.21588136e+08 1.8517846e+06 1.0122543e+07 201626.14 1.0758212e+08 1.6858121e+06 6.818689e+06 132510.28
2.3147718e+07 610059.1 7.648283e+07 1.6406921e+06 1.1348579e+07 250451.69 2.192067e+07 206320.1
5.258116e+07 1.0205717e+06 2.6511258e+07 342196.2 3.543133e+07 462622.94 9.31608e+07 1.3199529e+06
2.4091956e+07 124873.89 1.7345226e+07 188305.45 2.4846448e+07 106060.44 6.6963964e+07 719555.5
1.1817483e+07 185425.33 3.894762e+07 678446.06 2.352417e+07 351103.78 9.000482e+06 144645.33
00000000: 74b7 cd4c 236d b749 4e45 254c d683 3449
00000010: 326c 1b4d d8ab 304a dd6d e64b a9d8 c648
00000020: a3ac 584b 6603 c547 24d2 5c4b e10e 1448
00000030: e116 be4b 7d3d bb48 9458 314c 7631 1549
00000040: d49e ab4b a8c6 1748 0ddd a54b 65b9 8e48
00000050: 9763 bb4b b968 1749 36a1 9d4b 855b e248
00000060: 1355 a54b bc26 f248 bafb f54a 9e55 8647
00000070: 820f 3f4c f9f7 1948 09c9 434d 9c86 194a
00000080: bb33 cb4c 9eb4 be49 649f 234c e09d 3049
00000090: 80a0 134c 152b da48 f1a4 8c4b 37d3 0048
000000a0: 35e9 e74c 450c e249 2f75 1a4b 89e6 4448
000000b0: 5532 cd4c a1c9 cd49 0217 d04a 9267 0148
000000c0: 639a b04b b2f0 1449 22e1 914c a147 c849
000000d0: 632a 2d4b ec94 7448 cf3d a74b 067c 4948
000000e0: ca94 484c bb29 7949 cd43 ca4b 8616 a748
000000f0: e828 074c dee3 e148 acb0 b14c 8720 a149
00000100: 9ace b74b f2e4 f347 6555 844b 5de4 3748
00000110: 3890 bd4b 3826 cf47 7f72 7f4c 38ac 2f49
00000120: 0b52 344b 5514 3548 c992 144c e1a2 2549
00000130: a579 b34b f96f ab48 2256 094b 5541 0d48

exp_avg f4 [40]
-16.81691 72.32047 1.906976 -12.875609 -17.26227 -88.32976 -17.25185 -71.846275
14.257779 17.067957 101.65053 123.72973 -60.648144 -86.02985 105.980194 102.27275
31.497501 9.387411 -28.841198 44.03829 -101.81177 -0.48726106 46.587395 14.895773
40.634777 -18.426853 -131.94453 74.43772 28.226727 -28.477026 58.920856 69.12159
11.539933 58.4197 83.85063 27.676434 10.199563 -57.99254 73.884544 -17.754683
00000000: 0889 86c1 15a4 9042 ca17 f43f 7f02 4ec1
00000010: 2119 8ac1 d6a8 b0c2 ca03 8ac1 4bb1 8fc2
00000020: dd1f 6441 2d8b 8841 124d cb42 9f75 f742
00000030: b397 72c2 480f acc2 dcf5 d342 a68b cc42
00000040: e2fa fb41 d632 1641 c6ba e6c1 3527 3042
00000050: a09f cbc2 487a f9be 7e59 3a42 1655 6e41
00000060: 038a 2242 326a 93c1 cdf1 03c3 1de0 9442
00000070: 56d0 e141 f3d0 e3c1 f5ae 6b42 413e 8a42
00000080: 91a3 3841 c6ad 6942 86b3 a742 5669 dd41
00000090: 6931 2341 5cf8 67c2 e3c4 9342 9709 8ec1

exp_avg_sq f4 [40]
8.176447e+07 2.7552878e+07 1.4251797e+08 2.6863834e+07 8.465506e+06 1.0773895e+07 1.3292673e+07 2.9925184e+07
9.339914e+06 1.6132113e+07 2.1869586e+07 1.6783052e+07 1.9523274e+07 7.568361e+06 1.3450083e+07 1.6557646e+08
7.825832e+07 3.6790376e+07 2.8544228e+07 8.925216e+06 8.817205e+07 7.1771655e+06 1.0421304e+08 5.8343195e+06
1.6780212e+07 7.466147e+07 6.4494325e+06 1.7520864e+07 4.7179876e+07 1.6732926e+07 2.0011e+07 7.67207e+07
1.1811046e+07 1.6277371e+07 6.555024e+06 2.9483674e+07 1.0386769e+07 3.7674176e+07 1.0673235e+07 5.288582e+06
00000000: 0ff4 9b4c 3736 d24b 6dea 074d 6df4 cc4b
00000010: 622c 014b 8765 244b 81d4 4a4b a04f e44b
00000020: 0a84 0e4b 1128 764b 09da a64b 660b 804b
00000030: 65f3 944b d2f7 e64a 633b 4d4b f1e7 1d4d
00000040: 1244 954c 1a58 0c4c 72c6 d94b 2030 084b
00000050: c22c a84c 9b07 db4a 46c5 c64c 9f0c b24a
00000060: da05 804b cc67 8e4c 31d2 c44a 70ac 854b
00000070: 19fa 334c fe52 7f4b fcab 984b 4855 924c
00000080: e638 344b 7b5f 784b 200b c84a 4df1 e04b
00000090: 517d 1e4b 30b7 0f4c 53dc 224b 0c65 a14a
