1DCFD_PINN/1D_CFD_Rand_Eta0.1_Zeta0.1_periodic_Train_PINN.pt-5000.pt (torch, 112935 bytes, 42 tensors)

linears.0.weight f4 [40, 2]
-0.10286483 -0.09955605 -0.125955 0.28834137 0.06307109 -0.3921224 -0.011580909 -0.19218107
-0.21794851 0.19193074 0.19206472 -0.10896548 0.322272 0.20652162 0.068491615 -0.48750794
0.13114968 0.16816185 -0.5240171 -0.0923788 0.21079065 -0.10671547 0.2731543 0.03203458
-0.17679562 -0.046629805 0.30110362 -0.1313632 0.18058214 -0.07100524 -0.3062926 -0.676821
0.123906 -0.17723234 0.057751812 -0.0885542 -0.15447676 0.022487326 -0.21737187 0.29701477
-0.07060357 0.02319368 -0.1495591 0.35353303 0.20104313 0.2873137 -0.30223653 0.06491286
-0.36638492 -0.1792706 0.0034381687 -0.03635864 0.4107247 -0.16789371 0.38609654 0.1949965
0.07999689 -0.00060784654 -0.23688322 -0.071179375 -0.07539636 0.01908455 -0.10338846 0.7388097
0.2155758 -0.58360595 -0.06868524 0.3868589 -0.08888606 -0.19953296 0.1843977 -0.18356074
-0.4055709 -0.60941046 0.18059552 -0.11009458 -0.13376132 0.055164717 0.26096255 -0.24033836
00000000: ccaa d2bd 0be4 cbbd 59fa 00be 7ba1 933e
00000010: 6a2b 813d 44c4 c8be dabd 3dbc 1dcb 44be
00000020: e52d 5fbe 7e89 443e 9dac 443e 4b29 dfbd
00000030: d600 a53e 677a 533e 5545 8c3d a49a f9be
00000040: 1a4c 063e 9f32 2c3e fc25 06bf 1931 bdbd
00000050: 81d9 573e a48d dabd e1da 8b3e b136 033d
00000060: e909 35be e5fe 3ebd 412a 9a3e 1384 06be
00000070: 86ea 383e 326b 91bd 62d2 9cbe 2444 2dbf
00000080: 6ec2 fd3d 657c 35be 2a8d 6c3d e85b b5bd
00000090: 282f 1ebe 5737 b83c bb96 5ebe 5212 983e
000000a0: 9b98 90bd ac00 be3c 0526 19be 4802 b53e
000000b0: 40de 4d3e c81a 933e bfbe 9abe 09f1 843d
000000c0: ce96 bbbe b692 37be e652 613b ccec 14bd
000000d0: 824a d23e 54ec 2bbe 72ae c53e 2aad 473e
000000e0: 69d5 a33d e457 1fba 8491 72be 7ec6 91bd
000000f0: 6869 9abd 3457 9c3c 54bd d3bd a222 3d3f
00000100: e7bf 5c3e 3367 15bf d9aa 8cbd 5f12 c63e
00000110: e509 b6bd 5e52 4cbe c0d2 3c3e 59f7 3bbe
00000120: fda6 cfbe 5302 1cbf 08ee 383e 4479 e1bd
00000130: baf8 08be 66f4 613d e29c 853e 421b 76be

linears.0.bias f4 [40]
0.018914193 0.0050447085 -0.0018890885 -0.004203046 0.0049183522 -0.0028695287 0.00014534169 -0.0022756509
-0.0030508924 0.0062396587 0.00050438213 0.0049516666 -0.0015953433 -0.0010276326 -0.0015342291 0.0057400847
-0.0011450686 0.001467123 0.0002499582 -0.0014688894 0.004277058 0.0047879373 -0.0067690825 -0.00029412113
0.0042249807 0.0034716765 -0.001999133 -0.001804535 -0.0027236934 0.0009004383 0.0038215707 -0.003455505
0.0019374845 -0.0051194173 -0.0033013602 -0.0065204175 0.0032308649 -0.0027269928 0.0058304546 -4.263426e-05
00000000: f0f1 9a3c 154e a53b 4b9b f7ba b5b9 89bb
00000010: 212a a13b b40e 3cbb dd66 1839 1623 15bb
00000020: 7bf1 47bb 0d76 cc3b 8338 043a 9741 a23b
00000030: d71a d1ba a1b1 86ba 3018 c9ba 5217 bc3b
00000040: 2016 96ba 7b4c c03a d20c 8339 c087 c0ba
00000050: 9026 8c3b 21e4 9c3b 2ecf ddbb 4534 9ab9
00000060: b571 8a3b 1185 633b e303 03bb 2686 ecba
00000070: fe7f 32bb 640b 6c3a 5173 7a3b c175 62bb
00000080: 31f3 fd3a c9c0 a7bb a25b 58bb 3aa9 d5bb
00000090: ebbc 533b 59b7 32bb 660d bf3b 30d2 32b8

linears.1.weight f4 [40, 40]
0.1690616 0.2937717 0.41162154 0.23778833 0.13746984 0.09119885 0.2811925 0.20185946
-0.0290578 -0.081499495 0.17779697 0.048702423 0.080751024 -0.03269527 -0.0024619172 0.09697119
-0.09459288 0.15296598 0.16583747 -0.2610358 0.0094093345 -0.38992846 -0.019487118 0.14839117
0.12941162 0.046977133 -0.16907084 0.02228501 -0.14403442 -0.057544157 0.0924763 0.052614532
-0.05901594 0.2862001 0.08215185 0.038820114 -0.010120212 0.036421787 0.02227285 -0.14693232
-0.17161995 0.055197615 -0.11650127 -0.28574073 -0.059888612 -0.052515477 0.17372392 -0.13599056
0.08665671 -0.047908537 -0.079668015 0.13097526 -0.12004248 -0.21867804 -0.20943433 -0.098192476
-0.0571464 0.3911185 0.2272428 -0.33981138 0.23342457 -0.045924377 -0.094374955 -0.02328345
0.16516373 -0.22235377 0.08471875 -0.09674057 -0.14141263 0.05210243 0.15153483 0.5895128
0.06105348 0.03801517 -0.18559244 -0.15327483 0.039517377 0.102136314 0.05277955 0.109976105
-0.20411092 0.16207305 -0.007148939 -0.08351121 0.09951693 -0.16373843 -0.013957107 0.0449392
0.039933734 -0.018313954 0.16149499 0.17360702 0.011838113 -0.06558709 -0.18282364 0.05806013
0.32024923 0.12336094 -0.072303474 -0.20406719 0.09097521 0.1331283 -0.038297553 0.25193262
-0.013229968 -0.035261147 -0.19905867 0.22303076 -0.061173007 0.14527981 -0.09277951 -0.14497204
0.021826083 -0.006239706 -0.22290483 -0.07926603 0.112529255 0.058129825 0.23226354 0.17754713
-0.072113924 0.012500381 -0.11973569 -0.15239352 -0.15164366 0.16903676 0.056515038 0.12785862
-0.10425665 -0.017723478 -0.077522986 0.21429169 0.055031557 0.15784724 0.08220024 -0.013145138
-0.24696526 -0.026983703 0.02469221 0.15869357 -0.25934917 0.071411885 0.17103978 0.24834408
-0.09469242 -0.14343752 -0.14926878 0.036511015 -0.040164832 0.024452375 -0.20763032 -0.031156301
-0.19587411 0.0969774 0.13073787 -0.1318889 -0.3194898 0.34872657 0.079799406 0.019068414
0.06302705 -0.08477957 0.31893405 -0.19252856 -0.05487641 0.11320039 -0.26719 0.28326678
0.3088493 -0.10864919 -0.15972523 -0.24378903 0.017559893 -0.09373926 0.22575921 -0.12421962
-0.047969684 -0.2636662 0.047224924 0.007784609 -0.092735715 0.12302483 0.093339555 0.22872195
0.090884216 0.17769358 -0.06835062 0.13360585 0.103085846 0.19502844 0.13898036 -0.09322651
-0.09738341 -0.058165815 -0.1588228 0.23760544 0.03488058 0.3289879 0.12778747 -0.017517725
-0.13216798 -0.15132806 0.15666993 -0.06959869 0.42345122 0.10704156 0.03255887 -0.014741786
-0.14340097 -0.1289166 -0.019039925 0.1385621 0.085752174 0.04855024 -0.15236285 -0.04584865
0.20001687 -0.015497074 -0.012999824 0.14637107 0.09294166 0.07152321 -0.10716241 -0.09469615
0.2025567 0.20195635 -0.03446764 -0.12620895 0.0924723 -0.09821713 -0.05218457 0.15417407
0.38163698 -0.031824257 -0.1386019 -0.086597286 -0.121869266 -0.19839467 -0.2241428 -0.003497439
0.35812065 0.09267486 -0.24099867 -0.16645174 0.053681914 0.047489002 -0.04197062 -0.034969553
0.16116545 0.22754 0.18126433 0.28796223 0.022263402 0.27532464 -0.15114297 0.18663755
00000000: 7c1e 2d3e 3f69 963e 0fc0 d23e c97e 733e
00000010: e5c4 0c3e 76c6 ba3d 77f8 8f3e 3fb4 4e3e
00000020: a00a eebc 35e9 a6bd 6910 363e 317c 473d
00000030: cb60 a53d 7aeb 05bd 1e58 21bb d598 c63d
00000040: e9b9 c1bd 1da3 1c3e 4cd1 293e 7ca6 85be
00000050: 9c29 1a3c b4a4 c7be 73a3 9fbc dbf3 173e
00000060: 7b84 043e 186b 403d e820 2dbe 0e8f b63c
00000070: c27d 13be 6cb3 6bbd 3764 bd3d 5682 573d
00000080: b3ba 71bd d288 923e 3b3f a83d d701 1f3d
00000090: 3fcf 25bc 032f 153d 8d75 b63c 6d75 16be
000000a0: 24bd 2fbe e516 623d 3898 eebd 9c4c 92be
000000b0: c34d 75bd 781a 57bd afe4 313e 1c41 0bbe
000000c0: 1379 b13d be3b 44bd fc28 a3bd 611e 063e
000000d0: d5d8 f5bd 23ed 5fbe f475 56be 2319 c9bd
000000e0: 5812 6abd af40 c83e 56b2 683e c2fb adbe
000000f0: da06 6f3e 331b 3cbd a847 c1bd efbc bebc
00000100: ae20 293e b5b0 63be 0681 ad3d ec1f c6bd
00000110: 79ce 10be 5c69 553d f22b 1b3e 50ea 163f
00000120: 3713 7a3d cbb5 1b3d f20b 3ebe 14f4 1cbe
00000130: f9dc 213d d82c d13d 5f2f 583d 273b e13d
00000140: 7402 51be 7af6 253e a641 eabb ed07 abbd
00000150: 88cf cb3d 0cab 27be 5aac 64bc 2b12 383d
00000160: 8e91 233d 2507 96bc f15e 253e 0ac6 313e
00000170: a5f4 413c 8652 86bd 1f36 3bbe 75d0 6d3d
00000180: b5f7 a33e a9a4 fc3d d813 94bd fdf6 50be
00000190: 3651 ba3d c952 083e e5dd 1cbd 50fd 803e
000001a0: 82c2 58bc fe6d 10bd 09d6 4bbe 2d62 643e
000001b0: 8c90 7abd 3bc4 143e 2f03 bebd 8d73 14be
000001c0: 9dcc b23c 7376 ccbb 2a41 64be 3a56 a2bd
000001d0: bd75 e63d 8a19 6e3d 7ed6 6d3e eace 353e
000001e0: 77b0 93bd 66ce 4c3c fc37 f5bd 0c0d 1cbe
000001f0: 7a48 1bbe f917 2d3e 507c 673d 5fed 023e
00000200: 8384 d5bd d430 91bc 5fc4 9ebd 486f 5b3e
00000210: c568 613d b5a2 213e 9958 a83d b45e 57bc
00000220: 76e4 7cbe ed0c ddbc 5147 ca3c 9180 223e
00000230: 6ac9 84be 6540 923d 0d25 2f3e e94d 7e3e
00000240: 19ee c1bd 49e1 12be ead9 18be 938c 153d
00000250: e183 24bd 5950 c83c 0b9d 54be 803b ffbc
00000260: 3993 48be 169c c63d 26e0 053e e20d 07be
00000270: 2b94 a3be 4a8c b23e df6d a33d 5d35 9c3c
00000280: 5314 813d e9a0 adbd 534b a33e 3526 45be
00000290: 16c6 60bd 9bd5 e73d 21cd 88be 5808 913e
000002a0: 7f21 9e3e 7783 debd 038f 23be d5a3 79be
000002b0: c4d9 8f3c 5ffa bfbd 6c2d 673e db66 febd
000002c0: dc7b 44bd 42ff 86be ec6e 413d 0916 ff3b
000002d0: 39ec bdbd 71f4 fb3d cf28 bf3d 1636 6a3e
000002e0: 8121 ba3d 4ef5 353e 69fb 8bbd f9cf 083e
000002f0: ac1e d33d 89b5 473e de50 0e3e 8aed bebd
00000300: f470 c7bd 473f 6ebd 72a2 22be d74e 733e
00000310: f0de 0e3d 1a71 a83e b8da 023e 5581 8fbc
00000320: 0b57 07be bef5 1abe 156e 203e c289 8ebd
00000330: 99ce d83e 9b38 db3d 735c 053d 8887 71bc
00000340: b4d7 12be b702 04be 9ef9 9bbc 39e3 0d3e
00000350: d69e af3d 9edc 463d 0205 1cbe cbcb 3bbd
00000360: 39d1 4c3e 71e7 7dbc 37fd 54bc 4ce2 153e
00000370: 3258 be3d c37a 923d f777 dbbd 0ef0 c1bd
00000380: 066b 4f3e a5cd 4e3e f12d 0dbd eb3c 01be
00000390: 1e62 bd3d 1026 c9bd 7dbf 55bd cfdf 1d3e
000003a0: ec65 c33e 275a 02bd a8ed 0dbe eb59 b1bd
000003b0: 9896 f9bd f927 4bbe b185 65be 4a35 65bb
000003c0: 975b b73e 51cc bd3d 5bc8 76be 5372 2abe
000003d0: 91e1 5b3d d483 423d 63e9 2bbd 3c3c 0fbd
000003e0: 8e08 253e 3f00 693e 5b9d 393e c96f 933e
000003f0: bd61 b63c 5af7 8c3e 39c5 1abe ea1d 3f3e

linears.1.bias f4 [40]
2.0324891e-05 0.0014992049 0.0030136777 -0.00045380183 -0.004218253 0.0012865824 0.0028423143 0.0009473771
-0.0027788528 -0.0001557414 -0.0017542468 -0.002243206 0.0037668685 0.002099847 -0.0027690833 -0.0039964807
-0.0033389772 0.003123696 -0.001535145 0.0012603806 0.004442961 0.007311092 0.0048446017 -0.0045126886
0.006258152 -0.0009055817 -0.0014692771 -0.008042377 0.004385896 0.0023835162 0.005101814 -0.00039057963
-0.00010657713 0.00020613833 0.0039913836 0.00010361326 -0.0032442866 -0.0022404722 0.003601452 0.0030912173
00000000: 5f7f aa37 f880 c43a 1f81 453b 40ec edb9
00000010: 4539 8abb 8ba2 a83a 1f46 3a3b 6759 783a
00000020: 6a1d 36bb 844e 23b9 c1ee e5ba c002 13bb
00000030: 91dd 763b 969d 093b 8279 35bb e9f4 82bb
00000040: bed2 5abb ecb6 4c3b eb36 c9ba 5b33 a53a
00000050: 4296 913b e391 ef3b 77bf 9e3b 2ddf 93bb
00000060: 2f11 cd3b 8f64 6dba c294 c0ba 2dc4 03bc
00000070: 90b7 8f3b c434 1c3b 1e2d a73b b6c6 ccb9
00000080: 2982 dfb8 d626 5839 27ca 823b f24a d938
00000090: 199e 54bb e3d4 12bb 5706 6c3b 0596 4a3b

linears.2.weight f4 [40, 40]
0.20538759 -0.18845479 0.1266576 0.2446838 -0.33923608 0.18662448 -0.29418147 0.19334722
0.0396291 0.074360885 -0.017569797 -0.14179118 0.12534289 -0.23062542 -0.011660672 0.028279835
0.03299084 -0.0034718444 -0.15851855 -0.023216477 -0.041448355 0.12809283 -0.17683387 -0.07407703
-0.2688219 -0.044508662 0.14660785 0.25340867 0.0834932 0.040754266 -0.0030854715 0.02518426
-0.17342184 -0.030210724 -0.13694851 0.11058476 0.3446981 0.004721318 0.15193379 0.0985097
0.2027918 0.112642504 -0.20024979 -0.07929648 -0.00532155 -0.00045292458 -0.08224769 0.060868748
0.05984726 -0.12298186 0.19956602 -0.17517579 0.15479715 -0.23108672 -0.105142556 0.07995869
0.1933119 -0.3954723 0.3189064 0.13322514 -0.18496004 0.038363792 -0.018682867 -0.03364453
-0.07029494 -0.18640867 0.17580645 0.32351133 -0.18220367 -0.1226153 -0.061639175 0.12439165
-0.14717288 0.06600642 -0.069281004 0.019225828 -0.14003065 -0.020029705 -0.014007972 0.23698115
0.12597029 -0.074885465 -0.17742717 0.17216402 -0.19683532 0.08042808 0.19790891 -0.004555916
-0.07972999 0.059116706 -0.16999309 -0.11098127 0.22124816 0.23790203 0.09637505 -0.08625989
0.096277304 -0.090975225 -0.01591347 0.22416592 0.0074458546 0.13932934 0.08914996 0.09149167
-0.021801718 -0.08150259 0.01604288 -0.27583632 0.14512163 -0.08230341 0.25792846 0.0412208
0.004435509 -0.13294275 0.09787897 -0.11925979 0.14165589 0.16216497 0.02149598 0.30323574
-0.17975286 0.06972554 -0.036615156 0.00867873 -0.210846 -0.031843062 -0.041251127 0.11484702
-0.19388974 0.04051522 0.18880577 -0.034239683 -0.096031316 0.10726755 -0.17767446 0.32748228
0.26846516 0.12407634 0.00441445 0.09078491 -0.21661766 -0.28286332 -0.047139723 -0.041188866
-0.039193165 0.114890195 0.037687745 -0.12583822 -0.014342883 -0.021459626 0.045651753 -0.05301959
-0.08842142 -0.02591744 -0.110764444 0.10429131 -0.08396579 0.07365138 0.10616766 -0.048121158
0.28380555 -0.4786591 0.055519648 0.10427422 0.300472 -0.022113403 -0.021696366 -0.065395534
-0.07534692 0.102644175 -0.0901659 0.021905262 -0.3885766 0.12340576 -0.0073789516 -0.07631046
-0.13631998 -0.11938192 0.22465023 0.08798933 -0.054913837 0.07044822 -0.13370988 -0.04863526
-0.34081194 -0.07755752 0.039648198 0.17863822 -0.075932324 0.08436293 3.801706e-05 0.003853666
0.13841695 -0.058974102 -0.2706897 -0.010564459 -0.10766787 0.13527092 0.106546715 -0.04355495
0.11383943 0.0012829438 -0.112218685 0.15964566 -0.03158028 0.10798354 0.18382822 -0.3033769
-0.13975412 -0.35800326 0.056315366 -0.010785873 -0.2250423 0.02175328 0.122451454 0.15543123
0.23468609 -0.12741095 -0.3223499 -0.12425926 0.1020827 0.06335175 -0.021326046 0.074884325
0.47952235 0.0006892568 -0.009285303 0.14821675 -0.08806949 -0.030857353 -0.1602112 0.10763862
-0.02929882 0.34488901 0.06099132 0.0815018 -0.06465144 0.21133432 0.08510767 -0.027307902
-0.052421212 -0.16996983 0.047112904 -0.03236497 -0.09077647 -0.19401567 -0.055257067 -0.0071234507
-0.1634424 -0.11149819 0.13296382 0.2873502 0.028768364 0.12544417 -0.25793204 0.19564283
00000000: 2051 523e 4bfa 40be 88b2 013e 648e 7a3e
00000010: 5ab0 adbe 7d1a 3f3e f49e 96be d0fc 453e
00000020: 2052 223d 854a 983d 89ee 8fbc b531 11be
00000030: e359 003e 1229 6cbe 670c 3fbc 1dab e73c
00000040: 6721 073d e287 63bb b052 22be 7b30 bebc
00000050: c0c5 29bd c42a 033e f013 35be b3b5 97bd
00000060: 06a3 89be b74e 36bd 5e20 163e c8be 813e
00000070: 7cfe aa3d f2ed 263d 9f35 4abb 394f ce3c
00000080: 7f95 31be 7b7c f7bc 3b3c 0cbe 437a e23d
00000090: 457c b03e 49b5 9a3b 8894 1b3e 74bf c93d
000000a0: a7a8 4f3e 1db1 e63d 480e 4dbe 3166 a2bd
000000b0: 6660 aebb 8276 edb9 7a71 a8bd 8251 793d
000000c0: 6722 753d eadd fbbd 095b 4c3e 4861 33be
000000d0: 2583 1e3e ffa1 6cbe fb54 d7bd 62c1 a33d
000000e0: 8ef3 453e 587b cabe b347 a33e 2c6c 083e
000000f0: 2a66 3dbe 5a23 1d3d d00c 99bc d9ce 09bd
00000100: cbf6 8fbd eae1 3ebe 9b06 343e 47a3 a53e
00000110: 9993 3abe bb1d fbbd 5c79 7cbd 0dc1 fe3d
00000120: 7db4 16be 602e 873d 33e3 8dbd 7c7f 9d3c
00000130: 3264 0fbe 5615 a4bc b181 65bc 30ab 723e
00000140: 5bfe 003e 8d5d 99bd 78af 35be c44b 303e
00000150: 338f 49be 7ab7 a43d a2a8 4a3e cb49 95bb
00000160: 7a49 a3bd 5c24 723d ab12 2ebe 264a e3bd
00000170: e18e 623e 979c 733e 4860 c53d 06a9 b0bd
00000180: 092d c53d 3851 babd f75c 82bc c08b 653e
00000190: 5bfc f33b 5aac 0e3e 4194 b63d fc5f bb3d
000001a0: 8499 b2bc d4ea a6bd 5c6c 833c 6b3a 8dbe
000001b0: c49a 143e b18e a8bd 330f 843e 24d7 283d
000001c0: bf57 913b 2522 08be c574 c83d 7a3e f4bd
000001d0: 3e0e 113e 930e 263e 5618 b03c b741 9b3e
000001e0: 2211 38be 44cc 8e3d c6f9 15bd 3b31 0e3c
000001f0: 04e8 57be df6d 02bd f1f6 28bd ea34 eb3d
00000200: 088b 46be 4af3 253d 4d56 413e e93e 0cbd
00000210: 11ac c4bd 17af db3d 4bf0 35be c2ab a73e
00000220: 4474 893e bc1b fe3d 17a7 903b 70ed b93d
00000230: 05d1 5dbe 76d3 90be 9515 41bd a8b5 28bd
00000240: 0389 20bd 8d4b eb3d 775e 1a3d bcdb 00be
00000250: 69fe 6abc 19cc afbc 55fd 3a3d 122b 59bd
00000260: 4a16 b5bd d050 d4bc 78d8 e2bd af96 d53d
00000270: 42f6 abbd 89d6 963d 6e6e d93d b11a 45bd
00000280: f64e 913e ce12 f5be 9268 633d b98d d53d
00000290: 77d7 993e 2b27 b5bc 94bc b1bc 18ee 85bd
000002a0: 7c4f 9abd 1c37 d23d e6a8 b8bd aa72 b33c
000002b0: 83f3 c6be 29bc fc3d 22cb f1bb a948 9cbd
000002c0: 7797 0bbe 827e f4bd b60a 663e c033 b43d
000002d0: 55ed 60bd 2847 903d 3eeb 08be c435 47bd
000002e0: e77e aebe 7ad6 9ebd 2666 223d f0ec 363e
000002f0: 6882 9bbd 79c6 ac3d 8274 1f38 c98d 7c3b
00000300: 2cbd 0d3e d48e 71bd d797 8abe 8d16 2dbc
00000310: f980 dcbd 7684 0a3e 2a35 da3d ad66 32bd
00000320: a624 e93d 7328 a83a e9d2 e5bd 277a 233e
00000330: 535a 01bd 7926 dd3d 773d 3c3e 3854 9bbe
00000340: b41b 0fbe 344c b7be f1aa 663d 3bb7 30bc
00000350: 7d71 66be ef33 b23c d4c7 fa3d 5d29 1f3e
00000360: 8d51 703e 0478 02be 0c0b a5be a47b febd
00000370: bc10 d13d 90be 813d f6b3 aebc f45c 993d
00000380: f483 f53e 3eaf 343a 6221 18bc 22c6 173e
00000390: c75d b4bd 8fc8 fcbc 680e 24be a371 dc3d
000003a0: 1404 f0bc 4b95 b03e 09d2 793d 6aea a63d
000003b0: f967 84bd 0668 583e ee4c ae3d d2b4 dfbc
000003c0: a0b7 56bd 920c 2ebe 76f9 403d 2191 04bd
000003d0: 04e9 b9bd 0bac 46be 3c55 62bd d66b e9bb
000003e0: 725d 27be 2a59 e4bd ab27 083e 911f 933e
000003f0: a2ab eb3c 7074 003e ab0f 84be 9856 483e

linears.2.bias f4 [40]
-0.0036407849 -0.0040277415 0.0033302563 0.00020847283 0.00068663625 -0.004662079 0.0068191155 -0.0035263523
-0.004536447 -0.0016318205 -0.004045715 -0.0035340155 -0.0013215357 0.0035631289 -0.0045452393 -0.002198306
0.006098924 -0.00070108206 -0.0008324459 0.0026565026 -0.0034665994 0.00039992013 0.0008869967 -0.0034617453
0.0048604854 0.004140852 0.004656892 -0.00071501744 -0.0026720194 0.003806868 -0.005797943 -0.002792704
0.0007124961 0.0049598957 0.005762325 -0.0062111085 0.0043634567 0.0032457663 -0.00031662767 0.00028409428
00000000: 3c9a 6ebb 25fb 83bb 6e40 5a3b 8099 5a39
00000010: 61ff 333a 5ac4 98bb e372 df3b 601a 67bb
00000020: 7aa6 94bb cfe2 d5ba eb91 84bb f19a 67bb
00000030: 6137 adba 6283 693b 3bf0 94bb 7411 10bb
00000040: 7cd9 c73b d2c8 37ba 8038 5aba b818 2e3b
00000050: e32f 63bb 5fac d139 5785 683a 73de 62bb
00000060: b544 9f3b fcaf 873b d798 983b 0270 3bba
00000070: 0c1d 2fbb a67c 793b acfc bdbb cc05 37bb
00000080: cec6 3a3a 9f86 a23b e3d1 bc3b 8e86 cbbb
00000090: 54fb 8e3b ecb6 543b 0c01 a6b9 7df2 9439

linears.3.weight f4 [40, 40]
-0.02229844 0.05137489 0.25126797 0.094201796 0.09619988 -0.2969916 -0.040805932 0.10935637
0.25425428 0.15681808 -0.021985235 0.03632904 -0.17585649 -0.21584949 0.07756057 -0.073781095
0.043908633 -0.20925969 0.024282068 -0.24604486 0.21715927 0.14921209 0.06120684 0.21664204
-0.08511992 0.0057686777 0.056167096 -0.030615551 -0.20338959 0.08571055 0.04265167 -0.10452119
-0.05886995 -0.07229919 0.20449722 -0.014377069 -0.17836682 -0.032255545 0.045739643 0.12401528
-0.09130638 -0.08307594 -0.133084 -0.10657651 -0.1623837 -0.071984015 -0.17913654 -0.054784197
-0.04753196 0.039494622 -0.025741244 -0.02932287 0.4256626 0.11055044 0.03996929 0.1069748
0.09996278 -0.11316206 -0.04637578 -0.07751849 -0.26110703 -0.0670231 0.1561448 -0.12207943
-0.05705666 0.115677334 -0.22474754 0.19927105 0.2006907 -0.0038578284 -0.13545388 0.07658808
-0.18326177 -0.007802501 -0.061054267 0.20694262 -0.25284675 -0.010715753 0.11761887 -0.31333834
0.17811769 -0.002445873 0.009411958 0.20754446 -0.038581517 0.010749166 0.14683276 0.21932854
0.29817066 0.07232981 -0.08574517 0.05225761 0.12310368 0.058806013 -0.10391439 0.052990764
-0.24277513 0.0013803971 0.015779564 0.14564025 -0.27525553 -0.02633506 -0.112911426 -0.02522229
-0.28438878 0.059979677 -0.0667184 -0.088913955 -0.080336966 -0.029201947 0.20860727 0.014147174
0.015898133 0.019960433 -0.15285935 -0.109479785 -0.06338104 -0.020051537 -0.001838909 0.17810307
0.07053141 -0.12971608 0.09478355 -0.13673761 -0.045895334 0.071991116 -0.18830863 -0.19556712
-0.027532466 -0.27378967 -0.033954702 0.30668354 -0.034279253 0.31391096 0.0431669 0.06786638
-0.1904399 -0.12951337 -0.17712949 0.10926601 0.26247182 0.09981995 0.033840552 -0.1424162
0.06574942 0.07519082 0.1954833 -0.0985727 -0.14700608 0.29256976 0.21169059 -0.12869237
-0.33475026 0.090068914 -0.060364995 0.20647578 -0.01018186 0.010503166 -0.24281497 0.37519228
-0.2804494 0.07043299 -0.082246035 0.230829 -0.09254099 0.025569491 -0.10107875 0.041422017
-0.032969546 0.22783211 -0.16983761 -0.11561798 0.0011987904 -0.07513487 0.2280992 0.021084366
0.042818543 0.13282385 0.15482166 0.042719904 0.058653917 0.09998012 -0.30225095 -0.053719264
0.14213037 -0.21798018 -0.2155647 -0.011843599 -0.0029259461 0.2351027 0.10171082 -0.1255635
-0.081254885 -0.15829149 -0.0067385384 0.023447592 -0.11667115 0.03125605 -0.0007929375 0.027838478
-0.05934386 -0.03056176 -0.21063378 -0.096775 -0.19146757 -0.1712147 0.06738141 -0.12858579
0.0011128358 -0.0140337935 0.028899202 0.09019755 0.052681804 -0.03297913 -0.13785845 0.15546596
-0.00795383 -0.04158598 0.009876988 0.020289142 -0.27319905 0.2571094 0.017810494 0.27128464
-0.10223707 -0.17385441 -0.04050893 -0.05272725 0.3552591 -0.15452582 0.07698752 -0.12694989
0.024686225 0.06673518 -0.088093 -0.13718855 -0.045827363 0.1771163 0.09984582 0.004119322
0.22296475 0.12506108 0.2933049 -0.016084986 0.101218574 -0.06850757 -0.22624227 0.09236883
0.06541078 -0.16330811 -0.14195086 0.34658435 -0.3484608 0.124855876 0.18119204 -0.36848786
00000000: 38ab b6bc 7a6e 523d 32a6 803e dfec c03d
00000010: 7104 c53d 480f 98be 1f24 27bd 3cf6 df3d
00000020: 9e2d 823e eb94 203e 611a b4bc c2cd 143d
00000030: b913 34be a607 5dbe 13d8 9e3d 8b1a 97bd
00000040: 8ad9 333d 2c48 56be 30eb c63c 2ff3 7bbe
00000050: 005f 5e3e 0ecb 183e 06b4 7a3d 69d7 5d3e
00000060: 5a53 aebd 2d07 bd3b 780f 663d 77cd fabc
00000070: 5c45 50be 0389 af3d 84b3 2e3d 350f d6bd
00000080: 9e21 71bd 9911 94bd b867 513e cc8d 6bbc
00000090: cba5 36be 641e 04bd 7e59 3b3d b9fb fd3d
000000a0: d7fe babd b823 aabd 2c47 08be c944 dabd
000000b0: ea47 26be 5b6c 93bd 926f 37be 6565 60bd
000000c0: dfb0 42bd 1dc5 213d 4ddf d2bc 8436 f0bc
000000d0: 73f0 d93e 4568 e23d d7b6 233d 9b15 db3d
000000e0: 49b9 cc3d 83c1 e7bd 88f4 3dbd 04c2 9ebd
000000f0: d2af 85be 6843 89bd 6ce4 1f3e c804 fabd
00000100: 3fb4 69bd 3de8 ec3d 3824 66be b60d 4c3e
00000110: dd81 4d3e 9fd3 7cbb 6cb4 0abe 36da 9c3d
00000120: f9a8 3bbe 1fac ffbb 0a14 7abd c4e8 533e
00000130: 2175 81be 2091 2fbc 2ae2 f03d e26d a0be
00000140: 7c64 363e f14a 20bb 9d34 1a3c 8986 543e
00000150: a707 1ebd 451d 303c 545b 163e a997 603e
00000160: d3a9 983e a721 943d 2a9b afbd 130c 563d
00000170: c81d fc3d 93de 703d 11d1 d4bd d80c 593d
00000180: 0b9a 78be 71ee b43a 2544 813c b822 153e
00000190: 4bee 8cbe a0bc d7bc 1b3e e7bd fa9e cebc
000001a0: 689b 91be 40ad 753d a8a3 88bd 8518 b6bd
000001b0: b587 a4bd ec38 efbc 259d 553e 8cc9 673c
000001c0: cd3c 823c 1084 a33c 2987 1cbe f036 e0bd
000001d0: ebcd 81bd 1f43 a4bc 8c07 f1ba a760 363e
000001e0: c672 903d 4bd4 04be e11d c23d f204 0cbe
000001f0: bffc 3bbd 1470 933d fad3 40be bf42 48be
00000200: c48b e1bc 292e 8cbe 1614 0bbd a005 9d3e
00000210: 6768 0cbd f0b8 a03e c6cf 303d 87fd 8a3d
00000220: ad02 43be 279f 04be 6f61 35be dcc6 df3d
00000230: b562 863e 676e cc3d 649c 0a3d 8dd5 11be
00000240: a2a7 863d a5fd 993d c62c 483e 7ce0 c9bd
00000250: c388 16be b4cb 953e 6bc5 583e efc7 03be
00000260: 6364 abbe 0d76 b83d 4941 77bd 636e 533e
00000270: d1d1 26bc 7915 2c3c 7da4 78be 3419 c03e
00000280: 1097 8fbe 2c3f 903d 9c70 a8bd 705e 6c3e
00000290: 2186 bdbd 1c77 d13c 6002 cfbd 22aa 293d
000002a0: 130b 07bd d24c 693e e9e9 2dbe 1fc9 ecbd
000002b0: bb20 9d3a 50e0 99bd d692 693e 1fb9 ac3c
000002c0: 7f62 2f3d fa02 083e 9289 1e3e 11fb 2e3d
000002d0: 173f 703d 61c2 cc3d a3c0 9abe bb08 5cbd
000002e0: a08a 113e 3236 5fbe febc 5cbe a80b 42bc
000002f0: 3bc1 3fbb c3be 703e c34d d03d b893 00be
00000300: f668 a6bd 2a17 22be f5ce dcbb 2a15 c03c
00000310: 49f1 eebd 5806 003d 23dd 4fba 850d e43c
00000320: 8c12 73bd a85c fabc 62b0 57be f931 c6bd
00000330: 1310 44be e852 2fbe 44ff 893d feab 03be
00000340: 93dc 913a ffed 65bc 05be ec3c 7eb9 b83d
00000350: e0c8 573d 2015 07bd c42a 0dbe 7832 1f3e
00000360: c850 02bc 1056 2abd 17d3 213c 6a35 a63c
00000370: bfe0 8bbe d8a3 833e 50e7 913c d2e5 8a3e
00000380: ab61 d1bd e406 32be b1ec 25bd 87f8 57bd
00000390: 85e4 b53e 043c 1ebe a2ab 9d3d 27ff 01be
000003a0: c43a ca3c 74ac 883d 1a6a b4bd 287b 0cbe
000003b0: 79b5 3bbd fa5d 353e f77b cc3d 61fb 863b
000003c0: df50 643e 0310 003e 0f2c 963e a9c4 83bc
000003d0: af4b cf3d b24d 8cbd 0eac 67be df2b bd3d
000003e0: 16f6 853d 3e3a 27be 915b 11be 8173 b13e
000003f0: 7469 b2be 70b4 ff3d 688a 393e 71aa bcbe

linears.3.bias f4 [40]
-0.00044349322 -0.0029018864 -0.0053979037 -0.0055617397 0.0017501541 -0.009507243 0.001354745 -0.003417317
-0.005257013 -0.0011248742 -0.003891259 0.0007817449 0.0002675441 0.0033450958 -0.0047474317 -0.0034817352
0.003614959 -0.0026701575 -0.00060343056 0.0018180121 0.00038620998 -0.004577242 -0.002953239 0.00014681285
0.00043544138 -0.0019417997 -0.0073418133 0.00027344708 -0.0026262735 -0.0068665165 0.00046205855 0.0005649556
-0.0051799403 0.0011465377 -0.0053251525 0.0010231344 -0.0044088704 -0.00017725666 -0.0055413726 -0.004515293
00000000: a784 e8b9 932d 3ebb e6e0 b0bb 413f b6bb
00000010: 6d65 e53a 44c4 1bbc b391 b13a 11f5 5fbb
00000020: 0543 acbb 8470 93ba 7e04 7fbb 03ee 4c3a
00000030: 2945 8c39 6539 5b3b 5890 9bbb d32d 64bb
00000040: f3e8 6c3b cffd 2ebb 8a2f 1eba 5d4a ee3a
00000050: 3a7c ca39 b0fc 95bb 218b 41bb c6f1 1939
00000060: f44b e439 fc83 feba 9893 f0bb 725d 8f39
00000070: 8f1d 2cbb 8400 e1bb 7340 f239 8719 143a
00000080: 7dbc a9bb 6c47 963a 9e7e aebb b21a 863a
00000090: 4978 90bb f9dd 39b9 6794 b5bb 06f5 93bb

linears.4.weight f4 [40, 40]
-0.22576237 -0.07829034 -0.23080646 0.09708592 0.11611643 -0.18588053 0.23139031 0.05859211
-0.25343245 -0.1391235 -0.070589475 0.052705787 0.23580837 0.023301013 0.17761186 -0.17022395
-0.31997654 -0.093587264 0.12787428 -0.032711636 -0.42089158 -0.00393798 -0.28794825 0.07994186
0.14663446 0.3237476 -0.31769472 -0.19644287 0.12144441 -0.11434608 0.09053952 0.0063534076
0.12038417 0.010738315 -0.08691976 0.10421169 -0.016644727 -0.15151553 0.39284608 0.21448371
-0.124502495 0.024232777 -0.11621341 -0.2476513 0.2404036 -0.06722574 -0.18434721 0.10822165
-0.1035459 0.035337932 -0.10662046 -0.01807459 -0.22444354 -0.0020356912 -0.25165063 -0.1818088
0.217641 0.06483675 0.09210058 -0.06968072 -0.16925307 -0.17028016 0.0685181 -0.06732647
-0.04014493 0.06785378 -0.23516968 -0.13016132 0.21909067 0.1008212 -0.08093046 -0.02897894
0.00026380684 0.18652065 0.00813778 0.00763522 -0.16263732 -0.031421307 -0.22482131 -0.052392296
0.2533542 0.04772387 -0.035178814 0.15169966 0.070220836 -0.035675276 -0.024394209 -0.027605135
-0.15100804 0.04941698 0.05775363 -0.14801694 0.021816462 0.006688928 0.19829421 -0.029098455
0.053896464 0.04913689 0.09297126 0.1629405 -0.10842831 -0.04442598 0.103379324 0.029685799
0.1906415 -0.019520592 -0.10499159 0.1213358 0.060066245 -0.036771227 0.12381582 -0.17468683
-0.0019696038 0.26080036 0.051713943 -0.112630315 -0.07402328 0.24396124 0.05170836 0.065678984
-0.17048784 -0.26958036 0.10462396 -0.0706639 0.055730537 -0.3043946 0.19833283 0.0136760315
0.07429241 -0.08973079 0.15541324 0.21609917 0.070427604 -0.06823181 -0.103368044 0.38582903
-0.06935177 -0.06212324 -0.075125456 -0.14876479 0.019544207 0.21241093 0.11603931 -0.016597047
0.13847919 0.2358971 0.19504334 -0.15916039 -0.03247049 0.18193534 -0.114748605 0.19854084
-0.009619239 0.09895159 0.17446683 -0.23412664 0.09222135 0.07646666 0.2640031 0.110786356
0.017326077 -0.093380995 -0.05906359 -0.069164254 0.071037665 -0.1086471 -0.077017106 -0.21475285
0.05191971 -0.33844686 0.15425153 -0.0126771 0.28663883 -0.073523775 -0.10374358 -0.12512848
-0.41582406 0.22003917 -0.00595589 -0.11701458 0.016241828 0.20686676 0.21742044 -0.17394556
0.106446944 -0.3146751 0.057473622 0.027165998 0.09760145 0.0475028 0.027930934 -0.20669253
0.028732907 0.33815655 -0.003611272 0.017483426 -0.070134796 -0.1616147 0.13927692 0.2113746
-0.18026446 0.2134707 -0.019139951 -0.048505336 -0.20264016 0.08814404 0.30250004 -0.050187696
-0.061231613 -0.07689805 -0.24695425 -0.36703417 -0.0750289 -0.03839398 -0.2189509 -0.20544791
-0.32060987 -0.19651023 -0.02172812 0.044588543 0.008673954 0.15325794 -0.20329647 0.00028268923
0.18721497 0.16145222 -0.29133758 -0.07482175 -0.06335304 0.15103765 -0.20231031 -0.036895618
-0.09365342 0.23614495 0.11582338 0.044709146 -0.15617266 -0.06617369 0.15343638 -0.045730155
0.13831554 -0.024517948 0.18613762 0.009547824 -0.14232346 -0.07190211 0.095428675 0.09641616
0.044864625 0.067952774 0.12177966 -0.035500307 0.09539789 -0.13861267 0.12589909 0.08408954
00000000: 402e 67be b056 a0bd 8758 6cbe fcd4 c63d
00000010: 73ce ed3d 7757 3ebe 95f1 6c3e 48fe 6f3d
00000020: e6c1 81be 6476 0ebe 3791 90bd 06e2 573d
00000030: c077 713e c4e1 be3c e2df 353e 304f 2ebe
00000040: f7d3 a3be aeaa bfbd 7af1 023e a3fc 05bd
00000050: 1a7f d7be 2c0a 81bb f46d 93be 8fb8 a33d
00000060: 5827 163e 3fc2 a53e e2a8 a2be 5228 49be
00000070: d9b7 f83d 472e eabd c96c b93d 3f30 d03b
00000080: fa8b f63d c2ef 2f3c fd02 b2bd f06c d53d
00000090: 865a 88bc e326 1bbe 1f23 c93e 9ea1 5b3e
000000a0: 2afb febd d183 c63c 4c01 eebd 4d98 7dbe
000000b0: 5c2c 763e a6ad 89bd 84c5 3cbe 50a3 dd3d
000000c0: df0f d4bd 82be 103d d45b dabd 2a11 94bc
000000d0: 87d4 65be 3b69 05bb 5ad8 80be 162c 3abe
000000e0: 48dd 5e3e 21c9 843d 3b9f bc3d c4b4 8ebd
000000f0: ad50 2dbe ec5d 2ebe 3853 8c3d 76e2 89bd
00000100: 036f 24bd ecf6 8a3d 52d0 70be 0249 05be
00000110: 4e59 603e 587b ce3d debe a5bd 3e65 edbc
00000120: 8e4f 8a39 45ff 3e3e 5354 053c de30 fa3b
00000130: 668a 26be a1b3 00bd 8f37 66be 4e99 56bd
00000140: a4b7 813e 1b7a 433d a917 10bd 2857 1b3e
00000150: f1cf 8f3d 3d20 12bd 5dd6 c7bc 2a24 e2bc
00000160: daa1 1abe 7669 4a3d 128f 6c3d c191 17be
00000170: 70b8 b23c cc2e db3b a30d 4b3e e25f eebc
00000180: 8ac2 5c3d c343 493d b767 be3d e0d9 263e
00000190: a90f debd 04f8 35bd 8ab8 d33d a22f f33c
000001a0: 8637 433e a6e9 9fbc d505 d7bd e77e f83d
000001b0: 0608 763d 6d9d 16bd 2693 fd3d 1be1 32be
000001c0: 7814 01bb a087 853e 00d2 533d b9aa e6bd
000001d0: 8499 97bd fad0 793e 25cc 533d b482 863d
000001e0: 5d94 2ebe 7006 8abe 1645 d63d 3cb8 90bd
000001f0: b445 643d 9cd9 9bbe c317 4b3e 6f11 603c
00000200: 9e26 983d c7c4 b7bd a624 1f3e 1a49 5d3e
00000210: 593c 903d 1fbd 8bbd a0b2 d3bd 628b c53e
00000220: 4d08 8ebd f074 7ebd 60db 99bd cc55 18be
00000230: 2c1b a03c 4082 593e 05a6 ed3d 88f6 87bc
00000240: 7dcd 0d3e 028f 713e 71b9 473e f1fa 22be
00000250: c7ff 04bd 424d 3a3e 5101 ebbd 4a4e 4b3e
00000260: 039a 1dbc 22a7 ca3d 6fa7 323e e5be 6fbe
00000270: 8cde bc3d 8d9a 9c3d 6a2b 873e f5e3 e23d
00000280: 6bef 8d3c 893e bfbd aaec 71bd fda5 8dbd
00000290: 327c 913d 5f82 debd 25bb 9dbd 2ce8 5bbe
000002a0: c3a9 543d e848 adbe 1df4 1d3e 9cb3 4fbc
000002b0: 53c2 923e a293 96bd 8477 d4bd ae21 00be
000002c0: e4e6 d4be f351 613e a029 c3bb 57a5 efbd
000002d0: 950d 853c e1d4 533e 77a3 5e3e c91e 32be
000002e0: db00 da3d 181d a1be 7669 6b3d 3a8b de3c
000002f0: 45e3 c73d 4c92 423d 6acf e43c 35a7 53be
00000300: 4661 eb3c db22 ad3e 17ab 6cbb 6739 8f3c
00000310: d5a2 8fbd 537e 25be 9c9e 0e3e 9572 583e
00000320: 3f97 38be 1098 5a3e 63cb 9cbc 88ad 46bd
00000330: e780 4fbe dd84 b43d 49e1 9a3e 9d91 4dbd
00000340: 00ce 7abd ba7c 9dbd 93e1 7cbe e7eb bbbe
00000350: c0a8 99bd 0243 1dbd aa34 60be f060 52be
00000360: fa26 a4be fa39 49be 2cff b1bc 7aa2 363d
00000370: 331d 0e3c a6ef 1c3e f32c 50be e835 9439
00000380: 48b5 3f3e bb53 253e 332a 95be 253c 99bd
00000390: 3dbf 81bd 9da9 1a3e 6f2a 4fbe dc1f 17bd
000003a0: 5dcd bfbd fbcf 713e cf34 ed3d f020 373d
000003b0: baeb 1fbe 1286 87bd 6d1e 1d3e 8b4f 3bbd
000003c0: 97a2 0d3e ddd9 c8bc dc9a 3e3e 7a6e 1c3c
000003d0: 3ebd 11be 6a41 93bd 1c70 c33d d675 c53d
000003e0: f8c3 373d d32a 8b3d 9d67 f93d c568 11bd
000003f0: f85f c33d 7bf0 0dbe b1eb 003e 2337 ac3d

linears.4.bias f4 [40]
-0.0018536495 0.002619035 -0.0005353064 -0.0055990075 -0.0026719733 0.005589524 -0.0030270782 0.0047852206
-0.00066602515 -0.0032937159 -0.0035276616 -0.002568605 -0.00037834188 -0.0050231 0.0018684925 0.0032443735
0.00035618962 -0.0022571036 0.0015132172 -0.0023765338 -0.001318441 0.004091352 0.0022137603 0.0019842833
-0.0047402377 -0.004386626 0.005848734 -0.0012336145 4.063724e-05 -0.0025767311 -0.0050586676 -0.0028013298
0.0008539958 -0.0012705494 -0.0017721265 -0.00077599747 0.00057684164 -0.0029830104 0.00028371005 -0.0015349311
00000000: 28f6 f2ba 1ea4 2b3b ce53 0cba e177 b7bb
00000010: 461c 2fbb 5328 b73b f261 46bb 57cd 9c3b
00000020: 3198 2eba 62db 57bb 5730 67bb 0a56 28bb
00000030: 305c c6b9 d198 a4bb 34e8 f43a 8e9f 543b
00000040: f6be ba39 eaeb 13bb 2557 c63a 9fbf 1bbb
00000050: 8acf acba c010 863b bc14 113b c00a 023b
00000060: ff53 9bbb b0bd 8fbb bda6 bf3b 3cb1 a1ba
00000070: e771 2a38 60de 28bb 2ec3 a5bb 8496 37bb
00000080: b0de 5f3a 9088 a6ba b346 e8ba 4f6c 4bba
00000090: 3037 173a 9c7e 43bb ebbe 9439 be2f c9ba

linears.5.weight f4 [40, 40]
0.10246279 -0.0032220925 0.17467381 -0.37385276 0.029303292 -0.17596471 0.084315754 0.08113514
0.2574063 -0.09935986 0.2434816 0.045278348 0.021911273 -0.15983966 -0.11485375 0.21695322
0.09597385 0.026081549 0.0068832436 0.18105723 0.11730849 0.29014334 -0.099376254 0.042153247
-0.2021005 0.0318849 -0.023075527 -0.057383925 0.24674554 -0.095162526 0.14408027 -0.12132409
-0.22942662 -0.10910985 -0.13660687 0.00736456 0.15115154 0.27287564 -0.13878086 -0.107804514
0.0044395668 0.14747359 -0.0076963357 -0.06860192 -0.11599508 -0.1674591 -0.30194774 0.15943234
-0.19826433 -0.15755196 -0.0063809096 0.17309825 -0.31438226 0.09327055 0.04633385 -0.0993023
-0.20767705 -0.18780105 -0.33913177 0.0702739 -0.16741589 0.063741505 -0.011101173 -0.015792567
-0.028749175 -0.20437723 -0.024291895 -0.21645412 0.071546376 0.095175475 -0.23185691 -0.016634168
-0.10257071 0.044994105 -0.2759977 0.18598357 0.073602095 0.05023476 0.19926727 0.046908967
-0.38921857 0.03398451 0.12991272 0.0055011725 -0.100719936 -0.03855268 -0.16831225 -0.08477848
-0.046307713 0.055621423 0.055396326 -0.02529816 -0.060654398 0.016050221 -0.10628858 0.10695753
-0.20732297 0.23697019 -0.10282964 0.12762663 0.013845129 -0.15882553 -0.10050549 0.03201388
-0.088463865 -0.0647202 -0.18289462 0.05645863 0.0748888 0.17621826 0.09064434 -0.0017839373
0.0771871 -0.048240483 -0.1846828 0.2946751 0.027728636 0.07279024 -0.103252865 0.17213655
0.25001404 -0.15534416 0.16209678 0.34303117 -0.15499802 -0.025883831 -0.172332 0.1343732
-0.04626275 0.007152897 -0.055811983 0.05061001 0.16534992 -0.25760648 -0.033091422 0.041912954
-0.07628328 -0.05833183 0.09119738 -0.12967978 0.063659474 0.2250002 -0.04234508 0.01685915
-0.1385374 0.095838025 0.096224986 -0.064984106 0.014634857 0.103340924 -0.08632347 0.22682756
-0.060252946 -0.0042841854 0.012265656 0.093059435 0.075041115 -0.06333219 0.15182836 0.22284985
0.032979872 -0.16327348 -0.21934728 0.24955045 -0.46816692 -0.006892864 0.012433632 -0.006272784
0.16951261 0.013487185 -0.1323908 0.10741979 0.09287701 -0.0335318 0.0743086 0.21222784
-0.1133084 0.1547762 -0.09296166 -0.042708702 0.10149535 0.17545743 -0.04670115 -0.21264721
-0.12025515 -0.008321897 0.019810101 0.015258694 0.09677329 -0.11689597 0.10191113 0.039249234
0.12842199 -0.16648431 0.20307267 -0.00832407 0.27958286 -0.12260378 0.23926164 0.15622258
0.61187035 -0.19199848 0.117528915 0.24848048 0.040159483 0.11099778 0.11403985 -0.19007418
-0.064459406 -0.07489371 0.20569298 -0.039701402 -0.3259977 -0.1419986 -0.11471331 -0.20248981
0.0966529 0.073197536 0.10540409 0.062636696 -0.19849657 -0.12321256 -0.11747504 0.3045618
-0.054992385 -0.090596505 0.1625519 -0.16154176 -0.19974121 -0.040401127 0.04536949 0.1278792
-0.07082825 0.19323738 -0.061430704 -0.28750157 0.101413175 0.26058176 0.15464959 0.10857236
-0.14491193 0.0638052 -0.03450275 0.0035979946 0.084116325 0.05415291 0.579338 -0.23852222
0.06550648 -0.0894002 0.092613466 0.12571898 -0.01871619 -0.20566115 -0.2412532 -0.10489496
00000000: 03d8 d13d be29 53bb b1dd 323e a169 bfbe
00000010: 750d f03c 1830 34be bdad ac3d 2e2a a63d
00000020: c2ca 833e 2f7d cbbd 3e53 793e ca75 393d
00000030: 457f b33c 02ad 23be 7138 ebbd fc28 5e3e
00000040: f08d c43d f9a8 d53c d58c e13b 1167 393e
00000050: 6f3f f03d ab8d 943e c785 cbbd e2a8 2c3d
00000060: 6ff3 4ebe be99 023d e308 bdbc 680b 6bbd
00000070: ddaa 7c3e 92e4 c2bd c789 133e c478 f8bd
00000080: d0ee 6abe fc74 dfbd ace2 0bbe 6852 f13b
00000090: 78c7 1a3e 5bb6 8b3e 921c 0ebe 9dc8 dcbd
000000a0: c979 913b 5103 173e 8b31 fcbb 2a7f 8cbd
000000b0: d48e edbd 667a 2bbe e598 9abe 3b42 233e
000000c0: ce05 4bbe 4d55 21be f316 d1bb ab40 313e
000000d0: b6f6 a0be a104 bf3d 90c8 3d3d 015f cbbd
000000e0: 4ba9 54be eb4e 40be aea2 adbe c3eb 8f3d
000000f0: 126f 2bbe e88a 823d b2e1 35bc 6a5f 81bc
00000100: 6483 ebbc 4448 51be ccff c6bc 26a6 5dbe
00000110: e886 923d 5ceb c23d e66b 6dbe 6144 88bc
00000120: 9810 d2bd bd4b 383d 924f 8dbe 7a72 3e3e
00000130: b2bc 963d f7c2 4d3d b80c 4c3e 9e23 403d
00000140: a847 c7be 5733 0b3d d707 053e 2e43 b43b
00000150: 4146 cebd 6ae9 1dbd 0c5a 2cbe 57a0 adbd
00000160: 28ad 3dbd 4ad3 633d 42e7 623d 163e cfbc
00000170: bf70 78bd c17b 833c d4ad d9bd 8d0c db3d
00000180: 794c 54be 50a8 723e 5998 d2bd 8eb0 023e
00000190: aed6 623c 29a3 22be d3d5 cdbd fc20 033d
000001a0: 8b2c b5bd 068c 84bd ba48 3bbe 2a41 673d
000001b0: 4d5f 993d 8f72 343e bda3 b93d 01d3 e9ba
000001c0: 4514 9e3d d097 45bd 7d1d 3dbe a8df 963e
000001d0: 2a27 e33c 0d13 953d 3d76 d3bd 9044 303e
000001e0: d701 803e 8a12 1fbe b3fc 253e c8a1 af3e
000001f0: cdb7 1ebe 540a d4bc cd77 30be 2199 093e
00000200: 027e 3dbd d962 ea3b 1b9b 64bd 714c 4f3d
00000210: 7d51 293e ffe4 83be df8a 07bd ebac 2b3d
00000220: 693a 9cbd 5bed 6ebd b1c5 ba3d c7ca 04be
00000230: e65f 823d 7466 663e 0972 2dbd 331c 8a3c
00000240: c0dc 0dbe ba46 c43d 9b11 c53d 6316 85bd
00000250: 0ac7 6f3c 68a4 d33d 5cca b0bd 7c45 683e
00000260: cbcb 76bd 5a62 8cbb e4f5 483c f295 be3d
00000270: 28af 993d 4fb4 81bd e578 1b3e c032 643e
00000280: e715 073d 2a31 27be 939c 60be 278a 7f3e
00000290: 93b3 efbe 89dd e1bb 6fb6 4b3c ed8b cdbb
000002a0: b794 2d3e 5bf9 5c3c 7491 07be e8fe db3d
000002b0: 4d36 be3d a458 09bd 1b2f 983d 4152 593e
000002c0: 3c0e e8bd a77d 1e3e af62 bebd 52ef 2ebd
000002d0: cbdc cf3d 1dab 333e b449 3fbd 31c0 59be
000002e0: 5548 f6bd 9158 08bc cb48 a23c 9aff 793c
000002f0: 1331 c63d 2867 efbd c8b6 d03d cec3 203d
00000300: 0e81 033e dd7a 2abe 48f2 4f3e ae61 08bc
00000310: 7c25 8f3e b117 fbbd 0101 753e d0f8 1f3e
00000320: 89a3 1c3f 409b 44be 00b3 f03d ab71 7e3e
00000330: 457e 243d ce52 e33d ba8d e93d cea2 42be
00000340: 4b03 84bd e061 99bd 2ea1 523e f09d 22bd
00000350: 2ce9 a6be 1568 11be d0ee eabd 7d59 4fbe
00000360: f5f1 c53d 97e8 953d 19de d73d ab47 803d
00000370: af42 4bbe de56 fcbd c196 f0bd 86ef 9b3e
00000380: b23f 61bd a98a b9bd 0174 263e 346b 25be
00000390: f688 4cbe a77b 25bd 5cd5 393d c4f2 023e
000003a0: 670e 91bd 05e0 453e c39e 7bbd 6833 93be
000003b0: b6b1 cf3d f96a 853e 765c 1e3e 2f5b de3d
000003c0: cb63 14be 4dac 823d c152 0dbd 55cc 6b3b
000003d0: 2e45 ac3d 71cf 5d3d 7f4f 143f 2b3f 74be
000003e0: 4328 863d 7417 b7bd 21ac bd3d 7abc 003e
000003f0: b252 99bc d698 52be 140b 77be 2bd3 d6bd

linears.5.bias f4 [40]
-0.0014674314 -0.00055407785 0.0060484493 0.005603491 -3.9449937e-05 -0.0033556428 9.201275e-05 0.001010914
0.0028745208 -0.0036139116 0.0038078744 -0.0017562269 0.001558786 0.0009516973 0.0007053624 0.0044397158
0.0008148045 -0.004554125 0.0054832757 -0.0051184343 0.0025033162 0.0052948445 -0.00034530598 -0.00059495174
0.0005789191 0.00027714513 0.0012095167 0.004351563 -0.0038425212 -0.0021519004 -0.005408718 0.0015900489
-0.0055775903 0.0052473703 -0.00028938925 0.0012191696 0.0013237576 0.0032195784 0.0021244406 0.0031812168
00000000: d456 c0ba 893f 11ba 1232 c63b 7d9d b73b
00000010: 0c77 25b8 58ea 5bbb f8f6 c038 a580 843a
00000020: 7562 3c3b 60d7 6cbb 888d 793b 3231 e6ba
00000030: 2e50 cc3a 537b 793a 12e8 383a 097b 913b
00000040: 9b98 553a c53a 95bb 0dad b33b 8ab8 a7bb
00000050: ad0e 243b 6080 ad3b 2f0a b5b9 89f6 1bba
00000060: 9ac2 173a ca4d 9139 a588 9e3a 8e97 8e3b
00000070: cfd2 7bbb e606 0dbb 9d3b b1bb 3069 d03a
00000080: 38c4 b6bb 22f2 ab3b 2bb9 97b9 8bcc 9f3a
00000090: ef81 ad3a 90ff 523b 333a 0b3b f67b 503b

linears.6.weight f4 [3, 40]
-0.1469192 -0.12277505 0.14541693 0.10757903 -0.17553015 -0.2481858 0.12549083 -0.19043916
-0.15599409 0.34570742 -0.352487 -0.04904685 -0.03321316 -0.07154419 0.24296995 -0.0016197321
0.20762773 0.18962444 0.074906796 -0.09619931 -0.20017241 0.20875554 -0.15086 -0.1095638
0.13264106 -0.21373928 -0.26066673 -0.19618647 -0.32596824 -0.16557907 0.18442631 -0.28829125
0.011579182 0.08056252 0.10911695 -0.026122248 0.35894227 -0.036314357 -0.10336595 0.45560437
-0.21588673 0.23395866 -0.036409117 -0.14309397 0.29036018 0.17918453 -0.4607144 0.13863787
0.06802398 -0.1175628 -0.105308816 -0.18832102 -0.35945585 0.15156353 -0.6764097 0.029217567
0.29294053 0.008032577 -0.014083022 0.016449928 -0.16496646 -0.07108802 0.5385024 -0.086829215
0.15659906 0.30040398 0.0825738 0.006847266 -0.06999851 -0.19782439 0.10147034 0.098806806
0.039661415 0.0016738754 -0.17153873 0.38859153 0.25271857 0.27601624 -0.345523 -0.08895948
0.026234783 -0.16971986 0.11734568 0.43828622 0.02329765 -0.19907679 -0.051236197 0.08645162
0.16405521 -0.48323673 0.1568701 -0.16326238 0.33770645 0.0716532 0.46903884 0.37788248
-0.093169965 -0.06814766 0.19921747 -0.24520244 0.18362966 0.6642187 0.017370328 -0.018397667
0.041834064 0.06702599 0.005131767 0.12634458 -0.26329094 -0.22513838 -0.34646958 0.101994686
-0.19210444 0.058610924 0.07110256 0.242345 -0.059241276 0.5535816 0.3406914 0.11672778
00000000: fd71 16be 7c71 fbbd 2de8 143e 6552 dc3d
00000010: 2dbe 33be 6b24 7ebe ab80 003e 7c02 43be
00000020: eabc 1fbe 9000 b13e 2d79 b4be 5ae5 48bd
00000030: 860a 08bd c385 92bd 1dcd 783e 314d d4ba
00000040: 5d9c 543e e92c 423e bc68 993d 2504 c5bd
00000050: fff9 4cbe 03c4 553e 0b7b 1abe fc62 e0bd
00000060: 0fd3 073e 78de 5abe 1c76 85be 1be5 48be
00000070: 4fe5 a6be 8f8d 29be 40da 3c3e e99a 93be
00000080: 9cb6 3d3c f6fd a43d b578 df3d 53fe d5bc
00000090: 48c7 b73e 5dbe 14bd 87b1 d3bd fa44 e93e
000000a0: 6911 5dbe dc92 6f3e ba21 15bd 3a87 12be
000000b0: 17aa 943e 267c 373e c2e2 ebbe 16f7 0d3e
000000c0: 2850 8b3d c4c4 f0bd 26ac d7bd 3ad7 40be
000000d0: 990a b8be 7833 1b3e 3029 2dbf ae59 ef3c
000000e0: 4dfc 953e 129b 033c 7abc 66bc 00c2 863c
000000f0: f8ec 28be 9996 91bd 4bdb 093f 84d3 b1bd
00000100: 815b 203e 8dce 993e 741c a93d 085f e03b
00000110: 615b 8fbd 7a92 4abe aecf cf3d 395b ca3d
00000120: 0274 223d f065 db3a d9a7 2fbe 78f5 c63e
00000130: 5464 813e 0052 8d3e 64e8 b0be 6330 b6bd
00000140: 54ea d63c 0bcb 2dbe ef52 f03d 0d67 e03e
00000150: b7da be3c c9da 4bbe 0cdd 51bd 8c0d b13d
00000160: 17fe 273e ce6a f7be 8ea2 203e 412e 27be
00000170: dce7 ac3e eabe 923d dc25 f03e d079 c13e
00000180: e5cf bebd 0091 8bbd aaff 4b3e 5916 7bbe
00000190: 6a09 3c3e 3d0a 2a3f 384c 8e3c b4b6 96bc
000001a0: 325a 2b3d ec44 893d 6228 a83b 7960 013e
000001b0: 12ce 86be ad8a 66be 7664 b1be 97e2 d03d
000001c0: 07b7 44be 0212 703d 389e 913d 4a29 783e
000001d0: fba6 72bd 86b7 0d3f 1a6f ae3e f90e ef3d

linears.6.bias f4 [3]
0.029747056 0.001766075 0.004820161
00000000: 19b0 f33c a57b e73a 71f2 9d3b

exp_avg f4 [40, 2]
-1.8131317 1.0115099 2.6532173 -1.2318543 10.724326 -1.2622796 5.7912464 -0.6419749
-0.2695078 -0.35552174 -0.6546158 -0.14838402 10.872821 -1.1024354 3.3472724 -0.6274557
-3.9165933 0.54940015 -8.571686 -1.1247138 2.2401433 -0.24412511 -15.2777 0.88251907
-0.3871552 0.54963636 10.009339 -0.30576044 -5.3970494 0.21330065 -0.017306462 -0.4153584
1.106096 -0.8368823 2.1392446 -1.0376383 10.312574 -0.44786364 -2.2461143 0.32668915
0.36105815 -0.7792597 -8.39741 0.49046013 0.81823397 -0.2998612 5.740697 -0.5084197
2.6800973 -0.86270875 4.7937603 -0.34418693 -10.19576 -0.23562089 12.532192 -1.9611418
-1.6217595 0.68137133 -2.3634853 -0.22134341 1.3318495 -0.5057309 6.8205094 -0.44070137
3.6189137 0.60099703 10.221001 -1.0062811 -5.6391664 -0.24447161 7.8551064 -0.18369968
3.2391167 -0.8948995 -0.31823823 0.16617039 -0.36267868 0.48113853 -12.143314 -0.21555705
00000000: b314 e8bf 2879 813f 50ce 2940 67ad 9dbf
00000010: d796 2b41 6192 a1bf e451 b940 7858 24bf
00000020: edfc 89be f206 b6be e794 27bf fbf1 17be
00000030: 13f7 2d41 9a1c 8dbf b639 5640 f0a0 20bf
00000040: 77a9 7ac0 7da5 0c3f a025 09c1 9ff6 8fbf
00000050: 825e 0f40 effb 79be 7671 74c1 c5ec 613f
00000060: 3539 c6be f8b4 0c3f 4126 2041 a28c 9cbe
00000070: a1b4 acc0 7c6b 5a3e 48c6 8dbc dba9 d4be
00000080: 8e94 8d3f eb3d 56bf 62e9 0840 55d1 84bf
00000090: 4e00 2541 624e e5be 56c0 0fc0 cd43 a73e
000000a0: 9ddc b83e 907d 47bf cb5b 06c1 971d fb3e
000000b0: c877 513f 6887 99be cab3 b740 cb27 02bf
000000c0: b786 2b40 7bda 5cbf 7c66 9940 4539 b0be
000000d0: d521 23c1 9a46 71be dc83 4841 b206 fbbf
000000e0: d195 cfbf 5a6e 2e3f 5843 17c0 d9a7 62be
000000f0: 0b7a aa3f 9577 01bf 9d41 da40 9ca3 e1be
00000100: 489c 6740 f1da 193f 3889 2341 d2cd 80bf
00000110: 0d74 b4c0 c456 7abe 085d fb40 c51b 3cbe
00000120: b04d 4f40 2218 65bf 1ff0 a2be 9228 2a3e
00000130: 05b1 b9be ca57 f63e 044b 42c1 fdba 5cbe

exp_avg_sq f4 [40, 2]
1.0526022e+06 158718.45 1.5529675e+08 2.2723388e+06 4.749689e+08 5.177136e+06 2.7515776e+08 3.876838e+06
4.510868e+07 630501.7 5.608496e+08 1.0413524e+07 3.9587242e+08 5.6736245e+06 2.071452e+08 2.3897352e+06
2.8527136e+07 224201.4 2.6202562e+08 2.909329e+06 1.1493174e+08 1.4282049e+06 1.5626248e+09 2.060163e+07
1.431602e+08 2.3376155e+06 4.509503e+08 7.3101255e+06 1.432384e+08 3.488473e+06 3.301741e+07 204751.88
8.7364024e+07 1.1803545e+06 3.4961997e+08 6.2470975e+06 1.7320352e+08 3.4316225e+06 2.9909988e+07 238537.45
6.339194e+08 1.1062074e+07 5.0256835e+08 6.66038e+06 1.3234888e+08 1.8734445e+06 1.396139e+08 1.4675444e+06
9.03861e+07 1.0927125e+06 2.4507166e+08 2.9836625e+06 2.4938797e+08 5.177057e+06 2.7411542e+08 3.2006475e+06
2.9287533e+08 5.0825e+06 1.4322246e+08 2.3432592e+06 2.0788142e+08 3.3591945e+06 9.300996e+07 654339.56
5.6101308e+07 1.0405839e+06 5.1923366e+08 6.060516e+06 9.77533e+07 1.8629471e+06 2.3401203e+08 3.936012e+06
3.9365053e+08 3.1771695e+06 1.3059206e+08 1.5591709e+06 1.376484e+07 207824.27 4.2975066e+08 7.1577615e+06
00000000: d27d 8049 9dff 1a48 3f1a 144d 4bb1 0a4a
00000010: 9a7b e24d 60fe 9d4a 9834 834d 989f 6c4a
00000020: 7213 2c4c 5bee 1949 8bb7 054e d4e5 1e4b
00000030: 45c4 bc4d 3125 ad4a 8f8c 454d 9ddb 114a
00000040: 10a5 d94b 5af2 5a48 19e3 794d 4492 314a
00000050: 0437 db4c 6757 ae49 8647 ba4e 8f2d 9d4b
00000060: 3887 084d 3ead 0e4a a507 d74d 5b16 df4a
00000070: 509a 084d 64eb 544a 21e7 fb4b f8f3 4748
00000080: 37a2 a64c 1416 9049 38b6 a64d 73a5 be4a
00000090: 042e 254d 1a73 514a f231 e44b 5df2 6848
000000a0: 5f23 174e 3acb 284b ada4 ef4d 3842 cb4a
000000b0: 7a6f fc4c 24b1 e449 6d25 054d c324 b349
000000c0: d665 ac4c 4463 8549 f3b7 694d ba1b 364a
000000d0: bcd5 6d4d c2fd 9d4a 5bb5 824d 1e5a 434a
000000e0: 62a7 8b4d 081b 9b4a 6c96 084d 6d05 0f4a
000000f0: 4d40 464d 6a07 4d4a 0567 b14c 39c0 1f49
00000100: 6f02 564c 7e0c 7e49 0497 f74d c8f3 b84a
00000110: 1a73 ba4c 1969 e349 d82b 5f4d 303c 704a
00000120: 0bb5 bb4d 46eb 414a a815 f94c 1754 be49
00000130: e808 524b 11f4 4a48 cceb cc4d 0370 da4a

exp_avg f4 [40]
-4.659133 18.627106 12.434181 28.645502 -13.883065 24.490408 -34.40344 27.731651
3.1542366 -33.497784 -12.039282 -84.887764 24.626156 -19.471731 15.900363 -19.843618
4.882546 -1.1965141 -5.420157 -5.894981 -32.018402 -28.701738 21.68718 27.931782
-10.059967 -7.849601 -3.4637742 -0.93966395 13.63045 15.558206 -10.7589035 15.525194
-24.281038 40.976776 33.46135 13.165479 -14.481034 14.630888 -1.5235697 29.654337
00000000: 9e17 95c0 5004 9541 68f2 4641 fd29 e541
00000010: 0921 5ec1 5bec c341 1f9d 09c2 6cda dd41
00000020: 03df 4940 bbfd 05c2 e6a0 40c1 89c6 a9c2
00000030: 5e02 c541 1bc6 9bc1 e367 7e41 bbbf 9ec1
00000040: d13d 9c40 6027 99bf ed71 adc0 afa3 bcc0
00000050: d812 00c2 299d e5c1 587f ad41 4a74 df41
00000060: a0f5 20c1 ee2f fbc0 7aae 5dc0 d18d 70bf
00000070: 5316 5a41 69ee 7841 7824 2cc1 3267 7841
00000080: 913f c2c1 38e8 2342 6cd8 0542 cda5 5241
00000090: 51b2 67c1 1e18 6a41 5504 c3bf 153c ed41

exp_avg_sq f4 [40]
679630.06 1.2359232e+08 3.3792352e+08 2.6303126e+08 3.9856704e+07 5.571416e+08 3.5430125e+08 2.047098e+08
2.1114556e+07 2.0475624e+08 1.0115502e+08 1.3755162e+09 1.513074e+08 3.8893418e+08 1.2338387e+08 2.9072322e+07
7.518494e+07 3.2004826e+08 1.4241973e+08 2.5474034e+07 6.401989e+08 3.7545184e+08 1.1978084e+08 1.0082923e+08
7.7724664e+07 2.0210083e+08 1.9013398e+08 1.8880706e+08 2.6562557e+08 1.3762373e+08 2.0058285e+08 6.776224e+07
4.55767e+07 4.0677216e+08 9.1997304e+07 1.7875827e+08 3.5338986e+08 1.3193122e+08 1.0697207e+07 3.4199523e+08
00000000: e1ec 2549 d0bb eb4c 6e22 a14d 9ed8 7a4d
00000010: 900a 184c 3ad5 044e aaf1 a84d fa39 434d
00000020: 5e17 a14b 5145 434d 1af0 c04c 6cf9 a34e
00000030: 484c 104d 5175 b94d 0856 eb4c e1cd dd4b
00000040: 6667 8f4c 649c 984d 71d2 074d f959 c24b
00000050: a4a2 184e 8607 b34d bd76 e44c 0651 c04c
00000060: 7f3f 944c 06bd 404d 6e53 354d 790f 344d
00000070: fe51 7d4d 8b3f 034d 6c4a 3f4d 083f 814c
00000080: 7fdc 2d4c cef6 c14d 8f78 af4c 287a 2a4d
00000090: 6982 a84d 8aa3 fb4c f739 234b 7713 a34d
