1DCFD_PINN/1D_CFD_Rand_Eta1.e-8_Zeta1.e-8_trans_Train_PINN.pt-15000.pt (torch, 112935 bytes, 42 tensors)

linears.0.weight f4 [40, 2]
0	0xbe47e19b	-0.19519655
1	0xbefcab38	-0.4934938
2	0xbd40b6d4	-0.04704936
3	0xbdd699b7	-0.104785375
4	0x3ea07259	0.3133724
5	0x3f3126c3	0.6919977
6	0x3bd53e05	0.0065076374
7	0xbedc3a47	-0.43013212
8	0x3e265813	0.16244535
9	0xbc869381	-0.016427757
10	0x3ddb6b18	0.10713786
11	0xbe6acfec	-0.22930878
12	0x3d1742d9	0.036928985
13	0x3e0c7676	0.13717064
14	0x3cd6173c	0.026134126
15	0x3d8b670b	0.06806763
16	0x3e97d015	0.29650941
17	0xbeef266f	-0.4670901
18	0x3c70eda1	0.014705093
19	0xbedf484b	-0.43609843
20	0x3e9b6a74	0.30354655
21	0xbcb499ab	-0.02204593
22	0x3d6c3e61	0.057676677
23	0xbdecaa7f	-0.11555957
24	0xbc3c6949	-0.011499711
25	0xbe3878d1	-0.18014838
26	0xbde0dc2a	-0.10979493
27	0x3e5d451e	0.21608397
28	0x3eba87ea	0.3643182
29	0xbcc60743	-0.024173385
30	0xbe585822	-0.2112737
31	0xbe166e72	-0.14690569
32	0xbdb8612b	-0.09002908
33	0x3e9236da	0.28557473
34	0x3d0bd84f	0.034141835
35	0x3e21fe0b	0.15819566
36	0x3d800e28	0.062527
37	0x3ef7d631	0.48405603
38	0x3ea4cdd2	0.32188278
39	0x3ea90ad9	0.3301609
40	0x3d03ac57	0.032146778
41	0x3de75e13	0.1129724
42	0x3df8312e	0.12118755
43	0xbda828e4	-0.08210924
44	0x3e6756b7	0.22591673
45	0xbde46fcd	-0.11154137
46	0xbb08cdd5	-0.0020874639
47	0x3d1ff0d3	0.039048027
48	0xbe5947e0	-0.21218824
49	0x3ee74406	0.45169085
50	0xbee4544d	-0.44595566
51	0x3e1a7bb7	0.15086256
52	0xbe19ffa5	-0.15038927
53	0xbee26fcb	-0.44225916
54	0x3a43daad	0.0007471245
55	0x3d809ce2	0.06279923
56	0x3e3b9c18	0.18321264
57	0x3e69c32b	0.22828357
58	0xbd436d9b	-0.04771195
59	0xbe421a86	-0.1895543
60	0x3d4a6ff4	0.049423173
61	0xbf075baa	-0.52874243
62	0xbd16ecd9	-0.03684697
63	0x3e49793e	0.19675156
64	0x3e26875d	0.16262574
65	0xbcf4d1d4	-0.02988521
66	0x3d1286ce	0.03577309
67	0xbebdbb28	-0.3705685
68	0xbcce6455	-0.025194326
69	0x3eb6045d	0.35550204
70	0xbee302dc	-0.4433812
71	0x3da94747	0.08265548
72	0x3eabeccc	0.335791
73	0x3d7ca0d9	0.061676834
74	0xbe91606c	-0.28393877
75	0xbea34de2	-0.31895357
76	0xbe1721a1	-0.14758922
77	0x3ed3bd8d	0.41355553
78	0xbc7272d0	-0.014797881
79	0xbd8f921d	-0.07010291

linears.0.bias f4 [40]
0	0xbd2e8be7	-0.04261389
1	0x3bb54fae	0.00553318
2	0xbb9f8216	-0.0048678024
3	0x3cf03ec1	0.029326798
4	0xbb7a5276	-0.0038196123
5	0x39c15c1e	0.0003688046
6	0xb98638ef	-0.0002560089
7	0xbc959d51	-0.01826349
8	0x3d97b7a4	0.074080735
9	0x3d3553d7	0.04426941
10	0xbd5a9761	-0.053367022
11	0xb9a9a6cf	-0.00032358474
12	0xbd836584	-0.06415847
13	0x3c320d40	0.010867417
14	0x3c3ba336	0.011452487
15	0x3cadaa84	0.021199472
16	0x3d522d74	0.05131288
17	0x3bd54ec3	0.0065096333
18	0xbd62bd04	-0.05535604
19	0xbd37b839	-0.044853423
20	0xbc8bb130	-0.017052263
21	0xbd40094c	-0.046883866
22	0xbbe387ca	-0.0069436776
23	0x3ad2be80	0.0016078502
24	0xbc99078a	-0.018680353
25	0xbc141bfb	-0.009039874
26	0x3cc2368c	0.02370765
27	0xbd9a191e	-0.07524322
28	0xbb28f27b	-0.0025779295
29	0x3d091da3	0.03347553
30	0xbd082d2c	-0.033246204
31	0x3a950570	0.0011369418
32	0x3bb57661	0.0055377935
33	0xbc828b11	-0.015935453
34	0xbc7a3ec3	-0.015273753
35	0x3c999974	0.01874993
36	0x3c159368	0.009129383
37	0x3d767c30	0.06017703
38	0xbb1eea9c	-0.0024248725
39	0x3cd1d8d3	0.025616085

linears.1.weight f4 [40, 40]
0	0x3d90a168	0.07062036
1	0xbdc885f3	-0.09791174
2	0xbcd085fb	-0.025454512
3	0xbe368cb6	-0.17827114
4	0x3da613d5	0.081092514
5	0x3dc8b761	0.09800602
6	0xbecba8d3	-0.3977724
7	0x3eb85c94	0.36008132
8	0x3d8d6937	0.06904834
9	0xbc546f89	-0.012966045
10	0x3d335b12	0.043788023
11	0xbe15f518	-0.14644277
12	0x3d1fadd3	0.03898413
13	0x3e0d32bb	0.13788883
14	0xbda073d5	-0.07834593
15	0x3de1b683	0.110211395
16	0x3ef20ba2	0.472745
17	0x3db42aaf	0.08797204
18	0x3e8e2023	0.27758893
19	0xbe13a645	-0.14418896
20	0x3da744b4	0.08167401
21	0x3dcd26da	0.10017176
22	0x3c80841e	0.015687998
23	0xbe8520a1	-0.26001456
24	0x3e1b7ff2	0.15185526
25	0x3cb4647b	0.02202057
26	0xbe990f26	-0.2989437
27	0xbdf808a4	-0.12111023
28	0xbe33dda6	-0.17565021
29	0x3caaac8e	0.020834234
30	0xbe298e27	-0.16558133
31	0xbd106814	-0.035255507
32	0xbec0cea7	-0.37657663
33	0xbf0601ed	-0.5234669
34	0x3e0cc47b	0.13746826
35	0x3e3e6e7a	0.18596831
36	0x3de4a51c	0.111643046
37	0xbeb34c1c	-0.35019004
38	0x3ea4ede5	0.3221275
39	0xbe7a898a	-0.2446653
40	0xbe4ec0fb	-0.20190804
41	0x3e1a220c	0.1505205
42	0xbd47f63f	-0.048818823
43	0x3dd09f13	0.10186591
44	0xbde3e64c	-0.1112791
45	0xbd444fb8	-0.04792759
46	0x3c950641	0.018191459
47	0x3da78d23	0.081812166
48	0xbe0ed0bf	-0.13946818
49	0x3e122337	0.14271246
50	0x3dab65ee	0.08369051
51	0xbe1a4d21	-0.15068485
52	0xbe1674cf	-0.14692996
53	0x3cc6832c	0.02423247
54	0xbdb0c1a6	-0.086306855
55	0xbe983e60	-0.29735088
56	0xbdd63620	-0.10459542
57	0xbd793300	-0.060839653
58	0xbc563f1e	-0.013076572
59	0x3e64a25e	0.22327563
60	0x3e46f043	0.1942759
61	0x3e1eb94b	0.15500371
62	0x3e8d92d8	0.27651095
63	0xbd04eff2	-0.032455392
64	0xbd370ba2	-0.04468883
65	0x3e953c0a	0.2914737
66	0x3e2fb4aa	0.17158762
67	0x3eab481f	0.33453462
68	0x3d87f479	0.06638426
69	0xbe225f80	-0.15856743
70	0xbe2d2f4d	-0.16912575
71	0xbddbb339	-0.107275434
72	0xbe39a4b5	-0.18129237
73	0x3ee012c5	0.4376432
74	0xbdab1fe3	-0.08355691
75	0x3db1329d	0.08652232
76	0x3eb90ee4	0.36144173
77	0x3ea0559a	0.3131531
78	0xbea98468	-0.3310883
79	0x3c1ec70f	0.009691014
80	0xbdb7fda3	-0.08983924
81	0x3dbcafab	0.092131935
82	0x3e1848ed	0.14871569
83	0xbe258b7e	-0.16166493
84	0xbc512d77	-0.012767187
85	0xbd853c27	-0.06505614
86	0x3d836ae2	0.06416871
87	0x3dcbc8e5	0.09950427
88	0x3dd4deb6	0.10394041
89	0x3e991c8c	0.29904592
90	0x3d1874a6	0.03722062
91	0xbd1d8bf0	-0.038463533
92	0x3df3e826	0.11909513
93	0xbdb0c71c	-0.08631727
94	0xbd831372	-0.06400193
95	0xbe5fdd79	-0.21861829
96	0xbcf6e24f	-0.03013721
97	0x3d25c91e	0.040475003
98	0xbc9a1e11	-0.018813165
99	0xbe864c1f	-0.2622995
100	0xbe66ff45	-0.22558315
101	0xbe6a8709	-0.22903074
102	0xbe7e3769	-0.24825825
103	0xbea8808c	-0.32910573
104	0xbe2a4e62	-0.16631463
105	0x3d253f6b	0.040343683
106	0xbe03e64d	-0.12880822
107	0x3e527953	0.20554094
108	0x3e4047ac	0.1877734
109	0x3e7ad464	0.24495083
110	0x3e0beb26	0.13663921
111	0x3dc81f8b	0.09771641
112	0x3e742e34	0.2384575
113	0xbded5cc5	-0.1158996
114	0x3da5e162	0.08099629
115	0xbc8fd03d	-0.01755535
116	0xbd4afdce	-0.049558453
117	0xbde128c0	-0.109941006
118	0xbc76d38a	-0.015065083
119	0xbdd954c9	-0.106118746
120	0xbe83cdf1	-0.25743058
121	0xbd36f95f	-0.044671413
122	0xbca2be86	-0.01986624
123	0xbda4d229	-0.08047897
124	0xbbaa7286	-0.0052016405
125	0x3962b296	0.00021619568
126	0xbe2a74e0	-0.16646147
127	0xbc81453a	-0.01578008
128	0x3cf59771	0.02997944
129	0xbea77351	-0.32705167
130	0xbe84502f	-0.25842425
131	0xbc03a375	-0.008034577
132	0x3d7983f6	0.060916863
133	0x3b8c49a1	0.004281238
134	0x3da979da	0.082751945
135	0x3cc50a8a	0.024052877
136	0x3e0adb77	0.13560282
137	0x3d093cae	0.033505134
138	0x3c932623	0.017962521
139	0xbe288b94	-0.16459495
140	0xbdb8e66d	-0.09028325
141	0xbcd6f187	-0.026238216
142	0x3d8079b8	0.06273216
143	0x3d859693	0.065228604
144	0xbe943bf8	-0.28952003
145	0x3db14558	0.086558044
146	0x3dd69e7a	0.10479446
147	0x3e77a148	0.24182618
148	0x3dc8c0b8	0.09802383
149	0x3c2ec29b	0.010666515
150	0xbeb45fd7	-0.3522937
151	0xbd5c964a	-0.053854264
152	0xbe0aa48f	-0.13539337
153	0x3d2d9b20	0.042384267
154	0x3ddd6e3d	0.10812042
155	0x3d09e7d4	0.033668354
156	0xbe922fee	-0.28552192
157	0xbe3912c5	-0.18073566
158	0x3e75b34f	0.23994182
159	0x3da0ad17	0.07845514
160	0x3da9dafe	0.082937226
161	0xbdce13a3	-0.10062339
162	0xbd82c337	-0.063848905
163	0xbe649500	-0.22322464
164	0x3ca5f101	0.020256521
165	0x3b4e742b	0.0031502347
166	0x3d3c92cf	0.046038445
167	0x3de24f4b	0.1105028
168	0x3e3fe588	0.18739903
169	0xbc9b0dfa	-0.018927563
170	0xbe89e3f1	-0.26931718
171	0xbc025614	-0.007955093
172	0xbd130277	-0.035891023
173	0x3c3998eb	0.011327962
174	0x3cdab935	0.026699642
175	0x3c6b990d	0.014379752
176	0xbb65c10d	-0.0035057694
177	0x3e5b85db	0.2143778
178	0x3cfec25e	0.03109854
179	0xbd14f983	-0.036370765
180	0xbdb132e2	-0.08652283
181	0x3e621c57	0.22081123
182	0xbe9023f9	-0.28152445
183	0x3e281c74	0.16417104
184	0xbd004e85	-0.031324882
185	0xbe30964f	-0.17244838
186	0x3ed98dbf	0.42490956
187	0xbdbab9cf	-0.091174714
188	0x3e0b70a1	0.13617183
189	0x3e72a663	0.23696284
190	0xbe2378bf	-0.1596403
191	0x3cd447bc	0.025913112
192	0x3c6f66ac	0.014611881
193	0x3e9eb340	0.30996132
194	0x3a05dcb9	0.00051064376
195	0xbde4374f	-0.11143362
196	0x3e1f92a3	0.15583281
197	0xbda4a7ea	-0.080398396
198	0x3bc906ae	0.0061348295
199	0x3ea758f8	0.32685065
200	0xbd14d52e	-0.036336116
201	0x3ea4742f	0.3211989
202	0x3bb6a489	0.0055738133
203	0xbd53abf8	-0.051677674
204	0x3e4c7ee3	0.19970278
205	0xbde77392	-0.1130134
206	0x3dd9ba6f	0.106312625
207	0x3dd6163f	0.10453462
208	0x3e064112	0.1311076
209	0xbd75b909	-0.059990916
210	0xbe49b2fd	-0.19697185
211	0x3d45f9fb	0.048334103
212	0xbdf00d76	-0.117213175
213	0xbd2f64e8	-0.04282084
214	0xbc4f8a02	-0.012667181
215	0xbe11a98d	-0.14224835
216	0xbdddcb6f	-0.108298175
217	0x3e01f120	0.12689638
218	0x3e1d4ed2	0.15362099
219	0x3da5c2ad	0.08093772
220	0xbc0120b9	-0.007881337
221	0xbe0ecfdb	-0.13946478
222	0xbd0fdfee	-0.035125665
223	0xbd919eab	-0.07110342
224	0xbdb252cb	-0.08707198
225	0xb892da4a	-7.002482e-05
226	0x3e22b2e2	0.15888551
227	0xbe381ed0	-0.17980504
228	0xbd9baa7d	-0.076008774
229	0xbb8410b7	-0.004030313
230	0xbc69ce8d	-0.014270437
231	0xbd1f7d54	-0.03893788
232	0x3e85a0c7	0.26099226
233	0xbe1ff7f7	-0.15621935
234	0xbe301701	-0.17196275
235	0xbdb69525	-0.08915166
236	0xbe05e23f	-0.13074587
237	0x3e1a14e4	0.15047032
238	0x3daf604c	0.08563289
239	0x3cb6860a	0.022280712
240	0x3da760ad	0.08172736
241	0xbedfee55	-0.4373652
242	0x3c6cf320	0.014462262
243	0x3db3a008	0.08770758
244	0xbdafeb52	-0.08589806
245	0x3e9a291d	0.30109492
246	0x3d987147	0.07443481
247	0xbe0acb70	-0.13554168
248	0xbe12445d	-0.14283891
249	0x3e764b38	0.24052131
250	0x3e5b0c7a	0.21391478
251	0xbe8e79c7	-0.27827284
252	0xbd0f0cf6	-0.03492447
253	0x3e669806	0.2251893
254	0x3dde5e1b	0.10857793
255	0x3e55b83e	0.20871064

linears.1.bias f4 [40]
0	0xbc9cd255	-0.019143263
1	0xbd1d67e3	-0.038429152
2	0xbbba3c36	-0.0056834472
3	0x3d4f6ab6	0.050638877
4	0xbb2bcf04	-0.002621592
5	0x3cfa4329	0.030549603
6	0x3c8d36a6	0.017237972
7	0xbb79e3d1	-0.0038130174
8	0x3d3cc462	0.046085723
9	0xbca313f7	-0.01990698
10	0xbd604f74	-0.054763272
11	0x3c08ed33	0.008357334
12	0x3c0e24bc	0.00867575
13	0x3d87a27a	0.06622787
14	0x3cc0817b	0.023499241
15	0x3d3d2dad	0.046186138
16	0x3d13f384	0.036120906
17	0x3c833f3b	0.016021362
18	0x3bb2b670	0.005453877
19	0x3d22fc4a	0.039791383
20	0xb9aa2f94	-0.00032460375
21	0xbb993043	-0.0046749427
22	0x3d0a6fa3	0.03379787
23	0xbd82a636	-0.063793585
24	0xbd51264f	-0.051061925
25	0x3c2bc5af	0.010484143
26	0x3bd4866f	0.0064857523
27	0x3c9fbfb8	0.019500598
28	0xbc0a87f1	-0.0084552625
29	0x3c85f7d0	0.016353518
30	0xbc2ac932	-0.010423945
31	0xbd7a8ab8	-0.06116745
32	0xbc5d19bb	-0.013494904
33	0x3d107a26	0.03527274
34	0xbc0ccd5c	-0.008593883
35	0x3a882f5a	0.0010390088
36	0x3d536275	0.051607568
37	0xbc7e84d6	-0.0155346
38	0x3d2fc134	0.042908862
39	0x3d0e66d0	0.03476602

linears.2.weight f4 [40, 40]
0	0xbe4ec196	-0.20191035
1	0xbdc0c2dc	-0.094121665
2	0x3d47e839	0.04880545
3	0xbd79f916	-0.061028562
4	0xbe06a02b	-0.13147037
5	0xbd3c7227	-0.0460073
6	0x3da0fdae	0.078608856
7	0x3e5165f4	0.20449048
8	0xbd9dcc9c	-0.07705042
9	0xbe0f0a11	-0.13968684
10	0xbdbe0725	-0.092787065
11	0xbd9e2545	-0.07721952
12	0xbe0727eb	-0.13198821
13	0x3db8d454	0.090248734
14	0xbd936412	-0.07196821
15	0xbbce4efb	-0.0062960363
16	0xbdf84dbd	-0.121242024
17	0xbe8731b1	-0.264051
18	0x3de82eb4	0.11337033
19	0xbd076b5f	-0.03306138
20	0x3e82c655	0.2554194
21	0x3c6f514d	0.014606786
22	0x3e73a1db	0.23792212
23	0xbe5dae36	-0.21648487
24	0xbe696a74	-0.22794515
25	0x3e8d1253	0.27553043
26	0x3d09a939	0.03360865
27	0xbe37c535	-0.17946322
28	0x3e041ca5	0.12901552
29	0x3c8de550	0.017321259
30	0x3cff2a28	0.031148031
31	0xbc9720c7	-0.018448247
32	0xbe809cb9	-0.2511957
33	0xbd93c2b7	-0.07214873
34	0xbda2e866	-0.07954483
35	0xbc7a254a	-0.0152676795
36	0x3e7a7a67	0.24460755
37	0x3e270c8b	0.16313379
38	0xbd81fd0e	-0.063470945
39	0xbe1ce1ec	-0.15320557
40	0xbd8cdc25	-0.06877927
41	0xbdcb6d38	-0.09932941
42	0x3e417fb0	0.18896365
43	0x3d59e197	0.053193655
44	0xbde3583e	-0.11100815
45	0xbdf52d47	-0.119715266
46	0x3e0435a2	0.12911084
47	0x3e108f83	0.14117245
48	0x3db285de	0.087169394
49	0xbe25f734	-0.16207582
50	0x3da6d9d8	0.08147019
51	0xbe42053a	-0.18947306
52	0x3e4dd46a	0.20100561
53	0x3e32e158	0.17468774
54	0x3c072eff	0.008250951
55	0x3da4d4a7	0.08048373
56	0xbe303413	-0.17207365
57	0x3d858529	0.06519539
58	0xbddebc75	-0.10875789
59	0xbd431665	-0.04762878
60	0x3c8e9e33	0.01740942
61	0xbb31fe69	-0.0027159697
62	0x3cf6176f	0.03004047
63	0x3e500d2d	0.20317526
64	0x3da7a0a2	0.08184935
65	0xbd494441	-0.049137358
66	0x3daa7e59	0.0832488
67	0x3da4cd3d	0.080469586
68	0x3e27a1d4	0.16370326
69	0xbd43e8c4	-0.047829404
70	0xbe4f0772	-0.20217684
71	0x3d56287b	0.0522847
72	0xbe044f42	-0.1292086
73	0xbe4d27d6	-0.20034727
74	0xbd63edd9	-0.05564675
75	0x3dca450c	0.09876451
76	0x3d808c7d	0.06276796
77	0xbdfd640f	-0.123726
78	0x3cdb166e	0.026744094
79	0xbdd22f57	-0.102629356
80	0x3da2641f	0.07929253
81	0x3d9f505c	0.07778999
82	0x3e2e0b59	0.16996516
83	0xbda0b65e	-0.07847284
84	0xbc5cb6b0	-0.0134712905
85	0x3d03ebc2	0.032207258
86	0xbdf6661d	-0.12031195
87	0xbc478b15	-0.012179156
88	0x3e208b54	0.1567815
89	0x3e127bef	0.1430509
90	0x3e3f1fb6	0.1866444
91	0x3eac5bcc	0.33663785
92	0x3c1fd339	0.009754949
93	0x3c05008f	0.008117809
94	0x3e09d321	0.13459446
95	0xbdc54f3c	-0.096342534
96	0x3e24bb5e	0.160871
97	0xbdae36e8	-0.08506566
98	0x3c85234d	0.016252184
99	0x3d3920c4	0.045197263
100	0xbd9af5b6	-0.07566397
101	0x3e440b6a	0.19144979
102	0x3e1c3570	0.1525476
103	0x3e6c6498	0.23085248
104	0x3e0cfb5f	0.13767765
105	0xbcc9ac57	-0.02461831
106	0xbd8d8a53	-0.06911149
107	0xbdd79227	-0.10525923
108	0x3dc9cab0	0.09853113
109	0xbe0b1636	-0.13582692
110	0x3b8a8050	0.004226722
111	0xbd912513	-0.070871495
112	0xbdade938	-0.084917486
113	0xbe554c07	-0.20829783
114	0xbe38acd8	-0.18034685
115	0x3d90fab9	0.070790716
116	0xbd992076	-0.074768946
117	0xbe4425f9	-0.1915511
118	0xbc9aebba	-0.018911231
119	0x3d1bd768	0.038047224
120	0x3ddcaec5	0.10775522
121	0x3d1d8949	0.038461003
122	0xbd141482	-0.03615237
123	0x3c2c19f4	0.010504235
124	0x3e94c76a	0.2905839
125	0x3d90cce9	0.070703335
126	0x3e24ec07	0.16105662
127	0x3d7814f9	0.060566876
128	0xbe6e5c52	-0.23277405
129	0xbdd27ee4	-0.10278109
130	0x3deeb4a2	0.11655547
131	0x3db653bf	0.08902692
132	0xbd2c88ad	-0.04212253
133	0x3defa2a6	0.117009446
134	0xbd8885ca	-0.06666143
135	0x3e0f7d81	0.1401272
136	0xbdb06839	-0.08613629
137	0x3cf465d3	0.02983371
138	0x3e6c7996	0.23093256
139	0x3e728978	0.23685253
140	0xbd3ccc37	-0.046093192
141	0xbe2ac930	-0.1667831
142	0x3d8b8462	0.068123594
143	0x3e6c61de	0.23084208
144	0x3ca14806	0.019687664
145	0xb9b23d11	-0.00033996304
146	0xbd9481cc	-0.07251319
147	0x3d60a294	0.054842547
148	0x3e494fa3	0.19659285
149	0x3e6ea591	0.23305346
150	0x38f36c3d	0.00011607304
151	0x3d35fa23	0.044428002
152	0x3d577e58	0.052610725
153	0x3cb3f112	0.021965537
154	0x3e665a1f	0.22495316
155	0xbdfdc94f	-0.12391912
156	0xbe8f6f75	-0.28014722
157	0xbe9876cb	-0.29778132
158	0x3e070a2c	0.13187474
159	0x3e4a7daa	0.197745
160	0xbdeb9f4a	-0.11504991
161	0x3d480b64	0.048838988
162	0x3eb71b7b	0.35763153
163	0x3d0f670e	0.03501039
164	0x3dd377b3	0.10325565
165	0x3dbf54a6	0.09342317
166	0x3dcd214d	0.10016117
167	0xbe1022b0	-0.14075732
168	0x3d75dd06	0.060025238
169	0xbc48f5cf	-0.012265637
170	0xbde1977e	-0.11015223
171	0xbdf01f05	-0.117246665
172	0xbd5b5795	-0.05355032
173	0x3d2e180e	0.04250341
174	0xbd8c53e7	-0.068519406
175	0x3d6c8360	0.057742476
176	0xbc017086	-0.007900363
177	0x3df7dadc	0.12102291
178	0x3e2bba9b	0.16770403
179	0xbadeca38	-0.0016997522
180	0xbe47d793	-0.19515829
181	0xbe9b272d	-0.30303326
182	0x3cd226fe	0.025653359
183	0xbd9a990b	-0.07548722
184	0xbda4cda2	-0.08047034
185	0xbd0dabf5	-0.03458782
186	0x3d822197	0.06354063
187	0x3e915f17	0.2839286
188	0xbc5da388	-0.013527758
189	0xbb8474d1	-0.004042246
190	0x3d2355f6	0.0398769
191	0xbe641651	-0.22274138
192	0xbe3f44ee	-0.18678638
193	0x3e896b99	0.26839903
194	0x3db44fd1	0.08804286
195	0xbe183d0b	-0.14867036
196	0xbe145ae3	-0.14487796
197	0x3d978dc1	0.07400084
198	0x3e362a23	0.17789511
199	0xbd40eb92	-0.047099657
200	0xbd7d9365	-0.061908145
201	0xbe2f94bf	-0.17146586
202	0xbe05b3ea	-0.13056913
203	0x3b414fa0	0.0029496923
204	0xbe0c0664	-0.13674313
205	0x3dfab774	0.12242022
206	0x3e35a996	0.17740473
207	0xbe36af98	-0.17840421
208	0xbcb9581e	-0.022625025
209	0x3ddc6941	0.10762263
210	0x3e4c1ed9	0.19933642
211	0x3d3134ee	0.04326337
212	0x3e3fa60b	0.18715684
213	0xbcd06352	-0.025437985
214	0xbdd28d05	-0.102808036
215	0xbdbbb00a	-0.09164436
216	0x3e40e738	0.18838203
217	0xbd8f9708	-0.07011229
218	0x3ca9e143	0.020737296
219	0x3c9d73ef	0.01922032
220	0xbe3d7085	-0.18499954
221	0x3ddd2b76	0.10799305
222	0xbc0fe593	-0.008782762
223	0xbec78142	-0.38965803
224	0xbec1fcc5	-0.3788816
225	0xbdc2dfbe	-0.09515332
226	0xbd9c7ee9	-0.07641394
227	0xbd61fdd3	-0.055173706
228	0x3e47da7f	0.19516943
229	0x3cabfca7	0.020994497
230	0x3d37de28	0.0448896
231	0xbe8bee2b	-0.27330145
232	0x3e480c3a	0.19535914
233	0x3cbd66d7	0.023120327
234	0x3d81a413	0.06330123
235	0x3cedcb8f	0.029027728
236	0xbd1b56e9	-0.03792468
237	0x3da7a4fb	0.081857644
238	0x3e5b76f6	0.21432099
239	0xbdc83339	-0.09775395
240	0xbedae901	-0.42755893
241	0x3e064a68	0.13114321
242	0x3d059522	0.032612927
243	0x3e3b3b65	0.18284376
244	0xbd91e343	-0.07123425
245	0xbce0dca6	-0.027448963
246	0xbdecab1c	-0.11556074
247	0xbe3ac0ff	-0.18237685
248	0xbdb7a0cf	-0.08966219
249	0x3e6f58f2	0.23373774
250	0x3dd32af5	0.10310928
251	0x3a9e4b01	0.0012076796
252	0xbe2af0a6	-0.16693363
253	0xbe0fa9e6	-0.14029655
254	0xbe45e11a	-0.1932415
255	0xbe03c6fb	-0.12868874

linears.2.bias f4 [40]
0	0x3c2a788b	0.010404716
1	0x3c6cc4f1	0.014451251
2	0xbd900c04	-0.07033542
3	0x3d05438a	0.032535113
4	0xb9ff8274	-0.00048734585
5	0x3a3ca9ee	0.00071969524
6	0xbd10fbf6	-0.03539654
7	0x3c88bd10	0.016691715
8	0x3ba42273	0.0050089895
9	0xbcfaf2be	-0.030633327
10	0xbc4654ee	-0.01210521
11	0x3d1106a7	0.035406735
12	0x3c00467b	0.007829304
13	0x3b939149	0.0045034033
14	0xbd7a09bc	-0.06104444
15	0xbd3e5879	-0.046471093
16	0xbb06806f	-0.002052333
17	0xbca3bbae	-0.019986954
18	0xbcfa4c74	-0.030554034
19	0xbd6df707	-0.05809691
20	0xbc656a70	-0.014002427
21	0xbd8f5d7b	-0.07000252
22	0xbd5526f3	-0.052039098
23	0xbc76cc03	-0.015063289
24	0x3cdeca57	0.027196093
25	0xbd4b2331	-0.049594108
26	0xbc90d54c	-0.017679833
27	0xbbf948ac	-0.00760754
28	0x3c09603c	0.0083847605
29	0x3c2acfe9	0.010425546
30	0x3c87debb	0.016585698
31	0xbcdbec6b	-0.026846131
32	0x3d152bb4	0.03641863
33	0x3c3a6fd9	0.011379206
34	0x3cba2273	0.022721505
35	0xbd3c1fa5	-0.045928616
36	0xbd0957a5	-0.03353085
37	0xbb7ed94c	-0.0038886843
38	0x3cd81f84	0.026382215
39	0x3da2cf73	0.07949724

linears.3.weight f4 [40, 40]
0	0x3e4c98d2	0.19980171
1	0xbe6657bd	-0.22494407
2	0xbdfe1694	-0.1240665
3	0xbd89526a	-0.06705172
4	0xbe1bdc4d	-0.15220757
5	0x3da14fd9	0.07876558
6	0x3db85ad0	0.09001696
7	0x3e6d7fa1	0.23193218
8	0xbcd227c7	-0.025653733
9	0x3e5fccc8	0.21855462
10	0xbe13ee06	-0.14446267
11	0xbdf344f6	-0.11878388
12	0xbd5b01d3	-0.053468537
13	0x3c48305f	0.012218564
14	0xbcfac164	-0.030609794
15	0x3c846a1f	0.016163884
16	0xbe397c9d	-0.18113942
17	0xbdb828b8	-0.089921415
18	0x3e4e8334	0.20167238
19	0x3e795d6e	0.24352047
20	0xbde72975	-0.11287204
21	0x3e164b0b	0.14677064
22	0x3e0d4015	0.13793977
23	0xbd9da873	-0.07698145
24	0x3ac0e699	0.0014717161
25	0xbe368ed8	-0.17827928
26	0x3e615eff	0.22008894
27	0xbe21eb07	-0.15812312
28	0xbddf559e	-0.10905002
29	0xbe416be1	-0.18888809
30	0xbdaf6826	-0.085647866
31	0x3d8c4f4e	0.06851064
32	0x3d2ade42	0.041715868
33	0xbde268b5	-0.110551275
34	0x3e8e1361	0.2774916
35	0xbea36efc	-0.31920612
36	0x3e612c20	0.21989489
37	0x3ea27fe2	0.31738192
38	0x3d4b80be	0.049683325
39	0xbd76a8c7	-0.060219552
40	0xbe08d3d8	-0.13362062
41	0xbde036bb	-0.10947939
42	0x3eb712e9	0.35756615
43	0xbe84c1c4	-0.2592908
44	0x3e13f871	0.14450242
45	0xbea760ef	-0.32691142
46	0x3e41afbd	0.18914695
47	0x3d99037e	0.07471369
48	0xbe12c35d	-0.14332338
49	0x3ea5ea26	0.32405204
50	0x3d50b616	0.0509549
51	0xbd50a7bc	-0.050941214
52	0x3bafc597	0.0053641307
53	0xbdfa4750	-0.12220633
54	0xbda6ac6c	-0.081383556
55	0x3dc144c7	0.09436946
56	0x3c541b54	0.012945969
57	0x3d2d7b69	0.04235402
58	0x3d83d7cf	0.064376466
59	0x3e811bbe	0.25216478
60	0xbd99cd5a	-0.07509871
61	0x3d04a59e	0.032384507
62	0xbd9da7c0	-0.076980114
63	0xbd7d29a4	-0.06180729
64	0x3eacdefe	0.3376388
65	0xbe13feea	-0.14452711
66	0xbc0328e1	-0.008005352
67	0x3e3e4f79	0.18585004
68	0xbde0f25a	-0.10983725
69	0x3eb9f99a	0.36323243
70	0x3cc277a1	0.023738684
71	0x3e11cfdb	0.14239447
72	0xbe0644c7	-0.13112174
73	0xbe00e349	-0.12586702
74	0x3ca1f47f	0.019769905
75	0x3eab8e0d	0.33506814
76	0x3e2c382e	0.16818306
77	0xbe94dd36	-0.2907502
78	0x3e1d9d6e	0.15392086
79	0x3e18feb7	0.14940916
80	0xbe26fdea	-0.16307798
81	0x3dc4dfc1	0.0961299
82	0x3bb67f1b	0.0055693514
83	0x3dabfaae	0.08397423
84	0x3ddadae4	0.10686281
85	0xbdd6ca9d	-0.10487864
86	0xbe0b06d2	-0.1357682
87	0x3d2edd2d	0.0426914
88	0x3de0aacc	0.10970077
89	0xbd4f8e66	-0.05067291
90	0x3db737f8	0.08946222
91	0xbe2c10f2	-0.16803339
92	0x3c895ead	0.016768778
93	0x3df950c7	0.1217361
94	0xbd69210c	-0.05691628
95	0x3e21f299	0.158152
96	0x3c78c6e0	0.015184134
97	0xbe9a2066	-0.30102843
98	0xbd821dee	-0.06353365
99	0xbe6bee43	-0.23040108
100	0x3d31e276	0.04342886
101	0xbd4fa029	-0.05068985
102	0xbe550173	-0.20801334
103	0xbe50621f	-0.2034993
104	0xbd9026c5	-0.07038645
105	0xbdae4374	-0.085089594
106	0xbe83cc6e	-0.25741905
107	0x3e9b6155	0.30347696
108	0x3c831d91	0.01600531
109	0xbd7c7aec	-0.061640665
110	0xbe4ead12	-0.20183209
111	0xbcb0e3ae	-0.021592941
112	0xbd0a3a20	-0.03374684
113	0x3def583b	0.116867505
114	0x3c922c35	0.017843345
115	0xbe05bb98	-0.13059843
116	0xbd9d219d	-0.07672427
117	0xbe92a2a7	-0.2863972
118	0x3e303089	0.17206015
119	0x3e9795b8	0.29606414
120	0xbd86ac93	-0.06575885
121	0x3e518e6c	0.20464486
122	0x3e380d23	0.17973761
123	0x3e50c871	0.20388962
124	0xbe8c646b	-0.27420363
125	0x3d5c8070	0.053833425
126	0x3cdfde02	0.027327541
127	0xbce6f7b5	-0.028194288
128	0xbe5666e5	-0.20937689
129	0x3da720c5	0.08160547
130	0x3cd70686	0.026248228
131	0xbda7b3bb	-0.08188578
132	0xbe3fadbd	-0.1871862
133	0xbe2f947d	-0.17146488
134	0x3e054d3d	0.13017745
135	0x3e472d91	0.19450976
136	0x3e8321b3	0.25611648
137	0xbda56251	-0.08075393
138	0x3d7664e5	0.060154814
139	0xbac08cd2	-0.0014690405
140	0x3e26db04	0.16294485
141	0x3dabc9bb	0.083880864
142	0x3e2b93c9	0.16755594
143	0x3b6b2070	0.0035877489
144	0xbd308e4e	-0.043104462
145	0x3d78bbe9	0.06072608
146	0x3e4a619d	0.19763799
147	0x3cc5fa21	0.024167122
148	0x3c3a1dab	0.011359612
149	0xbe22819f	-0.15869759
150	0x3df29fb9	0.11846871
151	0xbdbf9ab6	-0.09355681
152	0x3dcb47e9	0.09925825
153	0xbd5e909c	-0.05433713
154	0xbd29a004	-0.04141237
155	0x3e4c7b7b	0.19968979
156	0x3df03b21	0.11730028
157	0x3ea4e997	0.32209465
158	0xbe0cc295	-0.13746102
159	0x3d99d821	0.075119264
160	0x3e0d46f3	0.13796596
161	0xbe3814b1	-0.17976643
162	0xbe068033	-0.13134842
163	0x3cc6da97	0.024274154
164	0x3e4e18bd	0.20126624
165	0x3e654e6b	0.22393195
166	0x3e624b10	0.22098947
167	0x3dedb78d	0.11607275
168	0xbe0cc47e	-0.13746831
169	0xbc0a1468	-0.008427717
170	0xbdbda4e6	-0.092599675
171	0x3c86cc17	0.01645474
172	0x3e1fb6e4	0.15597111
173	0x3e57f9aa	0.21091333
174	0x3de602a9	0.11230976
175	0x3e2771f8	0.1635207
176	0xbe370186	-0.17871675
177	0x3d780856	0.060554825
178	0xbe09e011	-0.13464381
179	0x3dc98725	0.0984023
180	0xbca85187	-0.020546688
181	0x3e9370ac	0.287969
182	0xbeae25dd	-0.34013262
183	0x3e1ee96f	0.15518735
184	0x3b070f25	0.0020608392
185	0x3e344d56	0.17607626
186	0x3dd0c660	0.10194087
187	0x3e2d68f7	0.16934572
188	0xbc09ea8f	-0.0084177395
189	0xbd007de9	-0.031370077
190	0x3e0dfa1a	0.13864937
191	0xbdb24697	-0.0870487
192	0xbe17e6d7	-0.14834152
193	0xbe36fb40	-0.17869282
194	0x3d8ea041	0.0696416
195	0x3ccd4803	0.025058752
196	0xbce1b221	-0.027550759
197	0xbd35f4c9	-0.0444229
198	0xbe4dde4c	-0.20104331
199	0x3dae2fd0	0.08505213
200	0x3e7893bd	0.24275108
201	0xbe9099dd	-0.28242388
202	0x3d71331e	0.05888664
203	0x3c3a1d53	0.0113595305
204	0x3e98e504	0.29862225
205	0xbdeebfa5	-0.11657647
206	0xbe3a8ee7	-0.18218575
207	0x3de40fb2	0.11135806
208	0x3d80445d	0.06263039
209	0xbd828eea	-0.06374915
210	0xbcff04c6	-0.031130206
211	0xbca588ca	-0.020206828
212	0x3e9f16ba	0.31072026
213	0x3dcd721f	0.100315325
214	0xbe2d3ac2	-0.16916946
215	0x3cf048a8	0.02933152
216	0xbd3a3e80	-0.04546976
217	0xbe23d946	-0.16000852
218	0x3d23656f	0.039891656
219	0xbdb876a8	-0.09007007
220	0x3db3c1aa	0.08777173
221	0x3edb18c2	0.42792326
222	0x3e9fb7f3	0.3119503
223	0x3d5f4b22	0.05451501
224	0xbe395e59	-0.18102397
225	0x3e39a563	0.18129496
226	0x3d5c94e5	0.053852934
227	0xbc4f1849	-0.012640067
228	0xbe6e6ffb	-0.23284905
229	0xbcaa0581	-0.020754578
230	0xbe12361c	-0.14278454
231	0x3e2fa556	0.17152914
232	0xbcbeaa7c	-0.023274653
233	0xbdc23742	-0.09483196
234	0xbd28cfe8	-0.0412139
235	0xbd3b8740	-0.04578328
236	0xbe8926ff	-0.26787564
237	0xbe742443	-0.23841958
238	0x3dc59d30	0.09649122
239	0xbe3a5cf9	-0.18199529
240	0xbc4e0c3c	-0.012576159
241	0x3d0942d7	0.03351101
242	0xbe0ae3e4	-0.13563496
243	0xbd71bd2b	-0.059018295
244	0xbe6df586	-0.23238191
245	0x3ddc821c	0.10767004
246	0xbe13940f	-0.14411949
247	0xbe29e48c	-0.1659109
248	0x3e246e35	0.16057666
249	0x3d8a6243	0.06757023
250	0x3e0ef475	0.1396044
251	0x3d91367d	0.07090471
252	0xbe2adb8f	-0.16685317
253	0xbe221957	-0.15829979
254	0xbe6082ce	-0.21924898
255	0xbd7d570b	-0.06185059

linears.3.bias f4 [40]
0	0xbccaaf3d	-0.024741763
1	0xbdb18d02	-0.08669473
2	0xbdb642b2	-0.0889944
3	0x3c472b6b	0.012156348
4	0xbce0c115	-0.027435819
5	0xbc19bdde	-0.009383647
6	0xbcb1106b	-0.021614274
7	0x3d00b1d9	0.03141961
8	0x3c1d8477	0.009614102
9	0xbc903c23	-0.0176068
10	0xbcd4d6a1	-0.02598125
11	0xbd1f889f	-0.03894865
12	0x3c588953	0.013216334
13	0xbb5fe3db	-0.0034162912
14	0x3d14b522	0.036305554
15	0xbce734e8	-0.02822347
16	0x3d4b4462	0.04962576
17	0xbd108e94	-0.035292223
18	0x3d1cfbc3	0.038326036
19	0x3cecbfa4	0.028899975
20	0xbc4d3e72	-0.012527095
21	0x3cb1f36b	0.021722516
22	0xb9d45bc4	-0.00040504162
23	0xbc6fe154	-0.014641125
24	0x3c10e7e4	0.0088443495
25	0x3cb1fd6f	0.021727292
26	0xbc11144a	-0.008854935
27	0x3bb1fa11	0.0054314216
28	0x3b54f31e	0.0032493542
29	0xbd34067d	-0.0439515
30	0xbd3cf1f9	-0.0461292
31	0xbcc0b812	-0.023525272
32	0x3a01f8a0	0.00049580075
33	0xbb7d5c57	-0.0038659775
34	0xbcb4bbfd	-0.022062296
35	0x3b936770	0.0044984147
36	0xbc12312a	-0.008922854
37	0x3d12ff13	0.03588779
38	0xbca52a2f	-0.020161716
39	0x3d1bbabc	0.03801988

linears.4.weight f4 [40, 40]
0	0x39cf0224	0.00039483712
1	0x3c477bbf	0.012175499
2	0x3e4fc17a	0.20288649
3	0x3e905cdc	0.28195846
4	0x3e09c2be	0.13453194
5	0x3ed18288	0.409199
6	0xbe35b505	-0.17744835
7	0xbe9e8776	-0.30962723
8	0x3e19b106	0.15008935
9	0xbd4e215f	-0.050324794
10	0xbe359c07	-0.17735301
11	0x3e0c72b6	0.13715634
12	0x3da4ad03	0.08040812
13	0xbe6aa724	-0.22915322
14	0xbdb5a292	-0.088688985
15	0x3c2dbfc3	0.010604802
16	0x3c45e8ea	0.012079457
17	0x3c86d541	0.01645911
18	0xbe5083b9	-0.20362748
19	0xbd8f6291	-0.07001222
20	0xbbccc013	-0.006248483
21	0xbd107f6d	-0.035277773
22	0x3d9011db	0.07034656
23	0xbe15e3b1	-0.14637639
24	0x3cd792b4	0.02631507
25	0xbe139f4f	-0.1441624
26	0x3ab1d270	0.0013566744
27	0x3d287363	0.041125666
28	0xbd8c5b76	-0.06853382
29	0xbd71ac61	-0.059002284
30	0xbea27815	-0.3173224
31	0x3da64701	0.08119012
32	0xbe748420	-0.23878527
33	0x3ea73b21	0.326623
34	0x3e2b511b	0.16730158
35	0xbca6882b	-0.020328602
36	0x3d04030a	0.03222946
37	0x3d8bff39	0.06835789
38	0x3c9c185b	0.019054582
39	0xbe17d1e6	-0.14826164
40	0xbea5af23	-0.3236018
41	0x3e7ab0b8	0.24481475
42	0x3df0e9d4	0.11763349
43	0xbd8579d5	-0.06517378
44	0x3ea468ba	0.3211115
45	0x3eaf4621	0.34233192
46	0xbdbc69b4	-0.09199849
47	0xbaef504a	-0.0018258181
48	0x3e448a3f	0.19193362
49	0x3b9f93a0	0.004869893
50	0x3e0b07a6	0.13577136
51	0x3e88f1f4	0.26747096
52	0xbe671f01	-0.22570421
53	0x3ea7120c	0.32630956
54	0x3e2af4e9	0.16694988
55	0x3e0eb84d	0.13937493
56	0x3d9e0843	0.077164195
57	0xbcd5dd34	-0.026106454
58	0x3e9a64e1	0.3015509
59	0xbd81bb66	-0.063345715
60	0xbdd70adf	-0.1050012
61	0x3e392b0a	0.18082824
62	0xbd94991f	-0.07255768
63	0x3eb58444	0.35452473
64	0x3e44b3e3	0.19209246
65	0xbe1568d0	-0.14590764
66	0x3e282042	0.16418555
67	0x3e925b24	0.2858516
68	0x3e1d2e5e	0.15349719
69	0x3dd18009	0.10229499
70	0xbd8688a9	-0.065690346
71	0x3db0d9f1	0.08635319
72	0xbe0afe9d	-0.1357369
73	0xbeb87df7	-0.36033604
74	0xbe2cee49	-0.16887774
75	0xbdef69bc	-0.11690089
76	0xbe4819db	-0.19541113
77	0xbdb52132	-0.08844222
78	0xbce5800e	-0.028015163
79	0x3d80b9b8	0.06285423
80	0xbca08920	-0.019596636
81	0xbd4f8b55	-0.050669987
82	0xbe080553	-0.13283281
83	0xbe07e7c3	-0.13272004
84	0xbe056a76	-0.13028893
85	0x3d29e41a	0.0414773
86	0x3e1470ca	0.1449615
87	0xbe781780	-0.24227715
88	0xbdd8aa80	-0.10579395
89	0x3d787058	0.060654014
90	0x3b49b1cc	0.0030776141
91	0xbdb27583	-0.0871382
92	0x3c2c4950	0.010515526
93	0xbdf450f1	-0.11929501
94	0xbd17ead4	-0.037089184
95	0xbe43cf3b	-0.19122021
96	0xbe84957f	-0.25895306
97	0xbde47ef3	-0.11157026
98	0x3b83256b	0.0040022633
99	0x3dd0527b	0.10171982
100	0x3dc1c443	0.09461262
101	0xbe238b91	-0.15971209
102	0x3e028f6a	0.1275002
103	0xbe122ebd	-0.14275642
104	0xbe8e3514	-0.2777487
105	0xbe1a679e	-0.1507859
106	0x3de173cc	0.110084146
107	0x3e37f0bb	0.17962925
108	0x3e7256bc	0.23665899
109	0xbe9599a8	-0.29218793
110	0xbe5c7f85	-0.2153302
111	0x3c02a15e	0.007973043
112	0x3cc7dbf8	0.024396881
113	0xbeac580d	-0.33660927
114	0x3ed6a69e	0.41923994
115	0xba85586c	-0.0010173446
116	0x3eaeb200	0.34120178
117	0x3d095e0f	0.033536967
118	0x3ea0d763	0.31414327
119	0xbe622cef	-0.22087453
120	0xbdd232d5	-0.10263602
121	0x3dd6fab2	0.10497035
122	0xbd6f8bc8	-0.058482915
123	0xbdcfa91f	-0.10139679
124	0xbec92070	-0.3928256
125	0xbd978e99	-0.07400245
126	0x3d51ef59	0.05125365
127	0x3dc8a26a	0.09796603
128	0x3cbc07cc	0.022952937
129	0x3e1b9ecc	0.15197295
130	0xbe554906	-0.20828637
131	0xbe0ec863	-0.13943629
132	0x3d3fd879	0.046837304
133	0x3e593a91	0.21213748
134	0x3e20b981	0.15695764
135	0x3e0b6768	0.13613665
136	0x3e6eade0	0.23308516
137	0x3d249526	0.0401813
138	0x3d1d30e8	0.03837672
139	0xbcaf26f8	-0.021380886
140	0xbda2db73	-0.07952013
141	0xbeb5a166	-0.354747
142	0xbd932e05	-0.07186512
143	0x3da4fb39	0.080557294
144	0x3de7dfe3	0.11322
145	0x3e10a1b5	0.14124186
146	0x3d2068dc	0.0391625
147	0xbe6c5e33	-0.23082809
148	0x3e6a3e02	0.22875217
149	0xbd8ef2b7	-0.06979888
150	0xbce55fd9	-0.027999805
151	0xbdcc044b	-0.09961756
152	0xbe5ac7f9	-0.21365346
153	0xbd5b9b74	-0.05361505
154	0xbe3336a9	-0.1750132
155	0x3bff7689	0.007796113
156	0x3e36b6b0	0.17843127
157	0x3d568c0a	0.052379645
158	0x3cc242e6	0.02371354
159	0x3d086380	0.033298016
160	0xbe2f613c	-0.17126936
161	0x3dbb3955	0.091417946
162	0x3e04d883	0.12973218
163	0x3e812666	0.25224608
164	0xbc9c2749	-0.019061701
165	0xbd833571	-0.064066775
166	0x3db925bf	0.090404026
167	0x3e313f08	0.17309201
168	0x3e8cb5da	0.27482492
169	0x3ec1777a	0.37786466
170	0x3d8e5887	0.06950479
171	0x3d71f184	0.059068218
172	0x3dd87eb1	0.105710395
173	0xbd8a90a6	-0.06765871
174	0xbe776d3a	-0.2416276
175	0x3ddc56f3	0.10758772
176	0x3e0f9a8b	0.14023797
177	0xbe479025	-0.1948858
178	0xbd65bb8e	-0.05608707
179	0x3e235a52	0.15952423
180	0xbe15271d	-0.14565702
181	0xbe1e14ee	-0.15437672
182	0xbeb45e7c	-0.35228336
183	0x3c4e0e90	0.012576714
184	0x3d1cdfc9	0.038299356
185	0x3de4c5e2	0.11170556
186	0x3e63fff5	0.22265609
187	0x3d9b11f3	0.07571783
188	0x3e4aa9ad	0.19791289
189	0x3c0d4cd6	0.008624276
190	0x3e330a14	0.17484313
191	0xbe4cbc32	-0.19993666
192	0xbbe5f410	-0.00701762
193	0x3e97040b	0.29495272
194	0x3c061f95	0.008186241
195	0xbdb8be3e	-0.09020661
196	0xbcb1f636	-0.021723848
197	0xbe346efc	-0.17620462
198	0xbe574b95	-0.21024926
199	0x3e19175e	0.1495032
200	0x3d00c988	0.031442195
201	0xbdc2f2ac	-0.09518942
202	0xbe1085fe	-0.14113614
203	0x3c4368b5	0.01192682
204	0xba80f4bc	-0.0009838562
205	0xbe702043	-0.23449807
206	0x3d9f9d8e	0.07793723
207	0xbd40f232	-0.047105975
208	0xbe06f1f0	-0.1317823
209	0xbc8e0c46	-0.017339837
210	0x3e59fabf	0.21287058
211	0x3d70d848	0.058800012
212	0x3e8056b6	0.25066155
213	0x3a757b5a	0.0009364389
214	0x3e77637a	0.24159041
215	0x3e4cf223	0.20014243
216	0x3e6c6ddc	0.23088783
217	0x3d9a6328	0.07538444
218	0x3d76af21	0.06022561
219	0xbe02c6dd	-0.12771173
220	0xbb9c0a32	-0.0047619576
221	0xbea3fc8d	-0.32028618
222	0x3e43ac34	0.19108659
223	0xbd791271	-0.060808603
224	0x3e123ea6	0.14281711
225	0xbbb5c68e	-0.005547351
226	0x3ccbfe46	0.02490152
227	0xbe14542d	-0.14485236
228	0xbd8c9722	-0.06864764
229	0xbe14e499	-0.14540328
230	0x3d8e1d96	0.06939237
231	0xbc269346	-0.010166949
232	0x3e1f8518	0.15578115
233	0xbde55fe9	-0.11199934
234	0xbaf0e660	-0.0018379204
235	0xbde9812d	-0.114015914
236	0xbe5b2ee8	-0.21404612
237	0x3d40c0e8	0.04705897
238	0xbe2af3af	-0.1669452
239	0x3e840e33	0.25792083
240	0xbda7ea73	-0.081990145
241	0x3db576da	0.0886056
242	0x3d1ad366	0.03779926
243	0x3dd90dca	0.10598333
244	0xbe2431c1	-0.16034605
245	0x3d2a9d56	0.041653953
246	0x3d9c687d	0.07637117
247	0xbd9671b9	-0.073459096
248	0xbe67d727	-0.22640668
249	0x3e7779df	0.24167584
250	0xbc098030	-0.008392379
251	0x3d05902f	0.032608207
252	0x3c800878	0.015629038
253	0x3d3c893e	0.04602932
254	0xbd9234e0	-0.07138991
255	0x3d2fd2db	0.042925697

linears.4.bias f4 [40]
0	0xbcc1fe01	-0.023680689
1	0x3c9f96a7	0.019481016
2	0xbd08c980	-0.03339529
3	0xbc464347	-0.012101001
4	0x3c75ce95	0.015002866
5	0xbd6d7270	-0.057970464
6	0xbd93de3d	-0.07220123
7	0x3d1f8258	0.038942665
8	0xb8a10fbe	-7.6800105e-05
9	0x3ca21821	0.019786896
10	0xbada8723	-0.0016672354
11	0x3d0772be	0.03306841
12	0x3ae7714a	0.0017657664
13	0x3c429aeb	0.011877756
14	0x3ce12e04	0.027487762
15	0x3d3ce013	0.04611213
16	0x3d07d0fe	0.033158295
17	0xbb77f31d	-0.0037834116
18	0xbd4a4cb2	-0.04938955
19	0x3c8f2a03	0.017476087
20	0xbd3b9af2	-0.045802064
21	0xbd0fe3c6	-0.03512933
22	0x3ce89f64	0.028396316
23	0x3d0b58ba	0.034020163
24	0x3c447722	0.011991294
25	0xbd3ddfc5	-0.04635598
26	0xbd14b2b5	-0.03630324
27	0xbd30563c	-0.04305099
28	0xbbc4be48	-0.0060041286
29	0xbd4bb500	-0.049733162
30	0xbd415b73	-0.047206353
31	0xbce29c88	-0.02766253
32	0x3ceeaff8	0.029136643
33	0x3d246bec	0.040141985
34	0x3d10e64f	0.03537589
35	0x3d1da53a	0.03848765
36	0xbd378fbf	-0.04481482
37	0x3bbed36f	0.0058235447
38	0xbc44e74d	-0.012018037
39	0xbd2c19f1	-0.042016927

linears.5.weight f4 [40, 40]
0	0x3dd639c7	0.10460239
1	0xbd239998	-0.0399414
2	0xbe8b94c2	-0.2726193
3	0x3c54f64f	0.012998178
4	0xbe0c4313	-0.13697462
5	0x3c8ff672	0.017573569
6	0x3e1c33f9	0.15254201
7	0x3e6c1284	0.23053938
8	0xbe872884	-0.26398098
9	0x3ddf80b0	0.10913217
10	0x3e897ecd	0.26854554
11	0xbe29676d	-0.1654336
12	0x3d67b42d	0.056568313
13	0xbeac622e	-0.33668655
14	0x3e58560e	0.21126577
15	0x3e4d8a36	0.20072255
16	0xbe872cc9	-0.26401356
17	0xbd646cc8	-0.055767804
18	0xbe1a2eb4	-0.15056878
19	0x3ec384f8	0.38187385
20	0xbd6635bb	-0.056203585
21	0x3dcd0e1a	0.10012455
22	0x3c2dca1f	0.010607271
23	0xbd68bb9a	-0.056819536
24	0xbe13a60e	-0.14418814
25	0x3e0466f9	0.12929906
26	0x3d4fc8e4	0.050728694
27	0x3c09dc64	0.008414362
28	0xbebacab2	-0.3648277
29	0x3e44c89b	0.1921715
30	0xbe39a7c0	-0.18130398
31	0x3e2b95a1	0.16756298
32	0x3e2104e7	0.15724526
33	0x3df4e6bc	0.119580716
34	0xbe315158	-0.17316186
35	0x3d652a9b	0.055948835
36	0x3de3bf67	0.111204915
37	0x3e5b9764	0.2144447
38	0x3d95c710	0.07313359
39	0xbeba0fc0	-0.3634014
40	0x3dd88153	0.10571542
41	0xbe17d861	-0.14828636
42	0xbcfc4775	-0.030795792
43	0xbbeb25f2	-0.0071761543
44	0xbe653bca	-0.22386089
45	0x3d0007fe	0.031257622
46	0xbda2b589	-0.07944781
47	0xbe1b3059	-0.15155162
48	0x3e3f2375	0.1866587
49	0xbd9fe5c2	-0.07807495
50	0x3ec4fd08	0.38474298
51	0x3da194d5	0.078897156
52	0xbd933f57	-0.071898155
53	0xbe80d931	-0.25165704
54	0xbb845f1c	-0.0040396582
55	0x3dcf41f7	0.10120004
56	0x3e057a8a	0.13035026
57	0xbe0f6fad	-0.14007445
58	0xbe8cfdf5	-0.27537504
59	0x3ce5703f	0.028007625
60	0xbe3a6841	-0.18203832
61	0xbf0eb151	-0.55739313
62	0xbd6d2ffc	-0.05790709
63	0xbd2f0070	-0.042725027
64	0xbd512b09	-0.051066432
65	0x3d8d042c	0.06885561
66	0x3ce1eb96	0.027578156
67	0x3e2376cc	0.15963286
68	0xbe334526	-0.17506847
69	0x3e49c004	0.19702154
70	0xbdb89c19	-0.09014148
71	0x3c65373b	0.013990219
72	0x3e873bd2	0.26412827
73	0x3db2d98d	0.08732901
74	0x3e0c835d	0.13721986
75	0x3dbdf228	0.09274703
76	0xbe44aa56	-0.19205603
77	0xbdbb96ea	-0.09159644
78	0xbe8dca13	-0.27693233
79	0x3e193815	0.149628
80	0xbe14d7f6	-0.14535508
81	0xbe996371	-0.2995868
82	0xbe72c11d	-0.2370648
83	0xbdfaf59e	-0.12253879
84	0x3d0d272d	0.03446119
85	0x3d15900f	0.036514338
86	0xbdc6152b	-0.09672006
87	0xbe0b14f3	-0.1358221
88	0xbd6a8f4e	-0.057265572
89	0x3e182030	0.14856029
90	0x3e0cd717	0.13753925
91	0xbc6c4f8c	-0.014423262
92	0x3c8e814c	0.017395638
93	0x3e8afa95	0.27144304
94	0xbd31bca9	-0.04339281
95	0x3e172549	0.14760317
96	0x3cfbe434	0.030748464
97	0xbe4c46f0	-0.19948936
98	0xbe701be9	-0.23448147
99	0x3da1d1e6	0.07901363
100	0x3e0e9b2f	0.13926385
101	0x3e1fbe3e	0.15599915
102	0xbced3299	-0.02895479
103	0x3d802897	0.06257742
104	0xbe27843c	-0.16359037
105	0xbe10f2c0	-0.14155102
106	0xbdc4757c	-0.09592721
107	0xbd071a71	-0.0329842
108	0x3c005614	0.007833023
109	0xbde89b31	-0.113577254
110	0x3ec95d95	0.3932921
111	0x3e585f5a	0.21130124
112	0xbe0cbfe2	-0.13745072
113	0x3e50298e	0.20328352
114	0x3e76414f	0.24048351
115	0xbea846c5	-0.32866493
116	0x3d81a97e	0.06331156
117	0xbe59862c	-0.21242589
118	0x3d8b6365	0.068060674
119	0xbeb337f6	-0.35003632
120	0x3ca51a03	0.020154005
121	0x3ddacd53	0.10683694
122	0xbe216677	-0.15761743
123	0xbd810b51	-0.063009866
124	0xbe042ad3	-0.12906961
125	0x3e651196	0.2236999
126	0xbd9e253e	-0.07721947
127	0xbce21686	-0.02759863
128	0x3c02c706	0.007982021
129	0xbd2e6142	-0.04257322
130	0xbd8f1be3	-0.06987741
131	0xbcecfc28	-0.028928831
132	0x3e5203bb	0.20509236
133	0xbd2ae4d7	-0.041722145
134	0x3dfefcfa	0.12450595
135	0x3deedf68	0.11663705
136	0x3ea79d45	0.32737175
137	0x3ec38e24	0.38194382
138	0x3ca9b859	0.020717787
139	0x3e0af051	0.13568236
140	0x3ccb17de	0.024791654
141	0xbe81d657	-0.2535884
142	0x3e7e8f50	0.24859357
143	0x3d51d4c0	0.051228285
144	0x3eb2c459	0.34915426
145	0x3c0be125	0.008537565
146	0xbe1ec561	-0.15504982
147	0xbe5473dd	-0.20747323
148	0x3e2e98e3	0.17050509
149	0xbdd98b3d	-0.10622261
150	0xbb8b0f14	-0.004243741
151	0xbd91b23f	-0.07114076
152	0xbce8ac42	-0.028402451
153	0xbe0346c5	-0.12819965
154	0xbe27f32a	-0.16401353
155	0x3e226c4a	0.15861621
156	0x3e07ad4d	0.13249703
157	0x3d018431	0.03162021
158	0xbd94c4dc	-0.072641104
159	0xbe95f069	-0.2928498
160	0x3e708c0a	0.2349092
161	0xba34510c	-0.0006878532
162	0x3df3ec59	0.11910314
163	0xbd04a7e7	-0.032386687
164	0xbdd01636	-0.101604864
165	0xbd4f5fef	-0.0506286
166	0xbd3a021c	-0.045412168
167	0x3e6fad82	0.23406032
168	0xbd42903c	-0.047500834
169	0x3ccf8dce	0.025336172
170	0x3d9fed01	0.07808877
171	0xbd5f0953	-0.05445225
172	0xbe31c3f6	-0.1735991
173	0x3d94b116	0.07260339
174	0xbe7148f7	-0.2356299
175	0xbc8e6e4d	-0.01738658
176	0xbb4b4fae	-0.0031022835
177	0xbdaa8275	-0.08325664
178	0xbd4899fd	-0.04897498
179	0x3e05e50d	0.13075657
180	0x3cd059eb	0.025433501
181	0x3ed078fa	0.40717298
182	0x3c3bf6c6	0.01147241
183	0x3e380a0b	0.17972581
184	0x3e1d2113	0.15344648
185	0xbe147b5e	-0.14500186
186	0x3eb84b8f	0.35995147
187	0x3cb15aaa	0.021649677
188	0x3db3b41c	0.087745875
189	0x3c8c0bb3	0.017095422
190	0x39fbaa90	0.0004800153
191	0x3e220a58	0.15824258
192	0x3da84f38	0.08218235
193	0x3da1a2a6	0.07892351
194	0x3db27bd1	0.08715022
195	0xbda2e6c3	-0.079541706
196	0xbe0f350f	-0.13985084
197	0x3e9d239d	0.30691233
198	0x3d6625f6	0.056188546
199	0x3dea127c	0.11429307
200	0xbd9b1b7b	-0.07573601
201	0xbe8f1636	-0.27946633
202	0xbe158aff	-0.14603804
203	0x3dc3590f	0.09538471
204	0xbb88ff77	-0.0041808444
205	0x3e01aa3f	0.126626
206	0xbe39e4f6	-0.18153748
207	0x3e9724bd	0.29520217
208	0x3b81e972	0.0039645964
209	0xbe25bd49	-0.16185488
210	0x3d615426	0.05501189
211	0x3b130310	0.0022432245
212	0x3d91a367	0.07111245
213	0xb92ff11d	-0.00016779122
214	0x3e4c7f34	0.19970399
215	0x3d90478b	0.07044896
216	0x3e1d3dce	0.15355608
217	0x3d9cfb06	0.076650664
218	0xbda21599	-0.07914276
219	0x3d9530fc	0.07284734
220	0xbda5230b	-0.080633245
221	0x3d3a2850	0.0454486
222	0x3da9fa28	0.08299667
223	0x3e6e2c32	0.23259047
224	0xbced845b	-0.028993776
225	0xbdd27a22	-0.10277201
226	0x3e2195c7	0.15779792
227	0x3d3dd074	0.046341375
228	0xbe6e9e28	-0.2330252
229	0xbe429944	-0.19003779
230	0xbe28a1ef	-0.16468023
231	0xbddccaf4	-0.10780898
232	0x3d72517b	0.059159737
233	0xbdc92f58	-0.09823483
234	0xbccccce2	-0.02500004
235	0x3e84147e	0.25796884
236	0xbccff747	-0.025386466
237	0xbd037dc5	-0.032102365
238	0xbdfca055	-0.123352684
239	0x3d2c8066	0.042114638
240	0xbdbda2e4	-0.092595845
241	0x3e0d598e	0.13803694
242	0xbe804b7e	-0.25057596
243	0xbc30ca5c	-0.010790434
244	0x3e67cf44	0.2263766
245	0xb9972eb6	-0.00028835767
246	0x3e15b8da	0.14621297
247	0x3e10d3b1	0.14143254
248	0x3e883288	0.26601052
249	0x3e4744e0	0.19459867
250	0xbd52695a	-0.051370002
251	0x3bbfeec1	0.005857319
252	0xbecd552e	-0.4010405
253	0x3d318e90	0.04334885
254	0x3d2f33ab	0.042773884
255	0x3db3d9d2	0.0878178

linears.5.bias f4 [40]
0	0xbd04a5e5	-0.03238477
1	0xbc6cbc0b	-0.01444913
2	0x3bd7b440	0.006582767
3	0xbd2203c7	-0.039554384
4	0xbc9326ee	-0.017962899
5	0x3d26c901	0.040719036
6	0x3d441ec1	0.04788089
7	0xbd3ce2cc	-0.046114728
8	0x3d5f7b18	0.05456075
9	0x3d248b06	0.040171646
10	0x3d1a0166	0.03759899
11	0x3d382ce5	0.04496469
12	0xbd2cf222	-0.042223103
13	0x3d194e35	0.0374281
14	0xbc14d53c	-0.009084042
15	0x3d373e89	0.044737373
16	0x3d32d9ea	0.04366485
17	0x3d06e7eb	0.032936018
18	0xbd12779f	-0.03575861
19	0xbcc542b5	-0.02407966
20	0x3d0aba2c	0.033868954
21	0xbd466e49	-0.04844502
22	0xbd313032	-0.043258853
23	0x3d199771	0.03749794
24	0xbcc3a013	-0.02388004
25	0xbd21c787	-0.039496925
26	0x3d2f7c28	0.042843014
27	0xbd148319	-0.036257837
28	0x3c93a697	0.018023772
29	0xbd2ef855	-0.042717297
30	0xbd054b54	-0.03254254
31	0x3d29b6fe	0.04143428
32	0x3cf4494a	0.029820103
33	0xbd1a49ed	-0.037668157
34	0x3d4474c0	0.047962904
35	0x3d04f24f	0.032457646
36	0xbd21b034	-0.03947468
37	0xbd148731	-0.03626174
38	0xbd20a001	-0.03921509
39	0xbd07077b	-0.03296612

linears.6.weight f4 [3, 40]
0	0xbdb70e61	-0.089382894
1	0x3d66dbe5	0.05636205
2	0x3f08cff0	0.5344229
3	0xbdf279a6	-0.11839609
4	0x3e63f8d8	0.22262895
5	0xbe88317f	-0.26600263
6	0x3f09b826	0.53796613
7	0xbeab7022	-0.33483988
8	0xbec2f573	-0.38077888
9	0x3da55cd9	0.0807435
10	0x3ede805f	0.43457314
11	0x3f1778e2	0.5916883
12	0xbf634bb3	-0.8878738
13	0x3fa7e573	1.3116897
14	0x3f051aba	0.51993906
15	0x3f88c7fe	1.0686033
16	0x3e5313b5	0.20612986
17	0xbe2c6436	-0.16835102
18	0xbea2d13c	-0.31800258
19	0x3dd426c7	0.10358959
20	0x3f8f6077	1.1201314
21	0x3ec297c6	0.3800642
22	0x3f8cf69a	1.1012757
23	0x3db87628	0.090069115
24	0x402366a0	2.5531387
25	0x3e9375cd	0.28800812
26	0xbe571ed0	-0.21007848
27	0xbec3597c	-0.3815421
28	0xbdff0226	-0.12451582
29	0xbe005f25	-0.12536295
30	0x3f70caab	0.94059247
31	0x3dff8c58	0.1247794
32	0xbeee9266	-0.46596068
33	0x3e9ea69f	0.30986497
34	0x3f89693f	1.0735244
35	0xbddec642	-0.108776584
36	0x3dddf4ca	0.108377054
37	0x4024b815	2.5737355
38	0xbe20e04a	-0.1571056
39	0xbf02a999	-0.51040035
40	0x3dcd915f	0.10037493
41	0x3cb2c739	0.021823512
42	0xbd4e995e	-0.05043923
43	0x3ea4711f	0.32117555
44	0x3c218962	0.009859415
45	0xbe685b54	-0.22691089
46	0x3ba58a66	0.005051899
47	0x3db85a59	0.090016074
48	0xbc8cfb32	-0.017209623
49	0xbd9a4b0c	-0.07533845
50	0xbe23e29b	-0.16004412
51	0xbe8a64b2	-0.2702995
52	0x3e5d5d43	0.21617608
53	0xbce872c7	-0.028375043
54	0xbd5b27ab	-0.053504627
55	0xbe3fc8cf	-0.18728946
56	0xbeaabaff	-0.33345792
57	0xbd030771	-0.03198952
58	0xbc4d9db9	-0.012549811
59	0x3e20435f	0.156507
60	0xbe40146a	-0.18757787
61	0x3e0713c2	0.13191131
62	0xbd9c3d43	-0.07628872
63	0xbe43290f	-0.19058631
64	0x3e5e89d9	0.21732272
65	0x3e8dfa42	0.27729994
66	0xbdf91ba5	-0.12163476
67	0xbce502ca	-0.027955431
68	0xbdd37130	-0.10324323
69	0x3c361b50	0.01111491
70	0xbd50bc66	-0.05096092
71	0x3d8ff6a3	0.07029464
72	0xbd3dc330	-0.046328723
73	0x3dec1596	0.11527555
74	0xbe0be484	-0.1366139
75	0xbe4a6058	-0.19763315
76	0x3eb95160	0.36194897
77	0x3e3e6ca0	0.18596125
78	0x3e81ec9f	0.2537584
79	0x3dc64eda	0.096830085
80	0x3df5f14a	0.12008913
81	0x3dee9390	0.11649239
82	0x3d792406	0.06082537
83	0x3d8405d7	0.06446426
84	0x3e77c65f	0.24196766
85	0xbd0f47f5	-0.034980733
86	0x3d4350e8	0.04768458
87	0xbd1b9e79	-0.03799293
88	0x3dbea3c9	0.09308583
89	0x3d90684a	0.070511416
90	0x3e6167f9	0.22012319
91	0xbb91b6c5	-0.0044468367
92	0x3dfdc164	0.12390402
93	0xbda1a9d6	-0.07893722
94	0x3d8fabaa	0.07015164
95	0x3e0ae3be	0.13563439
96	0xbd607b13	-0.054804873
97	0xbdd04fc2	-0.101714626
98	0x3db5de1c	0.088802546
99	0xbe77b7e1	-0.24191238
100	0x3e91bf90	0.28466463
101	0xbe2dc791	-0.1697066
102	0x3df4840e	0.1193925
103	0xbe1f044b	-0.15528981
104	0x3e52773f	0.20553301
105	0xbe76c3f8	-0.24098194
106	0x3d732a72	0.05936665
107	0x3e89c8d2	0.26911026
108	0x3db65632	0.08903159
109	0x3d173c00	0.036922455
110	0x3e595747	0.212247
111	0xbe1246eb	-0.14284866
112	0xbd5c9ec4	-0.05386235
113	0x3c527d69	0.012847283
114	0x3cee08d2	0.02905694
115	0xbe67d67b	-0.22640412
116	0x3e21fe8b	0.15819757
117	0x3d0768f1	0.033059064
118	0x3e0e5698	0.1390022
119	0x3e2632ae	0.1623027

linears.6.bias f4 [3]
0	0x3f5bb963	0.8582975
1	0xbd305399	-0.043048475
2	0xbce438b5	-0.027859071

exp_avg f4 [40, 2]
0	0xc17eb70e	-15.919691
1	0xbffa926c	-1.9575934
2	0x4072732c	3.7882795
3	0xc0b426ad	-5.629721
4	0xc159fedc	-13.624722
5	0xbfc05f3e	-1.5029066
6	0x41d19a74	26.200417
7	0x40de321c	6.943617
8	0x40c35c97	6.1050525
9	0x3e4e45c6	0.20143804
10	0xc1ccca2b	-25.598715
11	0xc001b7b5	-2.0268376
12	0x40908f41	4.517487
13	0x3fe4d4cc	1.787744
14	0x41a1687b	20.176016
15	0x408c0279	4.375302
16	0x4185cdf9	16.725573
17	0xbf7b2976	-0.9811014
18	0xc02cf4b1	-2.7024348
19	0xbffcbfda	-1.9746048
20	0x41d4c981	26.59839
21	0x40c45412	6.1352625
22	0xc0c9eee8	-6.3104134
23	0xbf09fb24	-0.53898835
24	0x41803970	16.028046
25	0xbd52fc48	-0.051510125
26	0xc1a4b0e0	-20.586365
27	0x4045f0b9	3.0928175
28	0xc1ca7ca9	-25.31087
29	0xc0d135c4	-6.537813
30	0x41797a70	15.592392
31	0x40085ff8	2.1308575
32	0xbfd988d8	-1.6994886
33	0x40d48b26	6.641986
34	0x40bd0462	5.906785
35	0xc0865e99	-4.1990476
36	0xbf5a0fc9	-0.85180336
37	0x4000a7a8	2.010233
38	0xc044357e	-3.065765
39	0xbe656ae2	-0.22404054
40	0xc0b62104	-5.69153
41	0x400c5ffa	2.193358
42	0x415e2e94	13.886372
43	0x40b85f27	5.7616153
44	0xc1281fce	-10.507765
45	0x4089b5c8	4.30344
46	0x4095d27f	4.6819453
47	0xc0109865	-2.2593014
48	0xc0b80977	-5.7511554
49	0x40aa1b1a	5.3158083
50	0xc1e7f8bd	-28.996454
51	0xc1805f0d	-16.046412
52	0xc19161d4	-18.172768
53	0xc087f255	-4.2483315
54	0xc1273c01	-10.452149
55	0x40ce1235	6.4397225
56	0xc14b2029	-12.695352
57	0xc037e4e7	-2.873346
58	0x41022000	8.1328125
59	0xbf853c73	-1.0409073
60	0x41a5964c	20.698387
61	0x406bc587	3.683931
62	0xc0b2bdf2	-5.5856867
63	0xc0202d64	-2.5027704
64	0xc152af33	-13.167773
65	0xc0eefa0e	-7.4680243
66	0xbfc1445d	-1.5098988
67	0x3fb451a9	1.4087421
68	0x41bc701d	23.554743
69	0x3e335d2f	0.17516015
70	0xc0cf5c4d	-6.480017
71	0xc06881a9	-3.6329138
72	0xc1790bfc	-15.565426
73	0xc0f80323	-7.750383
74	0xc1448cdf	-12.284392
75	0x401305ec	2.2972364
76	0x411ba98d	9.728894
77	0x4090e01e	4.527358
78	0xc1425685	-12.146123
79	0x40b11357	5.533611

exp_avg_sq f4 [40, 2]
0	0x50011abf	8.664055e+09
1	0x4c8a90e0	7.264845e+07
2	0x5004639c	8.884482e+09
3	0x4d3b17b3	1.9618078e+08
4	0x510cc522	3.7787673e+10
5	0x4d770bd0	2.5904666e+08
6	0x5198491f	8.1757725e+10
7	0x4e1b5678	6.515338e+08
8	0x4fa3b1fd	5.4927017e+09
9	0x4b2d5beb	1.1361259e+07
10	0x50034de6	8.811682e+09
11	0x4d338012	1.8821968e+08
12	0x50578501	1.4463272e+10
13	0x4d60130d	2.3495906e+08
14	0x50bb550c	2.5143304e+10
15	0x4d0e4e3e	1.4921827e+08
16	0x50022ce5	8.735921e+09
17	0x4b8bdde8	1.8332624e+07
18	0x524d56be	2.204809e+11
19	0x4f04e091	2.2293097e+09
20	0x4f5e9752	3.734459e+09
21	0x4c26e417	4.3749468e+07
22	0x50ca40ab	2.7145886e+10
23	0x4dc99fc7	4.2283645e+08
24	0x4f412f82	3.2411162e+09
25	0x4c010b1f	3.3827964e+07
26	0x51e2f6a4	1.2185007e+11
27	0x4e8905c6	1.1494285e+09
28	0x4f512df5	3.50945e+09
29	0x4bfa4c44	3.2807048e+07
30	0x5144a321	5.2784402e+10
31	0x4e1767f5	6.3504314e+08
32	0x4faef214	5.870201e+09
33	0x4b2dc631	1.1388465e+07
34	0x502c0579	1.1544159e+10
35	0x4ce9b959	1.22538696e+08
36	0x5238f66f	1.9860211e+11
37	0x4ea7c45c	1.4073318e+09
38	0x4ed3b5a0	1.7759478e+09
39	0x4c07b12c	3.5570864e+07
40	0x4f90f8c5	4.864445e+09
41	0x4bc2ee9c	2.5550136e+07
42	0x4ea14529	1.3528321e+09
43	0x48f9ddff	511727.97
44	0x4fb7bb0a	6.1649766e+09
45	0x4bd2a939	2.7611762e+07
46	0x500fc43e	9.648011e+09
47	0x4b582dae	1.416747e+07
48	0x4f064daa	2.2532367e+09
49	0x4a8530af	4.3643755e+06
50	0x510b03af	3.731639e+10
51	0x4e3612f1	7.6367366e+08
52	0x51ea7a5d	1.2588441e+11
53	0x4e6f00ce	1.00245184e+09
54	0x4d0482f6	1.3894845e+08
55	0x4a3e7a9a	3.1208065e+06
56	0x5104884a	3.557639e+10
57	0x4de0bc67	4.7130544e+08
58	0x51235a57	4.3849708e+10
59	0x4d94ab00	3.1177933e+08
60	0x4ef542bb	2.0573956e+09
61	0x4a88ec88	4.486724e+06
62	0x51b604f6	9.772091e+10
63	0x4e829fc0	1.0957537e+09
64	0x4fabce9c	5.7648886e+09
65	0x4a8ff49b	4.7171335e+06
66	0x50a59a2e	2.222676e+10
67	0x4cf4d07a	1.2835323e+08
68	0x51c67202	1.0653953e+11
69	0x4e6271ec	9.497792e+08
70	0x5095a0ea	2.0082807e+10
71	0x4d7ced2a	2.6521258e+08
72	0x50dc7160	2.9587341e+10
73	0x4dd6bc45	4.5033283e+08
74	0x5294d5bb	3.1962048e+11
75	0x4f387ce3	3.0951923e+09
76	0x51be5377	1.0218051e+11
77	0x4e3a8d4e	7.824557e+08
78	0x5118266b	4.0842473e+10
79	0x4dddeef7	4.654282e+08
