1DCFD_PINN/1D_CFD_Shock_Eta1.e-8_Zeta1.e-8_trans_Train_PINN.pt-10000.pt (torch, 112935 bytes, 42 tensors)

linears.0.weight f4 [40, 2]
00000000: 95b9 713e bb77 0a3e f30b da3e 4f34 153e
00000010: 364b c13d fc40 353e 1355 8cbe 5896 883d
00000020: 09a0 023e d093 88be be6c 12be 96d9 3e3d
00000030: 6fe7 013e 0780 68be 71b6 193e 312e d4be
00000040: aa0c 103d 8be5 5abe 1d67 2cbe 6933 c1bd
00000050: f219 b0be 67f3 79be 5f64 853d 3219 813d
00000060: 920f a63e cb73 553e 2e95 30be c339 903d
00000070: 7c6b d83d 0a90 85bd aee4 95be 4108 473e
00000080: 4705 cdbd 7108 78bd 5d7d c93d f9ad 9dbe
00000090: 10d7 8cbd b08a e43d 2840 08bd f7f9 8abe
000000a0: 3020 acbd e83f 513d b860 493e ce93 aabd
000000b0: f0c0 0cbe 994f c9bd 1cf9 34be c03f 883e
000000c0: 5877 cfbd 024b da3e 5955 cbbc ed2a d33e
000000d0: af3e d93d b30c 4fbe 1787 193e b2bb 043f
000000e0: 9dc6 403e 3282 cf3d e903 363e 9956 88be
000000f0: 2017 24be 807c 583d 5f9b b73e cf4b babd
00000100: 8be6 c5bc 7115 493e 1385 313d 8b73 283e
00000110: 0b27 5abd 04f2 0f3d 7778 403d ad79 7c3d
00000120: 8e0f 6b3e 148e 7b3e 7a34 40bd 9c04 303e
00000130: b7c9 913e 1998 de3e 5e5f a03d 7940 cdbd
0.2360595 0.13522236 0.42587242 0.14570735 0.094381735 0.17700571 -0.27408656 0.06669301
0.12756361 -0.26675272 -0.14299294 0.046594225 0.12685941 -0.22705089 0.15011002 -0.4144149
0.035168327 -0.21376626 -0.1683621 -0.09433634 -0.34394795 -0.24409257 0.06513285 0.06303634
0.32433754 0.20844953 -0.17244408 0.07042267 0.10567376 -0.06521614 -0.2927603 0.19436742
-0.10010772 -0.060554925 0.09838364 -0.30796793 -0.068769574 0.11159265 -0.03326431 -0.27143833
-0.08404577 0.051086336 0.19665802 -0.08328973 -0.13745475 -0.09829635 -0.17673153 0.26611137
-0.10130185 0.4263535 -0.02482097 0.41243687 0.10607659 -0.20219688 0.14992939 0.518489
0.18825765 0.10132255 0.17774929 -0.2662857 -0.16024446 0.052853107 0.35860726 -0.090964906
-0.024157783 0.19637085 0.0433398 0.16450326 -0.05325989 0.035142913 0.046989884 0.061639477
0.22955152 0.24565917 -0.046925046 0.17189258 0.2847421 0.43475416 0.0783069 -0.10022063

linears.0.bias f4 [40]
00000000: e9af 19bd 1395 f0bc c364 d4bb d596 453d
00000010: 8a28 1d3c 3ab7 503d a464 13ba 6302 afbb
00000020: 7442 a0bc 7add 903c bdfa 983c e116 b33c
00000030: 8abb d3bc 2595 98bc 68ac 63bc cd74 0f3d
00000040: 3500 4d3c 5c50 8e3c 9de6 7b3c 763c 6a3d
00000050: 263a f5bb aae0 79bc d64d 123d 674c d03c
00000060: eb0c 7cbc ccbb 98bb 6207 eeb9 4edb d2bc
00000070: 2d98 cebc 8379 343c bd01 0a3d 72c8 943c
00000080: ebc1 173c a7be 943a 982d dd3c af79 d73c
00000090: 9181 ffbc 24be 79bc cfbb 86bb 5455 bfba
-0.037521277 -0.02936796 -0.0064817383 0.048239548 0.009592185 0.05095599 -0.00056226016 -0.0053408607
-0.019562937 0.017683733 0.018674249 0.021861495 -0.025846262 -0.018625805 -0.013896085 0.0350235
0.012512256 0.017372303 0.015374807 0.057186566 -0.0074837385 -0.015251318 0.03571876 0.025427056
-0.015383939 -0.004661059 -0.00045400398 -0.025739338 -0.025219047 0.011015299 0.033693064 0.018161986
0.009262542 0.0011348323 0.02699928 0.02630314 -0.031189712 -0.015243087 -0.004111744 -0.0014597573

linears.1.weight f4 [40, 40]
00000000: 04f4 b83e 4886 05be 6133 f93d 55b6 c33c
00000010: ef4e a0bd 5794 0c3e 56dd 213e 5ceb 64be
00000020: 0310 a03c c3c6 923d f576 333e 3fd4 bd3c
00000030: 4cc4 233e 281f 883b 294a 9c3c 615f a13d
00000040: 5530 86bb 5046 073d b449 8ebe 7dd8 1c3e
00000050: a3ff 79be 7f63 54bd 8942 29bd 5dc2 cfbd
00000060: 0cda acbd dcd5 a3bd 51ac fabc b9b8 24be
00000070: 2f9c 5e3d 3391 363e 0cec 76bd 32f0 8b3c
00000080: 83b5 163e b2f1 00be d0c0 44be a777 ba3d
00000090: 0104 0c3d b2e6 f2bd d2fb ddbd 51c2 663e
000000a0: 0b61 00be 65b3 0a3e 72f6 8fbc c691 44be
000000b0: 11a2 12bc 3585 5e3d 2379 8cbe 12a2 a13c
000000c0: 1b50 5abd 669d 08be 6c44 743d 9b2b 383d
000000d0: 691a 55bd 770e 553d c287 8d3c 404e 983d
000000e0: e1ce d3bd 9cdb 85bd a3bd 843e bf0c 2abe
000000f0: aa0b ab3d ae97 1a3d ac37 563e eb77 de3c
00000100: 2731 48be 443e 84bd e216 883e 6c3c 3cbe
00000110: 3e96 353d aa43 e7bd ddd8 47be e83f b83d
00000120: 3b97 823e e1b4 893d 07ec f53c c96f d2bd
00000130: 5aa6 bb3d f74a 943e 2abf 62be 58eb 723e
00000140: 18fc 9e3e db00 223d 0790 703e 37b5 9abd
00000150: b0a3 b0bd 4c27 9abd 7c10 38bd 6771 1d3e
00000160: cd65 f73d 2ec2 7fbd f65f 263c 8558 b2be
00000170: f5e3 923d a114 d43e 6e0f c6bd 3414 6a3e
00000180: d9d6 86be b82e 42be 9810 8fbe 03c4 053e
00000190: 8325 5a3e f2bb d2bd 5498 96bd ff1e fcbd
000001a0: 06b6 51be b177 983d 2f51 443e fbc5 1bbc
000001b0: ef22 b23c 8cd4 443d 413c 223e 5879 073e
000001c0: dc0a 383d f52b 0abe 93dd 903d 34da a13d
000001d0: 894d 803d 2508 84be 2321 233c 9ef6 323d
000001e0: d47e 55bc d8e4 0cbe 1ef4 c83d 9e63 0bbe
000001f0: 9fda 793d 9429 3fbe b625 0dbd c3d2 2a3e
00000200: 9e4d 9a3e 017f 643e 71e9 793e 7a93 523c
00000210: 98ef 2b3e 1f10 73be 8220 163e 119d 4bbc
00000220: 3bfd 373e e94d bd3d 3c7c b73d 7eaf c3bb
00000230: 56cb 013e 401e c2bd 970e 8cbe f76a a03d
00000240: 96fb cfbd 060d 0e3e d926 083e 4c9e 59bb
00000250: 1710 dabd 62ce 69bc e185 00bc 5514 30be
00000260: 28bb 10bd 4de0 2a3e bd94 ffbc 7261 f8bc
00000270: 807e 18bd 9334 3bbe 7277 5dbd fa4c 393b
00000280: 0671 973e 0e15 9a3d 003d 81bd a46f 51be
00000290: 9598 853e d904 f53c 00d0 a23d 10a1 06bd
000002a0: 9218 143e 42c1 a13d 0373 5f3e 7e52 3fbe
000002b0: 7b7c ac3d 0656 233d a60b 8a3d 4164 aabd
000002c0: f9c5 50be 3af6 cabd 1228 debd 0d93 753d
000002d0: ddcf 1abc 595b 14be dd75 b2be 3583 263e
000002e0: 1e0c 933c 42ba aebd 9a19 4dbd f7ab bcbd
000002f0: ab26 af3c 1330 3cbe a91a 00be 3370 49be
00000300: e07e c33d 4b43 bbbd c6b1 c9bd b4a9 a0bd
00000310: 9d49 373d 9772 bebe a112 503c cf22 813d
00000320: 110b 80b9 db5f 6d3e 8339 f4bd 5d8b 083e
00000330: caa5 09be fb37 dbbd a060 c23e 4cbd e43e
00000340: c354 1a3d cf5b c23c 9ad8 433c 2066 26bd
00000350: b73b e3be 9022 9f3e d12b 2abe 3744 3f3b
00000360: 5162 b63d 9fe6 78be bee4 d0bd 0a52 8c3e
00000370: f00d cc3c 5ac1 273b 51b0 573d 3cb5 b63d
00000380: eb08 85be 544e babe 9bce c2bd d556 4fbe
00000390: 9598 c53d a486 4cbc 9253 1cbe 52a6 8bbc
000003a0: a57c 263e ad10 1abd b8f0 ed3d d751 85bd
000003b0: 90de afbd 0830 8ebd c14e c4bd b7bb 46be
000003c0: 7b7e 0bbe 2f73 433e 6da7 73be 4056 d5bd
000003d0: 8a73 a13e f19e 4c3d c482 4f3e a7d7 693d
000003e0: 3cfb 4a3d 66c2 f23c a1c1 843e 6ef7 40bd
000003f0: a3bc 93bd 7f31 23bd a51e edbd 0ffa c6bd
0.3612367 -0.13039505 0.12168003 0.023890654 -0.078275554 0.13728462 0.15807089 -0.22355407
0.019538885 0.07166817 0.17525847 0.023172496 0.1599285 0.0041541047 0.019078331 0.0787952
-0.004095117 0.03302604 -0.27790606 0.15316959 -0.24413924 -0.0518527 -0.04132322 -0.10144494
-0.08440027 -0.07999775 -0.030599745 -0.16086091 0.054348167 0.17828827 -0.060283706 0.017082307
0.14717679 -0.125922 -0.19214177 0.09104853 0.034183506 -0.11860408 -0.108390465 0.22535063
-0.12537019 0.13544996 -0.017573569 -0.19196233 -0.008949772 0.054326255 -0.2743617 0.019730601
-0.05329905 -0.13341293 0.059635565 0.04496346 -0.05202714 0.052015748 0.017276648 0.074368
-0.103421934 -0.06536028 0.2592593 -0.16606425 0.08351834 0.03774231 0.20919675 0.02715679
-0.1955 -0.06457189 0.26579958 -0.18382424 0.044332735 -0.11292203 -0.1951632 0.08996564
0.25506005 0.06723953 0.030019773 -0.102752276 0.091625884 0.28963444 -0.22143236 0.23722589
0.31051707 0.039551597 0.23492442 -0.07554095 -0.08624971 -0.075270265 -0.044937596 0.15375291
0.12079964 -0.062441044 0.010154715 -0.3483316 0.071723856 0.4142199 -0.09670912 0.2285927
-0.2633579 -0.18963134 -0.27942348 0.13063054 0.21303372 -0.10289754 -0.07353273 -0.123105995
-0.20479593 0.07444704 0.19171594 -0.009507651 0.021745173 0.048054263 0.15843298 0.13229883
0.04493223 -0.13493331 0.07073512 0.07902947 0.06264789 -0.25787464 0.009956631 0.043692224
-0.013030726 -0.13759172 0.09812187 -0.1361222 0.06099951 -0.18668205 -0.034459792 0.16681962
0.30137342 0.22314073 0.24405457 0.012852544 0.16790617 -0.23736618 0.14660838 -0.012427584
0.17967694 0.09243376 0.08959243 -0.005971848 0.12675223 -0.09478426 -0.2735488 0.07832902
-0.10155408 0.13872156 0.13296069 -0.0033205925 -0.106476 -0.014270397 -0.007844419 -0.17195256
-0.035334736 0.16687126 -0.031198854 -0.030319903 -0.037230015 -0.18281774 -0.05406899 0.0028274641
0.29578418 0.07523547 -0.06310463 -0.20452744 0.26092973 0.029909538 0.07949829 -0.032868445
0.14462498 0.07898189 0.21821217 -0.18683812 0.0842218 0.03987696 0.06740503 -0.08319903
-0.2038802 -0.09910245 -0.108474866 0.05995469 -0.0094489725 -0.14487971 -0.34855548 0.16260989
0.017950114 -0.085316196 -0.050073244 -0.09212487 0.021380743 -0.18377714 -0.1251017 -0.19671707
0.09545684 -0.091436945 -0.09848361 -0.07844868 0.044747937 -0.371968 0.012699754 0.06305467
-0.00024422308 0.23181097 -0.11925032 0.13334413 -0.1344215 -0.10704037 0.37964344 0.44675672
0.03767849 0.023725418 0.011953497 -0.040624738 -0.44381496 0.31081057 -0.16618277 0.0029184946
0.08905471 -0.24306725 -0.10199879 0.2740634 0.02490899 0.0025597424 0.052658383 0.089212865
-0.25983366 -0.36387885 -0.09512063 -0.20247968 0.09648243 -0.012483273 -0.15266255 -0.017047081
0.16258486 -0.03761356 0.11618179 -0.0650975 -0.08587372 -0.06942755 -0.095853336 -0.19407545
-0.13622467 0.19086908 -0.23794337 -0.104168415 0.31533462 0.049956266 0.20264727 0.057090428
0.049556002 0.029633712 0.25928977 -0.047110967 -0.07213714 -0.039842125 -0.115781106 -0.09715664

linears.1.bias f4 [40]
00000000: 856c 973b 5fe1 c33b 9e51 f23a f307 8cbb
00000010: f369 c5bc 50ca dc39 ee6f d23c d1e9 8b3c
00000020: a300 b53c c5b9 67bb f057 babc bf7f ccbb
00000030: b0d9 3c3c 3fb9 b1bc 188e b23c 9d5f dd3c
00000040: 045a 5ebd e2d8 b1bc 102c eebc 5287 6b3d
00000050: 6a12 a13c f5a2 0c3d c203 2b3d 5297 9f39
00000060: fe4d c0bc a7ef bebc 5086 703b dcbc 053d
00000070: 05eb 173d 334b 1c3d 83d0 c43b e586 7fbc
00000080: df60 453a 47f3 a93c da57 703c ccb2 853c
00000090: 7c72 f03c 5f6d 43bc 564c 823c ef96 d03c
0.004621091 0.005977794 0.0018487459 -0.0042734086 -0.024098372 0.00042112404 0.025688138 0.017079266
0.02209503 -0.003535853 -0.02274701 -0.0062408145 0.01152651 -0.021694778 0.021796271 0.027023131
-0.054285064 -0.021709863 -0.029073745 0.0575021 0.0196621 0.034335095 0.04175163 0.00030439586
-0.02347469 -0.023307635 0.003670115 0.032650813 0.037089366 0.038157653 0.006006302 -0.015596126
0.00075293885 0.020745886 0.014669383 0.016320609 0.029351465 -0.011927932 0.01590554 0.025462596

linears.2.weight f4 [40, 40]
00000000: 3fd4 47be 6395 0fbe 368b 353e ed92 b53d
00000010: ceaf d8bd 267c 24bd 032c 963d c767 8cbe
00000020: e84d 863c 8455 02bf 6e2c 0a3e f42d b1be
00000030: 73b2 093d cad5 9dbd dedc d2bc c8ea fcbb
00000040: bfff d3bd 028a 0a3d 913a a7bd 97d3 423d
00000050: d5bd f23e 9619 6abd 4964 9abd 4c2a 22b8
00000060: ee3e e83d c003 233d bf49 75be 71e0 1bbe
00000070: 4757 fcbb 985c c73d 12f4 db3d 6f82 81bc
00000080: bb16 95bc 0e02 e33b 2c46 11be 09ff dfbd
00000090: 9003 adbb 90c0 b13d b5de d5bd be5b 0cbd
000000a0: 6452 853d 98a7 243d 710f b1bd 3f82 dd3e
000000b0: 1c80 913c 6c71 57be 6997 993e 47c6 573e
000000c0: 33ef 7bbd 18df 2c3e 2e8b 11be 46df d4bd
000000d0: 14dc f3bd 8ab4 0bbe fbc8 873d d461 683e
000000e0: 4253 2cbe c5ab dd3d 010d 003e a584 6c3c
000000f0: 74b6 d43c 559e 413d 5c21 1e3d 6e3b 1f3e
00000100: db25 46bd 98fe 033e c190 27be c123 693e
00000110: 2d97 d7bc dc06 973e 373d a33e 4a44 e2bd
00000120: 548d a93d 952d 47be 0c51 353d 8562 253e
00000130: 6b71 4a3c 2551 86bd b802 dc3c 0600 efbb
00000140: b500 19be ceaf be3d 987c 06bc d1aa 03be
00000150: bdd7 2bbe d2dc 723e 2a39 00be af49 59be
00000160: 679b f93d 2914 07bd e0d4 bbbe 3e33 b1bd
00000170: 2d34 673d 2720 573d d9f5 c6be 078f 0dbe
00000180: 2e93 8f3d d9e1 ccbd 0486 1abe daa6 91bd
00000190: e9df 8bbe 5f01 46be 5726 a9bd 4dc8 1ebe
000001a0: d8b8 62be ac45 52bd b66a 423d a9ff 1e3e
000001b0: 9d1f b5bd 3fa9 3cbd 1e3f f8bd fb10 8cbd
000001c0: a84c 403e 9edc e03d e3fd 0f3d a56f ac3e
000001d0: 7149 53be b72c 353e 5bdb 433b 83d1 b63d
000001e0: 9826 11bf e995 53be 911b 243c b833 8e3d
000001f0: 8e25 42be 1005 26bd cbc6 923d 48cb 013e
00000200: 5aa3 84be c79d 96bd 7daf 2fbd 8447 d23d
00000210: 1885 6f3e b71d 8dbd eda1 813d 6ef6 163d
00000220: 1983 2f3d bba1 4fbe dc1a 2bbe 5617 40be
00000230: 31d0 d4bc 6744 753e 1ac5 bf3e 669c b8bd
00000240: 7658 f23d 0ecd 99bd f7bd c33c 1235 513e
00000250: 9a83 983d 9596 bc3e 9849 143e 549f b83d
00000260: 72e9 843d fad9 583e 78d7 4abd 4af7 c6bd
00000270: 67f2 223e 8d7d a03b 2adf 4c3e cf95 8c3e
00000280: bb50 dc3c 0c8d bd3d 3736 98bd 3157 c1bd
00000290: fc8c 1b3e 1aff 77be 9b69 eabd b202 083d
000002a0: 0be0 833c 1fc4 553c 400e 8a3e 3dbb 8d3c
000002b0: 62de a03d 54c2 92bd 4a34 c5be b103 98bd
000002c0: 02a3 f63c a112 93bb 96cd 303e f940 553e
000002d0: f441 5dbc 4d09 9d3e 573c c23e 227f b8bc
000002e0: 9519 8a3d ad97 333e 2e15 84bd 8c49 333d
000002f0: c321 e2bc 1cab 07be fd09 dfbd a81c 743e
00000300: c8c0 da3d b25e d23d b7c2 b43d 5d70 263e
00000310: 7779 103e 324d 5a3d 9e37 7bbd 1f95 05be
00000320: 734f fb3d 9105 b5bd fcce fcbc ae64 ad3e
00000330: 4d14 333d a9ff 4d3e f946 013d 7d5e ab3d
00000340: d6d4 993d b288 f4bd 83af 2fbe 1015 9bbb
00000350: bec8 4a3d 62ff a63e 4c0e 3f3e 4693 3a3d
00000360: ad88 16be cb41 8abe 7e5d 0dbf e5ab d3ba
00000370: 07af c73d c683 41be f373 22bd 2c71 633c
00000380: 141a 103e 6b96 82bc 4d61 2f3e 564b 92be
00000390: af08 613e f685 1f3e 602a ccbe baa1 f93d
000003a0: bfaa 953e 8c2a 35be f4ac fc3d e761 fc3d
000003b0: b238 de3c dccf 00be daf2 2f3e 1e9b 3abd
000003c0: 9b23 2c3e 5ba3 fb3c 693f e2bd 6c0c 0ebc
000003d0: 4fec 153e 36cc 3abe e422 e83d bbf5 3abe
000003e0: d1a9 c93d fd84 66be af36 fdbc 14f5 08be
000003f0: ab61 7d3b 95fb a73d 7853 e13d e1b5 8fbe
-0.19514559 -0.1402183 0.17728886 0.088659145 -0.10580407 -0.04015746 0.07332613 -0.27422926
0.01639457 -0.50911736 0.13493511 -0.34605372 0.033617448 -0.07706793 -0.025740083 -0.007718418
-0.10351514 0.03382302 -0.081654675 0.04756507 0.47410455 -0.057153307 -0.07538659 -3.8663202e-05
0.11340128 0.0397985 -0.23953913 -0.15222336 -0.007700834 0.09734458 0.10739912 -0.015809266
-0.018199315 0.006927735 -0.14186925 -0.10937316 -0.0052799657 0.086793065 -0.104428686 -0.03426718
0.065098554 0.040198892 -0.08645523 0.43263432 0.017761283 -0.21039361 0.2999833 0.2107173
-0.061507415 0.16881979 -0.14213249 -0.103941485 -0.11907211 -0.13643089 0.06630131 0.22693568
-0.16828635 0.10823778 0.1250496 0.014435922 0.025965907 0.047270138 0.038606033 0.15550014
-0.048375946 0.12890089 -0.16363813 0.22767545 -0.026317203 0.2949742 0.3188264 -0.11048181
0.08278909 -0.19450982 0.044266745 0.16150863 0.0123561425 -0.06558446 0.026856765 -0.007293704
-0.14941676 0.09310876 -0.008208416 -0.1285813 -0.16781516 0.23717049 -0.12521806 -0.21219514
0.12187844 -0.03297821 -0.36685848 -0.08652352 0.056446243 0.052520897 -0.38859442 -0.13824092
0.07010494 -0.100040145 -0.15090185 -0.071119025 -0.27319267 -0.1933646 -0.08259266 -0.15506096
-0.22140825 -0.051335976 0.04746505 0.15527214 -0.088439204 -0.046059843 -0.12121414 -0.06839176
0.18779242 0.109795794 0.035154235 0.33678928 -0.20633484 0.17692839 0.0029885385 0.0892668
-0.56699514 -0.20662655 0.010016338 0.06943458 -0.18959638 -0.04053217 0.07166823 0.12675202
-0.25905877 -0.073543124 -0.042891968 0.10267547 0.23390615 -0.06890433 0.06329713 0.036856107
0.042849634 -0.20276539 -0.16709465 -0.18758902 -0.02597818 0.23951875 0.37455064 -0.09014206
0.11833279 -0.07509814 0.023894293 0.20430401 0.07446976 0.36833635 0.14481199 0.090147644
0.06489839 0.21176901 -0.049521893 -0.097151354 0.15912782 0.0048977793 0.20007005 0.27458045
0.026893964 0.09255418 -0.07432216 -0.094404586 0.151905 -0.24218407 -0.11445924 0.033205695
0.016098043 0.013047247 0.26963997 0.017301196 0.07854916 -0.071659714 -0.38516456 -0.07422579
0.030107025 -0.0044883047 0.17265925 0.20825566 -0.013504494 0.30671158 0.3793666 -0.02252156
0.06743161 0.17538328 -0.06449352 0.04377131 -0.02760399 -0.13248867 -0.10890577 0.23839056
0.10681301 0.10271968 0.088262014 0.162538 0.14108835 0.053296275 -0.061332338 -0.13045166
0.12271013 -0.08838952 -0.030860417 0.33865875 0.043720532 0.20117058 0.031561825 0.083676316
0.07511298 -0.11940135 -0.17156796 -0.0047327355 0.04950785 0.32616717 0.18657798 0.045550607
-0.14700575 -0.2700332 -0.5522078 -0.0016149251 0.09750181 -0.18897924 -0.03966136 0.013881963
0.14072448 -0.015940866 0.17126961 -0.28573102 0.21975969 0.15578446 -0.3987608 0.1218905
0.2923183 -0.17692012 0.12337676 0.12323361 0.027126644 -0.12579292 0.17182484 -0.045558088
0.16810457 0.030717542 -0.11047251 -0.008669954 0.14640926 -0.18241963 0.1133478 -0.18257801
0.09846843 -0.22511669 -0.030909864 -0.1337474 0.003866295 0.08202282 0.110022485 -0.2806845

linears.2.bias f4 [40]
00000000: 72ea 00bc 9854 3d3d e048 ba3c 90b4 043c
00000010: 20b2 c3bc 4cf4 cabb 3e15 b8bb 601f 20bc
00000020: 218e 883c d05c 6b3c 0d15 3fbc 79a9 cebb
00000030: fe06 a4bc ff11 363d 0c59 c23c 93cd fbba
00000040: 20d9 abbc 3b31 fab9 5f60 c6bc fb2f c0bc
00000050: 4e70 783b f14a 593d 93b9 903c 500a 153c
00000060: 7cde 223c 6827 d2bc 5daa d03c 10aa bf3c
00000070: 5367 6c3c 828c 963b f2c6 433c 13c9 c83b
00000080: 97bf 5ebc f6f9 5cbc 2806 82bb 9563 bfbc
00000090: d59d b73c d8e5 003d b8e4 7cbb 9d99 2b3c
-0.007868396 0.046223253 0.022739828 0.00809969 -0.023888648 -0.0061936732 -0.0056177666 -0.009773105
0.016669335 0.01436539 -0.011662734 -0.006306824 -0.020022865 0.044450756 0.023724101 -0.0019211046
-0.020977557 -0.00047720395 -0.024215875 -0.023460379 0.0037908736 0.053049985 0.017666614 0.009096697
0.00994074 -0.025653556 0.02547186 0.023396522 0.014428931 0.0045943866 0.011949288 0.0061274855
-0.013595483 -0.01348733 -0.003968019 -0.023362914 0.022414127 0.031469196 -0.0038588475 0.010473636

linears.3.weight f4 [40, 40]
00000000: 5b1d abbd 1d75 c53d 6271 81be d02c ca3b
00000010: ef8c c1bc d66d debd 92d9 4f3e 43e9 f63d
00000020: 2fcd 293e 972d d43c d88c 21be 5e6c 0b3e
00000030: 8424 013e 0b29 8f3d c784 883a 07f2 14ba
00000040: 7056 b9bd 565d 12be 7a9d 393e 61c6 243e
00000050: 2a26 3e3e ca49 02be 9c22 69bc 3ef1 87be
00000060: dbac d33d 7e3d 09be 775b 17be 01fa 4cbe
00000070: 159e babe db79 ea3c 9119 363e 8806 dcbd
00000080: 79ba 043e 8491 30be 1793 c13d 7b3b dd3c
00000090: d4b9 9abc 18ff 10bc 233e 983e fc18 c6bd
000000a0: d9c3 41be f7b3 abbe 8b19 0bbe 1a86 8bbe
000000b0: 4267 12be ee13 9b3d 85c9 efbd e59a b2bc
000000c0: b0d0 a6be 9c9f 22be 28bf eebd ca6d 92be
000000d0: 892d 7dbe bdcd 14be 89b3 e33d 6ff2 f53b
000000e0: 7fe0 e9bc 6f06 7abd cde5 603e 9ee8 233d
000000f0: 6f58 56be 59b0 cc3d 76cb 0c3d cee0 223e
00000100: b4f6 853e c8f8 a5bd 2c0d 133e a3d9 9b3e
00000110: 03ab 06be f375 243e dab3 34be eda4 b03d
00000120: 0331 853e e0cd 843d 595b 65be d4e5 f43d
00000130: 62fb 4c3b 230d 103e e891 8e3e a3d6 9cbd
00000140: e653 e13d 7a2c 88bd 6700 853d cd39 f8bd
00000150: 9dc7 5b3e 06e9 ee3d 2c79 4d3e e08b 63be
00000160: 01f4 62be cabe 6abd 6175 673c 9688 6b3e
00000170: bd89 ccbd 3b01 c53d 5454 ebbd fa48 5ebe
00000180: 2455 603e 5785 2e3c 6ac1 00be 14cd 993e
00000190: 9ad4 9cbe 772a 5b3d 6e80 52be c9b9 60bd
000001a0: f37d 273e 26c9 cabd 50ca f03c 0967 8f3e
000001b0: fff4 cabc 95bf 1b3d 4b9a acbc f3f7 c73d
000001c0: 5516 5abd 5ed9 9e3c 73cd 98bd aa09 1ebe
000001d0: e510 9d3c 13d8 823d 0fdd f5bb 5809 31be
000001e0: e543 6bbd 2e4d 97be 52f1 df3c dd74 0b3e
000001f0: 0292 ec3c 7683 efbd 771c 42bb 4cf6 d9bc
00000200: fe34 0ebd e705 013b 5052 3abe d5b5 3abd
00000210: cecf 94bd 732d 90bd 1b81 ed3d 3672 f63d
00000220: 95a8 58bd e8a1 42be efa7 84bd f729 4dbc
00000230: 11d1 a2bd 6f0a 133e 5a34 033d ef37 003e
00000240: e19c 65be ecd8 12bd 58f0 6dbc b7a2 693d
00000250: 6772 853c ccd5 923d c53a 86be 7e75 553e
00000260: b013 f2bd 84ee a6bb 41a0 18be 2c35 e33d
00000270: d3c6 06bd e570 153e da24 073e bb41 babd
00000280: 4504 69be 51a9 883d f5a6 b9be 0fe0 9f3d
00000290: e646 a53e d4cf 8fbd f69c 423e f1fb ea3d
000002a0: ab0c 9f3d 46e3 83be e007 c1bd 736f 9c3d
000002b0: a190 5fbd 3fcf 733e a0f1 023d 34f6 90bd
000002c0: 6c9c cd3d 63ba abbd da2a d73d 036b 95be
000002d0: ec08 cfbd 63c4 283e 27a8 333e daee 3c3e
000002e0: fddd 97bb 5b5f 90be 839d 853d bd13 00be
000002f0: a892 9f3c 7d63 68be 96d1 793e ff28 093e
00000300: 751b f2bd 4db8 da3d 3758 17be e6ce 69be
00000310: 009c 733c 0545 b13d e6b7 27be bc3d c13d
00000320: a1c5 a73d 1853 c33d 8d0f 00bd 6295 68be
00000330: 9f0a ea3d d5fe 79bd 6e4c e8bd b73a 59bd
00000340: fd96 01bd c2ff f13d ce93 823e d45f a53d
00000350: 46ce 98bd b647 583e d699 bc3e f677 40be
00000360: bb61 4a3c fa42 ed3d 174f 253e abb1 23bd
00000370: 4c98 1f3e 89e9 863d 1c83 413e 267b 6abd
00000380: 7aad 4abe 9298 303e 1d5d 333e 3913 2abd
00000390: 1ceb 033e 839e b23e 5d83 30be 0fc5 66bc
000003a0: 452b 43be 17ac e5bd 3d71 c13d c211 cf3a
000003b0: 4a3f 57be c576 573d 8c38 853e 0aa0 41be
000003c0: 8dfe b33d ec42 453e 1ea6 d5bd 7f9f 04bd
000003d0: 0e38 6abe 5f10 f33d 649c a83c 04ad 4fbe
000003e0: d7fe c63d 5f48 153d 75f5 1d3b b608 53bd
000003f0: 7b06 9b3c cdc0 83be 12a5 71be 03f1 983c
-0.083552085 0.09641478 -0.25281817 0.006169893 -0.023626773 -0.10860793 0.2029784 0.1205621
0.16582178 0.025900645 -0.15776384 0.13615558 0.12611586 0.0699025 0.0010415547 -0.0005681817
-0.0904969 -0.14293417 0.18126479 0.160913 0.18569246 -0.12723461 -0.014229443 -0.2655124
0.10335704 -0.13402364 -0.14780985 -0.20017244 -0.36448732 0.028622558 0.1778319 -0.10743433
0.12961759 -0.1724301 0.09451883 0.027005902 -0.018887438 -0.008849882 0.29734907 -0.09672734
-0.18922366 -0.3353574 -0.13583963 -0.2725075 -0.14297202 0.07572161 -0.11708359 -0.021802375
-0.3258109 -0.15881199 -0.11657554 -0.28599387 -0.24724402 -0.14531608 0.11118228 0.007505707
-0.02854943 -0.06104129 0.21962662 0.040016763 -0.20932172 0.09994573 0.034373723 0.15906069
0.26164782 -0.08104092 0.14360493 0.3043948 -0.13151173 0.16060619 -0.17646733 0.08625207
0.26013955 0.0648458 -0.22398128 0.11957899 0.0031277766 0.14067511 0.27845693 -0.07658126
0.110023305 -0.06649108 0.06494217 -0.121203996 0.21462865 0.116655394 0.20065755 -0.22221327
-0.22163393 -0.057310857 0.014127106 0.23001322 -0.09987209 0.09619375 -0.11490694 -0.21707526
0.21907479 0.010651908 -0.12573782 0.30039275 -0.30630952 0.053507295 -0.20556805 -0.05486468
0.1635664 -0.09901647 0.029393345 0.28008297 -0.024775026 0.038024504 -0.021069666 0.097640894
-0.053243954 0.019390758 -0.07461061 -0.15433374 0.019173095 0.06388869 -0.007503159 -0.1728872
-0.057437796 -0.2955107 0.02733675 0.13618799 0.028878216 -0.11694996 -0.0029619017 -0.026606701
-0.034718506 0.0019687356 -0.18195462 -0.045583565 -0.07266198 -0.07039919 0.115968905 0.12033503
-0.052895147 -0.19007075 -0.06477343 -0.012522212 -0.079500325 0.14359449 0.03203235 0.12521337
-0.22423126 -0.035851404 -0.014522634 0.057039943 0.016289903 0.07169685 -0.26216713 0.20845601
-0.11820161 -0.0050943512 -0.14904882 0.11094126 -0.032904457 0.14593847 0.13197652 -0.09094568
-0.22755535 0.066729195 -0.3626019 0.07806408 0.32280654 -0.07022062 0.19005188 0.11473835
0.07766088 -0.25759333 -0.0942533 0.07638445 -0.05458129 0.23809527 0.031968713 -0.070782095
0.10039601 -0.0838516 0.1050622 -0.29183206 -0.101091236 0.16481166 0.17544614 0.1845049
-0.0046346174 -0.2819775 0.065241836 -0.1250753 0.01947911 -0.22694202 0.24396357 0.13394545
-0.11821643 0.10679684 -0.14779745 -0.22832832 0.014868736 0.086557426 -0.16378745 0.09435603
0.081919916 0.09537333 -0.03126483 -0.22713235 0.11427807 -0.061034042 -0.11342703 -0.05303451
-0.031638134 0.1181636 0.2550339 0.080749184 -0.074612185 0.21121106 0.36836118 -0.18795761
0.012352402 0.115850404 0.16143452 -0.03996436 0.1558544 0.06587512 0.1889767 -0.05724635
-0.19792739 0.17245701 0.17515989 -0.04152224 0.12882656 0.3488656 -0.17237611 -0.014085068
-0.19059475 -0.11214464 0.094454266 0.0015798139 -0.21020237 0.0526035 0.26019704 -0.18908706
0.08788786 0.1926381 -0.10432075 -0.03237867 -0.22872946 0.11868357 0.020582385 -0.20280844
0.097165756 0.03644597 0.0024102603 -0.05152198 0.018923989 -0.25733033 -0.23598126 0.01866961

linears.3.bias f4 [40]
00000000: 3b7c 0abd e13e 6cbc 890d b73b a731 153d
00000010: 662c eb3c c3f0 863c 0696 203d 411b ed3c
00000020: 9706 99bb 6932 16bc 9fb7 f1bc b8e7 943b
00000030: fb5a bb3a 4892 a23b 0819 1fbb 2bab ec3c
00000040: 400b c93c 6db7 453c 5eb9 ed3c b1fc e53c
00000050: caa8 763b aa1c bbbc 55cd 363d 45ca 0ebb
00000060: 65c4 43bc b95b a8bb 7b26 c6bb 41e7 69bc
00000070: 27db 95bc 47d5 e5bb e34a 033d 78ba ddbc
00000080: 93a7 ac3c 6c3e 52bd 8f5b 0d3c d418 2a3d
00000090: 1d82 a53b d70e 86bb 4648 f43c 5689 68bc
-0.03380988 -0.014419288 0.0055863303 0.036424305 0.028707694 0.016472226 0.039205573 0.02894366
-0.004669975 -0.009167292 -0.029506503 0.0045442246 0.0014294082 0.0049612857 -0.0024276394 0.028890213
0.024541497 0.012067658 0.029019054 0.028074594 0.0037637227 -0.022840817 0.044629414 -0.0021788043
-0.01194868 -0.0051378873 -0.0060470677 -0.014276327 -0.018292977 -0.00701395 0.03205384 -0.027066454
0.021076 -0.05132906 0.008627786 0.041527584 0.005050911 -0.0040911245 0.029819619 -0.0141929

linears.4.weight f4 [40, 40]
00000000: be38 adbc 4df3 0e3d 4e21 bebd 2b97 c03d
00000010: 861c 8bbc 4972 d5bd c4a1 053e 61bf 93bd
00000020: d3a6 383e 36df 793e 5e01 ee3e 6bc1 cb3d
00000030: 18ff 6bbd 6d16 2c3d 2387 f73d 93e6 d03d
00000040: 9d2f b2be b106 913e c247 32be ba07 25be
00000050: e00c d43d 4e14 4fbd cef3 9e3d 3010 80be
00000060: 4013 07bd c6aa 803e 70fe d8bc 9959 093e
00000070: 68e3 1b3e edbf d23e 8ac3 63be 772a 8cbd
00000080: f2de e3bd 3c47 433e f96d 1d3e 9a35 cdbd
00000090: ef30 0ebe 5e93 033e e775 02bd 2dbf debc
000000a0: 8d06 3c3a 251a fd3d f491 4bbe 8d15 b4bd
000000b0: 2891 2fbe 1809 8fbd 481c 5bbd 135a d3bc
000000c0: b4bf e3bd 3eed db3d 6754 a1be 4b73 f8bc
000000d0: fa2f bbbd 79cb 07be 5241 8cbd 1f42 0abb
000000e0: c54f 97bb 692a d63d 15d0 fabb 73b2 bc3e
000000f0: 0e5b bd3a 77e4 45be d4fc 8abc 92b4 f43d
00000100: dc3f b63d cb6e 853e 8d23 2cbd eb22 86be
00000110: a692 e53b d520 cd3d 2462 c8bc ac9e 6c3e
00000120: 4a2d 2bbd d739 443b 0569 68bb 8799 03be
00000130: af46 b9bd 8e67 21be bd7d 26be 1a49 373e
00000140: 8854 673d b4d7 a23d 27cb 4d3e 489e adbd
00000150: f561 533d bad2 683d 87d0 1c3e 919b 3b3c
00000160: 7212 293d bb4c 013e b36d 2e3e 06ac b53d
00000170: 60f4 40bd 1722 8cbe 264c 953d 9a57 75bd
00000180: 814a acbc e8b8 03bd 0ccb e3bd 866d f23c
00000190: f9e4 4e3e 0f06 47be f578 723c a304 f0bd
000001a0: b0bf 4f3e 36dc d13d 4730 da3a 0585 ebbc
000001b0: 7ab6 913e e8cc 1c3e 34f7 bebd 2c52 6b3e
000001c0: f776 813d d166 9fbe 5b55 423e 771e 9cbd
000001d0: fd2a 663d 36ea 613d 5cce c33d 96ec cd3d
000001e0: 2794 84be c3fe 0c3e a855 93bd cd16 323d
000001f0: bf15 13be 290f 47be 33c4 6e3d 1bdb e6bb
00000200: dda1 54bc cf21 1fbe 2f4c 53bd 1baf a43e
00000210: 4d2f 833d 020c 6b3d 5ee1 69be c0ee 93bd
00000220: 77a1 a9bd 6436 edbd 8d48 48bd 339d 993e
00000230: a0a3 d3bc 7de7 58be 2abc a13d d6ab 42be
00000240: b124 f53c c1c5 0f3e a4a1 a7be 5e63 2a3e
00000250: a546 88be c414 a6bb 98e2 1d3d a9d4 0dbe
00000260: 8210 03be 0030 60be 35fa 27bc 4672 76bd
00000270: e3af bcbd 74cd e33c f220 f6bd 2a3f 0a3d
00000280: 7c93 1c3e 9e54 a63c 9269 84bd 0eb6 3fbe
00000290: 8930 91bd 9311 833c 75b9 a13d 9f4a 83bd
000002a0: 1189 283e ca4c b83e 368c f0bd e8f2 85be
000002b0: 8f32 463e 9976 c3bd 04c0 90bd 11d4 fdbd
000002c0: f559 6c3e 91cb f63d 5871 35be 9ce9 813e
000002d0: 2261 fd3d c078 703c a357 72be 80b1 5a3e
000002e0: df55 df3d 3580 80bd 3f2f 1a3e 9729 5b3e
000002f0: 5b16 ed3c 2e61 81be c187 dfbd 3b47 aabc
00000300: ed35 28be 3ce1 6c3e cccc 07be cba5 7f3e
00000310: 1ada abbe 50e5 02be ae4b 9b3d 23e8 393e
00000320: bb0b 9e3d a74d 793d c8ba 363e 3350 3bbe
00000330: 3006 14be 2ad6 233e d5c9 d2be 2190 503d
00000340: 6b70 f43d 8e2a be3d d043 8d3d 5311 523d
00000350: 03b7 3cbe 0ba2 fb3d 8f13 ebbd 163e b63d
00000360: 70c8 16be 48cd b9bd 22e7 553e 93da 7abe
00000370: 1537 65bd 2558 863d 76f4 af3d e303 01bc
00000380: 907f e53d 66fe 94be 1399 3cbd 6c9e 363e
00000390: 28d4 333e 2181 36be 8afa bbbd 4352 23be
000003a0: 8d10 cc3d ca8c 7d3b e4d2 683b 4807 85be
000003b0: 18f3 383e 10b5 17bd 8618 ea3c d209 46be
000003c0: ae76 82bd ae6d b63e af23 b0bd f95f f43d
000003d0: d10e eebd 487c 94be 44e3 aabe fb0c 8abc
000003e0: c3e4 613e 4e05 8cbd 8c3a 0d3c db48 cfbd
000003f0: 39db 433e d9c0 dfbc d2a8 a13d 2144 723d
-0.02114522 0.0349 -0.09283696 0.09403833 -0.016981374 -0.10422189 0.1304999 -0.07214237
0.18032388 0.24401554 0.46485418 0.09949001 -0.057616323 0.042013574 0.12086322 0.102002285
-0.3480195 0.28325418 -0.17410186 -0.16116229 0.10354018 -0.050556473 0.07761346 -0.2501235
-0.032977343 0.2513029 -0.026488513 0.13413085 0.15223467 0.41162053 -0.22242561 -0.06844037
-0.11126508 0.19070143 0.15373982 -0.10019989 -0.13885854 0.12849185 -0.03185072 -0.02719077
0.0007172607 0.12358502 -0.19879895 -0.08793173 -0.17145216 -0.06984156 -0.053493768 -0.025799787
-0.11120549 0.1073861 -0.31509706 -0.030328413 -0.0914001 -0.13261212 -0.06848396 -0.002109654
-0.0046176636 0.10457308 -0.0076542 0.36854896 0.0014446692 -0.19325434 -0.016966261 0.119485036
0.08898899 0.2606109 -0.04202609 -0.26198515 0.0070060072 0.10016028 -0.02446086 0.23107404
-0.041791238 0.0029941702 -0.0035462987 -0.12851535 -0.09046685 -0.15762159 -0.16258903 0.1789898
0.0564771 0.07951298 0.20097028 -0.084774554 0.05160709 0.05684159 0.15313922 0.011450664
0.041277356 0.12626927 0.17034034 0.088707015 -0.047108054 -0.27369758 0.07289915 -0.059897996
-0.02103162 -0.032158762 -0.111227125 0.02959324 0.20204534 -0.19435905 0.014799346 -0.117196344
0.20287967 0.1024708 0.0016646468 -0.028749952 0.2845953 0.1531254 -0.09324494 0.22980565
0.06321519 -0.3113313 0.18977873 -0.07622998 0.05619334 0.055155 0.09560844 0.10054891
-0.2589428 0.13769059 -0.07194072 0.043478776 -0.14363764 -0.19439377 0.05829258 -0.0070451624
-0.012978044 -0.1554024 -0.051586326 0.32164845 0.06405506 0.0573845 -0.22839877 -0.07223272
-0.0828275 -0.1158264 -0.048897315 0.30002746 -0.025834858 -0.21182056 0.078972176 -0.19010863
0.029924722 0.14040281 -0.3274051 0.16639468 -0.26616398 -0.0050683934 0.038546175 -0.13850655
-0.12799266 -0.2189331 -0.010252525 -0.060167573 -0.09213235 0.027807929 -0.120180026 0.033751644
0.15290636 0.02030402 -0.064654484 -0.18721792 -0.070893355 0.015999591 0.07896701 -0.06410717
0.16458537 0.35996085 -0.11745493 -0.26161885 0.19355224 -0.09544105 -0.07067874 -0.12393964
0.23081191 0.12050546 -0.17719018 0.25373542 0.12372042 0.014677227 -0.23666243 0.21356773
0.109050505 -0.062744536 0.15057085 0.21402584 0.028941324 -0.25269455 -0.10914565 -0.020785918
-0.16426821 0.23132795 -0.13261718 0.24965589 -0.33564836 -0.12782788 0.07582794 0.1815496
0.07717081 0.06086507 0.17844689 -0.18292312 -0.14455485 0.15999666 -0.4116961 0.050918702
0.119355045 0.092854604 0.068977 0.051286053 -0.18429188 0.122867666 -0.1147834 0.08898561
-0.14724898 -0.090723574 0.20888951 -0.24497442 -0.055960733 0.06559781 0.08591549 -0.007874462
0.11205971 -0.2910034 -0.04604442 0.1783387 0.175614 -0.17822696 -0.09178646 -0.15949349
0.09964094 0.0038688653 0.0035526091 -0.25982118 0.18061483 -0.03703791 0.028576147 -0.19339684
-0.063702926 0.35630554 -0.08600556 0.11932368 -0.1162392 -0.2900107 -0.33376515 -0.016851893
0.22059922 -0.06836949 0.008619916 -0.10121318 0.19126596 -0.027313637 0.07893528 0.059147004

linears.4.bias f4 [40]
00000000: 7672 a13c f914 22bd 974f 64bc 159f 24bc
00000010: 606b a5ba 7022 bf38 f3f3 f9bb b1f0 643c
00000020: d806 07bd 7f4e de3c 3372 d9bc 5ea2 d83c
00000030: b91c 0cbc 17fb ef3c f572 64bc b70d b93c
00000040: 028f b7bb ad6f bc3c 2c92 50bc e2e3 f13c
00000050: 7926 1cbc 4ec3 033d 0462 5dbb f3bf 12bc
00000060: e742 3f3c 1c79 3f3d a999 073c e355 0cbc
00000070: 8155 20bc 45bc da3c 98ca 0ebd 4bc2 093c
00000080: c0b2 e63b ca0d 053d aa6f d93c 2c0a 50bb
00000090: a152 563c 990b 293c 5f83 04bd eea1 a63c
0.0197079 -0.039570782 -0.013934991 -0.010047694 -0.0012620501 9.114004e-05 -0.007627958 0.013973401
-0.03296551 0.02713704 -0.026543712 0.02644461 -0.00855177 0.029294534 -0.0139434235 0.022589548
-0.0056017647 0.02300247 -0.012730163 0.029527608 -0.009530657 0.03216868 -0.0033780346 -0.008956897
0.011673666 0.04674636 0.0082763815 -0.008565399 -0.009786011 0.026701102 -0.034861177 0.008408139
0.0070403516 0.032483853 0.026542503 -0.0031744344 0.013081224 0.0103177065 -0.032351848 0.020340886

linears.5.weight f4 [40, 40]
00000000: b650 753e 1f90 34bd e65b 2abe 740c 3fbc
00000010: 2d83 02bd dae6 50bd 2d84 41bd a7b7 87be
00000020: 5664 f3bc e343 403d 1af6 623c 0fbf 0dbe
00000030: 4ead 4f3e e091 b5bd 15aa 3f3e dc72 c2bd
00000040: c79a 0e3d f5f1 d1bd ced3 5cbe 5a29 0a3e
00000050: 508d c0bd e24a c83d 32a4 a5bd 7cf9 82bb
00000060: 9d1c 4cbe a387 393e ff8c 563e 53ca 373d
00000070: c3f6 2fbe a763 d0bd 4518 633c 5cd2 27bd
00000080: 1aa0 8d3d 77e9 a5bd 0d38 98be e30a 803d
00000090: 2ca7 13be 9109 53be 148e 2abe fb8a 02bd
000000a0: 6b4d fcbd b015 37bd 8e72 fa3d c278 75bd
000000b0: cc94 f83c 35ec bfbd 09f1 0ebe 8742 eb3d
000000c0: a442 1cbe a8a4 eebd 71fc a53d 61a5 0ebe
000000d0: 4acc 9dbd a87f eb3d db17 003e b4c2 55be
000000e0: 941d 92be 0858 dbbd 1937 143e 3f5f b7bc
000000f0: ad30 203d 9082 75bd 2d60 d6bd 6cf6 433e
00000100: 38c1 133e 451f c33d 8fe2 9d3c 4dda 28be
00000110: eb7e a8bd fae8 e93c eae3 31bd 8265 063e
00000120: 481e ebbd 6d61 fb3d 2caa b2bd 6b6e b63d
00000130: 6773 99be ed16 e13b f511 433c 027d 2abe
00000140: f371 8dbe ccb1 0fbe 1b8e 273e 4488 d53d
00000150: 8954 8d3d e41f 8e3d 7d69 d93d 40ac 3b3e
00000160: 1027 55be 82f8 f93c 634f 1a3e 3417 053e
00000170: da87 e6bb 8354 2c3e 7783 5b3e 08c4 22be
00000180: 9d2e 4e3d 47dc b4bd cd8f 0abc 392a 163e
00000190: d7c4 98be 3cd8 923d 527f 17be 1bd1 24bd
000001a0: 2e2f 18be 7a58 06bd 8a02 883e da38 87be
000001b0: e696 ddbd 4101 a9bd 55b1 5b3e 7b51 133e
000001c0: b9e3 b0bd 0a21 54be 16e4 823d 45ad 2abc
000001d0: 40cd d1be b888 0a3e f68b 4cbc ff40 263d
000001e0: a037 99bd 15d2 92bd a878 6f3e ea80 293d
000001f0: ad18 44be 0c04 403d ad98 42bb 7a2c 88be
00000200: 29d7 48be a55d e2bc 0d48 fabd 7fb6 123d
00000210: d4f4 893e 1273 eabd d839 803e 8649 77bd
00000220: a0ee 523d 55cb 1d3e d95e 4fbd dd4a 0b3d
00000230: 83d0 56bc b100 0ebd 4f60 66be e145 a6be
00000240: a332 30be c005 46be 26f8 1a3e 4701 e73c
00000250: 5abd ab3e 7052 5a3d d7b0 88be d503 153e
00000260: 6003 143e dd17 16bc ac7c 4b3d 5cb0 013e
00000270: b2f2 81be 73a9 5c3d 5a53 45be ab12 dab8
00000280: 061f 303e aaaf 023e d11a b33c 7edb 13bd
00000290: f754 f5bd f089 663e 33e3 70bd 9432 a63e
000002a0: bf91 95be 2e3e 363e dcb3 0dbe 2121 1abe
000002b0: fb61 45be 79dd 833c 909a 75be 8f52 32bd
000002c0: 0bf4 a73e aac1 4a3d 2098 5cbc 3c6d 933e
000002d0: 85a3 223e 16b3 293e 2ea4 71be 2926 61be
000002e0: 0dbb 84be 6e01 33bc 2bae 76be 4853 d2bd
000002f0: e087 d8bd cdf9 083e 03e8 373e ec3f babd
00000300: 0752 58bc b3f1 d83c 1a07 39be 74d1 a0be
00000310: 3e56 003d 13d6 3b3d 49aa a9be 5e10 353e
00000320: 3fb5 dc3b bfdf fd3d f67e dab8 9eb6 d43d
00000330: ee2b 9b3e c44e d73d 71d3 48bd 9665 6abd
00000340: ca93 1fbe 90c1 abbd 0fe0 d63d e179 693e
00000350: 16c9 5fbd 7e6f 723e ad6a c13b 4d46 ecbd
00000360: 1504 c6bd 20e4 7ebe 9c69 b73d 6bd9 05be
00000370: 382d cd3e 7b68 85be 61c1 753b 5a21 023e
00000380: 2315 3dbe 003e 81be 2aab c2bd 758b 43bc
00000390: 8ec0 543d bdc9 e63c eba3 863e f4d7 803d
000003a0: 068c 903c 788b 01be 4a0c dabd c055 e0bd
000003b0: 6326 cb3c 5496 1cbe 343b 5b3e 5662 88bd
000003c0: 317c 723d ad3a 53be a801 28be c955 98bd
000003d0: 4939 233e 1d76 483d 493a 98be d77e bc3e
000003e0: 0dfd 903d 51ff c33d 326b 07bd e7ef 9e3e
000003f0: b763 aebd 08a7 823d 5d31 013e 7a6e e83d
0.2395657 -0.044082757 -0.16636619 -0.011660684 -0.03186338 -0.051001407 -0.047245193 -0.26507303
-0.02971093 0.04693974 0.0138526205 -0.13842414 0.20280954 -0.08865714 0.18717225 -0.09494564
0.034815576 -0.10251228 -0.21565172 0.13492337 -0.09401953 0.09779908 -0.080879584 -0.003997026
-0.1993279 0.18118148 0.20952223 0.044870686 -0.17183976 -0.10175257 0.013860767 -0.0409721
0.069153026 -0.081011705 -0.29730263 0.062520765 -0.1441924 -0.20609118 -0.16655761 -0.031870823
-0.12319454 -0.044698417 0.12228881 -0.059929617 0.03034439 -0.09371225 -0.13959135 0.114872985
-0.15259796 -0.116524994 0.0810479 -0.13930275 -0.07704981 0.11498958 0.125091 -0.20875055
-0.2853819 -0.1071015 0.14474143 -0.022384284 0.03910892 -0.059938967 -0.10467563 0.19136971
0.14429176 0.095274486 0.01927307 -0.16489525 -0.08227333 0.028553475 -0.043430246 0.1312466
-0.11480385 0.12274442 -0.08723864 0.08907779 -0.29970858 0.006869188 0.011906137 -0.16649249
-0.27626 -0.14032668 0.16362803 0.10426381 0.069008894 0.069396764 0.106158234 0.18327427
-0.20815682 0.030514006 0.15069346 0.12997133 -0.0070352377 0.16829114 0.21436869 -0.15895092
0.050337423 -0.08831077 -0.008457136 0.14664544 -0.29837677 0.0717015 -0.14794663 -0.04023848
-0.14861748 -0.03279922 0.26564437 -0.26410562 -0.10819797 -0.08252192 0.21454366 0.14386551
-0.08637185 -0.20715728 0.0639116 -0.010417287 -0.40976906 0.13528717 -0.012484541 0.04058933
-0.07481313 -0.07168976 0.2338587 0.041382708 -0.19150038 0.04687886 -0.0029693053 -0.26596433
-0.19613327 -0.027632544 -0.12220774 0.035818573 0.26944602 -0.11447729 0.2504413 -0.06037285
0.0514971 0.15409596 -0.050627563 0.034006942 -0.0131112365 -0.034668628 -0.22497676 -0.32475188
-0.17206816 -0.19338131 0.15133724 0.028198851 0.335429 0.053301275 -0.26697418 0.14552243
0.14454412 -0.009160963 0.049679443 0.12664932 -0.25380474 0.053872537 -0.19270077 -0.00010398527
0.17199335 0.12762323 0.021863373 -0.036097996 -0.119790964 0.22513556 -0.058810424 0.32460463
-0.29212758 0.17797157 -0.13838142 -0.150517 -0.19275658 0.016096817 -0.23984742 -0.043535765
0.32803378 0.0495011 -0.013464004 0.28794277 0.1588269 0.16572222 -0.23597786 -0.21987213
-0.25923958 -0.010925634 -0.24089877 -0.10269791 -0.10572791 0.13376541 0.17959599 -0.090942234
-0.013203151 0.026482439 -0.18069115 -0.314098 0.031332247 0.045858454 -0.3313773 0.17682025
0.0067354734 0.12396192 -0.000104186984 0.10386394 0.30306953 0.1051307 -0.04902977 -0.057225786
-0.15583721 -0.083865285 0.104919545 0.228004 -0.05463513 0.23675343 0.0059026093 -0.11536846
-0.09668747 -0.2489171 0.0895569 -0.1307122 0.40073562 -0.26056275 0.0037499296 0.12708035
-0.18465094 -0.25242615 -0.09505303 -0.011935105 0.051941447 0.028172368 0.26296934 0.0629119
0.017644893 -0.1265086 -0.10646875 -0.109538555 0.024798578 -0.1529172 0.21409303 -0.06659381
0.05920047 -0.20627852 -0.16406882 -0.07438237 0.15939821 0.048940767 -0.29731968 0.3681552
0.070795156 0.09570182 -0.033061214 0.31042406 -0.08515113 0.06379515 0.12616487 0.11349197

linears.5.bias f4 [40]
00000000: a5fc f03b 715e 19bd 01ec 0d3c c4c4 2f3d
00000010: b88e f83b f138 66bc b932 c73c e94c 64ba
00000020: 04fa 5bbc b2ef 043d f7e9 dd3c 0a1b 0abd
00000030: 1e1c dcba 27e4 b8bc 8dfd 7f3a 1a3c ae3c
00000040: d08d 30bc 3fdf ddbb 4aa5 0bbd 2d61 0dbd
00000050: 653b b0bb 6696 ebbc eb1e ae3c 9216 d5ba
00000060: ea7b 6d3c 1995 483b ef31 633c a8b3 0ebc
00000070: 15f7 65bc de88 503c 4cb0 133d 2cb5 a93b
00000080: 6f02 ff3c e5cc e63c cace 4fbc e17f 02bd
00000090: f979 43bc d4b6 11bd 79ae 0dbd 44e3 c53c
0.0073543363 -0.037443582 0.008662225 0.04291226 0.007585373 -0.014051662 0.024316179 -0.000870897
-0.013426308 0.032455154 0.027089102 -0.033717193 -0.0016793048 -0.022569729 0.000976526 0.021268893
-0.010775998 -0.006770998 -0.03409318 -0.034516502 -0.005378174 -0.028758239 0.021254977 -0.0016257337
0.014494875 0.0030606447 0.013866886 -0.008709826 -0.01403596 0.012727944 0.0360568 0.005179068
0.03112909 0.028173873 -0.01268358 -0.031860236 -0.011930936 -0.03557475 -0.03459022 0.02415622

linears.6.weight f4 [3, 40]
00000000: 477d bb3d 7ebc 8dbe b60f 533e e405 fe3e
00000010: 7b63 8ebe b728 783e 4f2a c93e 2450 063f
00000020: 76d7 573e 6a67 163e 6980 97be 9031 73be
00000030: d0f1 823e 178f 2a3e ebc2 61be 5ca0 b23d
00000040: 780d 14bf 20e1 83bd 34c4 62be e617 9d3d
00000050: 0817 ca3d c534 8dbe 4992 893e fe28 b83e
00000060: 2c82 42be ee51 8e3e 9f7b 053d 3eb5 29be
00000070: 1529 82ba 9598 293e 7da0 d7be 32a1 683d
00000080: cbbf c83e 4581 37be a6bb 9fbd 9a52 8f3c
00000090: 2d0b 843e 0395 debe 5ea1 59be 97de 39be
000000a0: d32a c4bc 80c8 c03e 15ba acbb 4dd9 c4bd
000000b0: 0fc1 15be a428 883e 020c 1ebc 0c4b a63c
000000c0: c38d 72bc bfcd c4be c8c0 27be 097c 883e
000000d0: eb98 4c3c 81d9 823e 1e07 9fba c40d dcbe
000000e0: 812b 0d3e 2b8f 8b3d 3646 9b3e a108 5e3e
000000f0: d0f0 0a3e 87fa 703e c613 29be 5b3a 793c
00000100: c369 67bd 785e 5dbb c389 81be 554a 273d
00000110: 8265 5b3e cf2c b6bd 10b9 4cbe c81f 69bc
00000120: fe9b b2be 42ab c9bd 69ff 613d ec96 bc3e
00000130: ecde 003e 14a1 233e f314 9e3e e349 ddbd
00000140: 74aa b8bd 9b32 bfbe 3103 9b3e 53fc c93d
00000150: 1f64 b0be 7e6e 8b3e e445 1f3e ccc5 98be
00000160: 42d0 12bd 2a10 303d b7aa a23e f591 cabb
00000170: d3e2 a63d 410f 333e 5a2a 42bd c86e 90be
00000180: 14cd a53e 31f3 1a3e c669 e1bc 20a5 8fbe
00000190: 8b60 fd3e db97 c23d 0056 de3e 9573 103e
000001a0: f8e8 bbbd b587 afbd 8625 5fbe 53db 2f3e
000001b0: fc96 943e 7636 84bd f38d 4a3e 016a 673e
000001c0: da63 05bd 376e 85bc 0783 7ebe 9217 91bd
000001d0: b3af efbe d126 0fbe 1799 c2bd a0e4 1abd
0.09154754 -0.2768287 0.20611462 0.4961387 -0.27810273 0.24234281 0.3929009 0.52466035
0.21078286 0.14687887 -0.29590157 -0.23749375 0.25575113 0.16656147 -0.22047012 0.087219924
-0.5783305 -0.064394236 -0.22145158 0.07670574 0.09867674 -0.27579322 0.2686942 0.35968775
-0.18994969 0.27796882 0.032588597 -0.16573045 -0.0009930456 0.16562112 -0.4211463 0.056794353
0.39208826 -0.17920406 -0.07799463 0.017495442 0.25789776 -0.43473062 -0.21252963 -0.18151318
-0.023946201 0.3765297 -0.005271206 -0.09611759 -0.14624427 0.26593506 -0.009646418 0.020299457
-0.014804306 -0.38438222 -0.16382134 0.2665713 0.01248763 0.25556567 -0.0012132858 -0.42979252
0.13786127 0.068144165 0.30327004 0.21682979 0.13568425 0.23533069 -0.16511449 0.015211667
-0.056497347 -0.0033778232 -0.25300416 0.040842373 0.21425441 -0.08895265 -0.1999247 -0.014228769
-0.34884638 -0.09847118 0.05517522 0.36833894 0.12585038 0.15979415 0.30875358 -0.108051084
-0.09016886 -0.37343296 0.30275872 0.0986258 -0.34451386 0.27232736 0.15554005 -0.29838407
-0.03584314 0.042984165 0.3177087 -0.00618195 0.08148732 0.17486288 -0.04740367 -0.2820952
0.32383025 0.15131833 -0.027516257 -0.28055668 0.4948772 0.095016204 0.43424988 0.14106591
-0.09175295 -0.08570806 -0.21791658 0.1717351 0.29021442 -0.064557 0.19780712 0.22599031
-0.03256593 -0.016287906 -0.2485467 -0.07084574 -0.46813735 -0.13979651 -0.09501856 -0.03781569

linears.6.bias f4 [3]
00000000: f542 883e b5cd 02bd 5673 a93b
0.26613584 -0.03193446 0.00517122

exp_avg f4 [40, 2]
00000000: bd4f 85c0 74ba 34bf ca6c b541 b218 2b3f
00000010: cc00 5140 1a76 053f cf15 35c0 0614 603e
00000020: c457 d8bd 9f2b 82be de75 31be 3584 3f3e
00000030: 78ae fabf 1115 993e 0371 5f40 8e28 013f
00000040: be59 133e 6faf df3e 41af af3f 6d94 d03e
00000050: d326 4040 2686 66bf 23e4 fd3f 7631 a13e
00000060: cf7c aac0 dfbb adbf 5aa1 5bc0 6742 28bf
00000070: c614 5740 9f9a 93ba 4ae8 b340 3d62 1d3f
00000080: e4c5 4bbf 4f4d 823e 2a05 5c40 1b06 a03e
00000090: 7687 8a3f d111 103f abbd a2bf cbfa 023f
000000a0: 257a 943f 29ad 89be 11f8 3e40 615d 073f
000000b0: 1979 8ac0 7cec 953e 6e8d 123e b951 bd3e
000000c0: 0c31 653f 18aa 00be 8573 cd40 c754 213f
000000d0: e8cf b53f 424e 293f 996c a640 71a8 d33e
000000e0: 35f8 9ec0 9f4d 95bf 06dc 163f 6e4d 2f3e
000000f0: bc01 183f 8607 69bb 9f84 4cc1 148d 87be
00000100: 0303 1a40 663b cd3e 3cb3 6f40 ae5d 1f3f
00000110: cc2e e5c0 44f7 2abf a5e0 cebf 8ffb 38bf
00000120: 0fb8 4ec0 e724 85bd 09de edbe b942 66be
00000130: 41b2 76c0 27a3 e03e 69bd febe 2ce6 703f
-4.1659837 -0.70597005 22.67812 0.6683456 3.2656736 0.52133334 -2.829456 0.21882638
-0.10563615 -0.25423905 -0.17330119 0.18702777 -1.9584494 0.29898885 3.4912727 0.50452507
0.14389703 0.43688533 1.3725358 0.4073824 3.0023696 -0.90048444 1.9835247 0.31483048
-5.3277354 -1.3572959 -3.431723 -0.6572632 3.360643 -0.0011261291 5.6221056 0.61478025
-0.7959883 0.25449607 3.4378152 0.31254658 1.0822589 0.56277186 -1.2714132 0.5116393
1.1599776 -0.26889923 2.9838908 0.5287686 -4.3272824 0.29281986 0.14311764 0.36976412
0.89527965 -0.12564886 6.4203515 0.63019985 1.4204073 0.66135037 5.2007565 0.41339448
-4.9677987 -1.1664313 0.5892948 0.17119381 0.59377646 -0.0035557463 -12.782378 -0.26474822
2.4064338 0.4008438 3.7453146 0.6225232 -7.1619625 -0.6678355 -1.6162306 -0.7225885
-3.229984 -0.06501179 -0.46458462 -0.2248639 -3.8546298 0.43874475 -0.49753883 0.94101214

exp_avg_sq f4 [40, 2]
00000000: 0e8a 084e ddc8 874a 062b 074e 750e 834a
00000010: 1e3b fd4d 6b63 1d4a fe0a 234d 7fdf f149
00000020: 3c7d da4d 1335 8c4a 2c51 a34c 034c 5049
00000030: 706d a04e 01ef f64a 612f 704e fa46 ce4a
00000040: a588 164e 480d c24a c938 cc4d 8f58 184a
00000050: 661d 594d c412 dd48 9f8f 904c a12b 7249
00000060: 7d8b 304e b90d 2f4a e0e7 784d 1da9 af49
00000070: 8e48 354c f1f2 0a49 fba0 2d4d 07f3 ce49
00000080: 94f2 094e 9db3 314a 39e8 804d 81de d749
00000090: ae30 b14e aa56 134b 4a52 884c 1e54 8448
000000a0: 8cd7 4b4d dce3 d849 2e4e d44d b950 334a
000000b0: ac9d c14d e65c 144a 8c77 d54d 0d94 8449
000000c0: bc36 264e cdf0 834a bd5b 4b4d ece7 3949
000000d0: 417e e24c 33c0 ca49 14ae 714e 5e4f 0d4a
000000e0: 7f36 f34d 117d f649 2856 1f4e 96f2 7d4a
000000f0: 7af3 934d 5bcf 0a4a 8d8a d44d 33c9 4e4a
00000100: bcce 6b4d dd5d ce49 b65f e44c e806 8a49
00000110: 43ed d04c 6ff4 5949 d35f 7c4d 21ea de49
00000120: 496b e44d 66fc 6f49 8fa2 8d4e b7d0 b74a
00000130: b9b0 294d eb83 1f49 b78d d44d dbeb 5b4a
5.726872e+08 4.4493905e+06 5.6693594e+08 4.2944585e+06 5.3106374e+08 2.5786508e+06 1.7096291e+08 1.9814239e+06
4.5820506e+08 4.5943135e+06 8.562518e+07 853184.2 1.3457633e+09 8.0915205e+06 1.0074092e+09 6.759293e+06
6.313844e+08 6.358692e+06 4.282842e+08 2.4960358e+06 2.276614e+08 452758.12 7.579161e+07 991930.06
7.404829e+08 2.8680782e+06 2.609966e+08 1.4390116e+06 4.752236e+07 569135.06 1.8206302e+08 1.6953289e+06
5.7859405e+08 2.9114632e+06 2.7033782e+08 1.7684001e+06 1.4863788e+09 9.655978e+06 7.14717e+07 271008.94
2.137438e+08 1.7767635e+06 4.4523667e+08 2.9379022e+06 4.06042e+08 2.4307775e+06 4.476727e+08 1.0860816e+06
6.971512e+08 4.3234305e+06 2.1323669e+08 761470.75 1.18747656e+08 1.6609344e+06 1.01367936e+09 2.3152235e+06
5.1005437e+08 2.0192341e+06 6.683059e+08 4.1606775e+06 3.102759e+08 2.2742628e+06 4.4573123e+08 3.3879808e+06
2.4726214e+08 1.6905556e+06 1.1973368e+08 1.130717e+06 1.09537816e+08 892742.94 2.6463365e+08 1.8261161e+06
4.7902954e+08 982982.4 1.1881204e+09 6.0232595e+06 1.779332e+08 653374.7 4.4575715e+08 3.6031908e+06

exp_avg f4 [40]
00000000: 0676 8641 d14d 92c1 59e6 1a3f c221 b940
00000010: 1fab 3bc1 72f3 30bf f514 ff40 f181 aac1
00000020: 0e72 e2c0 dcd8 1f41 dc22 a63f baa5 1e40
00000030: 03ca 7441 be17 a3c0 5346 64be e000 24c1
00000040: 00c1 2fc1 9462 89c0 3603 4bc1 eece 90c0
00000050: d4bb b03d 3add 85c1 9613 71c0 678d 5cc0
00000060: a2e7 af40 a630 783f b4ff eec0 2a62 05c1
00000070: 1c12 3641 d815 1cc0 e6d2 a140 0d3a 8241
00000080: 5c54 4ec0 493b c4c0 d4cf 9340 5eda 6a41
00000090: 321b 9a40 275c a6c0 6deb 8e40 7dfa ccc1
16.807629 -18.287996 0.6050773 5.785371 -11.729278 -0.6912147 7.971308 -21.313448
-7.0764227 9.990444 1.2979388 2.4788651 15.299319 -5.096648 -0.22292452 -10.250214
-10.984619 -4.2932835 -12.688284 -4.52526 0.08629575 -16.73302 -3.7668204 -3.4461305
5.4970255 0.9694923 -7.4687138 -8.336466 11.379421 -2.4388332 5.0569944 16.278345
-3.223899 -6.132237 4.6191196 14.678312 4.8158197 -5.198749 4.4662385 -25.622309

exp_avg_sq f4 [40]
00000000: 389c 8e4d d9be 934d f05d 7e4d 9ba5 004d
00000010: a280 834d 2ba8 7e4c f8a5 464e fb32 0c4e
00000020: a858 c94d 9bc3 6c4d 7a42 db4c 9d2b 704c
00000030: d09b c04d 9b9c f84c 7174 2d4c 5415 9f4c
00000040: 4a1b a74d eb93 274d 9223 3a4e 662e 074c
00000050: cb4b fd4c 39d6 694d af05 554d 3793 744d
00000060: 7568 de4d 3cf3 dd4c f676 8f4c ee8a 074e
00000070: 5f84 5c4d a69b a24d 179e 274d 1259 264d
00000080: d2ef 004d 62b3 9d4c 320c 944c 4cbe de4c
00000090: 4bc5 744d 3683 2d4e ebd5 a24c c709 9d4d
2.9907533e+08 3.0984477e+08 2.6672307e+08 1.3489605e+08 2.7578067e+08 6.675678e+07 8.331914e+08 5.880378e+08
4.2225382e+08 2.4826514e+08 1.1495522e+08 6.295922e+07 4.039296e+08 1.3034415e+08 4.5470148e+07 8.340547e+07
3.5044794e+08 1.7571806e+08 7.807233e+08 3.543695e+07 1.3280009e+08 2.4519566e+08 2.2336997e+08 2.5645554e+08
4.6642346e+08 1.1636579e+08 7.521682e+07 5.6850726e+08 2.3122891e+08 3.410137e+08 1.7575973e+08 1.7442845e+08
1.3520003e+08 8.268059e+07 7.76196e+07 1.1678166e+08 2.5666066e+08 7.2776435e+08 8.537276e+07 3.2933296e+08
