1DCFD_PINN/1D_CFD_Rand_Eta1.e-8_Zeta1.e-8_periodic_Train_PINN.pt-10000.pt (torch, 112999 bytes, 42 tensors)

linears.0.weight f4 [40, 2]
00000000: a63f 53bd 0a7c 433e ad8f 253e 60bb af3e
00000010: ce37 4ebe d643 65be 9b60 e73c 3373 da3d
00000020: 1f4e 953d b8ce 2d3e 2d45 223c 8c3f 95be
00000030: c71d 893d d919 51be 74b8 853d 4aa5 1abf
00000040: 4320 45be 764d 0f3e d0b4 78bd 31ef 603e
00000050: b2ec 213e ddf2 9e3e 109a 40be f628 213c
00000060: ac73 97bc 18d3 14bc ab11 0bbe 03e2 a93c
00000070: b92c 28be 5327 47be 7b1e 143e a31d 883d
00000080: bb15 a13d cc12 2a3e 061a cdbd de30 383e
00000090: 8d5b 9fbe fd44 8abd f962 de3e bb6c 37be
000000a0: f7e3 083c 5767 08bd 6f35 333d 67c4 48bb
000000b0: 4420 1a3e dcb0 76bd c586 d6bc 09ac 003e
000000c0: 7d07 1c3c b7e2 6b3d 50c6 243e 8c13 2cbe
000000d0: d341 003f f793 74bd 8d45 b63d 942a bdbd
000000e0: 6131 c13c ab8c 48be 125a 2dbe ca39 7c3e
000000f0: 7015 40bc d198 893d bc2e 083e 6d73 523b
00000100: 5c24 55bd 1bf7 66be aa88 943c 4957 75be
00000110: ccc2 95be 0507 6abe c218 94be 1840 b6be
00000120: a68c aebe 526f 89bd f1c4 a93e 2c0e 69be
00000130: 4b6c f53d b7fb 10be fb24 663e d018 3b3e
-0.05157437 0.19090286 0.16168089 0.34322643 -0.20138475 -0.22389159 0.028244307 0.10666504
0.07290291 0.16973388 0.009904188 -0.29150045 0.06695133 -0.20420016 0.06529322 -0.6040846
-0.19250588 0.13994393 -0.06071931 0.21966244 0.15812948 0.31044665 -0.1880877 0.009836426
-0.018487774 -0.009083532 -0.13580959 0.020737654 -0.1642331 -0.19448595 0.14464752 0.06646278
0.07865473 0.16608733 -0.10014729 0.17987391 -0.31124535 -0.0675144 0.43434885 -0.17912571
0.008355132 -0.033301678 0.04375213 -0.0030634643 0.15051371 -0.06022726 -0.02618731 0.12565626
0.00952327 0.05758926 0.16091275 -0.16804332 0.5010044 -0.059711423 0.088999845 -0.09236637
0.023583116 -0.1958491 -0.1692889 0.2463142 -0.011723861 0.067186005 0.13299078 0.0032112256
-0.052036628 -0.22555201 0.018131573 -0.23959078 -0.2925018 -0.2285424 -0.2892514 -0.35595775
-0.3409168 -0.06710686 0.33158067 -0.22759312 0.11983546 -0.14158522 0.22475044 0.18271184

linears.0.bias f4 [40]
00000000: 945d 073d bba9 d6bc 10df 31bb 193b b6bb
00000010: 8fe9 12bc f756 f3bb 4f17 42bd 21a4 cabc
00000020: 86a9 a8bc 68de 0e3d 875e 30bd 1ea7 e53c
00000030: 2e05 a73a aed1 6d3c 44cd ae38 1e08 ae3c
00000040: a2d6 f63c d1d4 833a 3fae 1f3d 1c1d 00bd
00000050: c4f7 b43b 90e0 72bc 91ab e53c 1844 02bd
00000060: 4117 e1bc cd63 cebc 64f4 dcbc 2cfa cfbc
00000070: 11b6 bebc 4225 d2bb 7998 c13c 2f0b f9bb
00000080: f5f8 c63c 4063 e9bb 7e1b f9bc bce9 103d
00000090: bbe7 153d f6b4 e7bc fb21 223c e469 e1bc
0.033048227 -0.02620398 -0.0027141012 -0.005561244 -0.0089668175 -0.0074261385 -0.04738551 -0.024736466
-0.020588648 0.034880072 -0.0430589 0.02803379 0.0012742633 0.014515324 8.3352e-05 0.021244105
0.030131642 0.0010057931 0.038984533 -0.03127776 0.0055227 -0.014824048 0.02803591 -0.03180322
-0.027476909 -0.025194073 -0.026972003 -0.025387846 -0.023280175 -0.006413133 0.023632275 -0.00760021
0.024288634 -0.007122427 -0.030408617 0.035379156 0.03659795 -0.028284531 0.009895797 -0.027516313

linears.1.weight f4 [40, 40]
00000000: 7897 ce3d 37b6 18be 2db6 6abc 46ac 3c3e
00000010: 5fbb aebd 330b 5ebe 0749 15bb 1665 73bd
00000020: 3036 adbd fcf0 173e e5ea 583e afaf 51be
00000030: 5810 fabd 705b 58bd 7f07 f7bc 3ed6 173d
00000040: 75f0 0e3f 1a98 1e3e 6571 7ebd fc92 b83d
00000050: bc26 623e c185 d5bd 8e21 87be 9b65 6fbd
00000060: b8f1 a83e ca2b 3b3e adb7 74bd 661f 213e
00000070: e404 9a3d 7436 fe3c c7ee 0dbe fad6 37be
00000080: 8cee 33bd 077e d8bd 449a 99bc 7482 1cbd
00000090: 58fa 643d fd17 50be 1679 133e 4f4c 643e
000000a0: 7695 4b3e d31b a73b 08f2 13be 4b43 47be
000000b0: 08ec c33e 782b da3d d7af fc3c 5e24 ba3d
000000c0: e747 b83d 097e d6bd 3884 fc3d 11ba 44be
000000d0: c7a6 ba3c 8017 a73a 1387 233e 155d b73d
000000e0: 8686 b0bc 533a fc3d 9998 c83c 3f25 82be
000000f0: d797 1dbd d4f7 fcbd 9272 7ebe a43e c03a
00000100: bdf7 323d 67d6 2d3e a85c d03d b82e 0fbd
00000110: 6a51 5abe 31c2 a2bd 7846 a73d 7901 4abc
00000120: 20ba 403e 16d1 00be 4428 7e3a 7ef2 a73c
00000130: e4e3 b6bd af20 2c3c b892 9cbd 16d2 6b3e
00000140: f45d 533e 6f3f 513e 7f6b b9bd 6fea d5bd
00000150: 46cc 853e 775b e0bd a57f e6bd d106 57be
00000160: cc5c 7d3d 5d47 c1bd b39c 313e cf5d 6f3e
00000170: 0f7d 213b e66f 543d 2038 4ebd 0ec4 7dbe
00000180: aeab b3bd 7fb4 0e3c 8fee c5bd 8643 323e
00000190: cc07 a1be d3e1 413b bc19 05bd a509 b63e
000001a0: e0b0 9ebd 194e dabd a42d f53d a2c0 31be
000001b0: 61e2 67bd a5d8 a83c 469f 143e 2b56 4cbb
000001c0: 8548 83be 2ba7 063e 762f 01bd 9508 d2bd
000001d0: e246 383d 478b 75be ed02 923e 991e 083e
000001e0: f6d6 f4bd 6f33 223d e40b 073e 804b 883d
000001f0: cae5 893e bc6e 2a3d e8b4 fe3c 3c87 d0bd
00000200: 862a c63d d21e a4bc ab7f 22be a8dc 0fbe
00000210: 2d51 4fbe d001 b43d 730d aa3d c0ba 9cbe
00000220: 5fdd 723d b352 84bd c4d1 683d 7502 49be
00000230: 8bd3 cb3a e358 f8bd 09fb a8be dca8 d2bd
00000240: e1f7 c8b9 b239 39be 2417 54be 1828 31be
00000250: b6e9 803d 6ea0 a9bd 9efa dc3c 2203 113e
00000260: 171d 173e 3508 283e af6a b73d ee79 e63d
00000270: 9e6f 4abd fc2d 273e 9d16 15bb 10ee b23e
00000280: 1c84 4cbe f3c9 923d bc6e c6bd b400 943e
00000290: 60eb 193b a365 52bd c12c 923e 930a 3c3e
000002a0: fcb1 93be ff17 683d 59d7 a1bb 394b bdbd
000002b0: 685c 403c 52a0 423d 6770 0dbe 8408 f63d
000002c0: c52d 853d 3e55 223c 7b2a c53d 7a96 94bd
000002d0: fcbf 5ebd 3184 4f3d 77b0 2cbe bf2b cebd
000002e0: 8bfd b7bd 981e 98bc a666 153d 2a4f 8c3e
000002f0: d416 64bd d9ce 4cbd 490e bebd 1a96 2abe
00000300: 3a4e 05be bf45 44be be31 613e ee16 63bd
00000310: 696e 1abc 6cca e5bc 590b 163e b093 f03d
00000320: 96c5 e03d 1ff6 693e 33ad f73c 12d2 e0bd
00000330: 4641 2b3e aebc 52bc e346 253e 852c b4be
00000340: b702 473e 9a40 963d 7edd 2f3e b6c3 a5bd
00000350: f8b3 19bd d40b 44be 91b2 49bd 06cb cb3d
00000360: edc9 2a3e 3615 4d3e a32b 173e 1a2b c53d
00000370: f258 70bd 37ed 793d 9213 04be d0b6 b7bc
00000380: d8c2 323e 78f3 5d3d 93cf c6bd 8e2d 993c
00000390: 9da1 3c3e 7c55 4b3d ebe4 c83d 957c 35be
000003a0: 4959 3b3d 76f8 2cbe 373f c63d 5ac0 03bd
000003b0: 0236 113d 61fd ed3b 5101 58bd 88ea e6bd
000003c0: 367c 203d 2cbe c2bd b94b 8dbd 6380 293d
000003d0: 559a 9f3d cf63 ea3c 64c2 793d 3527 a63d
000003e0: 0b19 8bbe dacc 0e3e 4267 703e 0501 c43c
000003f0: b10b 02be 7207 353e 2a86 813d 8500 22bc
0.10087484 -0.1491326 -0.014325661 0.18425092 -0.08531832 -0.2168396 -0.0022779123 -0.059422575
-0.08457601 0.14838022 0.21183355 -0.20477174 -0.122101486 -0.052821577 -0.030154942 0.03706955
0.5583566 0.1548771 -0.06211986 0.0901241 0.22085088 -0.10425902 -0.26392788 -0.058446508
0.32996917 0.18278423 -0.05974548 0.15734634 0.07520464 0.031031825 -0.13860618 -0.17953101
-0.043928668 -0.10570913 -0.018750317 -0.038210347 0.05590281 -0.20321651 0.1440166 0.22294734
0.19881234 0.0050997525 -0.14447796 -0.19459264 0.38266015 0.10652822 0.030845566 0.09088968
0.08998089 -0.10473258 0.12329906 -0.19211604 0.022784604 0.0012748092 0.15969495 0.08953301
-0.02154852 0.12315812 0.024486827 -0.25419042 -0.038474884 -0.12351957 -0.24848393 0.0014667106
0.043693293 0.16976319 0.10173923 -0.034956664 -0.2132012 -0.07947195 0.08167738 -0.012329453
0.18821001 -0.1257976 0.0009695331 0.020501371 -0.089301854 0.010505839 -0.07645172 0.2302936
0.20641309 0.20434354 -0.090537064 -0.10445105 0.2613241 -0.109549455 -0.11254815 -0.20998694
0.061856076 -0.094374396 0.17344932 0.23375629 0.002464119 0.051864527 -0.050346494 -0.2478182
-0.0877298 0.008710026 -0.09664642 0.1740857 -0.3145126 0.0029584065 -0.032495245 0.35554233
-0.0774858 -0.10659427 0.11971596 -0.1735864 -0.056612376 0.020611117 0.14513883 -0.003117929
-0.25641266 0.13149707 -0.031539403 -0.10255543 0.044989474 -0.23978911 0.28517857 0.13292922
-0.11955063 0.039599832 0.1318813 0.066550255 0.26933128 0.04160951 0.031092122 -0.10182044
0.096760795 -0.020034228 -0.15869014 -0.14049017 -0.2024581 0.08789408 0.083033465 -0.3061123
0.059293147 -0.06461086 0.056840673 -0.19629844 0.0015550716 -0.12126329 -0.33004025 -0.102861136
-0.00038331657 -0.18088415 -0.20711952 -0.17300451 0.06294577 -0.08282553 0.026974972 0.14161351
0.1475719 0.1640938 0.08955895 0.11253725 -0.049422853 0.16326135 -0.0022749074 0.34947252
-0.1997227 0.07167425 -0.0968909 0.28906786 0.0023486242 -0.05136646 0.2854977 0.18363409
-0.2884673 0.05666351 -0.0049390015 -0.09242863 0.011740781 0.047516175 -0.1381241 0.12013343
0.065028705 0.009908019 0.09627243 -0.072552636 -0.05438231 0.050663177 -0.16864191 -0.10066938
-0.08983906 -0.018569276 0.036474846 0.27404147 -0.055685833 -0.050001953 -0.092800684 -0.16658822
-0.13018122 -0.19167231 0.21991631 -0.05544179 -0.009425738 -0.028050624 0.14652766 0.11746919
0.109751865 0.22847794 0.030233955 -0.10977568 0.16724119 -0.012862368 0.16140322 -0.35190216
0.1943463 0.073365405 0.17174336 -0.080939695 -0.037525147 -0.19145137 -0.04924256 0.09950833
0.16678591 0.20027623 0.1476274 0.096273616 -0.058678575 0.06101724 -0.1289809 -0.022426039
0.1745714 0.054187268 -0.097075604 0.01869848 0.18421026 0.04964207 0.09809288 -0.17723306
0.045739446 -0.16891655 0.09680026 -0.032165863 0.035451896 0.007262871 -0.05273563 -0.11275202
0.039180957 -0.09508929 -0.068992086 0.041382205 0.077931084 0.028612046 0.0609764 0.08112947
-0.27167544 0.13945332 0.2347689 0.023926267 -0.12699772 0.17678621 0.06324418 -0.009887819

linears.1.bias f4 [40]
00000000: f339 153d f4cc e0bc 6a80 19bd e267 06bc
00000010: 1d49 623c bbb8 973c 124d 093d d8a8 6d3b
00000020: fa13 f63b 6ab1 ee3c f4df 423d abad 083d
00000030: c294 69bb 1e0e 0c3d 1232 84bc 7385 903c
00000040: 310b 213c 9b20 aebc 2966 873c 7572 5d3c
00000050: f2ca 053d 6b6b 953c ba8e 9d3c 52e9 fc3a
00000060: 8e97 71bc 7d9a 9f3c 612f a4bc 013d 03bd
00000070: 578f 9e3c 892b 8d3c 0f38 e43b 2cbb 123c
00000080: 5d78 e43c 0bdf ea3c 4152 e6bc 538b 54bd
00000090: 952e f1bc a4f8 b33c 0277 a43a c988 23bc
0.036432218 -0.02744148 -0.03747598 -0.0082034785 0.013811377 0.018520704 0.033520766 0.0036263969
0.0075097056 0.029137332 0.04757686 0.033368748 -0.0035641645 0.03419315 -0.016137157 0.017641759
0.009829328 -0.021255782 0.016528206 0.013516058 0.032664247 0.018239697 0.019233096 0.0019295609
-0.014745606 0.019482845 -0.020042123 -0.0320406 0.01935546 0.017232673 0.0069646905 0.008955758
0.027889425 0.028670808 -0.028115394 -0.051890682 -0.029441157 0.021969147 0.0012547674 -0.009981343

linears.2.weight f4 [40, 40]
00000000: bd49 3f3e e628 133e 32b5 0c3e 7b4c 03be
00000010: e931 8f3e 858d 563e 0c47 48be 9637 003d
00000020: e99f 0b3e 2404 913e 50dc 88bb 9990 abbd
00000030: a429 fe3c 80d6 e5bd fd2a 7e3e adbe fc3d
00000040: e708 843e a427 45be d1a6 a83e f508 233e
00000050: 505d cf3d f4db 013d cdf3 1f3e fa1f 81bc
00000060: 00f8 23be dfdc 3cbe af79 3a3e 6640 273e
00000070: 45d7 b63c 4e31 07be 745d 9e3e 7a5b 4e3e
00000080: 04bb e6bd 370d 2b3d 0143 983e e3b7 0c3e
00000090: 7a8f 13be ba4a cbbd 474c e63c a3a1 d3be
000000a0: 476e 423e ba9f 1ebe 6cf9 5fbc 2c25 4ebd
000000b0: f5c0 873e 4348 d8bd e479 323e 03cc fd3c
000000c0: 1c72 193e f0cd c73d c52d dc3b 906e 673c
000000d0: f500 0bbd a930 9f3d 66b6 48bc 3b0c 4bbd
000000e0: 5f54 403e 373e 2d3e c753 c63c b92e 27bd
000000f0: c7c2 05bd de62 263e 0e6c 153e a167 673d
00000100: 1137 1fbe 1e31 9e3e f99a 603c 10cb 22be
00000110: 5da6 56bc 8c64 d53d ba3a 703c 9f9c c8bd
00000120: 37fb 3cbe 01cf e73d 4e33 91bd 204a b63b
00000130: e86d bc3d 17c6 4f3d 35db 2dbe 9e03 41bd
00000140: d531 3cbd 519b bcbe 81a4 40be e9a3 b2bd
00000150: 1d51 023e 71df 4e3c 6a9b 00be f055 823d
00000160: 6c87 00bd 633c 6cbe 0250 293d 4ec1 9d3b
00000170: e249 a4bc 595a b7bd fd47 343e 3196 3ebe
00000180: 57f8 4d3b 6570 05be a9d8 6fbe 09de b73d
00000190: 6653 81bd 22e6 813a 9371 80bd 5cd2 59bd
000001a0: 54ae 2ebe 85f8 0abe dd7d 403e 7321 ff3d
000001b0: 84d0 033d 6ec7 ac3c a0bd 77be 0d9f 6abe
000001c0: 2636 91bd ca15 41bd 7753 da3a e85f 3fbe
000001d0: bb59 bdbd 53ef 343e e60c 273e f56d 88be
000001e0: abcd 203e 6e21 13be 45a4 b63d 8837 763a
000001f0: aad6 fd3c ea69 c2bc 62a2 2abd d4ff d1bc
00000200: 753a 2e3e cce9 f93d 40fb 46be 3a0d 923e
00000210: 87aa 783d 91af 7c3c 9962 a03c 4806 5bbe
00000220: 57a4 f53d ebf4 f3bd c8d0 74bc 6cf9 1d3d
00000230: 69f8 b5bd 9454 61bd 5024 13be 7657 813d
00000240: a0f7 3e3d 26d9 b03e aa1d 9cbd ecb4 0bbe
00000250: 2e11 3ebe 0894 093e 1208 473d ecf5 1d3e
00000260: 01b1 d5bd 238c 04be 36cd 293d 6dea 7abc
00000270: 36af 793e afee e73d 2ffd 893e e3ad b5be
00000280: 352e c63c 164c 46be 2557 e9bd 1148 8cbe
00000290: 88af f73d a076 2dbd d5c7 3b3c 15da 993d
000002a0: 73c8 f1bc 589a 063e 4778 2f3e 6b3c 8abe
000002b0: 8e70 bcbb 5523 a3be 8633 02be 6c31 6cbe
000002c0: 5cd1 ef3d 16b4 1dbe 1e39 3bbd 11f4 913d
000002d0: bc78 0bbe 2e2b 7ebe d507 76bd 9314 083e
000002e0: 9b76 e1bd d292 40be 70f1 73be 17a0 2abc
000002f0: 0493 063e e66c f43a d81a 98be dc3c 1abe
00000300: 1f7a e6bd 3784 103d 3bd4 f1bd 8ae2 08be
00000310: 322c bbbd 7781 25be 1b04 f9bd aea1 40bd
00000320: 4f2f 5f3d d9d1 9c3e 7261 4abe 7663 93bd
00000330: c2c5 8ebc 403a 333d d6aa 40bd de44 953d
00000340: 0112 083e 7873 d6bd f362 34bd a7da 47bd
00000350: 9f9d 623d 82b2 1ebe f524 a8bc 635f 62be
00000360: 1fef c3be fac4 91be 34d3 09be 2c06 e73e
00000370: ee2e 2ebe 41d2 033c ef67 87be 2d62 be3d
00000380: e1d4 dc3d 8e65 843d d96d 2a36 d286 f2bd
00000390: 4c93 44be cbcf 603d cee2 963e bc31 803d
000003a0: e4f1 95bd f858 4a3e 046d 8f3d 33e7 3bbd
000003b0: 0131 21bd 391e bebd 97e6 c43d 9dab 78be
000003c0: 95a7 fb3c d8df 95ba 0e5f 5bbd 953b 6d3e
000003d0: 1e1d 1f3e b844 5dbe 8a69 bfbd 4763 fc3d
000003e0: 06af 9a3d fe87 303d 0ee7 3ebd 77c0 6a3e
000003f0: 311b 3e3e d982 493e e93f 423d dde2 b6bd
0.18680473 0.1437107 0.13740996 -0.12822144 0.27967766 0.20952423 -0.19558352 0.03130301
0.1363522 0.28323472 -0.004176654 -0.08377189 0.031025715 -0.11222553 0.24821086 0.12341056
0.25788042 -0.19253403 0.3293977 0.15921386 0.1012522 0.031703904 0.15620346 -0.015762318
-0.16012573 -0.1844363 0.18210481 0.1633316 0.022319445 -0.13202402 0.30930674 0.20152083
-0.11266139 0.04176065 0.2973862 0.13742022 -0.144102 -0.09926362 0.028112544 -0.41334257
0.1898738 -0.15490618 -0.013670307 -0.05032842 0.26514402 -0.10560658 0.1742931 0.03098107
0.14984936 0.09756076 0.0067193233 0.014125481 -0.03393646 0.07772953 -0.012250518 -0.04957221
0.18782185 0.16918264 0.02420987 -0.040816043 -0.032656457 0.16248652 0.14592001 0.056495313
-0.1554835 0.30896848 0.013708823 -0.15897775 -0.013101188 0.104195684 0.014662439 -0.09795498
-0.18455206 0.1131878 -0.07089864 0.0055630356 0.092006505 0.050726023 -0.16978152 -0.04712259
-0.04594596 -0.36837247 -0.18812753 -0.0872267 0.12726255 0.012626515 -0.12559286 0.063640475
-0.03137915 -0.2306991 0.041336067 0.0048143035 -0.020054761 -0.08952779 0.17605586 -0.18611981
0.003142854 -0.13031156 -0.23422493 0.08977897 -0.06314735 0.0009910504 -0.062716626 -0.05317913
-0.17058688 -0.13571365 0.18798013 0.12457552 0.032181278 0.02109119 -0.2419343 -0.22912236
-0.07090406 -0.04713992 0.0016656955 -0.18688929 -0.0924563 0.1766942 0.16313514 -0.2664639
0.15703456 -0.14368221 0.08918051 0.000939243 0.030986149 -0.023732144 -0.041658767 -0.025634684
0.17014487 0.12202796 -0.19431782 0.28525716 0.060709503 0.015422718 0.019578265 -0.21389115
0.11994236 -0.11911949 -0.014942355 0.038567945 -0.08885271 -0.0550123 -0.14369321 0.0631551
0.046622872 0.3454067 -0.076228455 -0.13643235 -0.18561241 0.13435376 0.04859168 0.15425843
-0.104341514 -0.12944083 0.04145547 -0.0153146805 0.24383244 0.11324822 0.26950976 -0.35484228
0.024191955 -0.19364962 -0.113935746 -0.27398732 0.12094027 -0.042349458 0.011461218 0.07512299
-0.029514527 0.13144815 0.17135726 -0.2699922 -0.0057507223 -0.31862894 -0.12714967 -0.23065728
0.11709854 -0.15400729 -0.045708768 0.0712663 -0.13620275 -0.24821159 -0.060066063 0.13289098
-0.1100895 -0.18806008 -0.2382257 -0.010414145 0.1314202 0.0018648177 -0.2970798 -0.15062279
-0.112537615 0.03528234 -0.11808058 -0.13367668 -0.09139289 -0.16162668 -0.12158986 -0.04702919
0.054488476 0.3062885 -0.19763735 -0.07196705 -0.017428283 0.043756723 -0.04703792 0.07288526
0.13288118 -0.10471243 -0.044039678 -0.048792507 0.0553261 -0.15497783 -0.020525435 -0.221067
-0.38268372 -0.28470594 -0.13459474 0.45121896 -0.1701009 0.008045734 -0.26446483 0.09296069
0.10782791 0.064646825 2.5395914e-06 -0.11842121 -0.19196814 0.054885667 0.29469913 0.06259486
-0.073215276 0.19760501 0.07003215 -0.045874786 -0.039353374 -0.09283108 0.09614294 -0.24284215
0.030719558 -0.0011434508 -0.053557448 0.2316726 0.15538451 -0.21608245 -0.09346302 0.12323623
0.07552914 0.043098442 -0.04660707 0.22924982 0.1856506 0.1967882 0.04742423 -0.089299895

linears.2.bias f4 [40]
00000000: 0188 213c 1b64 873c 458a 533c 0464 ebbc
00000010: 1fcb a1bb 716c 9e3c b192 0e3c ccf1 a5bc
00000020: 8ee5 fa3b 00b7 7dbc a18d 30bc fb77 cf3c
00000030: c3fe 1a3b 9d5c 103c 602a 7f3c 2f9f d43b
00000040: f8ee f33b 0570 823a 5ea1 053d bada 3c3c
00000050: f6c4 39bc 0c12 863b b33c 5dba 3904 d13c
00000060: 941f 0b3c 5b5d 12bd 3b92 c8bc f100 18bc
00000070: 87f9 b63c 6127 9ebc 71a9 223b 582d 06bc
00000080: eefe 593c 32e1 833c c98d 7a3c 71d3 01bd
00000090: 650b a2bc d5ac 453c 6440 f3bc ce44 683c
0.009859086 0.016527226 0.012911384 -0.028734215 -0.004937544 0.019338818 0.008701966 -0.0202569
0.0076567596 -0.015485525 -0.010775954 0.025325766 0.0023650385 0.008811143 0.015574068 0.0064887027
0.007444259 0.0009951597 0.032624595 0.011526758 -0.011338463 0.004091507 -0.0008439526 0.025514709
0.0084914155 -0.035733562 -0.02448379 -0.009277568 0.02233578 -0.019305887 0.0024820233 -0.008189522
0.013305409 0.016098592 0.015292593 -0.031695787 -0.019780824 0.012065132 -0.02969379 0.014176561

linears.3.weight f4 [40, 40]
00000000: 355c 8ebd f8d6 60be 7817 d33d 803f cfbc
00000010: 8efc b0bd bef4 1ebe 417a 0e3e 38ba f1bd
00000020: 56e5 ea3c ff7d 1e3e 1d15 6bbe ed8c b33c
00000030: 5052 aabb 8ae0 8d3e 4ebd 80be 9f29 1abe
00000040: c123 173e f42d a13d 1ec8 09be 2177 143e
00000050: 6108 5cbd 2fef afbd 378e 823e 169a a73d
00000060: a622 bebd bd0d 243e b592 a3be 674b 73be
00000070: 5403 2fba 3082 23be 778a 52be 3b97 09bd
00000080: d35d 9c3c 8cf4 e03a dcfb 82bd c16f e73d
00000090: dda2 31be 451d bf3a e488 913d 991e e0bd
000000a0: d290 f53d fc0c 053c 96d1 18bd 9802 82bd
000000b0: a910 7fbd 9090 a33e 6a6b 72bd fa73 7ebe
000000c0: b16b 503d b5e8 c0bc ced1 003e 41f2 b6bc
000000d0: d409 133d f5d6 413d 8cbb 5fbd 29f8 6d3e
000000e0: 1589 89bc 51bf 60be 6ca4 713e 0bf1 cf3d
000000f0: 36dc d33d bb57 91bc 6779 81bd dfb9 223e
00000100: d1ba 433d 2172 44be 6fc1 d83d 9bd5 943d
00000110: bfdd 3e3e eabb fd3d 5527 f4bd cdb8 343e
00000120: 7336 eabd c164 383e cd7d 83bc 4155 863e
00000130: afd5 82be 7988 babe f770 593e 69e1 223e
00000140: 9827 8fbe b733 b53e 387f 563d 2eef 33bd
00000150: 38ec 593e a2e9 dcbc 24d8 8bbd e5a1 1bbd
00000160: 4ae8 95bd dfef 503e 5c37 a03d 682d 6d3d
00000170: 2e00 d5bd bf85 693e f72c 7bbe 548e de3c
00000180: 9312 21be 68c4 5ebe 0e08 ea3d f43f 2cbc
00000190: cdcf ac3d 338a 10bd fa36 143d c42a 9c3e
000001a0: 0b07 b63d 39a3 5fbe f761 3cbe 0580 87bd
000001b0: 5fe3 323e f663 08be 9aed 4b3c 7629 1dbd
000001c0: c008 e4bc bf06 a8bc e978 413e a29c 11be
000001d0: fe80 563e 6044 193d 4de0 aebd 23d5 1abd
000001e0: 3bfa 42bb c992 9bbe 3a94 06be 211c c4bd
000001f0: 61df 21be 45ed 8b3e 8b93 83be 3ff4 d9bd
00000200: 3131 85bc 6c32 d4bd cb3a 96bd 9e8b 333e
00000210: d3e5 1dbd 4556 d1bd 7c24 843e d786 06be
00000220: 35c6 9a3d 2e2c 66bc 4698 9c3d f230 b9bc
00000230: f3e1 debc 9e18 29be ee7b 223e e996 8d3e
00000240: e8ad f3bd f096 93be 4d7c 883c f023 bbbe
00000250: f748 833e 2fd0 373d de5b a3bd fbde cbbd
00000260: 1add 9fbe a16e bcbe 6b74 9ebd 2e92 8a3d
00000270: ee9e bd3d 657c 553e 687f 2abe 00c2 743e
00000280: bda6 06be 33e1 1ebd 58c3 0a3e c550 2a3d
00000290: 87cb ab3d 4fbf 4e3e 5b27 2bbe 7ec3 64bb
000002a0: 38b3 893e 3dcc 563e 3990 67bd b0ff 7dbc
000002b0: 7c36 14bd a4e7 203d 37a1 75bd 9da2 1ebd
000002c0: d7b7 103e e0cf 743e 9310 86be 63f7 723d
000002d0: b7a2 2abe 2645 e63d 2b91 85be 794f 473d
000002e0: 3d1c 4dbd 1e87 d43c 82f7 07be ae7a 0cbe
000002f0: 6b5d 7ebd 26e7 4e3e b03b 1f3d a552 293e
00000300: 978d 843d dca9 8dbd 182b 35bd ba62 d43d
00000310: f717 86be 0ab0 d3bd fda6 2d3e c3f6 71be
00000320: b5b5 b53c fa87 33bc 38d7 343e 7d59 4f3e
00000330: b7ad b8bd 63da f2bd 954c adbd 89ce 6cbe
00000340: a30c 2d3e fbc6 64bd c211 1fbd 3511 f63d
00000350: 4af8 03be 7b21 823e e18e 4c3d b5f8 a2bd
00000360: 2095 cabd 810b 2a3d 5452 9bbc 20cf 15be
00000370: 8023 96bd 5af9 813e f80c 663e b819 f63b
00000380: 4a80 9cbe b3d7 5dbd 9af8 c1bc 6f5b b63d
00000390: f669 38bd bca1 2fbe f1aa 25be b802 45bd
000003a0: 49a1 2b3e e719 7e3d 90f6 d43d 9b6e 2dbe
000003b0: 7631 6f3d 7522 6cbe dcc4 963d 57e2 7a3e
000003c0: bc8a ef3d 81e2 1ebe cc83 0ebd 9178 653e
000003d0: a614 9fbd 31bd e53d c559 373d f3b6 963e
000003e0: 01e9 573e 0fae 53be da4d 083e b3b1 a2be
000003f0: 4207 9ebe b238 f53d a76b cabb c186 933e
-0.06951181 -0.21957004 0.10307211 -0.025298834 -0.08641921 -0.15523049 0.13913824 -0.118030965
0.028673809 0.15477751 -0.22957273 0.021917785 -0.0051978007 0.27710372 -0.25144428 -0.1505494
0.14759733 0.07870093 -0.13455245 0.14498569 -0.05371893 -0.085905425 0.25499126 0.081836864
-0.092839524 0.16020866 -0.31947866 -0.23759232 -0.0006676216 -0.15967631 -0.20560633 -0.03359149
0.019087708 0.0017162724 -0.063956946 0.11300612 -0.17347284 0.0014580867 0.07106188 -0.10943336
0.11990513 0.0081207715 -0.03730925 -0.06348151 -0.062271748 0.3194623 -0.05918447 -0.24848929
0.050883953 -0.023548463 0.12580034 -0.022332313 0.035898045 0.04732414 -0.054622218 0.23239197
-0.016788999 -0.21947981 0.23597878 0.10153397 0.10344736 -0.017742028 -0.06321984 0.15891217
0.047785584 -0.19184162 0.105837695 0.072673045 0.18639277 0.123893574 -0.119215645 0.17648621
-0.114361666 0.18007185 -0.016051197 0.2623692 -0.25553653 -0.36432245 0.21234499 0.159063
-0.27959895 0.35391018 0.05236742 -0.04392927 0.21281517 -0.026966874 -0.06828335 -0.03799619
-0.07319696 0.20404004 0.07823059 0.05790463 -0.10400425 0.22804926 -0.24528871 0.027167477
-0.15729742 -0.2175461 0.114273176 -0.0105132945 0.08438072 -0.035288047 0.036185242 0.30501378
0.08888062 -0.21839608 -0.18396746 -0.06616215 0.17469548 -0.13319382 0.012446785 -0.03836962
-0.027836204 -0.02051103 0.1889378 -0.14219907 0.20947644 0.037418723 -0.08538876 -0.03780092
-0.00297512 -0.30385426 -0.13142481 -0.09575678 -0.15807869 0.2732946 -0.25698504 -0.10642289
-0.016258808 -0.1036118 -0.073354326 0.17533728 -0.038549256 -0.10221533 0.25809085 -0.13137375
0.07557336 -0.014048619 0.07646231 -0.022606347 -0.02720735 -0.16513297 0.15867588 0.27654198
-0.11898404 -0.28826094 0.016660834 -0.36550856 0.25641605 0.044876274 -0.07976507 -0.099546395
-0.31223375 -0.36803153 -0.07737049 0.06766163 0.09258829 0.20848234 -0.16650164 0.2390213
-0.13149543 -0.038788985 0.1355108 0.041580934 0.08388429 0.20190166 -0.16714232 -0.0034906561
0.26894546 0.20976348 -0.056534026 -0.015502855 -0.036184773 0.03928341 -0.0599682 -0.0387293
0.1413263 0.23907423 -0.2618452 0.059317958 -0.16663633 0.11243658 -0.26087317 0.048659775
-0.05007576 0.025943335 -0.1327801 -0.13718674 -0.06210081 0.20205364 0.03887528 0.16535433
0.064723186 -0.06917164 -0.04423055 0.10370393 -0.2619016 -0.10336311 0.16958232 -0.23629288
0.022181371 -0.010957712 0.17660224 0.20248981 -0.090175085 -0.1185806 -0.084618725 -0.23125662
0.16899352 -0.055853825 -0.038835295 0.12015001 -0.12887684 0.2541617 0.049940947 -0.07957593
-0.098917246 0.041514877 -0.018960156 -0.14629793 -0.0733099 0.25385553 0.22465885 0.00751039
-0.30566627 -0.054160785 -0.023678113 0.08904158 -0.045022927 -0.1715154 -0.1617849 -0.048098296
0.16760744 0.06203642 0.103985906 -0.16936724 0.05839678 -0.2306002 0.07361767 0.24500404
0.11696383 -0.15516092 -0.03479366 0.22409274 -0.0776761 0.11217726 0.044763345 0.29436454
0.21084978 -0.20671867 0.13310948 -0.317762 -0.30864912 0.119737044 -0.006177384 0.28813747

linears.3.bias f4 [40]
00000000: 9bf9 e63c 6383 133c 6d10 e13c af38 a7bc
00000010: 22c9 52bc a66b ad3c 73fb 333c de45 c3bb
00000020: 8c0d 233b e164 9bbb d210 853c 9844 94bc
00000030: 381d 053b 2e9c 113c 5045 0e3c a10f a43c
00000040: a067 1abc 48a6 9d3c 564e b0bc 0697 c53c
00000050: a7b6 13bc 5923 d73b adf7 bcbc b362 d03b
00000060: 74ba 13bd fa34 44bd d57b babb 7648 983c
00000070: fe39 dabc 98d2 993c cab5 b1bc 8af4 37bc
00000080: e69c b0bb e732 e3ba 6d2f ec3c 44b5 943c
00000090: fbab 873c c29e 8d3c b43d 7dbc 6ea6 3ebc
0.028195193 0.009003493 0.027473653 -0.020412771 -0.012865337 0.021169495 0.010985243 -0.0059592566
0.00248799 -0.0047422503 0.016243372 -0.018099114 0.0020311605 0.008887334 0.008683518 0.020026984
-0.00942412 0.019244328 -0.021521728 0.024119865 -0.009015716 0.006565493 -0.02306732 0.006359422
-0.036066487 -0.047902085 -0.0056910315 0.01858924 -0.026638981 0.018777177 -0.02169313 -0.011227736
-0.0053897975 -0.0017333896 0.028831208 0.01815284 0.016561499 0.017287616 -0.015456606 -0.01163636

linears.4.weight f4 [40, 40]
00000000: 7a68 91bd 5c82 78bd b7b2 b63d e5fd 1abe
00000010: 428e 44be 15ca 2c3e 680e 10be 850a dd3c
00000020: 4eba 1c3d 004b 153e cd3b fcbd 21b3 3cbd
00000030: 8355 aebd 0a2e ba3c d554 ddbd 6ead 413e
00000040: 20b1 383d 8943 dd3d 02aa b3bd 8301 2bbd
00000050: 4e43 d23d 394a d73e 74da a33e 20de e13d
00000060: a8ac d4bb 4e97 d7bd bb91 24be a8d5 3a3e
00000070: 65e6 aabc e33e ed3d e90a 5dbc 2c8c bc3d
00000080: a4f7 10be 6d65 2e3d e420 a33d 4f93 613e
00000090: 6cd3 b1be bab8 223d 36cd c4bd 76ba 73bc
000000a0: 0768 783d 5771 fcbd 6947 27bc 0c24 cc3d
000000b0: b756 4b3e ad0b c53e 9f9b 6b3e 95e7 803e
000000c0: cda6 6f3e 0b29 82be c827 52be 7ab0 04bd
000000d0: 0017 1fbe c7a5 143d 1590 cabd a476 18bc
000000e0: a550 393d bae2 883d 9448 4dbe dd4c 9f3d
000000f0: 0206 093d f7e7 c33d aacd 35be 4b76 d7bd
00000100: 17fb 813b d39c cbbb b9fd a53d fe1a 7fbd
00000110: 9fe9 f3bd d3d2 4e3e 9183 5dbd 100b 693e
00000120: c18d 153c 9a60 e5bd 9dc5 093d 2780 053e
00000130: 9c40 a73e 32eb 05be dc75 383e e496 b5be
00000140: 205e 873c 63a1 633e b327 193e d259 07be
00000150: 1079 133e c359 afbc 2b8d 11bc cab9 8c3e
00000160: 20bc 3a3e ad90 853e 09b9 a0bd 7cde 66bc
00000170: 62f4 78bc 25f7 ebbd 223e f4bd 7b99 0bbe
00000180: 3944 3e3d d885 17be 2088 dd3d 4ae0 443c
00000190: ecdb 56bd 8b0c 23bd e5d0 fa3b 2807 9bbe
000001a0: 5482 aa3c e34f 85bd a7a6 84bd d6eb 71bd
000001b0: 9216 1bbe 26b7 513e 9eb2 f13d 0962 88bd
000001c0: 910e 29be 1584 dcbd d671 79be 803a 5b3d
000001d0: df19 12be 4b18 14be b28e 9ebe 27e6 e23d
000001e0: d8fb bdbd 0822 33be 6845 473e 3baf 8fbe
000001f0: 2e9d 72bd 061f db3d c50a 3d3e bdd7 7d3e
00000200: 1687 46bd 2b50 9fbb f63c 31be 9d3b 963d
00000210: 4908 2d3e f50d b73d 9d9e 62be 274e babc
00000220: 4f96 cc3d d755 853d 873b 6a3e ea95 86bd
00000230: 568a 803e 2f45 873d ea3d ebbd a6be 9dbe
00000240: 72d1 02be b4fa 2d3d 7fd2 84be f9fb a4bd
00000250: 01e2 f33a 1391 ccbd 6b09 973e ed05 fd3d
00000260: 9ef0 593d 914c 5c3e d67f 64bd 98d8 fb3d
00000270: 05bd 37be 3d64 8cbc d046 f73c 668a 81be
00000280: 534c a6be ae8a 683e dd33 003e 0d26 62bd
00000290: c114 2fbe 786c 603d 6bfc ba3d 015a fe3d
000002a0: c2c7 f93c 868b aabd ef26 a4bd 7a38 d9be
000002b0: bc40 f1bd 240a a13d d07b e13d a1bd a4bc
000002c0: bf6e 3bbe 0e4f 26be b1ad 6939 9af3 1f3e
000002d0: a106 303e 7de4 03be d49a 4b3e a364 00be
000002e0: 7131 8abe 5c08 19be 450d 3ebd 8c36 7f3e
000002f0: 10f9 dfbc 01c1 d13d a115 323e 94d4 e3bd
00000300: a01d 19bd a8f1 f3bd 63e7 9d3d f9f9 bf3d
00000310: 78d4 ff3d 72d7 253e 63c1 7bbd 0350 bc3c
00000320: 0ca3 78be 347a 96bc 8db6 e0bd 7ebc 273d
00000330: aeb4 0ebe 523b 8abe ee79 8e3e 280d fabd
00000340: a236 313e bc30 06bd 3711 23be 19a5 6abd
00000350: 48e5 3bbe 23cf 8fbd 928d 923d 8865 9c3e
00000360: 18c5 c8bd 54e5 b83d 6ca3 813d b247 023e
00000370: 459d ecbd be2b 2ebe 52b8 863d c903 663d
00000380: 60ba 883d ee94 2a3d ded9 5abd fa0e 643d
00000390: 6cb1 603d b040 7b3e 5e82 013e 9917 7ebd
000003a0: 5b54 6d3e 6deb 003e f423 e7bc 8007 f6bc
000003b0: 43ae 5bbe 9c77 dc3b d0ad 72bd 3299 0abe
000003c0: abbb 28be f465 203e efdc 193e bd47 323e
000003d0: c4cb bebe 2f45 b53d 6d27 033c 9946 47be
000003e0: ef21 95bd 7446 dd3d 980d 103e b88b 733e
000003f0: 0870 fabd d4b4 50bc 62bd c8be 311f d3be
-0.071000054 -0.060671195 0.08920806 -0.15135916 -0.19194892 0.16873963 -0.14067996 0.026982555
0.03826361 0.14579391 -0.123160936 -0.046069268 -0.08512404 0.022727031 -0.10807196 0.18913814
0.045090795 0.10803897 -0.08772661 -0.04174949 0.102667436 0.42048815 0.32002604 0.11028695
-0.006490309 -0.10526906 -0.16071217 0.18245566 -0.020861814 0.1158426 -0.013491371 0.09206423
-0.14156967 0.042577196 0.07965258 0.2202885 -0.34731615 0.03972695 -0.096094534 -0.014875999
0.060646083 -0.12326305 -0.010209897 0.09967813 0.19857298 0.3848547 0.23008583 0.25176683
0.23403473 -0.25421938 -0.20522988 -0.032394864 -0.15536118 0.03629091 -0.09890763 -0.00930563
0.045242924 0.0668387 -0.20047218 0.077783324 0.033452995 0.09565728 -0.17754236 -0.105206095
0.0039667 -0.0062137633 0.081050344 -0.0622816 -0.11909794 0.2019761 -0.05408055 0.22758126
0.009128035 -0.11200066 0.033635724 0.13037167 0.3266648 -0.13078001 0.1801371 -0.35466683
0.016524374 0.22229533 0.1495655 -0.13217857 0.1440165 -0.021405106 -0.008883755 0.27485496
0.18235826 0.2608694 -0.07847793 -0.01409113 -0.015194984 -0.115217485 -0.119259134 -0.13632767
0.04645178 -0.14797151 0.108169794 0.012016365 -0.052455828 -0.039806884 0.0076542967 -0.30278897
0.020814098 -0.06509378 -0.06477099 -0.0590628 -0.15145329 0.20480022 0.11801647 -0.06659324
-0.16509463 -0.1076738 -0.24359831 0.053522587 -0.14267682 -0.14462392 -0.30968243 0.11079054
-0.09276551 -0.1749345 0.1946007 -0.28063378 -0.05923193 0.106992766 0.1846114 0.24789329
-0.04846867 -0.0048618517 -0.17308411 0.07335589 0.16897692 0.08938209 -0.22130819 -0.022742344
0.099896066 0.06510513 0.2287427 -0.065715626 0.25105542 0.066049926 -0.114864185 -0.30809516
-0.1277521 0.042475417 -0.25941846 -0.080558725 0.0018606783 -0.09988608 0.29499373 0.12354646
0.053207986 0.21513583 -0.055785976 0.12297171 -0.17943199 -0.017137641 0.030185133 -0.25300902
-0.32480106 0.22709152 0.12519784 -0.05521207 -0.1709776 0.054790944 0.09130176 0.12419511
0.03049076 -0.08327393 -0.080152385 -0.424259 -0.11779925 0.07863262 0.110099435 -0.020109953
-0.18303965 -0.16241094 0.00022285317 0.1562027 0.17190029 -0.1288013 0.19883281 -0.1253839
-0.26990846 -0.14944595 -0.046399374 0.24923152 -0.027340442 0.10241891 0.17391063 -0.111245304
-0.03738177 -0.11911327 0.07710149 0.093738504 0.12491697 0.16195467 -0.061463725 0.022987371
-0.24280947 -0.018368818 -0.10972319 0.040951245 -0.13936111 -0.26998383 0.278274 -0.122095406
0.17305997 -0.03276132 -0.15924536 -0.057286356 -0.18349183 -0.0702193 0.07155909 0.30546212
-0.09803218 0.09028116 0.063299984 0.12722662 -0.11553434 -0.17008874 0.06578125 0.056155954
0.06676173 0.041645937 -0.05343043 0.055678345 0.054856703 0.24536395 0.12647387 -0.062034223
0.2317671 0.12589808 -0.028215386 -0.030032873 -0.21453194 0.0067281257 -0.05924779 -0.13535002
-0.1647784 0.15663892 0.15025686 0.17410178 -0.37264836 0.08851086 0.008005005 -0.19460525
-0.07281863 0.108044535 0.14067686 0.23783767 -0.122283995 -0.012738425 -0.39206988 -0.41234735

linears.4.bias f4 [40]
00000000: 7111 59bc 9763 cc3c e4ee ae3c 9efa 0fbc
00000010: dd47 acbc a93a 3c3c f232 1f3c 01a3 94bc
00000020: 7aed ce3c 7767 163c ac68 ec3b bce8 d63c
00000030: e953 a7bc ec02 2ebc 2f48 a33c 2b82 da3b
00000040: d6a2 a0bc e24e d538 ca9a a13c 4105 b23c
00000050: 55b1 a9bc 1122 abbc 7f26 88bc 283f b83c
00000060: c320 bb3c 961d bd3c 9e0a 81bc fad3 d7ba
00000070: 6b93 be3c 8e34 e23c c374 253c 0d45 893c
00000080: 29eb 3bbb 2ad5 b7bc 82f9 993c 113f 95bc
00000090: 0b4c 493c 928d 7b3c 7c76 7ebc b8e3 05bd
-0.013248787 0.024949832 0.021354146 -0.008787779 -0.02103036 0.011488595 0.009716736 -0.018144133
0.025259722 0.009179941 0.0072146263 0.026234023 -0.020425754 -0.010620814 0.01993188 0.0066683493
-0.019608896 0.000101713245 0.01972713 0.02173102 -0.020714441 -0.020890268 -0.016619919 0.022491053
0.02284277 0.023085397 -0.015752133 -0.0016466372 0.023263654 0.02761295 0.010098639 0.016756559
-0.0028674102 -0.022440512 0.018795732 -0.018218549 0.012286196 0.015353577 -0.015531179 -0.032687873

linears.5.weight f4 [40, 40]
00000000: 8e75 bcbd 7710 b13e f315 5c3e 88dc bd3c
00000010: e3a4 d3bd af90 3cbe cfd5 4e3e b2af 8ebd
00000020: df8c 023d 5f1f 483c 3909 65bc 7720 39bc
00000030: 761d b4bd 7c23 8fbe 399a 693e efb5 3c3e
00000040: 55ca b3ba 0102 0abe 4c30 bc3c 92fe 42bd
00000050: 436b cc3d 0028 9a3d d188 8dbb a35d bebe
00000060: fed7 b1bd d50f af3d 2c83 963b ffa0 b83d
00000070: 6bd5 253d dd62 04bd fe6b 303d b4af 683e
00000080: 44b6 9d3c d7ef 083e 6cc2 9a3e 3f93 ba3d
00000090: 4064 923d f9b2 09bd 8d34 c83e 9be6 873c
000000a0: 71aa 23be 5902 1abd c74a 65be df05 8abd
000000b0: 3880 1d3e 8325 a73d 301f 4cbe 483e a6bd
000000c0: 0919 8a3d 9458 d23d c446 f13c 4a3f 14be
000000d0: 72fb 203e 1d34 c43d bf1f 84ba e934 90be
000000e0: 0412 a4bd 3ab4 d43e b710 163e 4ef6 d13c
000000f0: a7f9 85bd 8b51 913c 74a4 76bd fa75 4cbe
00000100: a563 4cbe c659 b03d fce5 cb3c 088e 483d
00000110: 4b5d f5ba 075a 163e a075 583d 7b43 a3be
00000120: 13a5 fcbd 57c8 15be 9e0e 85bc b171 5fbe
00000130: 4a18 97bd 44b7 dabd fc85 00be 609c abbe
00000140: ed61 56be e6e6 c8bd d07e 58bc 2899 48be
00000150: 103b 8cbd 6207 b53d 6706 de3d 5cfa 373e
00000160: 518c c03d 81fc 993d b8cd b43d 714e 6cbd
00000170: 1312 2ebe b0bd 0a3e cdb7 ccbd 53f4 f83d
00000180: 3677 9e3e 878a 6bbd 821b 98bd 6846 11be
00000190: 14e0 72bd 6bb2 543e 7fa4 003e 3219 82be
000001a0: 232e db3d b705 483e c6f1 f73c fdd8 a1bc
000001b0: 53be f63d 4968 81be 8558 cbbd 81d3 5ebd
000001c0: 135f 26be 8d58 d3bd d074 fa3d 1a9f 53be
000001d0: fad9 4bbd 2d65 be3c a5da 173d 1c3f 5cbd
000001e0: bbbd f7bd c350 2dbd 40fc cebd a0b8 803e
000001f0: d2c6 1bbd cae6 013d cfba 373e b2ce c73d
00000200: 45c1 5c3d 284c 51bd 86be 17be 76a9 8fbe
00000210: 3e62 173d 26f5 82be 9316 ad3d e3c5 bcbe
00000220: 276a 163e c73e 9e3c 11fa 27bd 9043 d63c
00000230: 5907 85bd 2b19 463e 8119 4bbe 5482 34be
00000240: ace7 303e a802 6f3d a481 33bc a63e 52be
00000250: 5719 07be d27d 9cbd 1584 823e 26ae 16be
00000260: 45f0 603e dcb8 6ebe 41cf b238 dbf8 e0bc
00000270: f7c0 b2bd b17a d0bd 46d1 d33d 8c9a 22bc
00000280: 4a44 d1bb bbed 92be e5ab 843d 77f0 5bbd
00000290: 1da7 0e3e 5043 de3e bd57 153e 534e 3abd
000002a0: 7c01 b93d 0536 b53b cb92 21be 0099 b2bd
000002b0: d01e c9be e847 f7bd d593 dabd 1c41 14bd
000002c0: 9605 8cbd 134f 9e3e 3bfc cd3e a952 8b3d
000002d0: 6e36 b93c 89a1 b53d dcd6 063d 96c6 f3bd
000002e0: ee66 a9bd e2fe ee3d de1f 99bd 3242 9d3d
000002f0: f7e1 ba3d 378f 863e 8f5b aa3d 346c 93be
00000300: b275 2c3e 8519 36be c1ad a9bc 7957 143d
00000310: 302e 9a3e e7f9 4d3d 452f b83d 7157 bf3d
00000320: ad5c 0cbd 6ccd 7c3e 8554 b93e 4db4 403e
00000330: 5da7 bb3d 3ccf 18be 9e25 a7bd f7c9 673e
00000340: 05f4 943e 1094 993e 52f3 5d3e 3831 533d
00000350: fb58 253e 100d 223e 790e 863d 2025 223e
00000360: 6825 9abc 3b87 39bd 4169 82be aacf 2fbb
00000370: 5622 e9bd dca5 9bbd ec2e 55bd fae4 cbbd
00000380: 760e 9c39 5286 2abe 3274 f33d 35b2 263e
00000390: d636 e73d 9f52 56bd 4a71 623e 401d d7be
000003a0: bc43 513d 3d1f 273e 5d6d 193e d02f e43d
000003b0: d4f4 323e 33b1 86bd c44d 4e3e 5dcc dd3d
000003c0: 4005 80be b3bb 7e3e 88d7 533e 025e 863e
000003d0: 56d2 8abe 9270 50be 0f2d 8d3e 5814 0a3d
000003e0: 13b1 403e b213 1b3b 2031 07be a7f7 5fbe
000003f0: 93a0 29be a742 76be 90b0 243e f6d1 763e
-0.09202109 0.34582874 0.21492748 0.023176447 -0.10334184 -0.18414567 0.20198749 -0.06967105
0.031872626 0.012214511 -0.01397925 -0.011299244 -0.08794682 -0.2795676 0.22812738 0.18428777
-0.0013716916 -0.13477327 0.022972248 -0.04760606 0.09981396 0.07527161 -0.0043192883 -0.37180814
-0.08683775 0.085479416 0.0045932736 0.090150826 0.040486734 -0.032320846 0.04307174 0.22723275
0.01925195 0.13372742 0.30226457 0.09110116 0.071480274 -0.033617947 0.39102593 0.016589453
-0.15982987 -0.037599895 -0.22391807 -0.06739401 0.15380943 0.08161452 -0.19933772 -0.08117348
0.06743056 0.10270801 0.029452689 -0.14477268 0.15720919 0.09580252 -0.0010080262 -0.28165367
-0.08011249 0.41543752 0.14654814 0.025630143 -0.06541758 0.017739078 -0.06021543 -0.1996688
-0.19959886 0.08610873 0.024889939 0.048963577 -0.001871982 0.1468278 0.05284655 -0.3188742
-0.12336173 -0.14627205 -0.016242322 -0.21820714 -0.0737768 -0.106794864 -0.12551111 -0.33517742
-0.20935793 -0.098096654 -0.013213828 -0.19589674 -0.06847203 0.08839299 0.10841065 0.17966598
0.09401763 0.075188644 0.088283 -0.057691995 -0.16999082 0.13548923 -0.09995995 0.12155976
0.30950326 -0.057505157 -0.07427122 -0.14187014 -0.05929573 0.20771186 0.1256275 -0.25409847
0.10702159 0.1953343 0.030266654 -0.019756788 0.1204802 -0.25274876 -0.09928993 -0.054400925
-0.16247205 -0.10319624 0.122293115 -0.20666161 -0.049768426 0.023241604 0.03707375 -0.053771123
-0.12096735 -0.04231335 -0.101067066 0.25140858 -0.038031407 0.03171424 0.17942356 0.09756221
0.053895254 -0.05109802 -0.14818773 -0.28058976 0.036958925 -0.25577658 0.08451571 -0.36869726
0.14688931 0.019317044 -0.041009966 0.026155263 -0.06495542 0.19345538 -0.19833948 -0.17627841
0.17275876 0.058352143 -0.010956202 -0.20531711 -0.1319326 -0.07641186 0.25491396 -0.1471487
0.21966656 -0.23312706 8.5263055e-05 -0.027462414 -0.087282114 -0.101796515 0.1034265 -0.009924542
-0.0063863145 -0.28697 0.06478099 -0.053696122 0.13930936 0.4341073 0.14584251 -0.045484852
0.09033486 0.0055301213 -0.15778653 -0.08720589 -0.3928132 -0.12074262 -0.10672728 -0.036194906
-0.06837003 0.30919704 0.402315 0.068028755 0.022608962 0.08868701 0.03291975 -0.11903112
-0.082715854 0.11669709 -0.07476781 0.076786414 0.091251306 0.2628114 0.08318245 -0.2879349
0.16841772 -0.17783172 -0.020712735 0.036216233 0.30113363 0.050287154 0.08993391 0.0934285
-0.03426807 0.24687737 0.36197296 0.1881878 0.091627814 -0.14922804 -0.08161472 0.22635637
0.29092422 0.29995775 0.2167485 0.05156061 0.16147225 0.15825295 0.06545729 0.15834475
-0.018816665 -0.04529498 -0.25470927 -0.0026826658 -0.11383502 -0.075999945 -0.0520467 -0.09955783
0.00029765413 -0.16652802 0.11887397 0.16278918 0.11289756 -0.052324887 0.22113529 -0.42014503
0.051089987 0.1632051 0.14983125 0.11141932 0.17476207 -0.06576767 0.20146853 0.10829995
-0.25004005 0.24876289 0.20687687 0.26243597 -0.271136 -0.20355442 0.2757344 0.033710808
0.18817548 0.0023662862 -0.13202333 -0.21871816 -0.1656516 -0.24048863 0.16082978 0.24103531

linears.5.bias f4 [40]
00000000: 8c36 4d3c 61bc 46bc 1be3 b5bc d7f1 1b3c
00000010: 94ef 2b3c f232 853c f27e ff3c fd22 6bbc
00000020: e81c 13bb 9dcc 173c 8193 a73c 6c4a 1b3c
00000030: 8cd5 1cbb 4ec5 0f39 6414 9db8 20f2 013c
00000040: 6482 2dbc 3a15 993b 6804 e63a 909f 73bc
00000050: f60e cbbb 2445 453c 4196 ae3c 053a 59bc
00000060: 2ce7 323c 8838 a73c 56cb 89bc 4a5f 4bbc
00000070: c718 573c 3c92 b1ba d67e 5ebc e2a7 383c
00000080: 073b c2bc b824 70bc 193b 93bc afee 613c
00000090: 24ae 0a3c 8a6c e43b 7913 5fbc a178 683c
0.012525212 -0.012129874 -0.022203019 0.009518108 0.010494132 0.016259644 0.031188462 -0.014351604
-0.002244765 0.009265092 0.020456078 0.009478193 -0.0023930995 0.00013711044 -7.4901414e-05 0.007931262
-0.01059017 0.00467172 0.0017548921 -0.014869586 -0.006196852 0.01204041 0.021311881 -0.013258462
0.0109193735 0.020412698 -0.016820591 -0.012412855 0.013128466 -0.001354761 -0.013580045 0.011270495
-0.023709787 -0.014657192 -0.017972516 0.013789817 0.00846437 0.0069709467 -0.0136154825 0.014188916

linears.6.weight f4 [3, 40]
00000000: 2d90 7a3d ec23 92be a82a 853d 901f 99be
00000010: c423 56be 6f5a db3e 4e43 a13e 870f 083f
00000020: b3bd 0bbf bc79 433e 39bc 253d 2d7f f0bd
00000030: 9bb9 4dbd c03f b4bd f6e9 70bc d181 00bf
00000040: d6b3 173f a96a 6b3e 3e67 fe3c d0ad d3be
00000050: 592e 083c f833 31bd b6c6 5d3c 23ba 47bd
00000060: 8ada d9bc cc41 01be fa22 f53d 3585 0fbe
00000070: b528 c8be 3292 243e c47f 213e 2ebc b1be
00000080: bda8 c2be fd43 b8be 06dd 13be 9e89 b13d
00000090: 9352 783b c35b d5be 2810 3a3d 3e93 18be
000000a0: 7b41 373e 5376 96be 4252 713d 31c6 eb3d
000000b0: fcc1 8d3e f514 763e 2f9a 8ebd c7f8 643d
000000c0: ec34 6e3d 0dbc 71bd e35b 333e fb73 dc3e
000000d0: 5a71 52be b557 01be 604c adbd 6f8d 263d
000000e0: 6527 4fbe ffdf 413e 32ea 983d 31cb 81be
000000f0: bd03 cebd c508 763e af38 093e 48fb 8ebe
00000100: cbee 873e 0ff6 bd3d d8db e23d 8d42 3fbe
00000110: bee6 ab3e 632e a43d a4b9 f0bd bb08 183e
00000120: 66f2 e9bd 7a67 e6be ab06 83bd 7afa e33e
00000130: 0870 7c3e 9236 d63e d323 75be d29d 573e
00000140: 5d01 b03c 606b 143d 6953 2cbf a1e1 e93d
00000150: e4ea 02be 5a1e e93d a054 3e3d 5aa4 b2bd
00000160: 5051 debd 0d0a 593d ac09 933e efe3 4dbe
00000170: 21aa 973e 676b 813e a547 103e 4ae0 8c3d
00000180: ca11 0dbd 49fa 32be 40fe c3bc 0c27 4cbc
00000190: 82f8 df3d 23de cebd 49c0 403e 846a d3bc
000001a0: a380 febd f1e6 e23e bf68 febe cd3e bebc
000001b0: 3acc 353e 57a8 4fbe ee44 6cbd 8d73 c23c
000001c0: d6f9 0bbe aef3 15be f58b 1fbd 2ae6 383d
000001d0: 88e1 36be 1e0c b6be ab79 a0bc be2c 103e
0.061172653 -0.2854303 0.06502277 -0.29906893 -0.20912081 0.42842433 0.31496662 0.5314869
-0.54586333 0.19089407 0.040462706 -0.11743007 -0.050225835 -0.08801222 -0.014704218 -0.50198084
0.5925878 0.22989906 0.03105509 -0.41343546 0.008311831 -0.043262452 0.013536146 -0.0487615
-0.026593465 -0.12622756 0.11969562 -0.14015658 -0.39093557 0.16071394 0.15771395 -0.34713882
-0.38019362 -0.3598937 -0.14439783 0.086688265 0.0037891015 -0.4167157 0.045425564 -0.14899918
0.17896073 -0.2938715 0.058916338 0.115124114 0.2768706 0.24031432 -0.06963002 0.055901315
0.05815594 -0.05901723 0.17515521 0.43057236 -0.20551053 -0.12631114 -0.08461833 0.040662225
-0.20229872 0.18933104 0.07466544 -0.25350335 -0.10059307 0.24026783 0.1340053 -0.27926087
0.26549372 0.092754476 0.11077088 -0.18677731 0.3357448 0.0801666 -0.11754158 0.1484708
-0.11423187 -0.4500082 -0.06397756 0.44527036 0.24652112 0.4183851 -0.23939447 0.21056297
0.021485025 0.036235213 -0.67314774 0.114199884 -0.12784916 0.11382742 0.046467423 -0.08722754
-0.10855353 0.0529881 0.28718317 -0.20106481 0.29621986 0.25277254 0.1408983 0.06878717
-0.034440793 -0.17478289 -0.023924947 -0.012460481 0.10936071 -0.10100963 0.18823351 -0.025807627
-0.12426879 0.4431682 -0.4968929 -0.023223305 0.17753688 -0.2027906 -0.057682924 0.02373674
-0.13669524 -0.14643738 -0.038951833 0.045141377 -0.17859471 -0.3555612 -0.019589266 0.14079568

linears.6.bias f4 [3]
00000000: d676 363e e347 4b3c 3207 bb3c
0.1781877 0.012407276 0.02283058

exp_avg f4 [40, 2]
00000000: 9002 bd3e 41d7 e9be 0d11 8d40 ee9d 103f
00000010: 2331 07c0 ad83 ab3d ad04 b73f 2d67 8dbf
00000020: b1fc 0b40 d264 09c0 9f00 45c0 35b4 13be
00000030: 7b29 16c0 f698 dfbf 6bbb b7c0 2d30 96bf
00000040: 7651 98c0 898f df3e aaa4 14c0 ff85 9dbf
00000050: cdc9 0340 2cb2 363f 25ae a03f 9a67 01bf
00000060: fcff dd3e 7b99 cb3d 3700 8c3f 25fa 733e
00000070: 15c5 07c0 7ff7 67bf 7453 f33f 9459 3d3f
00000080: eff6 1840 064e 79bf 05c6 23c0 e7fd a4be
00000090: 8623 ea3f 55cb fbbe 6ced 2fbe fe26 00bf
000000a0: 2f75 9abf ae79 763f 9642 1240 ddd5 62bd
000000b0: 6171 a63f faf8 a53e 4065 7240 0835 ba3e
000000c0: ec60 6abf 216a 69bf dba8 26c0 f57e 8d3e
000000d0: eba2 07bf 144d 9abf df99 a640 b358 333e
000000e0: 3fbc 1a40 49d5 573e cb2a 383f 984a 4bbd
000000f0: 6315 2ebf 99ae c43e c8fe 25be 23b3 e3bd
00000100: e2a9 98c0 4698 4cbf 2e3f 763e df52 81be
00000110: f25a 4abf db00 57bf 4b10 01c0 e4c3 90be
00000120: c730 25c0 3d32 48bf e35d 2cbf 5204 e43e
00000130: ef6a 08bd b6df 1abf 1479 50bf 5d0b 9b3b
0.36916018 -0.45672038 4.4083314 0.5649098 -2.112374 0.083747245 1.4298302 -1.1047112
2.187298 -2.1467786 -3.078163 -0.14424212 -2.3462818 -1.7468555 -5.741628 -1.1733452
-4.759944 0.43664196 -2.3225503 -1.2306517 2.059192 0.7136562 1.2553145 -0.5054871
0.43359363 0.099413835 1.0937566 0.23825891 -2.121404 -0.90612024 1.9009843 0.7396481
2.3900716 -0.9738468 -2.5589612 -0.32224962 1.8292091 -0.49178568 -0.17180413 -0.500595
-1.2067012 0.9627942 2.285314 -0.055379737 1.300335 0.32416517 3.7874298 0.36368585
-0.9155414 -0.91177565 -2.6040561 0.27635923 -0.5298297 -1.2054772 5.206283 0.17514305
2.4177396 0.21077456 0.71940297 -0.049631685 -0.68001384 0.38414457 -0.16210473 -0.11118152
-4.7707376 -0.7991985 0.24047539 -0.25258538 -0.7904502 -0.8398568 -2.0166194 -0.28274453
-2.5811021 -0.7820166 -0.6733076 0.44534546 -0.033305105 -0.60497606 -0.8143475 0.004731579

exp_avg_sq f4 [40, 2]
00000000: a0d6 084d 5767 a449 0af3 754e 27fb 834b
00000010: 7d14 634e fb46 104b 6c4a 1e4e 457a 424b
00000020: 915c 274f a995 494c 2058 354e 54ec cb4b
00000030: 060f f04d 191c 0e4b 05d6 914d 3d86 f94a
00000040: 449c de4e 9b14 0c4c 2960 eb4e e25d 064c
00000050: e2fa 204e bf0f fe4a 2dd4 ae4e 43fc 254c
00000060: 88c7 f44d e315 584b b2c8 464e 9c77 df4b
00000070: 74fb ba4e f23e b54b eca3 cf4e 8620 b44b
00000080: be5a 5e4f 83e0 a64c 7011 4f4f eabc 954c
00000090: d6ed f54e efc5 454c 0878 4e4e ef52 e54b
000000a0: 7c7a 0d4f 14d0 874c ee8d d84e a2c9 484c
000000b0: 7975 1e4f d41f 0f4c b245 374f e383 864c
000000c0: 8b8f d84e 1c4d be4b 779c 934e 6ca5 904b
000000d0: bba4 ab4e 9357 994b 8182 914d 5168 194b
000000e0: 875d 064f a9d0 114c aa4e ef4d f958 1d4b
000000f0: 8071 394d 94bb 4d4a e6a0 994d ef66 5d4a
00000100: e766 704c f377 b749 254a 984e 12f5 504b
00000110: 7172 154f 02e8 ec4b efeb ac4d e265 c44a
00000120: ceb3 b34d 669e bb4a 3c6d 1e4e cd02 2f4b
00000130: 8d8a c84d 76a5 344b fb5c cd4e 5133 954b
1.4348544e+08 1.3467949e+06 1.0315864e+09 1.7299022e+07 9.524427e+08 9.455355e+06 6.6391936e+08 1.2745285e+07
2.8078615e+09 5.2844196e+07 7.6061286e+08 2.6728616e+07 5.0343955e+08 9.313305e+06 3.058403e+08 8.1764145e+06
1.8673915e+09 3.672126e+07 1.9744739e+09 3.522343e+07 6.751991e+08 8.3250875e+06 1.4665704e+09 4.3512076e+07
5.1333965e+08 1.4161379e+07 8.337604e+08 2.9290296e+07 1.5685207e+09 2.375626e+07 1.7418132e+09 2.3609612e+07
3.7304888e+09 8.749161e+07 3.4740265e+09 7.850581e+07 2.0630024e+09 5.1845052e+07 8.659932e+08 3.005795e+07
2.3736146e+09 7.120502e+07 1.8165901e+09 5.263527e+07 2.6584988e+09 3.7519184e+07 3.074798e+09 7.0524696e+07
1.816643e+09 2.494316e+07 1.2382524e+09 1.8959064e+07 1.4398499e+09 2.0098854e+07 3.0515613e+08 1.0053713e+07
2.2542764e+09 3.8224548e+07 5.0186374e+08 1.0311929e+07 1.9445146e+08 3.370725e+06 3.2218234e+08 3.6274518e+06
6.3019932e+07 1.5029744e+06 1.277498e+09 1.3694226e+07 2.5073052e+09 3.105178e+07 3.626429e+08 6.435569e+06
3.7686317e+08 6.147891e+06 6.644897e+08 1.1469517e+07 4.205654e+08 1.1838838e+07 1.7227114e+09 1.9556002e+07

exp_avg f4 [40]
00000000: 8c0b 8ac0 cf01 0841 3523 e8bf 176d 55c0
00000010: a70b 79c1 ff71 c9c0 8580 9fbf af47 8cc0
00000020: 482f 66c0 2c2b 35bf a623 6540 8fe5 5f40
00000030: a6a5 7840 97b9 78be 59ed 0ec1 b1d1 9e40
00000040: e422 cdbf aee6 ffc0 c479 2340 6def 92c0
00000050: 5820 8f40 56fd c140 36aa 4040 2100 0841
00000060: cf2e 8f3f 440e 7cc0 d9a0 70c1 3b01 a4c0
00000070: 7c2b 50c0 d890 7d41 a4af f4bf 676b db3f
00000080: 6a65 70c0 284b d33f 28d4 44c1 e8e0 95c0
00000090: 4cf0 1ec0 eb87 f3c0 3edc 8bc0 b208 cb40
-4.3139095 8.500442 -1.8135744 -3.3347833 -15.565345 -6.2951655 -1.2461096 -4.3837504
-3.5966358 -0.70769 3.5803008 3.4983861 3.8851104 -0.24289547 -8.932946 4.963097
-1.6026273 -7.996909 2.554307 -4.591727 4.472698 6.062175 3.0103889 8.500031
1.118616 -3.9383707 -15.039269 -5.12515 -3.252654 15.847862 -1.9116101 1.7142152
-3.7561898 1.6507311 -12.301796 -4.6837044 -2.4834166 -7.6103415 -4.370635 6.3448114

exp_avg_sq f4 [40]
00000000: dc0a b04c 119b 954e 31fd ef4d 9005 f94d
00000010: f4eb 2f4f f368 944e ea71 d04d 5f41 674d
00000020: b7af c84e eb32 e74e 5aae 004e 5c1d e14e
00000030: 6167 1d4e 3643 a34e e873 954e 081b 794e
00000040: a4e3 7e4f 3234 7b4f f275 1e4f 8b5c 9c4e
00000050: e6de 5d4f 247d 1e4f 7599 c54e 3ace 614f
00000060: a2ba 964e 7c0e 374e ad05 664e 720e f64d
00000070: d872 cb4e 5e4a 244e c664 504d 21b9 344d
00000080: c871 a64c ee0b 254e c2a2 d44e 8a45 fb4d
00000090: 72fb 934d 26d9 074e 5dde 214e 0772 884e
9.229693e+07 1.2549838e+09 5.0329347e+08 5.222364e+08 2.9514762e+09 1.244953e+09 4.371408e+08 2.4248882e+08
1.6834794e+09 1.9394369e+09 5.397275e+08 1.8883988e+09 6.601995e+08 1.3695455e+09 1.2537006e+09 1.0448246e+09
4.2763315e+09 4.214502e+09 2.6585298e+09 1.3116553e+09 3.7223726e+09 2.6590013e+09 1.6575843e+09 3.7883889e+09
1.2644068e+09 7.6779494e+08 9.647829e+08 5.1601773e+08 1.7066506e+09 6.890843e+08 2.1851658e+08 1.8950197e+08
8.726483e+07 6.922556e+08 1.7837181e+09 5.269548e+08 3.103412e+08 5.697888e+08 6.7892614e+08 1.1445871e+09
