1DCFD_PINN/1D_CFD_Shock_Eta1.e-8_Zeta1.e-8_trans_Train_PINN.pt-15000.pt (torch, 112935 bytes, 42 tensors)

linears.0.weight f4 [40, 2]
000000 0b 05 6c 3e 7c 77 1a 3e 71 36 d9 3e 8c 85 02 3e
       0.23048799 0.15084642 0.42424348 0.12746257
000010 8e cc bd 3d 54 67 42 3e 06 69 89 be 51 a9 8b 3d
       0.09267531 0.18984729 -0.2683794 0.06819404
000020 ff 9a fa 3d cf fc 8b be 75 24 07 be cb 37 07 3d
       0.122365944 -0.27341315 -0.13197501 0.033012193
000030 16 11 fe 3d 81 51 68 be 9b af 1c 3e bf ff d7 be
       0.12405603 -0.22687341 0.15301363 -0.42187306
000040 90 37 0c 3d 69 c0 61 be a7 88 2a be ba 1b af bd
       0.034232676 -0.22046055 -0.16653691 -0.0855021
000050 f0 cd b1 be 45 38 7e be f0 b7 85 3d 68 71 98 3d
       -0.3472743 -0.24826153 0.06529224 0.074435055
000060 3a 47 a5 3e f6 be 66 3e cf 59 2d be 0a fc 82 3d
       0.32280904 0.22533783 -0.1692879 0.06395729
000070 ae 84 c5 3d dd 7c 82 bd f1 a1 92 be 17 a4 3e 3e
       0.09644447 -0.06371472 -0.28639176 0.18617283
000080 7b 42 c7 bd 69 a4 8e bd 7c b8 c8 3d 04 4b 9f be
       -0.09729477 -0.069649525 0.098008126 -0.3111192
000090 76 cb 89 bd ed 46 dc 3d 9d 42 c7 bc 7b 45 9f be
       -0.0672826 0.107557155 -0.024323756 -0.31107697
0000a0 86 77 ac bd b9 4c 61 3d bf e9 49 3e 99 b7 cd bd
       -0.08421235 0.05500481 0.19718073 -0.10044784
0000b0 ac 2c 07 be 07 ed d5 bd 6a eb 32 be 0d 43 82 3e
       -0.13200635 -0.104456 -0.17472616 0.2544178
0000c0 8a 33 cb bd 0f 2e df 3e 41 51 c3 bc b0 29 db 3e
       -0.0992194 0.43589827 -0.023842456 0.42805243
0000d0 ea 00 d2 3d c9 b8 52 be ea 6e 1a 3e 93 81 03 3f
       0.102540806 -0.20578302 0.15081373 0.5136959
0000e0 2c eb 40 3e 9e b2 e8 3d dc 82 36 3e 43 fd 89 be
       0.18839711 0.113621935 0.17823356 -0.26951036
0000f0 cf 1a 22 be 53 7b 5b 3d a8 ca b4 3e 64 8f 8c bd
       -0.15830539 0.053584408 0.35310864 -0.06863287
000100 a1 83 b8 bc ab ad 45 3e bc 15 30 3d 07 b4 1b 3e
       -0.022523703 0.1930453 0.042989478 0.15205394
000110 40 bf 50 bd f9 de 13 3d 5c 9e 32 3d 4d f9 98 3d
       -0.05096364 0.036101315 0.043608055 0.07469425
000120 a5 98 6b 3e 80 14 87 3e e3 5b 33 bd 5a 44 34 3e
       0.23007448 0.26382828 -0.043788802 0.17604199
000130 a4 f3 90 3e 3f 30 e3 3e c7 96 9b 3d 6f 4d f5 bd
       0.28310883 0.44372746 0.07597118 -0.1197766

linears.0.bias f4 [40]
000000 5e 15 f0 bc 59 64 d7 bc 61 b6 10 3a 34 12 1f 3d
       -0.029307064 -0.026292967 0.00055203406 0.03883572
000010 1a 5f 5f 3c 36 cb 1d 3d ae 43 8f 38 23 04 ef ba
       0.013633514 0.038523875 6.831378e-05 -0.0018235486
000020 19 78 90 bc 44 ae 8f 3c 26 7e cf 3c 6b ea d9 3c
       -0.017635392 0.017539151 0.025328707 0.026601037
000030 73 2a be bc 3e 3b 9d bc 8a c7 e6 bb 2d c1 d9 3c
       -0.0232136 -0.019193288 -0.00704283 0.026581371
000040 77 86 55 3c 1b bb b6 3c 7c eb 84 3c 3d f8 31 3d
       0.013032547 0.022306016 0.016225569 0.04344963
000050 fe 34 b7 bb 57 e6 69 bc 0e ba 02 3d fc b8 c2 3c
       -0.005591034 -0.014276109 0.031915717 0.023769848
000060 09 fb 7f bc f8 3c 0e bb cd 24 a5 38 3d 88 d5 bc
       -0.015623816 -0.002170382 7.874668e-05 -0.02606594
000070 b0 26 d0 bc 87 5e 51 3c fd 67 02 3d 74 6f d9 3c
       -0.025409073 0.012778885 0.031837452 0.026542403
000080 47 a6 1e 3c 5c 37 59 3a a3 cf d6 3c 48 75 f0 3c
       0.009683198 0.0008286142 0.026222056 0.029352799
000090 c3 8b 05 bd 42 aa 7b bc 9c da 8a ba 2b a9 9e b9
       -0.03260399 -0.015360417 -0.0010593715 -0.00030262148

linears.1.weight f4 [40, 40]
000000 ac 78 b7 3e a0 78 08 be 49 0d f5 3d 96 40 db 3c
       0.35834253 -0.13327265 0.119654246 0.026764195
000010 b9 d3 a6 bd e0 f8 0d 3e 25 49 1f 3e 2c bb 66 be
       -0.08145852 0.1386447 0.15555246 -0.22532338
000020 09 a4 9d 3c a6 f2 98 3d f6 0c 36 3e ed ec a2 3c
       0.019243257 0.074681565 0.17778382 0.019888366
000030 de af 20 3e b4 9f e8 3b 12 b9 88 3c 30 f7 a6 3d
       0.15692088 0.007099116 0.01668981 0.08152616
000040 b2 f5 ee ba 73 59 f6 3c 5b 5b 8d be 3f 31 1b 3e
       -0.0018231182 0.03007195 -0.2760876 0.15155505
000050 e7 21 77 be 00 3a 60 bd c0 9b 20 bd 93 74 cb bd
       -0.24134026 -0.054742813 -0.039211035 -0.09934344
000060 77 32 a6 bd 56 9c 9c bd 87 03 06 bd 96 8d 26 be
       -0.08115094 -0.07647006 -0.032718208 -0.16264948
000070 56 39 53 3d f3 a8 33 3e a0 42 6d bd cf 9d 75 3c
       0.05156835 0.17544918 -0.057924867 0.014991238
000080 a0 d2 17 3e 8a 84 03 be 11 fe 44 be 5d 19 af 3d
       0.14826441 -0.12843528 -0.19237544 0.085497595
000090 a6 d5 00 3d f2 33 e9 bd a8 96 e1 bd a4 03 64 3e
       0.03145375 -0.11386861 -0.110150635 0.22267014
0000a0 2a 73 01 be d1 be 08 3e 91 3f a5 bc da 83 44 be
       -0.12641588 0.1335404 -0.020171912 -0.19190922
0000b0 8f 50 ea bb 36 14 5b 3d fc 7d 8b be 58 53 bb 3c
       -0.0071507166 0.05348607 -0.27244556 0.02286689
0000c0 36 35 3e bd 7d 55 07 be 99 82 7c 3d 66 5b 27 3d
       -0.046437465 -0.13216205 0.061647985 0.04085865
0000d0 49 b3 5c bd 3c af 57 3d 84 36 90 3c e0 5f 97 3d
       -0.053881917 0.05265735 0.01760412 0.073913336
0000e0 7c 5d d2 bd 08 69 7e bd 1e 85 83 3e d7 48 28 be
       -0.10271737 -0.062111884 0.25687498 -0.16434036
0000f0 db 5c ab 3d 4f 3a 1a 3d ef cb 56 3e ba be ce 3c
       0.0836732 0.037653264 0.20976232 0.02523743
000100 ee de 4d be 40 f2 b0 bd 09 1b 89 3e 2b 09 40 be
       -0.20104572 -0.086399555 0.2677844 -0.18753497
000110 30 ea 31 3d 62 ed e4 bd 9d 42 48 be 92 31 b6 3d
       0.04343623 -0.1117809 -0.19556661 0.088961735
000120 01 0c 78 3e 29 4a 80 3d ef b1 e9 3c b1 cf db bd
       0.24223329 0.06264145 0.028527228 -0.10732973
000130 d2 10 b8 3d 49 53 92 3e c5 dc 65 be 3b 82 73 3e
       0.08987583 0.28579167 -0.22447498 0.23780148
000140 b9 b8 9d 3e ed b2 19 3d 9e 88 6e 3e d2 fd 93 bd
       0.30804995 0.037524153 0.23294303 -0.07226147
000150 62 61 bd bd b3 9c 90 bd 79 e5 51 bd a5 61 15 3e
       -0.0924709 -0.07061138 -0.051244233 0.1458803
000160 58 36 e3 3d 67 84 75 bd 2e 40 4d 3c b9 d9 b3 be
       0.110943496 -0.05994072 0.012527509 -0.35127047
000170 a5 ca 8e 3d bd 5c d6 3e 74 c8 ce bd 40 51 6e 3e
       0.06972245 0.4186763 -0.10096827 0.23273182
000180 06 0e 85 be a3 81 4a be 5e f3 8b be c7 61 06 3e
       -0.25987262 -0.19776015 -0.27334112 0.13123237
000190 2d 33 5f 3e 70 bc da bd 37 61 90 bd 06 14 f0 bd
       0.21796866 -0.10680473 -0.07049792 -0.11722569
0001a0 f3 91 48 be fb 33 b8 3d 9a 56 3d 3e b2 d3 1e bc
       -0.19586925 0.089942895 0.18490067 -0.009694027
0001b0 b0 50 9a 3c 97 7c 2c 3d 13 6c 26 3e 04 fd 02 3e
       0.018837303 0.042111006 0.16252165 0.1279183
0001c0 72 64 65 3d 1d 18 08 be b1 0b 9e 3d c2 12 a3 3d
       0.056003995 -0.13290448 0.07717074 0.07962562
0001d0 d3 2c 78 3d dd 22 80 be c4 1f ff 3b 0d 8f 1e 3d
       0.060589623 -0.250266 0.007785769 0.038710643
0001e0 61 0e 5b bc c8 50 0d be 75 12 c7 3d a5 3a 0b be
       -0.013370127 -0.13800347 0.09720317 -0.1359659
0001f0 3f 68 7c 3d 0b ae 3e be 39 52 0c bd 13 0f 2b 3e
       0.061622854 -0.1862108 -0.0342581 0.16704969
000200 4d 7d 9a 3e 47 d9 64 3e 54 83 7a 3e 44 c5 45 3c
       0.30173722 0.2234851 0.2446416 0.012070958
000210 71 87 2b 3e 4e e8 72 be d8 02 16 3e b9 6c 49 bc
       0.16750886 -0.2372143 0.14649522 -0.012293988
000220 dd 87 38 3e ed b1 bf 3d 5e 9e b7 3d dd 72 8d bb
       0.18020578 0.093601085 0.08965753 -0.0043166713
000230 df f2 01 3e 29 68 c2 bd 2d ca 8b be 99 8d a0 3d
       0.12690304 -0.09492523 -0.27302685 0.078395076
000240 2b 5f d4 bd 56 d2 05 3e ac 33 08 3e 04 b6 94 bb
       -0.10369714 0.13068518 0.13300961 -0.0045382995
000250 42 dd da bd 05 20 67 bc 57 8d f7 bb 37 a7 30 be
       -0.10686733 -0.014106755 -0.007554691 -0.17251287
000260 ac 2e 18 bd d7 e1 29 3e b0 dd f8 bc 70 69 f1 bc
       -0.037153885 0.16590057 -0.030379146 -0.029469222
000270 e2 b3 1a bd 1a 1c 3e be e4 92 61 bd 72 08 40 3b
       -0.037769206 -0.18565407 -0.055071726 0.0029301909
000280 4b 50 96 3e 94 64 95 3d 58 57 85 bd 5a 5e 4f be
       0.29358134 0.072945744 -0.065108 -0.20250836
000290 31 70 84 3e b2 8c ff 3c 6d 0d 9f 3d fb 10 0c bd
       0.25866845 0.031195018 0.07766233 -0.03419588
0002a0 1d d3 13 3e 1a 78 a6 3d b1 ab 61 3e 37 e3 42 be
       0.14436002 0.08128376 0.22038151 -0.19031988
0002b0 da a8 a7 3d 6b a2 2c 3d 12 62 86 3d b4 3d a6 bd
       0.08186503 0.04214708 0.06561674 -0.08117238
0002c0 96 d3 4e be cc f9 ce bd 0a 2c db bd a0 ce 78 3d
       -0.20197901 -0.10106239 -0.10701759 0.060743928
0002d0 36 ec ee bb d6 79 16 be 54 90 b1 be bb 41 28 3e
       -0.007291342 -0.14694914 -0.34680426 0.16431324
0002e0 ff 69 a5 3c 42 d9 ac bd 79 36 54 bd 96 c2 c0 bd
       0.020192144 -0.08439876 -0.05180976 -0.09412114
0002f0 7f 68 9d 3c ff 62 3e be b1 6a fc bd 70 73 4b be
       0.019214867 -0.18592452 -0.12325037 -0.19868255
000300 27 b0 c4 3d 0d cb bf bd 62 a8 c8 bd cc 9a aa bd
       0.09603911 -0.09364901 -0.097977415 -0.083303064
000310 4e 3c 2e 3d 9f f5 bc be f5 b6 2f 3c f4 73 7a 3d
       0.04253798 -0.36906144 0.010724773 0.061145738
000320 14 50 eb 3a 4c 75 6f 3e 87 0c f2 bd bb 0e 06 3e
       0.0017952942 0.23384589 -0.11818796 0.13091557
000330 d1 cf 04 be 6b 90 df bd 4b 76 c4 3e e2 fb e6 3e
       -0.129699 -0.109162174 0.383715 0.45114046
000340 04 ab 2c 3d 6f a9 b1 3c 0b 5d 26 3c 60 3e 1b bd
       0.04215528 0.021687238 0.010154019 -0.037901282
000350 46 41 e2 be 92 9d 9d 3e aa 95 27 be 14 ad 37 b8
       -0.44190425 0.3078428 -0.16365686 -4.379179e-05
000360 db 5e b2 3d 5c 70 72 be 6d c0 d7 bd f1 80 8c 3e
       0.087094985 -0.23675674 -0.10534749 0.27442124
000370 48 a9 b2 3c aa f7 ab 3b 63 7c 50 3d 06 76 af 3d
       0.021809235 0.0052480297 0.050899874 0.08567433
000380 53 89 89 be 36 4c d8 be c0 fd b9 bd d8 13 4f be
       -0.26862583 -0.42245644 -0.09081602 -0.20222414
000390 db e1 c9 3d 7d 4a 09 bc 6d f6 1e be 24 1e 6b bc
       0.09857532 -0.008379576 -0.15523691 -0.014350448
0003a0 e1 2e 1d 3e 9b c5 1a bd 7e 3c ea 3d 24 ba 7f bd
       0.15349914 -0.037786108 0.11437319 -0.062433377
0003b0 68 7e ac bd 47 aa 9f bd 69 fb c1 bd 30 5d 43 be
       -0.084225476 -0.0779615 -0.09471781 -0.19078517
0003c0 72 19 0f be e5 5f 3f 3e a6 2c 78 be d8 1c d0 bd
       -0.1397455 0.18688925 -0.24235782 -0.101617515
0003d0 63 59 a1 3e 30 72 53 3d a6 1a 4f 3e 1b fa 6c 3d
       0.3151351 0.05162257 0.2022501 0.057855707
0003e0 e0 48 57 3d ce 0a 08 3d 84 c7 86 3e 3f c5 53 bd
       0.052559733 0.03321343 0.26324093 -0.05170178
0003f0 c2 dc 9b bd bd 53 1a bd 83 c4 f0 bd 35 88 c2 bd
       -0.076104656 -0.037677515 -0.11756232 -0.09498636

linears.1.bias f4 [40]
000000 37 9c 94 38 a0 a7 97 b8 88 f0 29 3c 1e cd f9 ba
       7.086287e-05 -7.231464e-05 0.0103722885 -0.0019058322
000010 af 8f d1 bc 1a 4d 66 ba fb 71 d3 3c 5a 12 9a 3c
       -0.025581209 -0.0008785293 0.025811186 0.018807579
000020 7f 5b c5 3c cf 09 f0 39 11 98 b9 bc c5 48 54 bc
       0.02409148 0.00045783675 -0.022655519 -0.012956803
000030 76 ca 77 3c 37 7c bf bc 75 dc c2 3c c0 1c e0 3c
       0.015123954 -0.02337466 0.023786763 0.027357459
000040 5f 6f 50 bd e3 1a b8 bc be 65 e6 bc 41 57 6c 3d
       -0.05088746 -0.022473758 -0.028124686 0.0577004
000050 71 2f 99 3c 9c e5 0e 3d 4f a7 40 3d b4 cb 4b 3b
       0.01869938 0.03488694 0.047034558 0.0031096758
000060 8f d4 d3 bc 72 44 cf bc da 57 40 3b f5 ef 04 3d
       -0.025858192 -0.025301192 0.0029349239 0.032455403
000070 e5 e6 2e 3d 18 2a 31 3d 9e d5 43 3c dc c9 92 bc
       0.042700667 0.043253034 0.011952786 -0.01791852
000080 ef 65 95 bb c7 76 9b 3c a3 39 85 3c 50 78 ac 3c
       -0.0045592706 0.018977536 0.016262835 0.021053463
000090 b3 c5 05 3d 69 19 42 bc 5b 6b f9 3b a1 30 e6 3c
       0.032659244 -0.011846879 0.0076116747 0.02809936

linears.2.weight f4 [40, 40]
000000 d2 6e 44 be fe 1f 10 be 4d 08 37 3e 3b ac ab 3d
       -0.191829 -0.14074704 0.1787426 0.0838246
000010 d0 9a d5 bd 9f f3 2f bd 15 96 9d 3d b1 40 87 be
       -0.10429919 -0.042956945 0.076946415 -0.26416543
000020 c5 bc 98 3c bb 28 01 bf f9 ee 0a 3e f1 80 b1 be
       0.0186447 -0.50452775 0.13567723 -0.34668687
000030 2e b9 07 3d 02 3c b7 bd bc b6 52 bc 5d 57 21 bc
       0.033135585 -0.089469925 -0.01286095 -0.009847489
000040 27 3b d5 bd 43 ff 0b 3d 29 ad a0 bd 99 30 42 3d
       -0.10411673 0.034178983 -0.07845528 0.047409628
000050 bd 6c f2 3e 47 0d 6e bd 9b d0 97 bd 6c d7 53 3b
       0.47348586 -0.05811813 -0.07412835 0.0032324446
000060 96 e9 e0 3d 85 f1 1d 3d 75 a6 77 be ac 85 15 be
       0.10982053 0.03856041 -0.24184592 -0.14601773
000070 58 af 02 bb 01 4a c6 3d 6f b7 e4 3d ce e2 ab bc
       -0.0019940939 0.09682084 0.111678 -0.020982172
000080 70 52 9d bc 26 fd 1b 3c fe ea 04 be 7c 5b d6 bd
       -0.019204348 0.0095208045 -0.12980267 -0.10466668
000090 a7 88 16 ba 43 f5 b4 3d 2c a6 dd bd 04 dd db bc
       -0.00057424087 0.088358425 -0.108227104 -0.026838787
0000a0 2b 49 8c 3d 82 a3 2e 3d ef 82 b8 bd f3 30 dd 3e
       0.06849893 0.042636402 -0.090093486 0.43201408
0000b0 b2 8e 85 3c 55 69 52 be 7d e9 9a 3e dd 00 55 3e
       0.016303394 -0.20547993 0.30256262 0.2080111
0000c0 9b 96 74 bd 8d ea 2a 3e a0 ad 14 be 25 7d c7 bd
       -0.05971394 0.16691037 -0.14519358 -0.09740666
0000d0 97 6c f4 bd 2f cd 0a be e3 8d 82 3d 05 3f 6b 3e
       -0.11934774 -0.13554834 0.06374719 0.22973259
0000e0 8b a6 2b be a5 c4 e2 3d 5a 30 fa 3d 3a db 7e 3c
       -0.1676275 0.11072663 0.122162536 0.015555197
0000f0 38 ef ce 3c 6a 36 4d 3d 0d c1 15 3d 02 ed 1a 3e
       0.025260553 0.05010072 0.03656106 0.15129474
000100 ce 6b 2c bd 92 19 01 3e c4 4e 2b be b1 7a 6a 3e
       -0.042094998 0.1260741 -0.16729265 0.22898366
000110 e6 82 f4 bc 57 5c 98 3e 78 a5 9d 3e d9 4a dd bd
       -0.029847573 0.2975795 0.30790305 -0.10805292
000120 98 6f b7 3d 26 2a 43 be 74 b7 27 3d 8c eb 20 3e
       0.08956832 -0.19059047 0.04094644 0.15714854
000130 da 94 37 3c a6 b0 87 bd 1d 7b e8 3c aa 11 5b bc
       0.011204923 -0.0662549 0.028379017 -0.013370911
000140 e2 5c 18 be 66 be be 3d 05 0e 00 bc 11 bc 09 be
       -0.14879182 0.09313659 -0.0078158425 -0.13450648
000150 00 48 2b be 38 66 6f 3e 38 25 fe bd 9a e5 54 be
       -0.16726685 0.23378837 -0.12409443 -0.20790711
000160 0d ac f9 3d 50 48 fa bc 99 cb bb be 2a ff b2 bd
       0.12191019 -0.03055206 -0.3667877 -0.08740075
000170 b4 a2 64 3d bd 75 3f 3d f2 2a c6 be 6b f2 0e be
       0.05581923 0.046743143 -0.3870464 -0.13959663
000180 35 2b 90 3d 9e 6a cc bd b6 ca 18 be 6b 40 92 bd
       0.07039491 -0.09981273 -0.14921078 -0.07141193
000190 4b 82 8c be 8b a9 46 be b1 2e a8 bd aa e0 1c be
       -0.27443156 -0.19400613 -0.08212031 -0.15320078
0001a0 a3 7d 65 be 03 b3 50 bd fc 28 4d 3d e2 93 20 3e
       -0.22411208 -0.05095197 0.050087914 0.15681413
0001b0 db 5a b2 bd df 04 3d bd b2 3e f6 bd 1b e2 92 bd
       -0.087087356 -0.046147224 -0.12023677 -0.071720324
0001c0 df d9 3d 3e 57 a7 e1 3d d6 71 1d 3d 0d bf ad 3e
       0.18540142 0.11018246 0.03843864 0.33934823
0001d0 b7 a4 4f be 72 b2 36 3e fc 4c 44 3b 89 63 ba 3d
       -0.20277677 0.17841509 0.0029953113 0.09101016
0001e0 8b 40 10 bf 9a 7d 52 be 12 50 3b 3c ad d5 55 3d
       -0.56348485 -0.20555726 0.0114326645 0.05220573
0001f0 f9 14 3f be b2 b3 3b bd 6f 1c 9b 3d ab 55 05 3e
       -0.18660344 -0.045825668 0.07573783 0.13020961
000200 56 df 83 be c0 8c 8b bd 44 a0 2a bd db 77 ce 3d
       -0.2575633 -0.06813955 -0.041656747 0.10081454
000210 77 42 6e 3e e4 d0 96 bd 75 a2 86 3d dc da 03 3d
       0.23267542 -0.073640615 0.06573955 0.032191142
000220 3d 3b 33 3d ae 5d 4c be b8 7c 25 be e4 d1 41 be
       0.043757666 -0.19957611 -0.16160858 -0.18927723
000230 5b b1 f4 bc d4 de 72 3e fe 41 c0 3e 33 7c ae bd
       -0.029869726 0.23717815 0.37550348 -0.08519783
000240 9d e8 eb 3d 29 a8 96 bd e2 5d ed 3c fb 95 55 3e
       0.11518977 -0.07356293 0.02897543 0.20857994
000250 8e 73 9e 3d 18 c3 bb 3e 8f 4e 14 3e a3 c5 ae 3d
       0.07736884 0.36672282 0.14483093 0.0853379
000260 da 22 7d 3d 7f 9c 5b 3e 92 00 3b bd bb 3a bc bd
       0.061800815 0.21446417 -0.04565484 -0.091908894
000270 a9 c2 28 3e ff cb 31 3c 61 d8 48 3e 70 5a 8d 3e
       0.16480507 0.010851859 0.19613792 0.2760806
000280 86 6b 9b 3c 5b 97 ba 3d 81 11 98 bd 3e 8d ca bd
       0.01897217 0.091109 -0.074252136 -0.09890221
000290 dd 71 19 3e 63 e5 7c be df 08 fe bd ba 8e f2 3c
       0.14984842 -0.24696879 -0.12404036 0.029609073
0002a0 b2 d0 fb 3b 76 74 2f 3c 42 93 89 3e 1d f1 48 3c
       0.0076847905 0.010708919 0.2687016 0.012264517
0002b0 f5 a3 a0 3d ea 2a 8f bd c4 fa c8 be c0 82 98 bd
       0.07843772 -0.06990607 -0.3925382 -0.074468136
0002c0 89 a2 00 3d 00 df f8 bb 3b 51 2f 3e f1 c6 54 3e
       0.031405006 -0.007594943 0.1712083 0.20779015
0002d0 40 1b 69 bc a0 ea 9c 3e a4 c1 c2 3e 75 40 ba bc
       -0.014227688 0.30647755 0.3803836 -0.022735814
0002e0 58 02 86 3d 5c 05 39 3e 67 d4 6d bd 0a 31 07 3d
       0.06543416 0.1806845 -0.05806389 0.03300575
0002f0 ec 03 12 bd dc 82 06 be 7e fc da bd c6 b6 74 3e
       -0.03564827 -0.13135856 -0.1069269 0.23897848
000300 02 7f d4 3d 63 c0 c2 3d 65 0f a8 3d b9 35 25 3e
       0.10375787 0.09509351 0.08206061 0.16133775
000310 ec 00 11 3e 1a c7 5c 3d b5 3f 5e bd 8c 7e 05 be
       0.14160508 0.053900816 -0.054259975 -0.13036555
000320 34 e4 ff 3d 09 3e b5 bd 14 82 f5 bc 0c 54 ae 3e
       0.12494698 -0.08849723 -0.029969253 0.34048498
000330 61 e2 37 3d 84 b8 4e 3e c8 da 08 3d dc e7 be 3d
       0.044893626 0.20187575 0.03341177 0.093215674
000340 ae 18 9d 3d 66 03 f1 bd d6 c3 2e be 15 83 99 bb
       0.07670723 -0.11768226 -0.17066893 -0.0046848156
000350 7d b2 4b 3d 44 c6 a4 3e 8f b8 48 3e 62 a9 37 3d
       0.049730767 0.32182515 0.19601654 0.04483927
000360 3a 01 17 be b0 c5 89 be 1e 00 0d bf 1e 70 e9 ba
       -0.14746562 -0.26908636 -0.55078304 -0.0017809903
000370 cf 60 c8 3d e2 04 42 be ef 95 22 bd 09 39 78 3c
       0.0978409 -0.18947175 -0.03969377 0.015150317
000380 59 df 0f 3e 60 5d 89 bc d8 ec 2b 3e f2 67 90 be
       0.14050044 -0.016768157 0.16789567 -0.28204304
000390 d2 8b 64 3e 03 92 1e 3e 15 55 cb be b8 ba f6 3d
       0.22318962 0.15485387 -0.3971335 0.120473325
0003a0 11 08 96 3e 91 bc 33 be a3 01 04 3e 5e 47 00 3e
       0.2930303 -0.17552401 0.1289125 0.12527224
0003b0 32 c7 e1 3c ea de 00 be 1c 84 2b 3e a9 4d 2b bd
       0.027560804 -0.12585035 0.16749614 -0.04182211
0003c0 73 e9 29 3e 1f 81 ee 3c 1a cc de bd 36 9b 39 bc
       0.1659296 0.029114304 -0.10878773 -0.011328509
0003d0 3c c1 15 3e 2c e5 3d be a4 eb e6 3d 5d a1 39 be
       0.14624494 -0.18544453 0.11275414 -0.18127961
0003e0 e6 1a c8 3d de 8b 65 be 23 f4 fa bc ce 06 0b be
       0.097707555 -0.22416636 -0.030633992 -0.13576815
0003f0 cc 63 81 3b 67 8c a4 3d 6e 9f e3 3d 42 47 90 be
       0.0039486643 0.08034592 0.11114393 -0.28179365

linears.2.bias f4 [40]
000000 cd 36 c6 bb eb f5 69 3d bc cd c3 3c 89 d7 1c 3c
       -0.006049013 0.05711929 0.023901813 0.009572872
000010 f3 21 e2 bc f4 db fa bb 5a 97 0d bc 46 13 56 bc
       -0.027604079 -0.007655615 -0.008642042 -0.013066119
000020 40 1c b3 3c 40 25 8e 3c 0f 60 70 bc 08 f9 28 bc
       0.021864057 0.017351747 -0.01467134 -0.01031328
000030 a4 0a ac bc 06 20 4c 3d 7e c2 e0 3c 2e bb be ba
       -0.021001168 0.049835227 0.027436491 -0.0014551634
000040 e5 c5 b8 bc ed a7 7a 3b 29 c0 f4 bc 43 ab a4 bc
       -0.022555301 0.0038247064 -0.029876785 -0.020101195
000050 0a e3 9c b9 a4 00 7a 3d 00 a0 ae 3c af b0 08 3c
       -0.00029923796 0.061035767 0.021316528 0.008342906
000060 d2 7f 01 3c e2 8d ef bc 77 86 df 3c 03 1e a6 3c
       0.00790401 -0.02924246 0.027285798 0.020277983
000070 61 0a 80 3c 6a 7d 34 3b 0d 52 62 3c 6c 78 21 3c
       0.015629949 0.0027540573 0.013813508 0.009855371
000080 58 fb 1b bc bf fe 61 bc 17 dd 52 bb 9b 05 e3 bc
       -0.009520374 -0.013793646 -0.0032175237 -0.027712634
000090 19 d6 86 3c de 86 1a 3d 85 10 b7 ba 21 a0 e0 3b
       0.016459512 0.037726276 -0.0013966715 0.0068550264

linears.3.weight f4 [40, 40]
000000 a9 55 9c bd 08 96 c6 3d 8c ed 81 be cd 32 ee 3b
       -0.07633526 0.09696585 -0.25376546 0.0072692395
000010 b5 ac d0 bc bc a5 db bd 47 9a 4e 3e ae c0 f1 3d
       -0.025472978 -0.10724971 0.2017604 0.11804329
000020 ef 60 2b 3e e3 10 e0 3c 57 07 26 be 59 b8 08 3e
       0.16736196 0.027351802 -0.16213737 0.13351573
000030 35 2f 04 3e 74 b6 8d 3d 1e 1a 66 3a 78 a4 d5 ba
       0.12908633 0.06919566 0.00087776955 -0.0016299626
000040 c8 a9 b2 bd 86 bd 12 be 23 04 32 3e 44 af 28 3e
       -0.087237895 -0.1433011 0.1738439 0.16473109
000050 19 71 39 3e 8b 09 02 be 76 fe 8a bc 64 f1 87 be
       0.1810955 -0.12698953 -0.01696704 -0.26551354
000060 0c d8 d2 3d 6a ff 08 be f6 76 19 be 6d 57 4f be
       0.10295114 -0.13378683 -0.14986786 -0.20248194
000070 fa ba b9 be 10 e6 e9 3c f4 76 33 3e 47 17 da bd
       -0.36275464 0.028552085 0.17525846 -0.10648971
000080 b8 9b 05 3e 02 44 2f be 13 c9 c2 3d 0a b9 dc 3c
       0.13047683 -0.17115787 0.09511008 0.026943702
000090 7e 47 a3 bc ea d1 1d bc e1 6a 99 3e 68 48 c6 bd
       -0.019931551 -0.009632567 0.29964355 -0.09681779
0000a0 99 f0 39 be 42 62 ab be 59 a5 0f be 5d c8 8a be
       -0.18158187 -0.33473402 -0.14027919 -0.2710599
0000b0 ac b9 17 be 7d 81 a2 3d 7f 0a f4 bd bd b2 a5 bc
       -0.14816922 0.07934854 -0.119160645 -0.02022683
0000c0 92 0a a8 be 6d 07 20 be f6 df 05 be 10 3a 95 be
       -0.32820565 -0.15627833 -0.13073716 -0.2914586
0000d0 41 90 75 be ba fa 14 be f0 2f e3 3d 10 ae d3 3b
       -0.2398081 -0.1454877 0.11093128 0.006459959
0000e0 7a 92 cd bc 14 8c 83 bd 09 3e 5b 3e 08 02 1c 3d
       -0.02509426 -0.06423202 0.21410383 0.038087875
0000f0 c0 36 59 be 33 83 cc 3d 46 3d e4 3c 1e b0 20 3e
       -0.21212292 0.09985962 0.027861249 0.15692183
000100 d7 96 86 3e b4 26 a3 bd 33 8f 0f 3e 99 c8 99 3e
       0.26286957 -0.079663664 0.1401947 0.30035856
000110 8c bc 03 be 22 e9 23 3e 7b 1b 39 be 70 66 b2 3d
       -0.12864894 0.16006902 -0.18076889 0.08710945
000120 1b e6 88 3e 97 9f 8a 3d ef 8e 64 be 76 fe f3 3d
       0.26738057 0.067687206 -0.2232015 0.11913769
000130 0b bc 1e 3b ad 2b 0d 3e a4 58 90 3e b5 76 9c bd
       0.002422097 0.13786192 0.28192627 -0.07639829
000140 68 58 d1 3d 6c c0 87 bd 19 13 87 3d 99 15 fa bd
       0.1022194 -0.066284984 0.065954395 -0.12211151
000150 1f 63 5e 3e dc c0 ea 3d 20 44 4d 3e 2b 44 64 be
       0.21717499 0.11462566 0.20045519 -0.22291629
000160 f2 d8 62 be e3 2d 6f bd 72 eb b1 3c 59 1f 6e 3e
       -0.2215307 -0.05839337 0.021718714 0.23254146
000170 03 8d d1 bd a9 0e c9 3d b5 42 e8 bd 2e 3c 5d be
       -0.10231974 0.09817249 -0.11340848 -0.21604988
000180 64 3a 5c 3e 8c 6e 37 3c 44 38 fc bd df e5 9a 3e
       0.2150665 0.01119579 -0.12315419 0.30253503
000190 f8 cd 9a be 77 10 5a 3d a2 e3 4b be 37 89 5a bd
       -0.30235267 0.05323836 -0.19911054 -0.053353515
0001a0 2e 75 27 3e 6e c9 cb bd 37 93 fd 3c 78 61 91 3e
       0.16353294 -0.09950529 0.030953987 0.28394675
0001b0 e9 80 d8 bc 20 2a 1d 3d 14 b3 8f bc 0b 89 c7 3d
       -0.026428657 0.03837025 -0.017541446 0.09742936
0001c0 a3 5b 61 bd 2c a7 94 3c 83 f5 9b bd ad 95 1d be
       -0.055019032 0.01814612 -0.07615187 -0.15389128
0001d0 43 70 9f 3c 5a f9 87 3d 7d d8 29 bc 1e 02 32 be
       0.01946271 0.06639357 -0.010366556 -0.1738362
0001e0 80 16 80 bd 89 78 98 be 92 0b f3 3c 4e 97 09 3e
       -0.062542915 -0.2977946 0.029668603 0.13436624
0001f0 bc aa f2 3c 4e 9e f0 bd 8a db 83 b9 45 4a 89 bc
       0.029622428 -0.11748944 -0.00025149836 -0.016759047
000200 99 8f 1e bd 76 57 e4 ba 5d 19 3c be 15 16 2a bd
       -0.038711164 -0.0017421085 -0.1836905 -0.041524965
000210 ca c1 9f bd e3 8e 91 bd c4 a7 eb 3d 5d ce fa 3d
       -0.07800634 -0.071073316 0.11506608 0.12246392
000220 17 85 5f bd 50 47 43 be a0 a9 55 bd 17 f4 bb bc
       -0.054570284 -0.19070172 -0.05216372 -0.02294354
000230 3b e5 95 bd a4 f2 12 3e 5d 0d f8 3c 1c c0 fb 3d
       -0.07319113 0.14350373 0.03027981 0.12292501
000240 1e f7 62 be 79 b9 12 bd 3f 32 0f bc 94 1a 65 3d
       -0.2216458 -0.03582141 -0.008740007 0.05593355
000250 dd de 5d 3c 0b 80 93 3d 52 17 86 be df c1 51 3e
       0.013541904 0.07202157 -0.26189667 0.20484112
000260 8a 48 ed bd 7b 17 df bb 6c fd 17 be 16 7d e1 3d
       -0.11586101 -0.006808219 -0.14842767 0.110101864
000270 b5 2b e9 bc b1 02 14 3e 33 17 06 3e d0 98 b6 bd
       -0.028463224 0.14454152 0.13094787 -0.089158654
000280 fa 52 63 be 02 d3 88 3d b0 d8 b9 be 53 da a0 3d
       -0.22199622 0.066808715 -0.36298132 0.07854142
000290 2c 96 a4 3e 21 d0 8d bd dc d7 41 3e 89 ff ed 3d
       0.32145822 -0.06924463 0.1893 0.11621005
0002a0 6b 58 9b 3d 70 ae 83 be 45 8e d0 bd 8d 2c 9a 3d
       0.07585224 -0.25719023 -0.10183386 0.07528029
0002b0 73 36 59 bd e9 7d 73 3e 53 55 04 3d 35 88 91 bd
       -0.053030442 0.237785 0.032307934 -0.071060576
0002c0 61 dc d1 3d 7e a6 ad bd 59 de d2 3d 25 92 96 be
       0.10247112 -0.084790215 0.10296316 -0.29408374
0002d0 b7 77 cf bd b1 f0 28 3e fe 94 2d 3e 50 3c 3c 3e
       -0.10130256 0.16498066 0.16951367 0.18382382
0002e0 f2 02 86 bb 71 47 90 be 33 2a 85 3d 1f 49 05 be
       -0.0040897066 -0.28179505 0.065021895 -0.13016175
0002f0 15 8c a4 3c 27 46 68 be 66 7a 75 3e 87 14 09 3e
       0.020086328 -0.22683011 0.23972473 0.13386737
000300 18 b2 eb bd e1 1d dc 3d ed b4 16 be a5 09 6a be
       -0.11508578 0.107478864 -0.14717455 -0.22855242
000310 f7 a8 75 3c fa 9e ae 3d 30 33 26 be 84 f4 c1 3d
       0.014993898 0.08526416 -0.16230464 0.09470466
000320 1c 2c bc 3d ee da c1 3d df a9 f2 bc 6c 66 67 be
       0.09188101 0.09465586 -0.029622016 -0.22597665
000330 fd ca e8 3d c7 bb 75 bd 02 5c da bd 7a b9 65 bd
       0.11366842 -0.05999353 -0.1066208 -0.056085087
000340 d7 32 dc bc be 27 f4 3d d1 66 88 3e 62 79 a4 3d
       -0.026879711 0.11921643 0.26640943 0.080309644
000350 b4 40 9a bd 8a 7a 51 3e c9 dd bb 3e 42 ae 42 be
       -0.075318724 0.20456901 0.36692646 -0.19011787
000360 a3 a3 87 3c 05 36 f0 3d b2 38 23 3e 47 f7 09 bd
       0.01655752 0.117290534 0.15939596 -0.033683088
000370 40 74 17 3e e0 ca 88 3d 26 96 3e 3e b8 fb 6a bd
       0.1479044 0.0667932 0.18611965 -0.057368964
000380 a7 22 4c be 40 85 30 3e af 26 32 3e af d6 37 bd
       -0.19935094 0.17238331 0.17397569 -0.044882473
000390 5f 52 05 3e e2 7b b2 3e 43 39 33 be fc 38 66 bc
       0.13019703 0.3486014 -0.17502312 -0.014051672
0003a0 0d 7d 48 be fd 38 e6 bd 84 38 c7 3d b4 24 8e 3a
       -0.19578953 -0.112413384 0.097275764 0.0010844679
0003b0 b5 e4 57 be 57 65 4d 3d 1f e8 86 3e 15 38 3f be
       -0.21083339 0.050145473 0.2634897 -0.18673737
0003c0 3a 33 b2 3d 61 81 45 3e 1f 9c dc bd 38 c9 05 bd
       0.08701177 0.19287635 -0.10771965 -0.0326626
0003d0 53 cd 6e be c0 bb f7 3d 60 1e 92 3c 87 70 46 be
       -0.23320512 0.12096357 0.01783675 -0.19378863
0003e0 bb 52 b2 3d 0e 29 11 3d ab cf 1d bc df 6f 59 bd
       0.08707186 0.035439543 -0.009632031 -0.053085204
0003f0 9f c2 c6 3c ff f2 81 be 5d 56 70 be 09 64 ad 3c
       0.024262724 -0.25380704 -0.23470445 0.021165865

linears.3.bias f4 [40]
000000 81 b2 16 bd 61 d6 9f bc 42 c0 f6 3b f9 54 35 3d
       -0.03679133 -0.019511404 0.007530243 0.04427049
000010 07 0c f0 3c 99 99 8a 3c 1d 7d 3a 3d 31 20 ec 3c
       0.02930261 0.016918944 0.045529474 0.028823944
000020 f1 0f 47 39 32 13 6c bc 3e 57 06 bd 12 b3 c6 3b
       0.00018984058 -0.014408873 -0.032798044 0.0060638273
000030 e4 4b ea b9 13 9d 89 3b 99 fe a6 bb 33 ba 08 3d
       -0.000446885 0.004199633 -0.0050962684 0.0333807
000040 16 51 dd 3c 8a 2c 0c 3c 50 67 ea 3c 72 0c 06 3d
       0.027016204 0.008555541 0.028613716 0.032726713
000050 f4 d4 88 bb b6 a5 00 bd 46 42 50 3d 70 35 0d bc
       -0.0041757766 -0.031408034 0.050844453 -0.0086186975
000060 58 dc 1f bc c9 e0 de bb bf 64 62 bc b5 8e 60 bc
       -0.009757124 -0.006801699 -0.013817965 -0.013705899
000070 9e 8d cb bc c8 ab 96 ba 2e 15 0f 3d 3d c2 cf bc
       -0.024847802 -0.0011495287 0.034932308 -0.025361175
000080 d0 fa d7 3c 01 e3 92 bd 76 0a 28 3c 72 d7 46 3d
       0.026364714 -0.07172204 0.0102564 0.04854531
000090 24 a9 05 3a 51 cc 23 bb c6 d7 d8 3c ed ab 35 bc
       0.0005098751 -0.0024993608 0.026470076 -0.011088354

linears.4.weight f4 [40, 40]
000000 0d 93 be bc 98 c5 03 3d bc 1d b6 bd 18 f1 c4 3d
       -0.023263479 0.032170862 -0.0889239 0.096162975
000010 72 a7 90 bc a0 a4 d0 bd 28 00 07 3e be 5e 93 bd
       -0.01765797 -0.1018765 0.13183653 -0.07195805
000020 79 12 3a 3e 1b e2 78 3e 63 0e ee 3e fa 8a bd 3d
       0.1817111 0.24305002 0.4649535 0.09255023
000030 fa 74 73 bd 2f 89 2c 3d 6b 0d f6 3d ee 7c d3 3d
       -0.05943773 0.042123016 0.12014278 0.10326563
000040 dc d8 b1 be db be 90 3e 4f 02 30 be 8d 3c 26 be
       -0.34735763 0.2827061 -0.1718838 -0.16234036
000050 29 a8 d1 3d 4c 24 63 bd 47 58 9f 3d 7c 85 80 be
       0.10237152 -0.055454537 0.077805094 -0.2510184
000060 40 03 14 bd e2 42 82 3e ec ae e2 bc 04 37 0f 3e
       -0.036135912 0.25441653 -0.0276713 0.1398583
000070 24 70 19 3e f0 4c d3 3e 03 f2 65 be fd 3f 8a bd
       0.14984185 0.41269636 -0.22455601 -0.06750486
000080 19 be e0 bd 15 fb 43 3e 8c 58 21 3e cb 77 c9 bd
       -0.10973758 0.19138749 0.15756434 -0.09837302
000090 be 7c 14 be 0e 5b 07 3e 71 3d 10 bd e8 86 d6 bc
       -0.1450071 0.13218328 -0.035214845 -0.026187375
0000a0 04 18 d1 39 19 12 fd 3d fd 1b 4a be 80 a6 b2 bd
       0.0003988148 0.123569675 -0.19737239 -0.087231636
0000b0 3f f9 2d be 5d c0 88 bd cc e8 5d bd 12 5c cf bc
       -0.16989611 -0.066773154 -0.05417709 -0.025312457
0000c0 96 8b e4 bd 29 53 db 3d b2 bc a1 be 70 32 f3 bc
       -0.111594364 0.10709221 -0.31589276 -0.029687136
0000d0 4b 7d bb bd a9 93 0a be f6 f2 89 bd 3c e3 5b bb
       -0.09154757 -0.1353289 -0.06735794 -0.003355219
0000e0 c9 d9 67 bb 34 26 d7 3d bd 4d e3 bb 50 79 bc 3e
       -0.0035377613 0.105053335 -0.0069367574 0.36811304
0000f0 f4 3d 8f 3a 4a 1d 47 be 88 90 92 bc d4 25 f8 3d
       0.0010928498 -0.19444767 -0.017891183 0.1211659
000100 b0 63 b2 3d 74 71 84 3e eb b0 28 bd 0f 37 85 be
       0.0871042 0.25867808 -0.041184347 -0.2601857
000110 b1 4e d7 3b 27 67 cc 3d 01 3e bd bc 96 69 6c 3e
       0.00657066 0.09980612 -0.023100855 0.23087153
000120 4f ce 2e bd 28 ba 6a 3b e0 ff fe ba e7 75 01 be
       -0.04267722 0.0035816524 -0.0019454919 -0.12642632
000130 ea 60 b9 bd b8 54 22 be 70 4f 23 be 20 1a 36 3e
       -0.09051688 -0.1585263 -0.15948272 0.17783403
000140 14 60 68 3d 64 b7 a2 3d 18 b4 4c 3e 85 21 af bd
       0.056732252 0.07945135 0.19990575 -0.08551315
000150 18 95 4b 3d 60 a2 5b 3d 93 0e 1d 3e b4 5b 2b 3c
       0.049702734 0.05362165 0.15337591 0.010458875
000160 63 e7 29 3d bc c5 01 3e 45 0a 30 3e 22 79 b3 3d
       0.041480433 0.12673086 0.17191418 0.087633386
000170 3c 44 42 bd ab ea 8a be 19 ef 92 3d 11 46 70 bd
       -0.047428355 -0.27132162 0.071745105 -0.05866057
000180 cc f7 b0 bc 0b e7 04 bd 74 3b e5 bd 0e 5e f2 3c
       -0.021602534 -0.032446902 -0.111929804 0.029585864
000190 cd fc 4e 3e d1 7e 44 be e2 21 75 3c 25 35 f2 bd
       0.20213623 -0.19189002 0.014961692 -0.11826543
0001a0 18 53 52 3e 96 ee d3 3d 8a 94 68 3a 7b 93 f8 bc
       0.2053951 0.10348241 0.00088722317 -0.030343762
0001b0 73 e5 91 3e 16 bb 1c 3e 3c f6 c5 bd 04 8e 6b 3e
       0.28495368 0.15305743 -0.09666106 0.23003393
0001c0 a0 9e 82 3d 58 db 9e be f6 34 41 3e e1 13 a0 bd
       0.063779116 -0.3102672 0.18867859 -0.078162916
0001d0 e0 4d 68 3d 66 60 64 3d 94 65 b7 3d a5 89 d0 3d
       0.056714892 0.055755995 0.08954921 0.101825036
0001e0 cc 17 84 be 45 b2 0e 3e 50 95 9a bd 66 f8 2d 3d
       -0.25799406 0.13935192 -0.0754801 0.04247322
0001f0 f5 a2 12 be 0f 6b 48 be 5c 9c 72 3d 2c 04 e2 bb
       -0.14319976 -0.1957209 0.059231147 -0.00689747
000200 5e d1 59 bc 7a ed 1e be 53 7f 57 bd 42 25 a6 3e
       -0.013294546 -0.15520278 -0.05261166 0.324503
000210 e0 17 85 3d 25 7b 70 3d 0a 3d 69 be 72 49 94 bd
       0.064986944 0.05871119 -0.22777191 -0.07240571
000220 fe 20 ab bd 4b cd ec bd d6 50 4b bd ef b5 9a 3e
       -0.08355902 -0.11562594 -0.049637638 0.3021693
000230 db 87 b6 bc 44 10 57 be cf 31 a3 3d a6 d2 43 be
       -0.022281578 -0.21002299 0.079684846 -0.19123325
000240 fb db 18 3d f2 26 0f 3e 22 3d a7 be fe aa 27 3e
       0.037319165 0.139797 -0.32663828 0.16373822
000250 22 ca 87 be 06 f5 a1 bb 67 e9 29 3d 1b c1 0d be
       -0.26521403 -0.004942539 0.041482355 -0.13843195
000260 f5 2c 03 be b0 af 62 be 49 b6 4b bc 74 0b 7b bd
       -0.12810118 -0.22137332 -0.012433597 -0.06129022
000270 bf 5a b8 bd a1 a6 da 3c a5 4f f3 bd 24 ea 0a 3d
       -0.090016834 0.026690783 -0.11880425 0.0339147
000280 f0 28 1d 3e f3 a0 a8 3c 94 7b 88 bd 44 f1 40 be
       0.15347648 0.020584559 -0.06664196 -0.18842036
000290 92 6a 95 bd c7 a5 48 3c 17 ae a3 3d 84 f7 84 bd
       -0.07295717 0.012246556 0.079921894 -0.06492522
0002a0 97 ff 28 3e cd 88 b8 3e 97 f1 ec bd b9 3f 86 be
       0.1650375 0.3604187 -0.11569517 -0.26220492
0002b0 a0 7a 46 3e 7e 23 bc bd 7b ac 94 bd 10 d9 f9 bd
       0.19382715 -0.09186457 -0.072594605 -0.121996045
0002c0 d5 e6 6a 3e 4e 68 f5 3d 26 83 36 be 2d 13 82 3e
       0.22939618 0.11982785 -0.17823467 0.25405255
0002d0 4b 0a fe 3d d0 98 86 3c ca 02 71 be 4a 6f 58 3e
       0.12404307 0.016430289 -0.2353622 0.21136203
0002e0 e2 4f e5 3d f4 75 76 bd b5 b9 18 3e 2d b7 58 3e
       0.11196877 -0.060171083 0.14914592 0.21163626
0002f0 55 ef f1 3c e5 38 81 be e4 d9 e3 bd 33 04 a8 bc
       0.029533068 -0.2523872 -0.11125544 -0.020509815
000300 1b 1e 27 be df d4 6c 3e 69 b7 09 be 85 87 7c 3e
       -0.16320078 0.23128079 -0.13448872 0.24661072
000310 28 b2 ab be 9b b3 01 be a1 4f 91 3d 8a 86 3b 3e
       -0.3353436 -0.1266617 0.07095266 0.18313041
000320 5a 38 9c 3d 99 11 6f 3d c1 7a 3a 3e e5 ed 3a be
       0.07627936 0.05836639 0.1821089 -0.18254812
000330 82 70 17 be 3f 25 21 3e db 5e d3 be 80 29 49 3d
       -0.14789012 0.15736865 -0.41283306 0.049111843
000340 62 8c f5 3d 11 52 bf 3d 11 a3 97 3d 2b 9c 46 3d
       0.119896665 0.09341825 0.07404149 0.048488777
000350 f8 ee 3e be 4c 7f fc 3d 61 f4 ef bd a2 9f ba 3d
       -0.18645847 0.123289675 -0.117165335 0.09112479
000360 32 eb 15 be 74 79 ba bd 47 e4 55 3e 95 51 7d be
       -0.14640501 -0.091051966 0.20887862 -0.24738152
000370 21 8e 78 bd cc 0c 8b 3d 8c bb ac 3d cd 81 d9 bb
       -0.06068242 0.0678955 0.08434209 -0.006637788
000380 8c c3 dd 3d 42 d8 94 be 66 8f 41 bd 7e cf 38 3e
       0.10828313 -0.29071242 -0.047255896 0.18047902
000390 f7 e6 32 3e 23 41 37 be 59 9c ca bd ee ce 22 be
       0.17470919 -0.17895941 -0.09893102 -0.1589925
0003a0 45 40 cd 3d 00 e8 2c 3c 45 82 b5 3b 45 86 85 be
       0.10022024 0.01055336 0.005539211 -0.26079002
0003b0 fc 54 37 3e 23 69 0d bd b8 94 bf 3c 40 c2 44 be
       0.17903513 -0.034524094 0.023386344 -0.19214725
0003c0 e3 cf 84 bd ad 64 b5 3e 20 29 ac bd b7 14 f5 3d
       -0.06484964 0.35428372 -0.084062815 0.11966842
0003d0 dd 8c f2 bd 16 ba 94 be 6f f0 a9 be a6 8a 8e bc
       -0.11843274 -0.29048222 -0.3319125 -0.017400097
0003e0 29 90 63 3e fa 15 8d bd a6 95 2e 3c d0 92 d8 bd
       0.22222961 -0.06888957 0.010655796 -0.10574877
0003f0 98 7d 42 3e 53 ba ca bc 59 7e 9c 3d af ac 7e 3d
       0.18993223 -0.02474705 0.076412864 0.062176403

linears.4.bias f4 [40]
000000 f3 24 85 3c 12 e4 21 bd 9c 70 82 bc 67 cd b1 bb
       0.01625297 -0.039524145 -0.015922837 -0.005426097
000010 90 0a 2e bb 80 5c 1b bc 12 df 44 bc 02 1d 4b 3c
       -0.0026556589 -0.009482503 -0.012016075 0.012397053
000020 a7 b2 0a bd 8b 22 d8 3c 85 78 d1 bc 78 0e c1 3c
       -0.033861782 0.026383659 -0.025570164 0.02356647
000030 f4 e9 c1 ba 79 1d e6 3c c2 d8 85 bc 11 dc a9 3c
       -0.0014794455 0.028090226 -0.01633871 0.020734819
000040 37 6e 20 bb 20 c6 7f 3c bf 2d a1 bb 70 6d cb 3c
       -0.0024479756 0.0156112015 -0.0049187834 0.024832457
000050 74 ef 26 bc c8 0e ea 3c a1 46 2d bb 74 13 d1 bb
       -0.010188926 0.028571501 -0.0026439803 -0.006380493
000060 b9 9d 8c 3c c6 40 4b 3d 6e f3 22 3c 53 70 ee bb
       0.017165052 0.04962232 0.0099457335 -0.0072765737
000070 fe ae d6 bb 9e 6f f5 3c 64 65 ff bc 3f 41 c5 3b
       -0.0065516224 0.02996045 -0.031176277 0.006019741
000080 94 c1 95 3b db 8b 0c 3d 98 2e dc 3c 54 13 17 bb
       0.0045701955 0.034313064 0.026877686 -0.0023052292
000090 88 f3 0a 3c 0c 17 09 3b 6e 57 e8 bc e3 d1 9d 3c
       0.008480914 0.0020918278 -0.028362002 0.01926512

linears.5.weight f4 [40, 40]
000000 bf 88 71 3e b7 71 39 bd d5 77 2b be d0 03 40 bc
       0.2358732 -0.045274463 -0.16744931 -0.011719659
000010 06 5c 01 bd ed be 58 bd 3f 60 44 bd 50 30 88 be
       -0.0315819 -0.052916456 -0.04794335 -0.2659936
000020 17 fb df bc 66 c0 4e 3d e3 41 59 3c a2 41 0e be
       -0.027341409 0.050476454 0.0132603375 -0.13892224
000030 ad 9c 51 3e f5 83 b5 bd 6e bc 46 3e cd ad c1 bd
       0.20469923 -0.088630594 0.19407818 -0.09456978
000040 61 8f 07 3d 34 4e d4 bd a6 89 5d be db 66 0a 3e
       0.03309572 -0.103664786 -0.2163454 0.13515799
000050 b4 db bf bd 77 a8 c4 3d b8 bf a4 bd 9a c7 31 bb
       -0.09368077 0.096024446 -0.0804438 -0.0027127028
000060 11 88 4a be 56 c6 3a 3e 7c 85 55 3e 1d df 32 3d
       -0.19778468 0.18239722 0.20851701 0.04366981
000070 15 ff 31 be 4d ba d3 bd d3 d9 77 3c b9 1e 3a bd
       -0.17382462 -0.103382684 0.015127617 -0.045439456
000080 91 54 88 3d 0b d6 a1 bd 95 1b 99 be 9c 33 83 3d
       0.06656755 -0.079021536 -0.29903856 0.06406328
000090 53 b6 12 be 34 fa 55 be f5 61 29 be 9f bd 05 bd
       -0.14327364 -0.20896226 -0.16541274 -0.03265154
0000a0 68 75 05 be 7e d9 40 bd b2 3c f6 3d 9b e9 82 bd
       -0.13033068 -0.047082417 0.120232955 -0.06392213
0000b0 1a 13 03 3d 7f 82 c1 bd 25 10 0e be fb 7c e6 3d
       0.03200064 -0.09448718 -0.13873346 0.11254307
0000c0 20 9b 1b be 8b fa e4 bd 43 fb a1 3d 31 43 0e be
       -0.15195894 -0.111806 0.079092525 -0.13892819
0000d0 0a 40 9c bd b2 0f f8 3d 78 b5 05 3e cf 00 54 be
       -0.07629402 0.12112369 0.13057506 -0.20703433
0000e0 c0 5f 94 be 97 89 d9 bd 1a d9 14 3e b8 5a 97 bc
       -0.289793 -0.10621946 0.14535943 -0.018475875
0000f0 f4 19 28 3d 53 22 6b bd 11 ab d7 bd 76 23 42 3e
       0.041040376 -0.05740578 -0.10530675 0.1895884
000100 86 26 13 3e 06 94 bf 3d ad 48 99 3c c3 9a 2c be
       0.14370164 0.09354405 0.018711412 -0.16855912
000110 7c 88 ad bd 17 ae cb 3c e3 8f 3b bd 7d be 07 3e
       -0.08473298 0.024863286 -0.045791518 0.1325626
000120 23 35 e9 bd c8 f0 fc 3d b6 3f b9 bd c7 2c ac 3d
       -0.11387088 0.12350613 -0.09045355 0.08406978
000130 0d ab 97 be ad 86 19 3c 6e c6 3b 3c 7a a7 2a be
       -0.2962269 0.009370488 0.011460884 -0.1666545
000140 f7 53 89 be 2a eb 0c be b7 43 2c 3e a3 53 dc 3d
       -0.26821873 -0.13761583 0.16822706 0.1075814
000150 9f c9 89 3d 7a 8a 90 3d 4e 68 d9 3d 84 a8 3d 3e
       0.06727909 0.07057662 0.10615598 0.18521315
000160 6d 79 58 be 8c ef cb 3c 38 7d 1b 3e b5 3b 06 3e
       -0.2114007 0.024894498 0.15184486 0.13108714
000170 7d 24 1c bc 77 cd 26 3e 97 50 53 3e 88 02 24 be
       -0.009530184 0.16289316 0.20636211 -0.1601659
000180 f8 45 60 3d 98 50 b3 bd 38 f2 05 bc 50 a9 13 3e
       0.054754227 -0.087556064 -0.008175425 0.14420056
000190 e9 d5 99 be 57 4c 93 3d 0a 66 15 be cf 14 29 bd
       -0.30046013 0.07192295 -0.14589706 -0.04127961
0001a0 0e 28 1a be 38 0d 02 bd 9d c7 88 3e 8e ce 85 be
       -0.15054342 -0.031750888 0.26714793 -0.2613415
0001b0 a9 21 d3 bd f7 6c 9f bd 7f 5f 5a 3e 23 4b 17 3e
       -0.103091545 -0.07784455 0.21325491 0.14774756
0001c0 a1 c6 ad bd ad c9 55 be 52 80 8a 3d da 88 00 bc
       -0.08485151 -0.20877714 0.067627564 -0.007845128
0001d0 a3 87 d3 be 5b 88 0c 3e 23 f0 6c bc 99 64 2b 3d
       -0.4131442 0.1372389 -0.01446155 0.041843984
0001e0 c2 b7 86 bd ba 32 91 bd c5 90 73 3e 42 ed 46 3d
       -0.06578018 -0.070897534 0.23785694 0.04856611
0001f0 7b 11 47 be 5a 48 38 3d 3f f6 a4 bb be 90 87 be
       -0.19440262 0.044990875 -0.0050342376 -0.26477617
000200 d2 3c 49 be 6e 99 f9 bc 9f 0e fa bd 65 35 11 3d
       -0.19652107 -0.030468669 -0.1220982 0.03545131
000210 0d 23 8b 3e 65 0a fd bd e4 00 7d 3e 79 d1 7e bd
       0.2717518 -0.12355498 0.24707371 -0.062211487
000220 3d 83 6b 3d 9d db 1a 3e 3d 7d 54 bd 0f ec ee 3c
       0.057498205 0.15122838 -0.05187725 0.029165296
000230 3e 19 77 bc 6c 4a 1d bd 08 52 61 be 09 4d a5 be
       -0.015081702 -0.038401052 -0.22003949 -0.32285336
000240 b0 57 2f be b1 a8 3e be 4f b3 1a 3e 1e 6c fb 3c
       -0.17123294 -0.18619038 0.15107463 0.030691203
000250 a0 1b ad 3e 68 28 6f 3d 65 24 87 be 1a 1f 10 3e
       0.3381014 0.058388144 -0.26394954 0.14074364
000260 62 c0 10 3e ed 70 01 bc b1 fa 5e 3d 5d 39 0c 3e
       0.14135888 -0.007900459 0.054438297 0.13693757
000270 03 e9 83 be f8 6b 40 3d 16 69 45 be df b4 77 b9
       -0.2576371 0.046977967 -0.19278368 -0.00023623135
000280 7a 39 2c 3e 2f d6 01 3e 45 97 9f 3c 0c 01 1b bd
       0.168188 0.12679361 0.01948131 -0.037842795
000290 e1 37 f4 bd 19 49 66 3e 3b fd 71 bd 36 d9 a5 3e
       -0.119247206 0.22488822 -0.05907939 0.3239228
0002a0 cb c7 93 be 82 36 39 3e 5c 78 0d be 9f 85 1b be
       -0.28863367 0.180872 -0.13815445 -0.15187691
0002b0 5a 7d 44 be 4b 00 8a 3c 65 73 6e be a5 1a 31 bd
       -0.19188443 0.016845843 -0.23286207 -0.0432383
0002c0 75 56 a6 3e 09 3d 48 3d b1 df 68 bc ba 85 93 3e
       0.32487836 0.048886333 -0.014213488 0.28812963
0002d0 b2 7d 23 3e e8 68 27 3e ff 47 74 be 54 a1 5f be
       0.15965918 0.16348612 -0.2385559 -0.21838886
0002e0 0f b9 82 be 29 3e 38 bc 8b 95 77 be a4 27 d3 bd
       -0.25531814 -0.011245289 -0.2417814 -0.10310295
0002f0 41 3f dd bd 20 82 06 3e 4b 3e 39 3e da 77 c3 bd
       -0.1080308 0.13135576 0.18090169 -0.09544344
000300 68 45 85 bc 67 24 e2 3c eb ab 3c be 0f 5c a1 be
       -0.016268447 0.027605249 -0.18424957 -0.31515548
000310 65 51 05 3d af be 35 3d 97 a8 a8 be 2a 90 33 3e
       0.032548327 0.044371303 -0.32941124 0.17535463
000320 96 d9 cb 3b a1 9d fe 3d 91 88 c2 3a fe c1 d2 3d
       0.0062210066 0.12432409 0.0014841725 0.10290907
000330 2a 21 9b 3e e8 14 d8 3d 99 58 46 bd 17 3c 6a bd
       0.3029874 0.105508626 -0.048424337 -0.057186212
000340 14 cc 23 be 11 2b ad bd 3d e5 d5 3d 3f f9 6a 3e
       -0.15995818 -0.0845548 0.10444114 0.22946642
000350 ed c9 63 bd 19 69 76 3e dc f0 7b ba ac 9c eb bd
       -0.055612493 0.24063529 -0.0009610781 -0.11504492
000360 04 92 c4 bd ae df 7d be 6f c1 b9 3d c4 b8 03 be
       -0.09598163 -0.24792358 0.09070098 -0.12863451
000370 28 05 cd 3e 5e 82 82 be dc 86 b9 3b 80 d7 ff 3d
       0.40042996 -0.25490087 0.0056618284 0.12492275
000380 b0 af 43 be f5 b7 81 be 05 ea c0 bd 6c 31 51 bc
       -0.19109988 -0.2533566 -0.09419636 -0.012768131
000390 55 3c 5b 3d bf 32 f0 3c 40 b3 85 3e 32 3c 8d 3d
       0.053524334 0.029321073 0.2611332 0.06896247
0003a0 8a 9a be 3c 25 e1 02 be 06 ab d5 bd 13 f3 e5 bd
       0.02326705 -0.12781198 -0.10433011 -0.11228003
0003b0 97 f6 ca 3c c9 fb 19 be 2f fe 58 3e 57 dd 84 bd
       0.024775786 -0.15037455 0.21190713 -0.0648753
0003c0 f8 21 88 3d 9b 58 51 be 0f 5a 22 be b0 ba 8f bd
       0.06647104 -0.20443957 -0.15854667 -0.0701803
0003d0 8b 1c 20 3e af f2 45 3d bf c8 98 be 8e 4d bd 3e
       0.15635888 0.048327144 -0.29840657 0.36973232
0003e0 52 0e 8c 3d f3 3c bd 3d 1e c2 07 bd 4d 69 9f 3e
       0.06838669 0.09240141 -0.03314411 0.31135026
0003f0 e2 7a ae bd 55 8e 6a 3d 35 76 f8 3d 7b 27 e6 3d
       -0.08519532 0.057264645 0.12131921 0.11237999

linears.5.bias f4 [40]
000000 ea be 01 3c a8 b3 09 bd fd 97 07 3c 0d 00 34 3d
       0.007919053 -0.0336186 0.008275983 0.04394536
000010 bd 58 a1 3b cf 1f 2e bc db 28 dd 3c b6 1c 4e 3b
       0.0049239085 -0.010627701 0.02699702 0.0031450219
000020 a4 a3 da ba 1b 94 e3 3c f2 63 af 3c dd 4c f9 bc
       -0.0016680849 0.027780583 0.021409962 -0.03043216
000030 49 78 c2 3a f9 27 97 bc 28 e0 2c bb 86 5d 8e 3c
       0.0014836873 -0.018451678 -0.0026378725 0.01737858
000040 82 b8 35 bc 8e 13 ab bb c0 ab f1 bc e8 35 f1 bc
       -0.011091353 -0.005220837 -0.029500842 -0.02944465
000050 f9 f6 8c bb ba 85 d6 bc dc 71 9f 3c 45 8a a4 3a
       -0.0043019024 -0.026186813 0.019463472 0.0012553415
000060 65 1c 3b 3c 7d f5 dc 3b ad 26 2c 3c ca b8 16 bc
       0.011420344 0.0067431317 0.010507268 -0.009199331
000070 cb 71 42 bc 8d 1d 34 3c f4 34 f2 3c a7 f5 92 3b
       -0.011867951 0.010993374 0.029566266 0.0044848504
000080 ad 97 dc 3c 25 e7 bc 3c 84 ab 2d bc 02 bc dd bc
       0.026927793 0.023059437 -0.010599975 -0.027067188
000090 83 3a 0f bc 5f 17 0a bd 5f 71 f5 bc 7d 28 a2 3c
       -0.008741978 -0.033713695 -0.029961286 0.019794697

linears.6.weight f4 [3, 40]
000000 e6 d4 1a 3e 4d 89 a2 be 90 6a 48 3e d0 b0 0a 3f
       0.15120277 -0.31745377 0.195719 0.54176044
000010 1a cf 93 be f0 3c 52 3e 3c 9d d5 3e ed b0 12 3f
       -0.28868943 0.20531058 0.41721523 0.5730122
000020 0e 14 a5 3e 0d d1 11 3e 16 31 92 be 5c 90 71 be
       0.32241863 0.14239903 -0.28553075 -0.23590225
000030 8c 7b 9b 3e 64 3a 64 3e 75 3a 65 be a5 b1 b3 3a
       0.30367696 0.222879 -0.22385581 0.0013709558
000040 cd 74 26 bf 22 23 91 bd 55 30 3e be a9 3e 11 3d
       -0.65021974 -0.07086779 -0.18573125 0.035460148
000050 8e fe 24 3e 9e b2 9e be 94 ab 93 3e 05 a7 e9 3e
       0.1611273 -0.3099565 0.2884184 0.45635238
000060 3b 0f 45 be 80 93 1f 3e cf 3e 22 3d 15 82 54 be
       -0.19244091 0.1558361 0.03961068 -0.20752747
000070 84 54 7d 3c 10 a8 ac 3d 52 7d cb be 91 71 a2 3d
       0.015462045 0.08430493 -0.3974405 0.07931817
000080 cc 13 bd 3e 55 0b 34 be 88 cc 7b bd 96 fe af bc
       0.36929166 -0.17582448 -0.061474353 -0.0214837
000090 e5 af 7c 3e 22 20 f3 be 6d 85 34 be 14 e8 42 be
       0.24676473 -0.47485453 -0.17629023 -0.19033843
0000a0 63 e0 c5 bc 75 83 bd 3e d2 f7 8c bb b5 8e bb bd
       -0.024154847 0.37014356 -0.0043020034 -0.091580786
0000b0 ea 1b 14 be 0f 95 87 3e a2 65 d0 bb 9a 36 a8 3c
       -0.14463773 0.2648091 -0.006359772 0.020533849
0000c0 d3 fa 8b bc 71 2d c0 be 60 0c 28 be d5 38 84 3e
       -0.017087376 -0.3753467 -0.1641097 0.2582461
0000d0 24 9f 4d 3c b0 a7 81 3e 02 50 b4 b9 c2 1a da be
       0.012550149 0.25323248 -0.00034391886 -0.4259854
0000e0 8e 97 0e 3e a9 ce 8d 3d 17 f5 98 3e f1 27 5e 3e
       0.13925001 0.06924183 0.2987449 0.21694924
0000f0 d5 41 0b 3e 5a 5a 67 3e b9 1e 26 be 56 8a 85 3c
       0.13599332 0.2259306 -0.16222657 0.016301315
000100 ef 1c 64 bd f7 25 09 3a 6f 50 80 be c7 ef 2b 3d
       -0.055691656 0.00052317925 -0.25061366 0.041976716
000110 79 fb 58 3e 5d b2 ae bd 30 4b 4c be d1 02 72 bc
       0.21189679 -0.08530114 -0.19950557 -0.014771179
000120 45 89 b1 be 28 cf c9 bd 78 45 7a 3d 87 8c bc 3e
       -0.3467504 -0.09853965 0.061101407 0.36825964
000130 ac be ff 3d 33 85 17 3e 2d 8e 9c 3e 3e ea d5 bd
       0.1248754 0.14796905 0.30577222 -0.10445069
000140 40 6b ba bd ca 5b c0 be 30 5f 9b 3e 78 2f cd 3d
       -0.091024876 -0.3757003 0.3034606 0.100188196
000150 6b 83 ae be 83 07 8b 3e 9f 8c 1d 3e aa 75 99 be
       -0.3408464 0.27154168 0.15385674 -0.29972583
000160 ad 95 f4 bc 4c 65 26 3d cd ca a2 3e bc c0 11 ba
       -0.029856527 0.040623948 0.3179535 -0.00055600307
000170 e2 1a a7 3d ec 50 30 3e 83 af 43 bd 5f a8 90 be
       0.08159424 0.17218369 -0.047774803 -0.28253457
000180 fe 06 a4 3e 07 67 1b 3e 3a 5b d1 bc db 40 8f be
       0.32036585 0.1517602 -0.025556196 -0.27979168
000190 62 31 fd 3e 3e 8f be 3d e1 d9 de 3e b8 5f 12 3e
       0.4945174 0.09304665 0.43525603 0.14294326
0001a0 c0 9d c8 bd 8a 3a b1 bd 28 b5 5f be 17 60 2f 3e
       -0.097957134 -0.086537436 -0.2184645 0.17126499
0001b0 30 df 94 3e f0 45 70 bd 3d 80 45 3e f3 46 64 3e
       0.2907653 -0.058660448 0.192872 0.2229269
0001c0 36 ad 0d bd 38 30 88 bc b6 25 81 be 78 06 94 bd
       -0.034589015 -0.016624555 -0.25224084 -0.07227796
0001d0 4a 0c f1 be 76 26 0a be 31 2c be bd 1a cd 14 bd
       -0.47079688 -0.13491234 -0.092857726 -0.036328413

linears.6.bias f4 [3]
000000 38 d3 bd 3e 31 47 de bc f7 71 8c 3b
       0.3707521 -0.027133556 0.0042860466

exp_avg f4 [40, 2]
000000 cb 0f dc c0 74 12 77 3e 69 80 87 40 f0 54 9d be
       -6.876928 0.24128133 4.234425 -0.30728865
000010 d9 67 2c c1 4e 46 9e 3e ce 10 64 bf 23 53 14 bd
       -10.775353 0.30913013 -0.8908814 -0.036212098
000020 d0 d8 38 41 ce 2b 43 bd 16 fc b8 3f d4 c9 f6 bd
       11.552933 -0.047649197 1.445193 -0.120502144
000030 e2 8b ad 40 49 89 a8 3e 74 9c b6 40 67 e6 93 bf
       5.4233255 0.3291724 5.7065983 -1.1554688
000040 11 31 18 41 5b 5a 7d 3e 27 7d fb c0 d8 6f eb 3b
       9.511979 0.24741499 -7.8590274 0.0071849637
000050 ea ab 9a 3f 16 12 2c bf 79 2c 25 c1 b3 a5 59 be
       1.2083714 -0.67215097 -10.323358 -0.21254615
000060 13 1a 0b c1 df 7b 22 bf 1d 43 34 40 02 1d f4 bd
       -8.693866 -0.6347026 2.8165963 -0.11919595
000070 92 f5 31 3f 4b 45 a4 be fe 0f dd bf c6 46 ec bd
       0.69515336 -0.32084116 -1.7270505 -0.115369365
000080 a5 32 7a 40 16 4a ad 3d 5a 61 28 bf 59 ef c3 bd
       3.909341 0.084613964 -0.65773547 -0.09567136
000090 f0 cb 5a 3f bf c4 51 3e 61 14 d1 40 6f 02 4b 3f
       0.85467434 0.20485209 6.5337377 0.7930059
0000a0 59 5f 03 c0 5e ff 73 be 22 41 04 41 ba f2 24 3f
       -2.0526946 -0.23827884 8.265902 0.6443287
0000b0 c9 93 6c be 14 6e ab 3e 1b 01 18 40 91 6d 8a bd
       -0.2310325 0.3348242 2.3750675 -0.067591794
0000c0 4d 5a 35 c1 28 9a 42 be 77 ce 84 c1 f2 92 ac be
       -11.334546 -0.19004118 -16.600813 -0.3370586
0000d0 98 1c 65 40 b5 c9 41 be 78 56 57 c0 a7 a8 61 be
       3.5798702 -0.18924601 -3.3646526 -0.22036992
0000e0 3a 96 a2 c0 87 c0 23 bf 86 38 ce 3f ca a3 72 3e
       -5.080838 -0.6396565 1.6111 0.23695293
0000f0 a2 22 2b c0 13 69 a3 bd b9 be 84 c0 11 e9 c3 3e
       -2.6739888 -0.07979026 -4.1482816 0.38263753
000100 c6 d1 29 c0 1b 92 a7 3e f9 6a e0 3f c7 5b 6b 3e
       -2.6534286 0.32728657 1.7532645 0.22984229
000110 f9 d7 0d 40 10 3c 91 bd e4 3e c7 c0 41 aa 68 be
       2.216307 -0.07091534 -6.226427 -0.22721197
000120 3f 77 82 c0 6d 28 60 bd ef 5a 18 c1 d3 1a 33 bf
       -4.0770564 -0.054726053 -9.522201 -0.69962806
000130 ce 82 37 c0 ca b4 3f be 2e 99 74 41 19 84 25 3f
       -2.8673587 -0.1872131 15.287397 0.6465469
