1DCFD_PINN/1D_CFD_Rand_Eta1.e-8_Zeta1.e-8_trans_Train_PINN.pt-5000.pt (torch, 112935 bytes, 42 tensors)

linears.0.weight f4 [40, 2]
-0.21996982 -0.45650527 -0.033685327 -0.11716901 0.32182303 0.70500827 -0.033568688 -0.40981963
0.21254472 0.01573788 0.093981594 -0.21337473 0.16586418 0.14847189 0.070281126 0.040938403
0.33541724 -0.51816505 -0.023542874 -0.35961053 0.32657906 0.033825435 0.06784553 -0.13969319
0.047702152 -0.11071208 -0.10903491 0.12037585 0.4526798 -0.0430583 -0.27842543 -0.074315526
-0.13384092 0.17084613 0.04557057 0.17021228 0.12710363 0.41702798 0.34356564 0.4067124
0.007502435 0.18290146 0.11191201 -0.03455232 0.29005435 -0.14831115 -0.069795765 0.044344615
-0.26077792 0.40965852 -0.5115519 0.15209976 -0.20953049 -0.39128187 0.04740424 0.07554793
0.23064156 0.17851532 -0.04820681 -0.27155593 0.10719196 -0.44904077 -0.01402813 0.14494754
0.1521742 -0.07649211 0.008022587 -0.2869736 0.023701215 0.30031347 -0.52120656 0.06737408
0.31907853 0.10926425 -0.36256808 -0.25993502 -0.17928964 0.24106519 0.003455748 -0.10115131
00000000: c53f 61be 0fbb e9be a0f9 09bd 4ef6 efbd
00000010: fdc5 a43e 6c7b 343f 527f 09bd e1d3 d1be
00000020: 53a5 593e baec 803c 6c79 c03d e87e 5abe
00000030: 4dd8 293e 0409 183e 8def 8f3d 07af 273d
00000040: cfbb ab3e 77a6 04bf fcdc c0bc df1e b8be
00000050: 5f35 a73e 8a8c 0a3d 99f2 8a3d bb0b 0fbe
00000060: 5563 433d 04bd e2bd b24d dfbd 9d87 f63d
00000070: a6c5 e73e e65d 30bd c78d 8ebe bd32 98bd
00000080: 980d 09be 4af2 2e3e 35a8 3a3d 214c 2e3e
00000090: 7427 023e b184 d53e d6e7 af3e 9c3c d03e
000000a0: fcd6 f53b 854a 3b3e 2032 e53d bc86 0dbd
000000b0: 0182 943e e1de 17be 15f1 8ebd b3a2 353d
000000c0: af84 85be c3be d13e 11f5 02bf 0ac0 1b3e
000000d0: 298f 56be 1956 c8be f32a 423d e0b8 9a3d
000000e0: 4d2d 6c3e b8cc 363e 8174 45bd 6109 8bbe
000000f0: 7587 db3d ace8 e5be 3ed6 65bc 216d 143e
00000100: 8ed3 1b3e e5a7 9cbd 2b71 033c 34ee 92be
00000110: 0d29 c23c b0c2 993e cb6d 05bf 6cfb 893d
00000120: 435e a33e efc5 df3d 86a2 b9be 3416 85be
00000130: b497 37be cbd9 763e d579 623b 6b28 cfbd

linears.0.bias f4 [40]
0.0014267042 -0.0025124175 0.001095082 0.0058473567 -0.0019384163 -0.0006328101 -0.0023550221 -0.011561196
0.0009666636 0.0032826925 0.00034961393 0.00093342096 -0.0024612804 -0.0035854538 -0.008245499 -0.00026031316
0.0016748983 0.0073375264 -0.006660021 0.00090315717 0.008961641 0.00051228295 -0.009381583 0.0021724475
0.009998442 0.00042529343 0.005504111 -0.001965912 -0.007641349 -0.0001810632 -0.004330224 -0.00055989524
-0.009102604 0.009745942 -0.004157068 -0.006203395 0.0042658052 0.010037583 -0.012068245 -0.0028815754
00000000: 4000 bb3a 5fa7 24bb db88 8f3a 2f9b bf3b
00000010: 7512 feba 2be3 25ba b756 1abb 2c6b 3dbc
00000020: b267 7d3a 7122 573b 634c b739 d2b0 743a
00000030: 6f4d 21bb eff9 6abb 2118 07bc a47a 88b9
00000040: 4388 db3a a26f f03b 4e3c dabb dac1 6c3a
00000050: d9d3 123c ba4a 063a 36b5 19bc 9f5f 0e3b
00000060: 81d0 233c ebf9 de39 d45b b43b 88d6 00bb
00000070: 4864 fabb c8db 3db9 8de4 8dbb efc5 12ba
00000080: 1723 15bc 72ad 1f3c 0438 88bb d945 cbbb
00000090: 2bc8 8b3b ad74 243c e3b9 45bc d0d8 3cbb

linears.1.weight f4 [40, 40]
0.06323642 -0.036088254 -0.014680128 -0.15651271 0.09425636 0.10870506 -0.38686612 0.379251
0.07886523 0.007806102 0.056148592 -0.13362892 0.08139514 0.124620035 -0.06518837 0.09793151
0.4573129 0.08742483 0.2801326 -0.13353983 -0.04548078 0.11321891 0.028551266 -0.2830323
0.13896477 0.011028524 -0.30839822 -0.111390285 -0.16650002 0.041800823 -0.12755957 -0.067517295
-0.36713007 -0.45786738 0.12430813 0.17333771 0.12226516 -0.3646478 0.3058319 -0.20298544
-0.17114888 0.11452538 -0.0773333 0.11679348 -0.15035643 -0.10940852 -0.0142552 0.044934895
-0.18514009 0.15896887 0.045359816 -0.1989358 -0.2182039 0.07226974 -0.12633023 -0.25890458
-0.05936591 -0.08453423 -0.03966123 0.18974128 0.27633885 0.11699503 0.23456092 0.009738195
0.004534861 0.33239517 0.20214573 0.3001092 0.029484574 -0.2076272 -0.23754565 -0.01069395
-0.22532699 0.37820682 -0.11101929 0.12544303 0.32315737 0.34960857 -0.2888232 -0.032212943
-0.06823041 0.050601233 0.1276015 -0.11935843 -0.03478834 -0.07050251 0.03667107 0.07259659
0.087840825 0.34462163 0.016634151 -0.055665925 0.0709928 -0.0712252 -0.08369476 -0.19791369
-0.008501007 0.012755948 -0.047878876 -0.284267 -0.1901363 -0.2502996 -0.26867995 -0.3009622
-0.15090914 0.05925849 -0.10364898 0.18226495 0.16653508 0.2624328 0.1224471 0.039804403
0.22329739 -0.10204163 0.014082314 0.0021492196 -0.06826375 -0.08796625 0.0034518032 -0.12771738
-0.2517882 0.028649515 -0.027755465 -0.07213706 -0.004055198 0.01386073 -0.16470098 -0.01581448
0.033725344 -0.32107612 -0.25919163 0.0009987635 0.12073993 -0.0011209295 0.083067946 0.0227916
0.1271533 0.023997672 0.014775528 -0.16782653 -0.16780902 -0.027197259 0.06620686 0.053170037
-0.2968404 0.08603559 0.108068146 0.23057023 0.09889626 0.07200463 -0.32837823 -0.110593274
-0.1321467 0.094145775 0.07809924 0.034607474 -0.28786215 -0.18124977 0.23533207 0.12489798
0.087712586 -0.13819405 -0.066715606 -0.2196251 0.0071541877 0.008875543 0.03142918 0.08281587
0.18225001 -0.011931504 -0.27519616 -0.026308507 -0.07241627 0.008860164 0.019221881 0.023759507
0.008391534 0.20781955 0.019919565 -0.04056043 -0.037782867 0.21578945 -0.29318306 0.20423816
-0.021360833 -0.16621055 0.43482047 -0.10725437 0.12885022 0.22284304 -0.19395904 0.008005145
0.018181117 0.31035203 -0.0112514105 -0.10840589 0.15505673 -0.07011682 0.004467164 0.28321496
-0.057252992 0.36986056 0.023376385 -0.05103855 0.22868581 -0.053695362 0.12778778 0.12773113
0.16683877 -0.059867814 -0.16915075 0.08855737 -0.05289301 -0.08313494 0.016511595 -0.17091163
-0.14229299 0.14354523 0.16819637 0.10344557 -0.08590998 -0.111929655 -0.003787046 -0.09772917
-0.12746222 -0.029779855 0.13947767 -0.1566528 -0.048844893 0.04913288 0.043617528 -0.13153955
0.29773068 -0.089775935 -0.13507895 -0.1168946 -0.102589294 0.12522489 0.05078406 0.053524077
0.04141369 -0.5259741 0.059517667 0.05588594 -0.05546721 0.34171867 0.09972596 -0.1123981
-0.10726833 0.22345325 0.24507947 -0.25020444 -0.029655766 0.19265105 0.14038077 0.17834401
00000000: 1982 813d 47d1 13bd eb84 70bc de44 20be
00000010: 7a09 c13d c2a0 de3d 5113 c6be 302d c23e
00000020: 1884 a13d 54ca ff3b 11fc 653d 05d6 08be
00000030: 7fb2 a63d ca38 ff3d 7b81 85bd 5190 c83d
00000040: eb24 ea3e ca0b b33d 8a6d 8f3e aabe 08be
00000050: 0e4a 3abd 51df e73d 58e4 e93c 9ce9 90be
00000060: c84c 0e3e fbb0 343c 5fe6 9dbe 9720 e4bd
00000070: fb7e 2abe 5737 2b3d fa9e 02be 8246 8abd
00000080: 79f8 bbbe 986d eabe 4395 fe3d 717f 313e
00000090: 2866 fa3d 1eb3 babe 0096 9c3e 6adb 4fbe
000000a0: a741 2fbe 488c ea3d ec60 9ebd 6c31 ef3d
000000b0: 09f7 19be 9311 e0bd a48e 69bc a70d 383d
000000c0: 5d95 3dbe bcc8 223e 37cb 393d d4b5 4bbe
000000d0: d870 5fbe 2802 943d b65c 01be 248f 84be
000000e0: ab29 73bd 4820 adbd d073 22bd 8a4b 423e
000000f0: 497c 8d3e 179b ef3d bd30 703e f38c 1f3c
00000100: 2c99 943b b32f aa3e 4aff 4e3e eaa7 993e
00000110: a289 f13c 3a9c 54be 2b3f 73be ad35 2fbc
00000120: 1ebc 66be 53a4 c13e 155e e3bd 2374 003e
00000130: e274 a53e e5ff b23e a2e0 93be b8f1 03bd
00000140: 63bc 8bbd 3d43 4f3d f8a9 023e 3172 f4bd
00000150: 387e 0ebd 9f63 90bd 6734 163d 85ad 943d
00000160: e4e5 b33d 3f72 b03e 5844 883c f401 64bd
00000170: ac64 913d 85de 91bd 2968 abbd e3a9 4abe
00000180: cf47 0bbc 53fe 503c a41c 44bd 728b 91be
00000190: 17b3 42be 4527 80be 6b90 89be b817 9abe
000001a0: ed87 1abe 08b9 723d eb45 d4bd aaa3 3a3e
000001b0: 2c88 2a3e 985d 863e 8cc5 fa3d f109 233d
000001c0: 12a8 643e 34fb d0bd 82b9 663c ecd9 0c3b
000001d0: ddcd 8bbd a627 b4bd a637 623b 58c8 02be
000001e0: 62ea 80be 63b2 ea3c 6e5f e3bc 98bc 93bd
000001f0: 77e1 84bb 1e18 633c 60a7 28be 5e8d 81bc
00000200: 9623 0a3d 1764 a4be c4b4 84be f1e8 823a
00000210: 7f46 f73d 27ec 92ba 871f aa3d 73b5 ba3c
00000220: 7a34 023e c496 c43c 0e15 723c b8da 2bbe
00000230: 21d6 2bbe c9cc debc 7697 873d d3c8 593d
00000240: 77fb 97be 6d33 b03d d552 dd3d 9a1a 6c3e
00000250: 1f8a ca3d 2a77 933d 3121 a8be ba7e e2bd
00000260: 7751 07be 80cf c03d 7ff2 9f3d 91c0 0d3d
00000270: ab62 93be 8a99 39be e4fa 703e 83ca ff3d
00000280: a8a2 b33d be82 0dbe 31a2 88bd 67e5 60be
00000290: ad6d ea3b ba6a 113c e2bb 003d 5e9b a93d
000002a0: bf9f 3a3e 5b7c 43bc 83e6 8cbe f084 d7bc
000002b0: fb4e 94bd 392a 113c 3577 9d3c 4ca3 c23c
000002c0: a57c 093c a6ce 543e 5b2e a33c b222 26bd
000002d0: 35c2 1abd e9f7 5c3e 171c 96be cf23 513e
000002e0: eafc aebc 1933 2abe caa0 de3e 2ea8 dbbd
000002f0: 50f1 033e f730 643e 339d 46be 0328 033c
00000300: 91f0 943c 76e6 9e3e d657 38bc e803 debd
00000310: 31c7 1e3e 6899 8fbd 4a61 923b 8d01 913e
00000320: 1d82 6abd 5d5e bd3e d57f bf3c cc0d 51bd
00000330: 9d2c 6a3e abef 5bbd cdda 023e f3cb 023e
00000340: c8d7 2a3e f437 75bd db35 2dbe 915d b53d
00000350: 57a6 58bd a742 aabd 5343 873c 7503 2fbe
00000360: 41b5 11be 85fd 123e ab3b 2c3e 45db d33d
00000370: 92f1 afbd 603b e5bd 1730 78bb 3b26 c8bd
00000380: 7585 02be e2f4 f3bc 3cd3 0e3e 9769 20be
00000390: 9511 48bd 8f3f 493d 4ba8 323d 4eb2 06be
000003a0: 2870 983e 72dc b7bd 2352 0abe 7066 efbd
000003b0: 561a d2bd f43a 003e f202 503d 103c 5b3d
000003c0: 67a1 293d 3da6 06bf ccc8 733d a8e8 643d
000003d0: 9631 63bd c0f5 ae3e 203d cc3d fa30 e6bd
000003e0: 80af dbbd eed0 643e 1df6 7a3e cc1a 80be
000003f0: a6f0 f2bc 5146 453e fabf 0f3e d09f 363e

linears.1.bias f4 [40]
-0.0077601373 0.00854487 0.0002812251 -0.008257635 0.0031333934 -0.007698907 0.001604064 -0.0011223507
0.0039726556 0.003314096 0.0039774016 -0.007819235 -0.00579326 0.0006762569 -0.0020713997 -0.007990235
-0.00041231944 -0.0028212133 0.010066427 0.00028806436 0.0018201175 -0.0038278634 0.00085686106 -0.005696669
0.00076997274 0.00086202606 0.00036266053 -0.0009358312 -0.0046797027 0.0040252893 -0.003281789 0.0032715446
6.112984e-05 -0.0010948302 0.005841158 -0.0010473357 0.0038966548 0.000463944 -0.009325133 0.008075608
00000000: c048 febb c8ff 0b3c 6571 9339 084b 07bc
00000010: 9e59 4d3b 1d47 fcbb 753f d23a d71b 93ba
00000020: 0d2d 823b 4e31 593b dd54 823b 401c 00bc
00000030: 63d5 bdbb d546 313a 52c0 07bb 7ae9 02bc
00000040: 942c d8b9 1be4 38bb a8ed 243c 5807 9739
00000050: 0291 ee3a e4dc 7abb f99e 603a 20ab babb
00000060: ffd7 493a 97f9 613a 7923 be39 9252 75ba
00000070: 3158 99bb 93e6 833b 4813 57bb 6967 563b
00000080: d532 8038 6880 8fba 2f67 bf3b c146 89ba
00000090: 055f 7f3b 823d f339 71c8 18bc 8e4f 043c

linears.2.weight f4 [40, 40]
-0.24580453 -0.035106175 0.1268387 -0.047952976 -0.1373681 -0.07595926 0.05421244 0.15189384
-0.05270662 -0.17204264 -0.08873719 -0.13700804 -0.1095808 0.05351193 -0.0130879395 -0.033543933
-0.16076961 -0.29891548 0.14325622 -0.0139019 0.30831426 -0.016174736 0.2679505 -0.22546716
-0.27057317 0.3300324 -0.01752595 -0.15064336 0.07160528 0.07011207 0.0063089184 -0.06989132
-0.25100982 -0.04937483 -0.030795164 -0.03061357 0.23251103 0.1882649 -0.110944144 -0.12432043
-0.12653819 -0.062299795 0.26123506 0.08823426 -0.11501828 -0.15599431 0.093071364 0.061266758
0.14430079 -0.10179069 0.08306189 -0.2326891 0.20725863 0.14264515 0.058241718 0.08410849
-0.2113825 0.022781054 -0.062604114 0.00011998744 0.06913121 -0.06761016 0.07696665 0.2126767
0.035487797 -0.0027545749 0.032689266 0.11660139 0.13340035 0.0026350275 -0.24655886 -0.00065842306
-0.08216871 -0.1504732 -0.0069593685 0.04636845 0.034079064 -0.08692056 -0.015396107 -0.046960294
0.110782124 0.14408131 0.14214402 -0.10210765 0.023734642 0.017436951 -0.12238546 0.02925443
0.10102152 0.076052606 0.22534932 0.29216045 -0.030328203 0.0015096274 0.19179751 -0.19980575
0.10924804 -0.051317655 0.032327943 0.027047362 -0.068677664 0.18560949 0.06844836 0.24605697
0.15639952 0.005681974 -0.06494031 -0.0919077 0.06425881 -0.12375388 0.027449595 -0.09483947
-0.09176053 -0.22884369 -0.17501482 0.08862591 -0.07979786 -0.19953 -0.0419429 0.07402774
0.06106517 0.03906177 0.016475206 0.028091777 0.24792075 0.06566283 0.15677336 0.01694409
-0.16729468 -0.06562817 0.11765754 0.09178016 0.008871916 0.11048039 -0.05735392 0.1649736
-0.087621205 -0.0096001495 0.26168162 0.25871843 -0.022117717 -0.19668293 0.104146935 0.28417525
0.0060633365 0.024013663 -0.09217211 0.058332883 0.2026929 0.2516228 0.0120654125 0.042374745
0.07906334 0.032714978 0.23639917 -0.1905126 -0.27741483 -0.28345388 0.12741704 0.21466231
-0.043891095 0.041662835 0.29777163 0.030838678 0.1418479 0.10239083 0.09952913 -0.09178471
-0.04062818 -0.05543409 -0.119755514 -0.10863913 -0.07751384 0.051476106 -0.086937815 0.043309532
0.0038414963 0.16150376 0.12704636 -0.018239982 -0.22275181 -0.26702186 0.009367717 -0.11444507
-0.074500814 -0.06839142 0.086781085 0.2824563 -0.01790039 -0.04867862 0.059581157 -0.22544838
-0.23640898 0.2553532 0.06623139 -0.076777376 -0.14336911 0.064492226 0.18972829 -0.08224408
-0.11259381 -0.1504995 -0.053221036 0.021640467 -0.17734683 0.09833328 0.15934011 -0.23351099
0.038498554 0.15492894 0.1680809 0.033064317 0.20949684 -0.06543436 -0.06713955 -0.04325555
0.17098098 -0.09111649 0.050008733 0.056611747 -0.1494318 0.097042575 0.04062896 -0.38205853
-0.35360044 -0.05825042 -0.11841595 -0.025863724 0.17890921 0.054757934 0.011107023 -0.32370335
0.24200906 0.083762564 0.110932365 -0.0034702513 -0.08423044 0.10494649 0.1785197 -0.06797489
-0.46297595 0.15138826 0.062373564 0.20258805 -0.11013548 -0.04730864 -0.1204016 -0.23232932
0.006625502 0.28699645 0.08621847 -0.010017024 -0.13833 -0.15322118 -0.17624314 -0.11655745
00000000: 2fb4 7bbe 7ecb 0fbd 01e2 013e 576a 44bd
00000010: 39aa 0cbe 8790 9bbd dd0d 5e3d 0f8a 1b3e
00000020: e6e2 57bd f22b 30be d8bb b5bd d64b 0cbe
00000030: e66b e0bd 532f 5b3d cc6e 56bc 5d65 09bd
00000040: caa0 24be 730b 99be c2b1 123e cbc4 63bc
00000050: 5edb 9d3e e180 84bc cf30 893e dde0 66be
00000060: 9188 8abe 02fa a83e 9592 8fbc 4142 1abe
00000070: caa5 923d eb96 8f3d 0bbb ce3b 2e23 8fbd
00000080: 5c84 80be 433d 4abd 2446 fcbc 4fc9 fabc
00000090: 5f17 6e3e 84c8 403e af36 e3bd b69b febd
000000a0: 3a93 01be 122e 7fbd 9ac0 853e 2ab4 b43d
000000b0: b48e ebbd f9bc 1fbe 339c be3d daf2 7a3d
000000c0: 96c3 133e a377 d0bd 5a1c aa3d 0d46 6ebe
000000d0: 9b3b 543e 9211 123e de8e 6e3d 1241 ac3d
000000e0: a774 58be 559f ba3c 9636 80bd c4a1 fb38
000000f0: aa94 8d3d 3277 8abd b1a0 9d3d ecc7 593e
00000100: a75b 113d 1986 34bb 2ee5 053d b6cc ee3d
00000110: 1a9a 083e 6db0 2c3b ed79 7cbe 069a 2cba
00000120: 1248 a8bd a615 1abe 6a0b e4bb d8ec 3d3d
00000130: 7d96 0b3d 6803 b2bd f43f 7cbc 7059 40bd
00000140: bde1 e23d 0d8a 133e 348e 113e d11d d1bd
00000150: 276f c23c f0d7 8e3c 3aa5 fabd fda6 ef3c
00000160: 5fe4 ce3d 78c1 9b3d f9c1 663e 0e96 953e
00000170: da72 f8bc b1de c53a 9166 443e e199 4cbe
00000180: 70bd df3d 7632 52bd 4e6a 043d 6e92 dd3c
00000190: e0a6 8cbd 6a10 3e3e a72e 8c3d 5cf6 7b3e
000001a0: 3227 203e da2f ba3b 6dff 84bd 1b3a bcbd
000001b0: 1f9a 833d ad72 fdbd f9dd e03c 323b c2bd
000001c0: f2ec bbbd 0056 6abe 1637 33be 8081 b53d
000001d0: 0f6d a3bd 9851 4cbe 51cc 2bbd db9b 973d
000001e0: 791f 7a3d 3cff 1f3d 03f7 863c ba20 e63c
000001f0: f0de 7d3e 3c7a 863d 3289 203e 55ce 8a3c
00000200: 4c4f 2bbe 1068 86bd 70f6 f03d 3df7 bb3d
00000210: 835b 113c 8b43 e23d f2eb 6abd d7ee 283e
00000220: bf72 b3bd f249 1dbc 22fb 853e be76 843e
00000230: 3730 b5bc 4067 49be fd4a d53d 6b7f 913e
00000240: f4ae c63b 4db8 c43c bbc4 bcbd 76ee 6e3d
00000250: ba8e 4f3e b4d4 803e 02ae 453c 2491 2d3d
00000260: f6eb a13d 2400 063d a012 723e bc15 43be
00000270: 5109 8ebe de20 91be 9d79 023e 70d0 5b3e
00000280: 26c7 33bd a6a6 2a3d 8675 983e 65a1 fc3c
00000290: 9340 113e 49b2 d13d eed5 cb3d 9ff9 bbbd
000002a0: bc69 26bd db0e 63bd 6142 f5bd 317e debd
000002b0: 93bf 9ebd 9cd8 523d 740c b2bd 5665 313d
000002c0: 9dc1 7b3b 3e61 253e 7118 023e 046c 95bc
000002d0: 0d19 64be 17b7 88be 0e7b 193c 2d62 eabd
000002e0: e293 98bd cd10 8cbd 48ba b13d 1d9e 903e
000002f0: d7a3 92bc 3c63 47bd 5f0b 743d f1db 66be
00000300: 3215 72be a8bd 823e 53a4 873d 753d 9dbd
00000310: 5acf 12be 8014 843d 2248 423e 966f a8bd
00000320: 9597 e6bd 8a1c 1abe 4dfe 59bd 5947 b13c
00000330: 689a 35be f562 c93d 0e2a 233e 811d 6fbe
00000340: a9b0 1d3d b1a5 1e3e 661d 2c3e 736e 073d
00000350: 5786 563e 7302 86bd 7680 89bd bb2c 31bd
00000360: a315 2f3e 489b babd f5d5 4c3d b8e1 673d
00000370: a604 19be 42be c63d 8d6a 263d 2d9d c3be
00000380: 1e0b b5be fe97 6ebd 1084 f2bd 29e0 d3bc
00000390: fa33 373e db49 603d 3bfa 353c 72bc a5be
000003a0: 39d1 773e b58b ab3d 8230 e33d 286d 63bb
000003b0: 0281 acbd 2fee d63d decd 363e 6b36 8bbd
000003c0: 2f0b edbe 8605 1b3e 6c7b 7f3d 3e73 4f3e
000003d0: b68e e1bd b4c6 41bd 1d95 f6bd bde7 6dbe
000003e0: bd1a d93b 33f1 923e 4f93 b03d 721e 24bc
000003f0: 61a6 0dbe 03e6 1cbe 1579 34be acb5 eebd

linears.2.bias f4 [40]
-0.0071857674 -0.001549051 -0.009987214 0.011311498 0.00019873738 -0.008543886 0.00096678804 0.0028076011
-0.0012715299 0.0023190824 0.002438062 -0.0029810292 -0.0034010839 -0.0025096152 0.004118145 0.00042426388
0.002158262 -0.003525107 0.008876892 0.007934154 -0.00971546 0.005938552 0.0021749486 -0.007897005
0.00021797685 0.004807791 -0.0056273993 0.007620894 -5.319544e-05 -0.005218575 0.00041045187 0.0026307937
0.003478126 -0.003904635 -0.0063102236 0.0039961077 0.0023538312 0.0008038549 0.0073522674 0.0028499172
00000000: 9676 ebbb 8709 cbba 69a1 23bc dc53 393c
00000010: 2964 5039 a8fb 0bbc 0c70 7d3a bbff 373b
00000020: 77a9 a6ba bffb 173b e5c7 1f3b 5f5d 43bb
00000030: b8e4 5ebb 5b78 24bb 81f1 863b bc6f de39
00000040: a171 0d3b 7b05 67bb 6270 113c 41fe 013c
00000050: 982d 1fbc 2f98 c23b 9589 0e3b 7162 01bc
00000060: b790 6439 ad8a 9d3b 0c66 b8bb b1b8 f93b
00000070: 2b1e 5fb8 9400 abbb eb31 d739 6569 2c3b
00000080: 45f1 633b e8e4 7fbb fec5 cebb c8f1 823b
00000090: bc42 1a3b cab9 523a 4aeb f03b adc5 3a3b

linears.3.weight f4 [40, 40]
0.1492261 -0.247731 -0.050169993 -0.13828096 -0.13186055 0.060479797 0.018881116 0.2550339
-0.0010082511 0.23297252 -0.2000917 -0.05938286 -0.011125253 -0.01055483 -0.07586826 -0.025649298
-0.107902415 -0.15255584 0.17475569 0.21369937 -0.16848063 0.21258537 0.16636765 -0.054529797
-0.04270139 -0.22319342 0.2837802 -0.09422329 -0.11599079 -0.19315852 -0.14804977 0.004857599
0.0284609 -0.17730765 0.3190994 -0.2616933 0.21686669 0.29600108 0.087035954 -0.09159311
-0.120516844 -0.03640951 0.36046344 -0.2271986 0.11663457 -0.33700565 0.19549158 0.124130554
-0.15286751 0.4201884 0.079008855 -0.005924584 -0.037480015 -0.20364723 -0.00042912053 0.13102292
-0.0039769746 0.07787685 0.10297927 0.20878765 -0.042678766 0.008283555 0.0022851643 -0.1152614
0.3757095 -0.105206594 -0.061854303 0.16051278 -0.08758625 0.31727013 0.056046516 0.16812669
-0.19890995 -0.08944755 -0.02414957 0.30415076 0.18512233 -0.2418208 0.21286571 0.12400675
-0.15429637 0.16146857 0.023119252 0.09341704 0.04880521 -0.09779197 -0.17148046 0.03517679
0.106742166 0.051351175 0.04793777 -0.10573321 -0.017580094 0.041480307 0.0035304194 0.17356704
0.06791464 -0.29005912 -0.08324402 -0.2586822 0.0430528 -0.04175148 -0.12777272 -0.22744405
-0.049326744 -0.0965549 -0.29148155 0.29775575 0.006332668 -0.074702054 -0.18831167 -0.024400245
-0.110198386 0.13031119 -0.0144421235 -0.13924162 -0.03938852 -0.2444415 0.24126285 0.21556851
-0.084646694 0.18170412 0.21516384 0.15867619 -0.21483152 0.03839331 -0.04683282 -0.0010127289
-0.2089954 0.07335563 0.0025170865 -0.041848022 -0.17023227 -0.18576035 0.1330987 0.17499815
0.32137424 -0.09984697 0.06050629 -0.049873542 0.087704636 0.03669977 0.16206121 0.01244018
-0.08639891 0.06915574 0.20527697 0.04217232 0.09252865 -0.15640086 0.095721014 -0.110542715
0.12714307 -0.10885273 -0.0018480369 0.14207116 0.054012682 0.34380153 -0.13377465 0.11068347
0.15480213 -0.13145311 -0.13167429 0.061208867 0.14139915 0.2444404 0.26776287 0.09503432
-0.13124844 0.035708264 -0.083025426 -0.008644798 0.12468284 0.19393075 0.14366361 0.16231076
-0.21573438 0.09080379 -0.14076285 0.10792411 0.011265992 0.29736474 -0.30983916 0.1435087
0.05700304 0.176854 0.10372935 0.15021954 -0.02119894 -0.042917617 0.15366918 -0.08001075
-0.19431587 -0.14848576 0.042619977 -0.0021560534 0.048151325 -0.018158322 -0.17671663 0.037191436
0.15944602 -0.3363396 0.09537124 -0.044088263 0.30343163 -0.15932274 -0.20842278 0.18929523
0.10322408 -0.09826221 -0.05851183 0.0055957446 0.38633987 0.09942387 -0.23264469 0.0071991654
-0.021721214 -0.19595757 -0.0019082554 -0.050821964 0.046099026 0.50270575 0.31087014 0.104117006
-0.27570695 0.120806634 0.089237176 0.042313486 -0.30596218 -0.009536832 -0.20056286 0.12513295
0.008009281 -0.17122787 0.0048334957 0.039963532 -0.23879275 -0.31541073 0.047453683 -0.16721623
-0.0064660474 0.09375575 -0.14329895 -0.045036316 -0.2777032 0.07641447 -0.093400404 -0.14856628
0.17206189 0.11449923 0.1584855 0.05685981 -0.19765933 -0.20269474 -0.16884029 -0.047962073
00000000: bace 183e 32ad 7dbe 0d7f 4dbd 8699 0dbe
00000010: 7406 07be aab9 773d 92ac 9a3c ce93 823e
00000020: 4b27 84ba 5990 6e3e d7e4 4cbe 713b 73bd
00000030: b146 36bc 2aee 2cbc d160 9bbd 7a1e d2bc
00000040: f1fb dcbd 9937 1cbe 28f3 323e 02d4 5a3e
00000050: 3086 2cbe fbaf 593e 485c 2a3e a35a 5fbd
00000060: a7e7 2ebd d18c 64be a34b 913e 24f8 c0bd
00000070: 948c edbd 59cb 45be 5c9a 17be 7e2c 9f3b
00000080: d526 e93c 2390 35be ff60 a33e aafc 85be
00000090: 4d12 5e3e 748d 973e e83f b23d 2b95 bbbd
000000a0: 89d1 f6bd 2322 15bd aa8e b83e c0a6 68be
000000b0: 1bde ee3d 018c acbe f22e 483e 2938 fe3d
000000c0: 4d89 1cbe ef22 d73e 65cf a13d 0323 c2bb
000000d0: a584 19bd e688 50be 95fb e0b9 df2a 063e
000000e0: 4851 82bb e67d 9f3d cce6 d23d 6ecc 553e
000000f0: eecf 2ebd bfb7 073c b2c2 153b 2b0e ecbd
00000100: ff5c c03e 8e76 d7bd f05a 7dbd 765d 243e
00000110: 6b60 b3bd 3b71 a23e 0891 653d 6729 2c3e
00000120: 0daf 4bbe 4730 b7bd 52d5 c5bc a6b9 9b3e
00000130: b590 3d3e df9f 77be 78f9 593e 40f7 fd3d
00000140: deff 1dbe 0458 253e 9664 bd3c 6f51 bf3d
00000150: f9e7 473d 2847 c8bd 9398 2fbe 8a15 103d
00000160: a39b da3d 9c55 523d 655a 443d a78a d8bd
00000170: 2104 90bc 41e7 293d 9c5e 673b 8fbb 313e
00000180: d516 8b3d a182 94be d77b aabd fe71 84be
00000190: 2258 303d 9a03 2bbd dad6 02be 18e7 68be
000001a0: d70a 4abd 93be c5bd 123d 95be 7173 983e
000001b0: 4582 cf3b 64fd 98bd c6d4 40be 06e3 c7bc
000001c0: b1af e1bd 4c70 053e a89e 6cbc 5b95 0ebe
000001d0: db55 21bd df4e 7abe 9c0d 773e febd 5c3e
000001e0: 3f5b adbd a510 3a3e e953 5c3e 037c 223e
000001f0: cbfc 5bbe 4e42 1d3d c5d3 3fbd 8bbd 84ba
00000200: e402 56be 7a3b 963d b4f5 243b d568 2bbd
00000210: 5e51 2ebe f637 3ebe 074b 083e b732 333e
00000220: 2a8b a43e 917c ccbd 72d5 773d 3348 4cbd
00000230: 7d9e b33d 7f52 163d 60f3 253e e6d1 4b3c
00000240: e9f1 b0bd 86a1 8d3d 2034 523e e2bc 2c3d
00000250: a97f bd3d 8c27 20be 6109 c43d 3864 e2bd
00000260: cb31 023e 2eee debd d439 f2ba 1a7b 113e
00000270: 673c 5d3d c106 b03e 39fc 08be 04ae e23d
00000280: 7384 1e3e a59b 06be a0d5 06be 26b6 7a3d
00000290: f0ca 103e 964e 7a3e 3718 893e 5ba1 c23d
000002a0: fe65 06be d442 123d 3c09 aabd e9a2 0dbc
000002b0: b859 ff3d c895 463e 8e1c 133e cb34 263e
000002c0: 79e9 5cbe 56f7 b93d 2324 10be 5107 dd3d
000002d0: ff94 383c 3140 983e 3da3 9ebe f2f3 123e
000002e0: 057c 693d 3719 353e 0e70 d43d 27d3 193e
000002f0: 66a9 adbc 62ca 2fbd 745b 1d3e addc a3bd
00000300: bdfa 46be a70c 18be 4992 2e3d 934c 0dbb
00000310: 533a 453d c3c0 94bc 34f5 34be 0c56 183d
00000320: d145 233e b434 acbe ff51 c33d e595 34bd
00000330: 645b 9b3e 8025 23be c86c 55be 9cd6 413e
00000340: 2567 d33d b33d c9bd 1aaa 6fbd 825c b73b
00000350: 57ce c53e be9e cb3d 693a 6ebe fae6 eb3b
00000360: b0f0 b1bc 1aa9 48be 6d1e faba b12a 50bd
00000370: 55d2 3c3d 53b1 003f 5f2a 9f3e 4c3b d53d
00000380: 7629 8dbe 7869 f73d fbc1 b63d e850 2d3d
00000390: 13a7 9cbe 5f40 1cbc 5a60 4dbe da22 003e
000003a0: 5c39 033c 5c56 2fbe 4d62 9e3b cdb0 233d
000003b0: 1686 74be 847d a1be cb5e 423d bb3a 2bbe
000003c0: 23e1 d3bb 0403 c03d f6bc 12be 0078 38bd
000003d0: 1d2f 8ebe 317f 9c3d b648 bfbd c221 18be
000003e0: fe30 303e 937e ea3d 064a 223e d5e5 683d
000003f0: 3567 4abe 368f 4fbe 78e4 2cbe e173 44bd

linears.3.bias f4 [40]
-0.002430459 0.004945906 0.0037169994 0.0031572354 -0.0025982198 -0.0015898386 0.009755637 -0.0008169592
0.0023225376 -0.009291229 0.0035525346 0.004820718 -0.0055766506 0.0012744141 -0.0094199 0.0059971525
0.001060292 0.004607966 0.00097156945 -0.005573604 0.005636535 0.008821347 0.0039236476 0.0030213713
-0.0006230741 -0.0025043087 0.0027334844 -0.008608491 -0.008846921 0.0003168047 0.0096022235 -0.008622931
0.01093482 -0.0020935128 -0.0035932928 0.006332811 -0.002083507 -0.0009807233 0.013261725 0.0080358675
00000000: 5648 1fbb 4411 a23b e798 733b 9fe9 4e3b
00000010: e546 2abb 2262 d0ba 1bd6 1f3c 3429 56ba
00000020: b735 183b 3d3a 18bc a4d1 683b 1df7 9d3b
00000030: 56bc b6bb 3e0a a73a ed55 1abc c383 c43b
00000040: 7ff9 8a3a 6cfe 963b ecb0 7e3a c7a2 b6bb
00000050: afb2 b83b 6987 103c f191 803b 3302 463b
00000060: cc55 23ba 541f 24bb 4224 333b a10a 0dbc
00000070: adf2 10bc cf18 a639 a552 1d3c 3247 0dbc
00000080: f627 333c 5133 09bb 737d 6bbb 7883 cf3b
00000090: 728b 08bb 9d8b 80ba b547 593c dfa8 033c

linears.4.weight f4 [40, 40]
0.04950292 0.02903082 0.20946763 0.30116084 0.017154757 0.47774515 -0.23648815 -0.21501063
0.082167275 -0.110666156 -0.16145703 0.12708192 0.13522188 -0.18234558 -0.05140754 0.036257565
-0.0043579456 -0.02671605 -0.22253336 -0.0005849342 0.0100134155 -0.07155903 0.118867055 -0.092455044
-0.05459755 -0.1396075 0.00038641496 -0.035197835 -0.0868028 -0.053858425 -0.39214242 0.08077207
-0.16801609 0.3245106 0.21253733 0.036670282 0.024838652 0.048502672 0.07718185 -0.0735827
-0.36244956 0.1990401 0.07282049 -0.06061988 0.28781366 0.37958172 -0.10646511 0.027203681
0.14029902 -0.036028095 0.12945673 0.20837657 -0.17154236 0.3401594 0.17863539 0.09736556
0.08459921 -0.03009969 0.33328718 -0.04005443 -0.115196615 0.1773642 -0.059097935 0.4283734
0.2027363 -0.09410581 0.17727715 0.23708516 0.10511154 0.04192919 -0.09989346 0.08310167
-0.14429136 -0.43211576 -0.1202782 -0.03041368 -0.26796985 -0.085051574 -0.0047971127 0.106225036
-0.018334018 -0.0025401767 -0.087930754 -0.12871075 -0.05000599 0.027828922 0.17069122 -0.29666236
-0.08418747 0.07418757 0.01966444 -0.060995437 -0.016379416 -0.11765345 -0.05305706 -0.19388735
-0.2653909 -0.095083944 -0.04171393 0.097646475 0.05601727 -0.1514656 0.119111575 -0.15167178
-0.2873687 -0.17109369 0.118739665 0.19954656 0.26174834 -0.2149126 -0.1701654 -0.0037639397
-4.0828603e-05 -0.27391884 0.40286452 -0.056799445 0.31436956 -0.031132897 0.3147707 -0.26038665
-0.13247585 0.148753 -0.0015182829 -0.033544797 -0.39287454 -0.07940971 0.06719792 0.10610082
0.037720073 0.14180407 -0.14761768 -0.1351224 0.02963496 0.19059095 0.1795316 0.18210107
0.23252787 0.06966028 0.0062777107 -0.061800882 -0.121289805 -0.3098546 -0.0947829 0.114299044
0.15669467 0.120572716 0.05687931 -0.24391168 0.26646885 -0.047649827 -0.0029261305 -0.19371413
-0.24501899 -0.0587705 -0.15211663 0.05569117 0.13153332 -0.026477588 0.012403383 0.041775417
-0.18844971 0.058236115 0.17199507 0.26599142 -0.061641578 -0.08799532 0.08421118 0.2314884
0.29164174 0.39094707 0.06605401 0.04830101 0.1038955 -0.090497084 -0.2323209 0.07758356
0.16534464 -0.20471197 -0.0062790434 0.13067773 -0.09929828 -0.150831 -0.37143078 0.004260566
0.13158529 0.100927114 0.22218986 0.08523866 0.20015258 -0.060226113 0.16562921 -0.17943114
0.003101327 0.23548022 0.001038106 -0.07024326 -0.013241518 -0.12691422 -0.17241618 0.086697675
0.032185487 -0.06646864 -0.15361111 -0.04428682 0.08217213 -0.2585637 0.16398606 -0.15298375
-0.13236333 0.0036683953 0.19843431 0.11399711 0.22305006 0.0075055496 0.21809763 0.20277648
0.24303918 0.08106051 0.028669365 -0.14507003 -0.03826534 -0.3344294 0.21422043 -0.06312982
0.13766152 -0.0043287245 0.0003050925 -0.11746615 -0.10216723 -0.08536238 0.12084993 -0.015018572
0.13302828 -0.077418044 -0.014678893 -0.12626973 -0.17168817 -0.011817491 -0.2389641 0.27759686
-0.119302705 0.17215997 0.07559355 0.18007351 -0.18571776 0.009642624 0.11683759 0.031757355
-0.20728564 0.275922 0.06715074 0.11011786 0.050947595 0.076621726 -0.11896701 0.035750847
00000000: 93c3 4a3d 0bd2 ed3c af7e 563e c131 9a3e
00000010: 2288 8c3c 039b f43e f329 72be bf2b 5cbe
00000020: 5147 a83d f0a4 e2bd fe54 25be c321 023e
00000030: 9b77 0a3e cdb8 3abe b690 52bd d082 143d
00000040: 19cd 8ebb 9edb dabc c9df 63be 4556 19ba
00000050: 4f0f 243c 8a8d 92bd 9270 f33d 1259 bdbd
00000060: aea1 5fbd 45f5 0ebe bd97 ca39 9b2b 10bd
00000070: abc5 b1bd a79a 5cbd e4c6 c8be d46b a53d
00000080: 690c 2cbe 4126 a63e 63a3 593e 9433 163d
00000090: 6e7a cb3c bdaa 463d 8511 9e3d 87b2 96bd
000000a0: fd92 b9be 2bd1 4b3e e922 953d 8d4c 78bd
000000b0: 505c 933e 8958 c23e 610a dabd 41da de3c
000000c0: 8caa 0f3e 3292 13bd 4e90 043e ab60 553e
000000d0: cda8 2fbe 5f29 ae3e 32ec 363e 9867 c73d
000000e0: 5a42 ad3d a093 f6bc 9ea4 aa3e 1d10 24bd
000000f0: 34ec ebbd f69e 353e ad10 72bd c253 db3e
00000100: 1b9a 4f3e 8cba c0bd 2488 353e 74c6 723e
00000110: b844 d73d f1bd 2b3d f194 ccbd 3531 aa3d
00000120: 1dc1 13be 473e ddbe 6b54 f6bd 1c26 f9bc
00000130: 5833 89be 852f aebd 1931 9dbb 838c d93d
00000140: 3931 96bc 1879 26bb 0a15 b4bd c0cc 03be
00000150: 15d3 4cbd 7bf9 e33c aec9 2e3e 21e4 97be
00000160: 7b6a acbd a7ef 973d 5217 a13c 5ad6 79bd
00000170: 202e 86bc 4bf4 f0bd 5c52 59bd 688a 46be
00000180: 51e1 87be 5fbb c2bd 3adc 2abd e0fa c73d
00000190: 5d72 653d cc19 1bbe c5f0 f33d d94f 1bbe
000001a0: fe21 93be 2f33 2fbe c82d f33d ef55 4c3e
000001b0: e103 863e 0c12 5cbe d73f 2ebe 6eac 76bb
000001c0: 613f 2bb8 173f 8cbe 4244 ce3e 89a6 68bd
000001d0: 0cf5 a03e 6b0a ffbc a029 a13e 6651 85be
000001e0: c0a7 07be b552 183e 1f01 c7ba 4566 09bd
000001f0: da26 c9be 8fa1 a2bd 109f 893d 634b d93d
00000200: 5d80 1a3d 1635 113e 1729 17be 875d 0abe
00000210: 04c5 f23c 462a 433e 22d7 373e b478 3a3e
00000220: c91b 6e3e 0daa 8e3d 41b5 cd3b ec22 7dbd
00000230: ca66 f8bd 43a5 9ebe 891d c2bd 9e15 ea3d
00000240: 9174 203e d4ee f63d 48fa 683d fcc3 79be
00000250: 9b6e 883e 772c 43bd 53c4 3fbb ff5c 46be
00000260: 42e6 7abe 56b9 70bd 76c4 1bbe 6d1c 643d
00000270: acb0 063e 87e7 d8bc 8f37 4b3c b31c 2b3d
00000280: f6f8 40be fe88 6e3d 7a1f 303e 0730 883e
00000290: e17b 7cbd e436 b4bd e976 ac3d 4c0b 6d3e
000002a0: 1152 953e 372a c83e 5347 873d 48d7 453d
000002b0: 2ac7 d43d 8956 b9bd 88e5 6dbe 21e4 9e3d
000002c0: 1b50 293e 04a0 51be 6fc0 cdbb 62d0 053e
000002d0: e65c cbbd 7173 1abe 2d2c bebe 389c 8b3b
000002e0: 4bbe 063e e0b2 ce3d bd85 633e 9b91 ae3d
000002f0: ccf4 4c3e a8af 76bd b49a 293e ccbc 37be
00000300: a23f 4b3b ba21 713e 0f11 883a b3db 8fbd
00000310: f4f2 58bc cdf5 01be de8d 30be 8d8e b13d
00000320: eed4 033d b620 88bd 3b4c 1dbe 1966 35bd
00000330: dd49 a83d 7662 84be f6eb 273e c6a7 1cbe
00000340: 418a 07be 7669 703b 5d32 4b3e 5177 e93d
00000350: 3c67 643e 1df1 f53b fc54 5f3e a3a4 4f3e
00000360: 43df 783e 0d03 a63d 04dc ea3c 3d8d 14be
00000370: 1ebc 1cbd 553a abbe 9a5c 5b3e 354a 81bd
00000380: 24f7 0c3e f9d7 8dbb d2f4 9f39 1892 f0bd
00000390: 0d3d d1bd 79d2 aebd 2b80 f73d 7510 76bc
000003a0: 9138 083e 5a8d 9ebd bd7f 70bc da4c 01be
000003b0: 06cf 2fbe 269e 41bc 01b3 74be 2d21 8e3e
000003c0: fa54 f4bd b44a 303e cbd0 9a3d 3165 383e
000003d0: cc2c 3ebe 19fc 1d3c 8c48 ef3d 0014 023d
000003e0: b042 54be a645 8d3e 5486 893d 7985 e13d
000003f0: 6dae 503d daeb 9c3d faa4 f3bd 7b6f 123d

linears.4.bias f4 [40]
-0.0019168886 0.0019971454 -0.0024794817 0.0032465097 0.0005419987 -0.020795738 0.00990575 -0.00015206239
0.006413315 -0.010903529 -0.0032913745 -0.00073223916 -0.0012949873 0.008237043 0.004039914 0.0020049568
0.012758377 0.0069472142 0.0037290934 -0.004932974 0.00058653933 0.00057089014 0.004276276 0.005056446
-0.011523175 -0.00079513784 -0.0018520722 0.009245641 0.012472083 0.00780759 -0.00078631245 -0.003901996
-0.0011696637 -0.0047719595 -0.00035861362 0.0022270202 -0.0012285481 -0.002479158 0.0023897975 0.0054595396
00000000: 1c40 fbba 8ae2 023b cd7e 22bb 65c3 543b
00000010: eb14 0e3a d35b aabc ba4b 223c f072 1fb9
00000020: c926 d23b b7a4 32bc 1ab4 57bb bdf3 3fba
00000030: 90bc a9ba aaf4 063c 4161 843b 9865 033b
00000040: 8308 513c 75a5 e33b ce63 743b c9a4 a1bb
00000050: fdc1 193a caa7 153a 0120 8c3b 8bb0 a53b
00000060: b3cb 3cbc cc70 50ba 3bc1 f2ba 077b 173c
00000070: b557 4c3c d0d6 ff3b 8920 4eba a1b8 7fbb
00000080: 674f 99ba 195e 9cbb 4e04 bcb9 33f3 113b
00000090: 3c07 a1ba 5f79 22bb 269e 1c3b f0e5 b23b

linears.5.weight f4 [40, 40]
0.1075395 -0.04660447 -0.22230132 0.010675372 -0.15134075 0.0013585589 0.17774104 0.21920472
-0.26836324 0.08431727 0.2947954 -0.20683408 0.053140845 -0.3096935 0.18925008 0.14658879
-0.29400688 -0.068808876 -0.12635916 0.39392883 -0.06842242 0.14714228 -0.031238768 -0.092714295
-0.15550274 0.19321059 0.05708434 0.027972316 -0.39863262 0.19183838 -0.1156003 0.19692545
0.17638686 0.10852547 -0.1959892 0.045994688 0.16975443 0.20790294 0.03819451 -0.35910702
0.06099135 -0.11440449 -0.05595875 0.03032163 -0.22625509 0.027974 -0.025037982 -0.12720312
0.16536918 -0.10481758 0.36676434 0.07942469 -0.077510886 -0.17981738 -0.0029883322 0.08928867
0.100953706 -0.14232925 -0.25316018 0.013280067 -0.213746 -0.54632926 -0.040144306 -0.024119582
-0.064913034 0.09300106 -0.023902817 0.19116439 -0.13978912 0.19331264 -0.088444516 0.002691778
0.27808657 0.032487202 0.14754927 0.11697627 -0.20564063 -0.0912394 -0.24659915 0.21292831
-0.21209244 -0.2817632 -0.23663244 -0.076858446 0.07817938 0.015764603 -0.12395356 -0.072516665
-0.14132807 0.0940041 0.09915043 -0.083503164 -0.034164514 0.32603568 -0.09439588 0.10457871
-0.0027544044 -0.26236564 -0.242089 0.111410104 0.07142625 0.17359118 -0.05282316 0.06910213
-0.101479724 -0.123113275 -0.11522426 -0.017092153 0.044577185 -0.14650138 0.3394135 0.21320339
-0.07949652 0.12526987 0.23512456 -0.27479059 0.001391346 -0.17414603 0.14444052 -0.24503127
0.017295877 0.10554639 -0.1120041 -0.0610056 -0.14064187 0.20524971 -0.041253623 -0.042481583
0.0047681103 -0.06822389 -0.036384802 -0.06846292 0.19404426 -0.006188606 0.10091199 0.06872996
0.30788058 0.36809376 0.05242998 0.14558329 0.011640273 -0.20466428 0.21828654 0.023950446
0.3442997 0.07072193 -0.16115677 -0.18155432 0.12985517 -0.10228677 0.07008702 -0.042100675
-0.016832314 -0.14898396 -0.17804697 0.1547355 0.19036318 0.0280632 -0.09429417 -0.277877
0.23399816 0.04948262 0.102293 -0.016929446 -0.17257708 -0.057634097 0.035040908 0.22912304
-0.0067254175 0.025190378 0.104118004 -0.035847377 -0.18399593 0.18605617 -0.24906123 -0.010461315
-0.008744063 -0.08956698 -0.0037824272 0.085532434 0.010834295 0.40496576 0.084145546 0.19672585
0.07528117 -0.12915745 0.3159125 0.07646179 0.114286944 0.041610867 0.023123357 0.15163909
0.040260084 0.0416927 0.09493548 -0.09459645 -0.086063944 0.312052 0.050446484 0.14734861
-0.07488846 -0.2780761 -0.18506885 0.09088535 0.0073109 0.14893945 -0.219118 0.30682117
0.0067359405 -0.14037915 0.01785092 0.035327855 0.079494424 -0.036838677 0.21828505 0.11404115
0.17238687 0.08736324 -0.11122387 0.06510407 -0.06895795 0.0011591188 0.11272318 0.25993305
-0.020898638 -0.1626561 0.17062253 0.022801593 -0.19186302 -0.19008912 -0.23708233 -0.1320973
0.04874432 -0.075689845 -0.016610006 0.26383913 -0.08483092 -0.027896328 -0.100683264 0.031010536
-0.089539096 0.12752254 -0.2869168 -0.016633084 0.22782771 0.030590499 0.10615317 0.15479341
0.27280197 0.21681096 -0.094743945 0.039155 -0.389924 0.009015234 0.061738472 0.13057996
00000000: ab3d dc3d 54e4 3ebd f5a2 63be c1e7 2e3c
00000010: 12f9 1abe ac11 b23a bf01 363e 3477 603e
00000020: e866 89be 88ae ac3d 6cef 963e 50cc 53be
00000030: 37aa 593d 2590 9ebe c6ca 413e 5f1b 163e
00000040: 1288 96be abeb 8cbd 4c64 01be 0ab1 c93e
00000050: 0e21 8cbd 77ac 163e 72e8 ffbc fee0 bdbd
00000060: 1c3c 1fbe ffd8 453e 45d1 693d 3326 e53c
00000070: 9319 ccbe 4871 443e dabf ecbd d3a6 493e
00000080: c29e 343e 9a42 de3d 65b1 48be ed64 3c3d
00000090: 1bd4 2d3e 82e4 543e d971 1c3d e0dc b7be
000000a0: 11d2 793d e74c eabd 0135 65bd 1165 f83c
000000b0: 6aaf 67be bb29 e53c 741c cdbc 8941 02be
000000c0: 8a56 293e 99aa d6bd 89c8 bb3e 69a9 a23d
000000d0: 07be 9ebd 0c22 38be e5d7 43bb fadc b63d
000000e0: d1c0 ce3d c2be 11be 369e 81be a394 593c
000000f0: 3be0 5abe 3cdc 0bbf 5b6e 24bd 6e96 c5bc
00000100: 20f1 84bd 5777 be3d d7cf c3bc 99c0 433e
00000110: e124 0fbe c0f3 453e 6622 b5bd 8a68 303b
00000120: 5d61 8e3e 4d11 053d 2817 173e 4191 ef3d
00000130: 7593 52be b9db babd 7d84 7cbe e109 5a3e
00000140: c32e 59be 4443 90be c64f 72be f667 9dbd
00000150: 831c a03d c524 813c 5ddb fdbd 9e83 94bd
00000160: 4eb8 10be 3985 c03d 610f cb3d b503 abbd
00000170: 17f0 0bbd 26ee a63e a152 c1bd 5d2d d63d
00000180: 3d83 34bb ca54 86be 2ee6 77be fb2a e43d
00000190: ed47 923d e3c1 313e 195d 58bd 6b85 8d3d
000001a0: 9ad4 cfbd d022 fcbd b2fa ebbd d804 8cbc
000001b0: 9196 363d 7504 16be 9bc7 ad3e fd51 5a3e
000001c0: 12cf a2bd bf46 003e 7ec4 703e 5ab1 8cbe
000001d0: d35d b63a 5653 32be 37e8 133e 7ae9 7abe
000001e0: 15b0 8d3c b528 d83d 6862 e5bd 02e1 79bd
000001f0: 6c04 10be fb2c 523e 8ff9 28bd 2b01 2ebd
00000200: cf3d 9c3b f8b8 8bbd 3b08 15bd 4a36 8cbd
00000210: 8ab3 463e cac9 cabb f2aa ce3d 4bc2 8c3d
00000220: 86a2 9d3e c976 bc3e d2c0 563d c913 153e
00000230: d8b6 3e3c 8393 51be 8286 5f3e ba33 c43c
00000240: 0d48 b03e a9d6 903d 4806 25be 60e9 39be
00000250: c1f8 043e ba7b d1bd c989 8f3d c271 2cbd
00000260: ece3 89bc 408f 18be f251 36be fc72 1e3e
00000270: 91ee 423e cce4 e53c 4d1d c1bd e545 8ebe
00000280: 379d 6f3e 4aae 4a3d fe7e d13d 9faf 8abc
00000290: 0cb8 30be bb11 6cbd 0e87 0f3d 3b9f 6a3e
000002a0: e460 dcbb 0d5c ce3c d23b d53d b3d4 12bd
000002b0: 6e69 3cbe 8285 3e3e e809 7fbe ef65 2bbc
000002c0: 4243 0fbc e56e b7bd 99e2 77bb a12b af3d
000002d0: 5482 313c ac57 cf3e 8054 ac3d 8072 493e
000002e0: 042d 9a3d da41 04be 48bf a13e 0098 9c3d
000002f0: 460f ea3d 2870 2a3d 326d bd3c 4747 1b3e
00000300: c2e7 243d f7c5 2a3d 886d c23d c9bb c1bd
00000310: 4b42 b0bd 48c5 9f3e f9a0 4e3d 8ee2 163e
00000320: 1f5f 99bd fe5f 8ebe b082 3dbe 1922 ba3d
00000330: 4690 ef3b 9583 183e 7860 60be aa17 9d3e
00000340: 2ab9 dc3b 8dbf 0fbe 183c 923c f1b3 103d
00000350: f9cd a23d 27e4 16bd 1e86 5f3e 688e e93d
00000360: 2f86 303e 80eb b23d 57c9 e3bd 4855 853d
00000370: d339 8dbd 93ed 973a 69db e63d f215 853e
00000380: 9f33 abbc 528f 26be acb7 2e3e 68ca ba3c
00000390: bd77 44be b9a6 42be b6c5 72be 8444 07be
000003a0: 20a8 473d 4703 9bbd b511 88bc ec15 873e
000003b0: d5bb adbd d786 e4bc 0733 cebd cf09 fe3c
000003c0: 4660 b7bd 4595 023e c2e6 92be 1b42 88bc
000003d0: ab4b 693e ed98 fa3c d566 d93d 2a82 1e3e
000003e0: b3ac 8b3e b103 5e3e 1d09 c2bd fe60 203d
000003f0: 1ea4 c7be a2b4 133c 7be1 7c3d c1b6 053e

linears.5.bias f4 [40]
-0.001828633 0.0038765431 0.0035629154 -0.00094844867 0.009932223 0.0008453679 0.0013778466 -0.0022315604
0.00079366873 0.0048049153 0.0042514075 0.0016958051 -0.00047235578 -0.007385716 0.007485941 0.0042100833
0.0014604862 -0.0074354745 0.008753677 -0.004801433 0.005261012 -0.0022969262 0.0051868684 -0.0006468458
0.0031851048 -0.0030667621 0.0015820105 0.007870595 0.005516981 0.0020386726 0.010071352 -0.004932866
-0.0033377411 -0.0008700754 0.0038805548 -0.003984558 0.00030344314 1.5314448e-05 0.00011995543 0.002042487
00000000: beae efba 9a0d 7e3b cd7f 693b 50a1 78ba
00000010: c3ba 223c ae9b 5d3a dc98 b43a 5f3f 12bb
00000020: 350e 503a 8d72 9d3b 644f 8b3b c745 de3a
00000030: 85a6 f7b9 e003 f2bb a04c f53b bdf4 893b
00000040: c96d bf3a 48a5 f3bb 956b 0f3c 5755 9dbb
00000050: 9164 ac3b 0788 16bb 9bf6 a93b 1691 29ba
00000060: 31bd 503b bbfb 48bb 775b cf3a abf3 003c
00000070: cac7 b43b 409b 053b 5002 253c e1a3 a1bb
00000080: 01be 5abb c615 64ba e850 7e3b e590 82bb
00000090: 7317 9f39 8777 8037 9590 fb38 3fdb 053b

linears.6.weight f4 [3, 40]
0.031220192 0.0308128 0.14505799 -0.028272282 -0.0035376567 -0.032117996 0.071071245 -0.3554683
-0.14290777 0.35779023 0.35334048 0.2448318 -0.3841205 0.14315008 0.4230898 0.4652999
0.13596715 0.073940925 -0.22963351 0.115735196 0.5860004 0.20044707 0.18620916 0.06334936
0.8476919 0.07678633 -0.17642625 -0.22050029 -0.022006856 -0.16247837 0.4345515 0.08498886
-0.35826 0.17428423 0.4630203 -0.09112345 0.20473042 0.58465385 -0.014407731 -0.13281299
0.08689302 -0.064409226 -0.03913827 0.3021298 0.03484763 -0.3576501 -0.17561813 0.18725017
-0.06548783 -0.101995185 -0.19392657 -0.2831588 0.21526007 -0.07457686 -0.033614658 -0.16591337
-0.3484278 -0.07109997 0.0384159 0.13924651 -0.15312813 0.21189791 -0.07013536 -0.20331496
0.25946304 0.30523205 -0.1803434 -0.02747061 -0.042558946 0.05231322 0.005589742 0.064969376
-0.036964465 0.17074515 -0.14871666 -0.22480987 0.43691564 0.2582454 0.37513018 0.13185811
-0.022675365 0.094368175 0.0074125733 0.05503408 0.30523926 -0.076647446 -0.016561123 0.017004868
-0.0010349979 0.12665743 0.2600079 -0.01050633 0.09245451 -0.18572439 0.08055159 0.20107679
-0.044097807 -0.13689569 0.19577144 -0.36076528 0.32373083 -0.09979097 0.2129088 -0.12942486
0.22012435 -0.26581463 0.04224557 0.3063511 0.17902006 0.06183332 0.34572816 -0.21391027
-0.021853518 0.016044078 0.11341727 -0.26749286 0.20465736 0.08182442 0.17792702 0.13587438
00000000: 7dc1 ff3c 206b fc3c 158a 143e 469b e7bc
00000010: 08d8 67bb 298e 03bd cd8d 913d f1ff b5be
00000020: 6a56 12be 4830 b73e 0be9 b43e 30b5 7a3e
00000030: 71ab c4be ef95 123e 3a9f d83e ca3b ee3e
00000040: f93a 0b3e 576e 973d 0c25 6bbe 9306 ed3d
00000050: 1f04 163f ff41 4d3e 9dad 3e3e 4fbd 813d
00000060: 5602 593f 2742 9d3d 15a9 34be d4ca 61be
00000070: b947 b4bc bb60 26be 897d de3e a40e ae3d
00000080: db6d b7be 9177 323e ff10 ed3e ee9e babd
00000090: daa4 513e e0ab 153f 670e 6cbc 2100 08be
000000a0: f8f4 b13d fce8 83bd 734f 20bd c2b0 9a3e
000000b0: 63bc 0e3d ea1d b7be 3dd5 33be 82be 3f3e
000000c0: 7c1e 86bd dae2 d0bd b094 46be 31fa 90be
000000d0: 236d 5c3e c1bb 98bd 86af 09bd 32e5 29be
000000e0: 2165 b2be dc9c 91bd fe59 1d3d a396 0e3e
000000f0: 9fcd 1cbe c4fb 583e 21a3 8fbd cc31 50be
00000100: 57d8 843e 6047 9c3e f1ab 38be 0b0a e1bc
00000110: 4a52 2ebd 6346 563d 282a b73b aa0e 853d
00000120: 0d68 17bd d1d7 2e3e 2e49 18be 8f34 66be
00000130: 68b3 df3e be38 843e 1011 c03e d005 073e
00000140: b0c1 b9bc 1a44 c13d 2ce5 f23b 6a6b 613d
00000150: 5248 9c3e 56f9 9cbd 31ab 87bc cb4d 8b3c
00000160: c4a8 87ba 7cb2 013e c11f 853e be22 2cbc
00000170: ca58 bd3d 892e 3ebe 3bf8 a43d 13e7 4d3e
00000180: e79f 34bd 622e 0cbe 4f78 483e 3ab6 b8be
00000190: 0cc0 a53e 355f ccbd c404 5a3e f387 04be
000001a0: 4768 613e db18 88be b109 2d3d 0dda 9c3e
000001b0: 0951 373e ef44 7d3d 4803 b13e 4b0b 5bbe
000001c0: 2606 b3bc df6e 833c 5047 e83d d3f4 88be
000001d0: b391 513e 9093 a73d 8032 363e a722 0b3e

linears.6.bias f4 [3]
0.27819383 -0.0014581137 0.009177498
00000000: 6c6f 8e3e 2d1e bfba 375d 163c

exp_avg f4 [40, 2]
-1.391972 0.5748532 -1.0410632 -0.0023626906 -0.33283523 0.21584503 -0.7027853 0.8736236
-0.5039031 0.21575274 0.22013886 0.23804706 -0.38597572 0.57283187 -0.6676543 -0.9364163
1.2552233 -0.36650524 0.073882475 0.3620092 0.9197532 0.19442558 1.309582 -0.23115711
-0.013020258 0.4664408 0.9597449 -0.3114208 -1.5993327 0.29950812 0.21719638 0.0851429
-0.7677986 -0.24120088 0.1966954 0.2891603 -0.44548303 0.00078985025 0.32662866 0.6244219
-0.5397675 1.0716579 0.16372608 -0.08526219 -1.0045089 0.71999884 1.01347 0.10854536
-0.39395916 0.6029103 -2.0663154 0.7383112 1.0749536 0.26455444 -0.27765304 0.18162313
0.58521366 -0.90841985 1.032259 -0.52344024 -0.08170402 0.09739166 0.61647063 0.12171377
1.2090049 -1.0238149 0.82978547 1.0643132 0.027996946 -0.038881727 -0.35203162 -0.24209318
0.46839395 0.16185941 0.40114737 0.0016419734 -0.8437017 -0.2618005 0.5770713 0.26635557
00000000: 232c b2bf 9429 133f 8f41 85bf 5fd7 1abb
00000010: 6169 aabe 7b06 5d3e bde9 33bf cca5 5f3f
00000020: cbff 00bf 49ee 5c3e 156c 613e 9cc2 733e
00000030: 9c9e c5be 1ca5 123f 64eb 2abf fbb8 6fbf
00000040: 28ab a03f 93a6 bbbe b24f 973d 4559 b93e
00000050: f274 6b3f 8017 473e 62a0 a73f 73b4 6cbe
00000060: ec52 55bc 54d1 ee3e d7b1 753f 8c72 9fbe
00000070: efb6 ccbf 2159 993e ba68 5e3e 675f ae3d
00000080: 738e 44bf 5dfd 76be 856a 493e d20c 943e
00000090: 5a16 e4be f40d 4f3a df3b a73e 1dda 1f3f
000000a0: 342e 0abf 162c 893f cfa7 273e f19d aebd
000000b0: bf93 80bf d851 383f 63b9 813f 084d de3d
000000c0: 04b5 c9be 5458 1a3f 833e 04c0 f601 3d3f
000000d0: 1498 893f ae73 873e 8a28 8ebe 6afb 393e
000000e0: 90d0 153f 348e 68bf 1021 843f 2e00 06bf
000000f0: 7054 a7bd 4775 c73d 05d1 1d3f 1245 f93d
00000100: acc0 9a3f 5e0c 83bf d26c 543f 6a3b 883f
00000110: da59 e53c 7242 1fbd 7d3d b4be 46e7 77be
00000120: 55d1 ef3e 79be 253e 3063 cd3e 7c37 d73a
00000130: d6fc 57bf b70a 86be f2ba 133f c25f 883e

exp_avg_sq f4 [40, 2]
3.143104e+07 420373.0 4.363589e+07 815645.4 6.865562e+07 600516.56 1.3411131e+07 230444.97
1.3590775e+07 275875.06 8.636452e+07 1.3037604e+06 1.2228671e+07 202717.48 7.9131285e+06 127815.83
2.4337098e+06 39007.496 3.8354924e+07 577146.75 6.71376e+07 1.1224251e+06 4.531506e+07 800271.44
3.641915e+06 50904.17 3.8542324e+07 779217.06 4.1289055e+06 83214.41 3.5088876e+07 549685.1
7.884398e+06 143229.17 4.8055645e+06 51031.703 7.2486115e+06 127131.67 3.2709878e+06 48553.008
3.1651126e+07 502793.1 6.43671e+06 115340.27 2.8491945e+06 25585.613 1.5660486e+07 233105.02
1.4312099e+07 284965.0 4.7134504e+07 1.00616206e+06 5.3557612e+07 782765.3 1.0855851e+07 237638.36
1.4687701e+07 209846.73 2.1332284e+07 318736.6 1.8496024e+07 401837.94 1.8319842e+07 339346.28
1.1899586e+07 256851.33 1.0978385e+07 165015.64 1.515423e+07 225267.39 1.4251754e+06 20239.62
3.0477562e+07 546765.94 7.586957e+06 68790.625 3.9700142e+06 37796.793 2.5014308e+07 550489.25
00000000: c0cc ef4b a042 cd48 2c75 264c d621 4749
00000010: 40f3 824c 499c 1249 3ba3 4c4b 3e0b 6148
00000020: f760 4f4b 62b4 8648 2dba a44c 8326 9f49
00000030: 3f98 3a4b 5ff7 4548 517d f14a eaa3 f947
00000040: b78a 144a 7f5f 1847 fb4f 124c ace7 0c49
00000050: 080e 804c c903 8949 fddc 2c4c f760 4349
00000060: ec48 5e4a 2cd8 4647 fd06 134c 113d 3e49
00000070: 2602 7c4a 3487 a247 7bda 054c 5233 0649
00000080: dc9c f04a 4bdf 0b48 79a7 924a b457 4747
00000090: c735 dd4a d64d f847 2fa5 474a 02a9 3d47
000000a0: 9b7a f14b 2381 f548 cc6e c44a 2346 e147
000000b0: aae6 2d4a 3ae3 c746 c6f5 6e4b 41a4 6348
000000c0: a362 5a4b a024 8b48 cacd 334c 21a5 7549
000000d0: 5b4e 4c4c d51a 3f49 aba5 254b 9711 6848
000000e0: d51d 604b afed 4c48 9ec0 a24b 13a2 9b48
000000f0: 0c1d 8d4b be35 c448 f1c4 8b4b 49b2 a548
00000100: c292 354b d5d4 7a48 5184 274b e925 2148
00000110: 363c 674b d9fc 5b48 bbf8 ad49 3d1f 9e46
00000120: 7d86 e84b df7c 0549 1a89 e74a 505b 8647
00000130: 794f 724a cba4 1347 12d8 be4b 9465 0649

exp_avg f4 [40]
-3.0862336 9.352177 -0.081708506 -7.876777 5.3569484 -1.3080777 0.1482531 23.013144
-0.25222427 -6.285922 -4.16462 -14.502139 -5.60959 5.4774847 3.569424 7.2581186
8.544047 -4.626067 10.639952 -4.5688653 -22.618322 -2.8245397 0.48075166 -4.5387197
-15.279331 12.239537 -28.510098 1.8658458 3.7792835 4.5487146 9.096401 -7.488147
4.873105 -19.88186 9.673081 7.4268675 -11.938891 -18.160828 20.377552 -0.5973338
00000000: da84 45c0 84a2 1541 ca56 a7bd 8f0e fcc0
00000010: 1f6c ab40 176f a7bf a9cf 173e eb1a b841
00000020: 8a23 81be 4626 c9c0 9144 85c0 c308 68c1
00000030: c381 b3c0 8e47 af40 7171 6440 8242 e840
00000040: 6bb4 0841 be08 94c0 3e3d 2a41 2534 92c0
00000050: 53f2 b4c1 42c5 34c0 1525 f63e 313d 91c0
00000060: 2478 74c1 25d5 4341 ae14 e4c1 09d4 ee3f
00000070: c8df 7140 128f 9140 dc8a 1141 e69e efc0
00000080: 7af0 9b40 0d0e 9fc1 f1c4 1a41 e6a8 ed40
00000090: b305 3fc1 6049 91c1 3a05 a341 deea 18bf

exp_avg_sq f4 [40]
2.7811316e+07 3.782428e+07 6.4106556e+07 1.2285075e+07 1.2167619e+07 6.952556e+07 1.0935224e+07 5.445912e+06
1.8628581e+06 3.7444852e+07 5.6833332e+07 4.0826364e+07 2.9255708e+06 3.6950788e+07 3.1740632e+06 2.8722534e+07
7.866689e+06 3.2918822e+06 6.6294075e+06 3.644947e+06 2.0871268e+07 6.1157905e+06 1.5055739e+06 1.2847986e+07
9.640861e+06 4.4092196e+07 5.0468984e+07 9.080564e+06 1.0252275e+07 1.891938e+07 1.7012226e+07 1.80507e+07
8.1979295e+06 7.511057e+06 1.4672751e+07 927387.94 2.8092564e+07 4.570874e+06 2.9380345e+06 2.4176512e+07
00000000: fa2e d44b c649 104c 0f8c 744c 9374 3b4b
00000010: c3a9 394b 079c 844c b8db 264b 3032 a64a
00000020: 5166 e349 3dd7 0e4c 4dcd 584c 7fbd 1b4c
00000030: 0b90 324a c1f4 0c4c bdba 414a b322 db4b
00000040: 8212 f04a a9eb 484a 3f50 ca4a 4c78 5e4a
00000050: 323c 9f4b 9da3 ba4a 2fc9 b749 720b 444b
00000060: 9d1b 134b c932 284c 1e86 404c f48e 0a4b
00000070: f36f 1c4b ea57 904b 01cb 814b 46b7 894b
00000080: 532e fa4a 2238 e54a 6fe3 5f4b bf69 6249
00000090: 4a54 d64b f47d 8b4a ca52 334a c073 b84b
