1DCFD_FNO/1D_CFD_Rand_Eta0.1_Zeta0.1_periodic_Train_FNO.pt (torch, 541123 bytes, 42 tensors)

fc0.weight f4 [20, 31]
0.38748288 -0.14431095 -0.20270815 0.22817607 0.06912547 -0.15106077 0.44294903 -0.17014882
-0.15980242 0.21486539 0.13052925 0.063221514 0.34512702 -0.10920421 -0.11670279 0.024447143
-0.034589138 -0.097547084 0.20150256 0.14242122 -0.035426002 0.1354752 -0.1010052 -0.0024646828
-0.034755547 0.14936084 -0.033616293 -0.26760596 -0.054743085 0.010680856 -0.041790977 0.18424055
-0.12846065 -0.19752015 0.0077512143 0.0050128745 -0.021008667 0.07370048 -0.13716747 0.041709453
0.21051578 0.1370186 0.008647222 0.088423476 -0.13211198 -0.0062066116 0.17787339 0.037399855
-0.0034688336 -0.07146457 -0.121393144 -0.2882827 0.14319454 -0.09611913 0.08672272 -0.11948064
0.03854238 0.29114786 -0.31550425 0.15977088 0.41477993 -0.25660226 0.013270448 -0.026011925
0.27904615 -0.018546132 0.017023645 0.13267183 -0.03156022 0.09611793 0.18846487 -0.0710732
0.16581663 0.04600282 -0.064949274 -0.12395465 0.08138374 0.122052796 -0.042178143 0.103866085
0.10925314 0.08167234 0.14421643 0.17518541 -0.050278045 0.26302382 0.1930597 0.09250714
1.0210615 -0.37362328 -0.19287667 2.1771712 0.18980668 -0.13309625 0.13114387 -0.5302099
-0.050975647 -0.11692913 -0.47148487 -0.23739174 0.17470546 -0.47315618 -0.24519992 -0.0056578787
-0.6657843 0.005772571 -0.12647031 -0.46573842 0.1383678 0.09722302 -0.6257798 0.22203545
0.12720862 -0.40844852 0.09508763 -0.030955218 -0.40394306 0.15106712 0.054623716 -0.26647815
0.24412465 -0.13044241 0.44844383 -0.4220601 -0.07201699 0.087698996 0.04754349 0.037923273
-0.025988204 -0.009017563 0.013855772 -0.11827945 0.14432749 0.008890828 0.03764246 -0.06394673
0.118928604 -0.071787275 0.059901882 0.105254486 -0.046374615 0.047997914 -0.0174537 0.026177151
0.03734994 0.21528646 -0.088227436 -0.28298867 -0.23366387 0.12034143 -0.56235653 -0.49530917
0.10325978 -0.54068017 0.2814777 0.024963807 0.025157621 -0.06509674 -0.17006995 0.05513666
-0.09680955 -0.023800652 -0.13163549 -0.06405013 -0.03115994 -0.1175207 -0.0960901 -0.11531031
0.15693502 -0.060166318 0.03896945 -0.07794943 0.114172846 0.12604888 -0.12542002 -0.05336179
0.24421248 -0.09971641 -0.16257364 0.376999 0.08380727 -0.10814937 0.0056501874 0.18720256
-0.34892848 -0.081710435 0.54167974 -0.085154995 0.06938505 0.40746263 0.1919025 0.09425482
0.5011436 -0.05372877 -0.10210268 0.3444413 0.026544178 0.014208801 0.14199986 -0.07628308
-0.1833244 0.011184249 -0.0059534744 -0.17848808 -0.17465712 -0.043063115 -0.049213775 -0.07300593
-0.13129313 -0.12896177 -0.0757769 0.09590773 -0.23157206 -0.26452294 -0.0038943368 -0.26124153
0.03295744 -0.12794074 -0.099708565 0.14970578 -0.16452491 -0.046147548 0.20635262 -0.13244826
-0.041571245 0.057065226 -0.1476739 -0.040322527 0.05315295 -0.07435893 -0.17480534 0.017756026
-0.015926113 -0.05720621 -0.07183398 -0.07408572 -0.05505696 0.052997336 0.12642804 -0.13481009
-0.018514268 0.19422604 -0.0020019803 -0.010330548 0.12408141 0.11728222 -0.4860748 0.35366738
0.13796873 -0.09225067 -0.099451914 0.029275702 -0.09218314 -0.06427962 0.13286477 -0.12701623
00000000: 2864 c63e 40c6 13be ba92 4fbe fda6 693e
00000010: a891 8d3d adaf 1abe 37ca e23e 7e3b 2ebe
00000020: 3fa3 23be ac05 5c3e 76a9 053e 487a 813d
00000030: 7db4 b03e 75a6 dfbd df01 efbd 6045 c83c
00000040: 57ad 0dbd c4c6 c7bd b056 4e3e ded6 113e
00000050: db1a 11bd 03ba 0a3e d0db cebd 8486 21bb
00000060: d55b 0ebd 0cf2 183e 3db1 09bd a603 89be
00000070: 493a 60bd c2fe 2e3c 042d 2bbd 8ea9 3c3e
00000080: 308b 03be b942 4abe e6fd fd3b 0a43 a43b
00000090: 5e1a acbc 47f0 963d a175 0cbe 88d7 2a3d
000000a0: 7391 573e 9b4e 0c3e 14ad 0d3c 5e17 b53d
000000b0: 5d48 07be d560 cbbb 7124 363e 9730 193d
000000c0: 5f55 63bb 045c 92bd f89c f8bd ca99 93be
000000d0: 97a1 123e 1bda c4bd ae9b b13d 44b2 f4bd
000000e0: 9dde 1d3d 5511 953e c689 a1be fa9a 233e
000000f0: 095e d43e 5f61 83be 4b6c 593c f616 d5bc
00000100: 23df 8e3e 0fee 97bc 2c75 8b3c 20db 073e
00000110: 4a45 01bd 7ad9 c43d effc 403e d38e 91bd
00000120: d6cb 293e 746d 3c3d 2004 85bd efdb fdbd
00000130: 85ac a63d d1f6 f93d fdc2 2cbd beb7 d43d
00000140: 1cc0 df3d d443 a73d 79ad 133e ce63 333e
00000150: 5af0 4dbd 0fab 863e 71b1 453e 6274 bd3d
00000160: 25b2 823f 8d4b bfbe 7681 45be c656 0b40
00000170: af5c 423e 624a 08be 944a 063e d6bb 07bf
00000180: d7cb 50bd 8a78 efbd 7766 f1be d216 73be
00000190: fde5 323e 8741 f2be b015 7bbe ba65 b9bb
000001a0: d770 2abf d627 bd3b 6f81 01be 4475 eebe
000001b0: 4ab0 0d3e dd1c c73d 1b33 20bf 435d 633e
000001c0: fa42 023e 2a20 d1be 4ebd c23d cc95 fdbc
000001d0: a0d1 cebe 57b1 1a3e 1ebd 5f3d d36f 88be
000001e0: d0fb 793e b292 05be 6e9a e53e 4318 d8be
000001f0: a57d 93bd 889b b33d f6bc 423d 6f55 1b3d
00000200: 37e5 d4bc 67be 13bc 5203 633c 7f3c f2bd
00000210: 96ca 133e d6aa 113c fb2e 1a3d 81f6 82bd
00000220: d790 f33d 3505 93bd ad5b 753d aa8f d73d
00000230: 4ff3 3dbd 7699 443d 10fb 8ebc 7771 d63c
00000240: 40fc 183d 0e74 5c3e 96b0 b4bd e4e3 90be
00000250: 9545 6fbe 9175 f63d 99f6 0fbf 2a99 fdbe
00000260: dd79 d33d 046a 0abf d81d 903e e680 cc3c
00000270: 5b17 ce3c 7151 85bd d126 2ebe fad6 613d
00000280: 1644 c6bd 96f9 c2bc 74cb 06be b72c 83bd
00000290: 2143 ffbc b1ae f0bd e3ca c4bd d027 ecbd
000002a0: 93b3 203e f570 76bd 6e9e 1f3d f3a3 9fbd
000002b0: 74d3 e93d f512 013e 1b6e 00be e491 5abd
000002c0: d612 7a3e 1e38 ccbd b479 26be 0306 c13e
000002d0: 25a3 ab3d 6b7d ddbd 3525 b93b 07b2 3f3e
000002e0: c1a6 b2be cd57 a7bd 86ab 0a3f be65 aebd
000002f0: c019 8e3d f19e d03e 1782 443e ac08 c13d
00000300: f24a 003f b312 5cbd 361b d1bd 9c5a b03e
00000310: 2d73 d93c 08cc 683c 6968 113e 4e3a 9cbd
00000320: 64b9 3bbe 243e 373c 5d15 c3bb 94c5 36be
00000330: 51d9 32be f362 30bd 6294 49bd 2284 95bd
00000340: b571 06be 8e0e 04be eb30 9bbd 466b c43d
00000350: 3a21 6dbe 8d6f 87be 2138 7fbb 73c1 85be
00000360: 61fe 063d e602 03be 0134 ccbd 794c 193e
00000370: 3879 28be 3605 3dbd 1a4e 533e 84a0 07be
00000380: 9c46 2abd 3abd 693d d437 17be 3c29 25bd
00000390: e8b6 593d 7f49 98bd 2c00 33be 1675 913c
000003a0: 7b77 82bc 0f51 6abd b21d 93bd 41ba 97bd
000003b0: 6883 61bd bc13 593d 5a76 013e a80b 0abe
000003c0: 3cab 97bc 31e3 463e a833 03bb 7541 29bc
000003d0: 651e fe3d a931 f03d ccde f8be e413 b53e
000003e0: ad47 0d3e ebed bcbd 72ad cbbd 99d3 ef3c
000003f0: 84ca bcbd 09a5 83bd b40d 083e 8b10 02be

fc0.bias f4 [20]
-0.21232334 -0.049886134 -0.21213797 0.13938525 0.2104293 -0.09067884 -0.023767805 0.047641132
0.0324779 0.061509263 -0.1474376 0.1274024 -0.13444574 0.19146532 0.012309285 0.17105047
-0.12855421 0.097380154 -0.03852577 -0.1490571
00000000: 4a6b 59be 6755 4cbd b23a 59be 02bb 0e3e
00000010: c77a 573e d4b5 b9bd b3b4 c2bc 5923 433d
00000020: 8c07 053d 23f1 7b3d e2f9 16be c675 023e
00000030: 25ac 09be 7c0f 443e e2ac 493c db27 2f3e
00000040: b7a3 03be 3f6f c73d 33cd 1dbd 6da2 18be

w0.weight f4 [20, 20, 1]
-0.18088311 0.09375052 -0.16498187 -0.19343561 -0.1583456 0.1608914 -0.113966875 0.1573293
0.34689814 0.257012 0.08190047 -0.0072301817 0.07411014 0.3597401 -0.101509266 0.27925882
-0.1936175 -0.049600933 -0.15561986 0.08993435 -0.1609888 -0.113480605 -0.025589915 -0.00085843826
-0.23762389 0.15127048 -0.06685331 -0.07440333 -0.18363407 0.117389984 0.07289234 -0.13297033
-0.113209 -0.017584873 -0.06370115 -0.23363796 -0.12012898 -0.0010584051 -0.10020832 0.21009816
-0.024794526 -0.0052404744 0.201258 -0.06779319 -0.17654541 0.028746154 -0.017770654 -0.23348497
0.026504463 0.10672145 0.10753545 0.24066934 -0.13940941 -0.06575795 -0.113637954 -0.15188473
0.09785883 -0.20000616 -0.2543264 0.0010776494 0.13004632 0.2276596 -0.034448408 -0.28453374
0.2266172 0.13180363 -0.15046169 -0.022585798 0.167511 -0.20649362 0.38999987 0.041654453
0.2191659 0.04531792 0.086559705 0.003236215 0.0037400548 -0.110399686 0.2117013 -0.06364329
-0.13812661 0.31355077 0.3485728 -0.21924075 0.25237718 -0.009881201 -0.08381149 0.21021856
0.2834933 -0.18156311 0.013127432 0.09456462 0.3153431 0.30344424 -0.05200265 0.056747593
-0.22224998 -0.14910069 0.046119493 0.13308033 -0.2859365 -0.16288659 -0.07587338 0.19648024
-0.0011540944 0.12855215 -0.49026328 -0.07031307 -0.22970738 0.093768 -0.17117742 0.029206693
0.110984094 0.15641849 -0.05845999 0.19642697 -0.018856177 -0.09703952 0.09302292 -0.040735595
-0.089750394 0.008652237 0.1291481 -0.15647066 -0.23111589 -0.15789382 0.18873578 0.02525639
0.022011288 -0.078232475 0.25031632 0.02191027 -0.049979072 0.020540727 0.10384519 -0.15878588
0.15874411 -0.25133148 -0.021603348 -0.008191883 0.040956564 -0.05063406 0.06877674 0.014382363
-0.06673757 -0.06695593 0.020921651 0.050010107 -0.016734168 -0.04196898 -0.059757277 -0.03683449
-0.025751416 -0.050693337 -0.05918232 0.07897791 0.027071187 -0.050490934 -0.071503416 0.05285796
0.15040548 -0.18087336 0.057023607 0.20679623 0.049859982 -0.1491137 0.11134902 -0.09668407
0.037968513 -0.14037666 -0.017493531 0.040599052 -0.04305783 0.21065407 -0.01968024 0.05771992
0.045186464 0.17014225 -0.24268763 -0.08936058 0.13818225 -0.104522474 -0.09097926 -0.17850246
0.12564899 0.19040807 0.115696296 -0.108652204 -0.060723934 0.16041459 -0.12916945 -0.19770691
-0.2623363 -0.027128024 -0.058366325 -0.24407683 0.063875675 -0.02608878 -0.059471324 -0.2032579
0.21806388 -0.11867247 0.16318116 -0.0198412 -0.04399972 -0.06629447 0.17401591 0.0006151214
0.0919547 -0.227282 -0.08027431 -0.1329906 0.23740871 0.1471013 0.007226564 -0.016585097
0.18785267 0.12765901 -0.34235165 -0.09347116 -0.0896905 -0.083056375 -0.1697724 -0.034195174
0.18851 -0.05160206 0.119361974 -0.057262316 0.054100387 0.14537993 -0.044038832 -0.08192499
-0.18999465 -0.16221915 -0.26488546 -0.112613685 0.11471184 -0.20085767 -0.08618855 0.18403096
0.051277008 0.17119868 -0.045801047 -0.17686503 -0.16181116 -0.070326135 0.13685356 0.036566425
0.010820694 -0.05232942 -0.05315426 -0.083082706 0.09691588 -0.22726732 -0.20882827 -0.20867026
00000000: 6c39 39be 4600 c03d 02f1 28be fc13 46be
00000010: 5925 22be b7c0 243e 7767 e9bd ef1a 213e
00000020: a29c b13e 1497 833e 6fbb a73d 29eb ecbb
00000030: 0fc7 973d db2f b83e 17e4 cfbd 03fb 8e3e
00000040: aa43 46be 592a 4bbd d05a 1fbe 802f b83d
00000050: 3fda 24be 8568 e8bd f1a1 d1bc d108 61ba
00000060: ad53 73be a6e6 1a3e 63ea 88bd c660 98bd
00000070: 920a 3cbe 296a f03d 9448 953d 6029 08be
00000080: 1fda e7bd 270e 90bc c075 82bd ca3e 6fbe
00000090: 2f06 f6bd 2fba 8aba 053a cdbd f923 573e
000000a0: e41d cbbc 49b8 abbb 9416 4e3e 28d7 8abd
000000b0: 52c8 34be 0e7d eb3c c393 91bc af16 6fbe
000000c0: e31f d93c c790 da3d 8c3b dc3d 0672 763e
000000d0: 57c1 0ebe 1bac 86bd 04bb e8bd ac87 1bbe
000000e0: 366a c83d 6ace 4cbe 1237 82be ea3f 8d3a
000000f0: dd2a 053e 991f 693e c619 0dbd 68ae 91be
00000100: 570e 683e 88f7 063e a112 1abe da05 b9bc
00000110: 0188 2b3e 1073 53be 10ae c73e dc9d 2a3d
00000120: 076d 603e 499f 393d 3746 b13d ae16 543b
00000130: b51b 753b 3b19 e2bd 3ac8 583e 6a57 82bd
00000140: 1071 0dbe ba89 a03e 2278 b23e a680 60be
00000150: 9537 813e c3e4 21bc 5ca5 abbd 8943 573e
00000160: 0926 913e aeeb 39be 7114 573c 18ab c13d
00000170: a774 a13e 0b5d 9b3e bb00 55bd 2a70 683d
00000180: 8095 63be daad 18be cbe7 3c3d 3646 083e
00000190: 4566 92be becb 26be 8163 9bbd 1e32 493e
000001a0: fb44 97ba 2da3 033e ca03 fbbe 4d00 90bd
000001b0: 6938 6bbe 7009 c03d 2249 2fbe e042 ef3c
000001c0: a14b e33d 2b2c 203e be73 6fbd 2724 493e
000001d0: 4578 9abc a8bc c6bd cd82 be3d 5eda 26bd
000001e0: 0ecf b7bd 1dc2 0d3c 663f 043e d839 20be
000001f0: a5a9 6cbe ebae 21be f443 413e 7de6 ce3c
00000200: 0451 b43c 5938 a0bd 7629 803e 2b7d b33c
00000210: dbb6 4cbd 0745 a83c c9ac d43d c498 22be
00000220: d18d 223e 85ae 80be 81f9 b0bc 3f37 06bc
00000230: 12c2 273d a965 4fbd d2da 8c3d 01a4 6b3c
00000240: b5ad 88bd 3120 89bd e263 ab3c 66d7 4c3d
00000250: 1816 89bc aae7 2bbd 0cc4 74bd c3df 16bd
00000260: a2f4 d2bc d1a3 4fbd 2969 72bd 2cbf a13d
00000270: 65c4 dd3c 95cf 4ebd 6270 92bd 9781 583d
00000280: e503 1a3e de36 39be 9691 693d 64c2 533e
00000290: fb39 4c3d 43b1 18be f40a e43d 4c02 c6bd
000002a0: df84 1b3d e6be 0fbe 984e 8fbc 314b 263d
000002b0: 685d 30bd b3b5 573e 7438 a1bc b96b 6c3d
000002c0: 7115 393d c539 2e3e 1b83 78be ae02 b7bd
000002d0: a67f 0d3e e10f d6bd 5653 babd 59c9 36be
000002e0: 21aa 003e 55fa 423e 2ef2 ec3d 0c85 debd
000002f0: a9b9 78bd b943 243e ff44 04be ae73 4abe
00000300: f250 86be 973b debc 8711 6fbd 47ef 79be
00000310: 40d1 823d 23b8 d5bc 3498 73bd d722 50be
00000320: 234c 5f3e 8d0a f3bd f618 273e 038a a2bc
00000330: 0d39 34bd 65c5 87bd 3a31 323e 1940 213a
00000340: bf52 bc3d 9dbc 68be dc66 a4bd b02e 08be
00000350: 451b 733e b9a1 163e d0cc ec3b 78dd 87bc
00000360: 735c 403e 0bb9 023e b748 afbe cf6d bfbd
00000370: a7af b7bd 7619 aabd d1d8 2dbe 3d10 0cbd
00000380: c408 413e af5c 53bd 0d74 f43d e48b 6abd
00000390: 5e98 5d3d 7ade 143e 1062 34bd 4ac8 a7bd
000003a0: f58d 42be c71c 26be 119f 87be 01a2 e6bd
000003b0: 0bee ea3d a2ad 4dbe 9f83 b0bd 9d72 3c3e
000003c0: d707 523d b54e 2f3e e199 3bbd 1b1c 35be
000003d0: d3b1 25be 2607 90bd 5723 0c3e adc6 153d
000003e0: 4849 313c 6057 56bd 48b8 59bd 4427 aabd
000003f0: d57b c63d c4b8 68be 14d7 55be a8ad 55be

w0.bias f4 [20]
-0.09542696 -0.20121926 -0.22285369 -0.25937963 0.19434021 -0.030260092 -0.009587407 -0.51350796
0.1308359 -0.040705983 -0.05510569 0.031218393 -0.04563455 -0.048579905 -0.010834267 0.0731719
0.065455265 0.22221813 0.32598564 -0.20973538
00000000: 366f c3bd 6c0c 4ebe c233 64be 68cd 84be
00000010: 1f01 473e 03e4 f7bc 8014 1dbc 4275 03bf
00000020: d9f9 053e 51bb 26bd 81b6 61bd b7bd ff3c
00000030: 4beb 3abd b9fb 46bd 3682 31bc 26db 953d
00000040: 690d 863d 268d 633e 97e7 a63e dfc4 56be

w1.weight f4 [20, 20, 1]
-0.1373444 0.1881235 0.14468709 0.13074486 -0.2529664 0.10715078 0.049772125 -0.0035853253
0.06743913 0.061475467 -0.11623058 0.15026294 0.14328924 0.2343874 -0.0008439908 0.03266176
0.17019361 0.08797423 -0.046989147 0.25571924 -0.01885867 0.096200675 0.23718311 0.14535908
-0.013874434 -0.15832247 -0.15813446 0.077152506 -0.022391865 0.107016794 0.069952756 0.2121532
-0.07484068 0.17553389 0.09371569 -0.008041907 -0.23376966 0.13030341 -0.17295797 -0.11135146
-0.08822014 0.041339166 0.019023921 -0.087697394 -0.05782407 -0.06596696 -0.17188546 0.03352755
-0.062106475 -0.15313235 0.17341012 -0.14167267 -0.08881353 0.033316728 -0.06463658 0.08043491
0.23346347 -0.10443983 -0.104348436 0.061278094 0.3010652 -0.17513786 0.039526563 -0.048726466
0.025749829 0.12401979 0.13153417 -0.34585825 -0.11252562 0.07537587 0.046150196 -0.1192407
-0.050595857 0.11981385 -0.1595976 0.011330314 0.16081424 0.0056281397 -0.13626212 0.22336642
-0.26830697 0.18103689 -0.045348547 0.16052432 -0.29020408 -0.1872687 0.12708344 0.92038685
0.12451216 0.1288239 -0.0023259327 -0.19177581 0.19606721 -0.015260428 -0.01822016 0.018399678
-0.15339078 -0.18887872 -0.14429656 -0.16329369 0.13941064 0.02615058 0.2641806 0.15121913
-0.07298567 0.064553216 0.057185587 -0.12809 0.17571989 -0.08095925 0.08806429 -0.13687243
-0.0036797223 -0.1412978 0.2513093 0.15682818 0.035180565 -0.16109192 -0.1471974 0.16857454
0.08645077 -0.14903444 0.24060005 -0.06280671 -0.012395048 0.070130974 -0.105213456 0.3755439
0.20670466 0.20725122 -0.19500092 0.20582095 0.045284845 -0.12165482 0.053505767 -0.13755266
-0.030205717 0.25455675 -0.11639373 -0.096912816 -0.20228378 0.13405979 0.088225074 0.19805327
0.009116281 -0.019397663 0.019140245 0.43210444 0.14832655 0.18314096 0.16154516 0.12302106
0.042514283 0.18658367 0.11343951 0.008282495 -0.01646437 -0.15257081 -0.13521531 0.23949964
-0.019403221 0.058727346 0.1685334 0.10857338 -0.20049626 -0.07178345 0.18928191 -0.15265618
0.022245195 -0.052335795 -0.09342984 0.22009107 -0.061418958 0.23687749 0.057297047 0.19798696
-0.011787406 -0.23908144 0.6809972 0.10382442 0.034729794 0.012397186 -0.1592458 -0.2449868
-0.02318226 -0.0866898 0.03905636 0.7372922 -0.1383521 0.29072028 -0.24563974 -0.11999538
0.15307847 0.22536176 -0.13063014 -0.09524108 -0.19055213 0.110641025 0.08252912 -0.0072384547
0.059917178 -0.19225243 0.072317764 0.109933876 -0.1738668 -0.0229277 -0.03296653 -0.41893268
0.215913 -0.08932793 0.20272365 -0.051798146 0.17695355 -0.11977268 -0.007127243 -0.26755893
0.20034716 0.14904581 0.14643902 -0.018576656 -0.078479834 -0.109391265 -0.28938222 -0.03640867
0.34095618 -0.09206437 -0.18560822 -0.6015988 -0.17829615 -0.31372818 -0.050900385 0.12433962
-0.061449964 0.09898212 -0.23921894 -0.20544538 -0.09633739 0.00012060694 -0.058212824 -0.29112035
0.0061368123 -0.1672897 0.039723575 -0.16248716 0.17073074 0.008880324 -0.2109541 -0.27117124
0.01761768 -0.34771982 0.088496745 0.13118804 -0.008473093 -0.16035776 -0.49000785 -0.026052648
00000000: 03a4 0cbe 72a3 403e da28 143e fbe1 053e
00000010: d084 81be de71 db3d dbdd 4b3d c7f7 6abb
00000020: 871d 8a3d b3cd 7b3d 4c0a eebd 87de 193e
00000030: 6aba 123e 4003 703e 443f 5dba 56c8 053d
00000040: 3c47 2e3e d52b b43d b177 40bd a2ed 823e
00000050: 7f7d 9abc dc04 c53d 21e0 723e 03d9 143e
00000060: 9851 63bc 491f 22be 00ee 21be 2202 9e3d
00000070: 256f b7bc 9f2b db3d 6443 8f3d b03e 593e
00000080: 1246 99bd 28bf 333e 03ee bf3d 34c2 03bc
00000090: 5061 6fbe 426e 053e e51b 31be 3c0c e4bd
000000a0: c3ac b4bd 4253 293d 0ed8 9b3c b19a b3bd
000000b0: efd8 6cbd af19 87bd be02 30be 2f54 093d
000000c0: 5c63 7ebd bace 1cbe 6c92 313e a412 11be
000000d0: dee3 b5bd 1f77 083d 2f60 84bd 0fbb a43d
000000e0: 0c11 6f3e 8de4 d5bd a2b4 d5bd bdfe 7a3d
000000f0: 3825 9a3e 5757 33be 9be6 213d 6795 47bd
00000100: 4ef1 d23c 16fe fd3d e5b0 063e 5514 b1be
00000110: d573 e6bd aa5e 9a3d fd07 3d3d 7834 f4bd
00000120: 9a3d 4fbd f760 f53d 8e6d 23be c8a2 393c
00000130: 7dac 243e 426c b83b 4c88 0bbe 2bba 643e
00000140: 885f 89be bc61 393e 66bf 39bd 7d60 243e
00000150: a195 94be 5ec3 3fbe 2922 023e 799e 6b3f
00000160: 3b00 ff3d 6aea 033e ad6e 18bb e160 44be
00000170: d8c5 483e e006 7abc 7242 95bc ecba 963c
00000180: 7912 1dbe 6c69 41be 7ac2 13be 7636 27be
00000190: aac1 0e3e be39 d63c ae42 873e 30d9 1a3e
000001a0: 8379 95bd 7a34 843d 6f3b 6a3d 062a 03be
000001b0: eaef 333e f7cd a5bd 0d5b b43d 4928 0cbe
000001c0: 7f27 71bb 5fb0 10be 9dab 803e 9197 203e
000001d0: 7f19 103d 48f5 24be eaba 16be ce9e 2c3e
000001e0: 1a0d b13d 7c9c 18be dc5f 763e cea0 80bd
000001f0: 9914 4bbc d4a0 8f3d 277a d7bd 4a47 c03e
00000200: 63aa 533e aa39 543e 52ae 47be bac2 523e
00000210: 9a7c 393d 2a26 f9bd dd28 5b3d 9bda 0cbe
00000220: fb71 f7bc 4355 823e d65f eebd 3a7a c6bd
00000230: 7b23 4fbe f846 093e 59af b43d 7ace 4a3e
00000240: 745c 153c d9e7 9ebc 01cc 9c3c cb3c dd3e
00000250: eae2 173e 4e89 3b3e 186c 253e 77f2 fb3d
00000260: 7523 2e3d ca0f 3f3e f952 e83d 4db3 073c
00000270: 49e0 86bc 863b 1cbe e275 0abe 653f 753e
00000280: 81f3 9ebc 168c 703d 0594 2c3e b85b de3d
00000290: e44e 4dbe 3403 93bd 1ed3 413e e751 1cbe
000002a0: 8e3b b63c 0f5e 56bd 2558 bfbd 8e5f 613e
000002b0: 7292 7bbd 0390 723e 4fb0 6a3d 18bd 4a3e
000002c0: f71f 41bc c4d1 74be d555 2e3f e6a1 d43d
000002d0: d440 0e3d 911d 4b3c 5511 23be d2dd 7abe
000002e0: b9e8 bdbc 6c8a b1bd 90f9 1f3d 2ebf 3c3f
000002f0: 2cac 0dbe 4ad9 943e fc88 7bbe 23c0 f5bd
00000300: 9ac0 1c3e 3cc5 663e e8c3 05be c10d c3bd
00000310: 1920 43be c397 e23d 0705 a93d 8f30 edbb
00000320: b76b 753d d2dd 44be 561b 943d 0325 e13d
00000330: 230a 32be dfd2 bbbc ea07 07bd 587e d6be
00000340: 4c18 5d3e 90f1 b6bd ca96 4f3e 4b2a 54bd
00000350: 5033 353e 614b f5bd a68b e9bb 7cfd 88be
00000360: ce27 4d3e 779f 183e 1cf4 153e 122e 98bc
00000370: 09ba a0bd 8708 e0bd e829 94be 4221 15bd
00000380: cf91 ae3e 3f8c bcbd 1510 3ebe 6102 1abf
00000390: 4493 36be fba0 a0be ec7c 50bd c5a5 fe3d
000003a0: f5b2 7bbd 23b7 ca3d cff5 74be 4660 52be
000003b0: 8a4c c5bd 5cee fc38 9270 6ebd ba0d 95be
000003c0: 5017 c93b fe4d 2bbe 30b5 223d 0963 26be
000003d0: 0ad4 2e3e c77e 113c 5a04 58be f5d6 8abe
000003e0: f452 903c 5508 b2be c83d b53d 2856 063e
000003f0: bad2 0abc d334 24be 4fe2 fabe 5d6c d5bc

w1.bias f4 [20]
0.15067233 0.18982023 -1.385485 0.072212696 -0.113030255 -0.22230713 0.0012936905 -0.1544838
-0.1433842 -0.32106942 0.04976409 -0.28667912 -0.68122244 -0.38846877 0.060298678 -0.24886551
0.027481534 -0.5678516 -0.727559 -0.09065724
00000000: d949 1a3e 3c60 423e 9357 b1bf 40e4 933d
00000010: 687c e7bd 7ba4 63be 0d91 a93a 0031 1ebe
00000020: 4fd3 12be 3663 a4be 6ed5 4b3d 9bc7 92be
00000030: 9864 2ebf 61e5 c6be bffb 763d 9ad6 7ebe
00000040: f420 e13c b95e 11bf 4e41 3abf 81aa b9bd

w2.weight f4 [20, 20, 1]
0.045043826 0.16926779 0.028876413 0.13175148 0.1560297 -0.04327129 0.14079401 -0.24041907
-0.09748369 -0.08131907 0.28890064 -0.012440937 -0.13043782 0.02393593 0.0021264711 0.21209398
0.03670354 0.05262604 0.051590428 -0.088697836 0.0048194984 0.024748163 0.03862223 0.013083707
-0.0284347 0.066038735 -0.035844766 -0.06863569 -0.009956398 -0.06375422 -0.026825285 0.15065688
-0.0151662845 -0.03201628 0.024571737 -0.023718823 0.032347847 -0.062218767 0.016539337 0.0049822615
-0.072196625 -0.17273669 -0.08743034 0.0872592 -0.18495262 -0.1610519 0.07009194 -0.035792198
0.18929984 0.0181136 -0.07323912 -0.017631136 -0.11217938 -0.017561967 -0.19133146 -0.012999128
0.19887023 -0.14321803 0.041882385 0.079220764 -0.20429765 -0.23992564 0.01706617 0.09638046
-0.59729487 -0.30077666 0.039432593 -0.042425603 -0.120512724 0.0948191 0.18755949 -0.29238075
0.25218186 0.24459024 -0.13179281 -0.1908432 0.21459775 -0.03719443 0.69676614 0.014395663
0.16058321 -0.13979776 0.10661679 0.13302313 0.03656029 0.18342453 -0.038624283 0.1189993
0.034174748 -0.084207386 -0.029502131 -0.025097972 0.5650175 0.007909833 -0.13027583 -0.10981267
-0.021731006 0.06983029 -0.17165393 0.08312795 0.14931509 -0.084391 0.02469122 0.14405212
-0.00015471649 0.07074145 -0.1595832 -0.06879216 0.038879048 0.018731115 -0.22251523 -0.0028125905
0.037349198 0.14939862 -0.03257173 -0.16153616 0.17092027 -0.08713138 -0.07728123 0.1904193
0.09798742 0.1847479 0.12645222 0.050555058 -0.028952895 0.24617384 0.037825428 0.0011783964
0.12934226 -0.0768147 0.36499083 -0.22718462 0.2871094 0.016664512 0.045087993 0.016718592
0.0051993816 -0.03894581 0.07314513 0.13887183 0.14970313 0.017649049 -0.18138398 0.058887303
-0.038367882 0.25194964 0.019991325 0.23552792 -0.16954942 0.026989635 0.09953589 -0.21047619
0.25985754 0.07499504 -0.12601429 -0.013847556 -0.06577269 -0.0057702004 -0.07588867 -0.11209493
-0.13823396 0.0444564 -0.03574156 -0.0840204 0.12075751 0.042909242 0.06877755 0.17542574
-0.16113096 0.1295649 -0.14264241 -0.0948366 0.23852178 -0.10026339 0.020560198 0.09000661
-0.023955924 0.01517138 0.0453032 0.12710612 0.0074219126 0.22072695 0.03720127 0.23168263
-0.036204427 0.13744813 -0.10062476 0.03970417 -0.20010622 0.09755385 0.1843857 0.24295627
0.16760668 -0.015503279 0.16707315 -0.21780804 0.20159568 0.12686323 -0.21410458 -0.19106832
-0.1618959 -0.034862008 0.043472447 -0.02628229 -0.107862666 0.11632201 -0.024106033 0.12294095
0.021168543 0.08973118 0.001954849 -0.06944216 -0.019432332 -0.044206265 0.00068337476 -0.025758615
0.0018668777 0.059957925 -0.029832743 -0.16100793 0.06536781 0.060679533 0.048884418 0.19678484
-0.022697628 0.25270385 0.040509783 -0.18633388 0.25226957 -0.0010279644 -0.0945412 0.059573285
-0.0027732921 -0.08474314 0.17844366 0.13517214 0.019045403 0.0006612258 0.14723602 -0.03259072
-0.02198325 0.106044255 0.06575566 -0.05290142 0.11871943 -0.20345587 0.1839031 0.16026479
0.06388581 -0.05630429 -0.22518164 -0.18409877 0.07599516 -0.14031573 0.009074587 -0.12077872
00000000: e07f 383d 8954 2d3e 3a8e ec3c dce9 063e
00000010: 40c6 1f3e 3c3d 31bd 4e2c 103e 6b30 76be
00000020: 87a5 c7bd 9d8a a6bd c9ea 933e 12d5 4bbc
00000030: 7e91 05be 4915 c43c 445c 0b3b 2a2f 593e
00000040: 7356 163d 678e 573d 7c50 533d 36a7 b5bd
00000050: e2ec 9d3b a9bc ca3c 5832 1e3d 0b5d 563c
00000060: e3ef e8bc 513f 873d f6d1 12bd de90 8cbd
00000070: 2920 23bc 9391 82bd b3c0 dbbc cc45 1a3e
00000080: 027c 78bc 8123 03bd ab4a c93c fa4d c2bc
00000090: 2d7f 043d 1bd9 7ebd 817d 873c 3d42 a33b
000000a0: d3db 93bd e3e1 30be ae0e b3bd f4b4 b23d
000000b0: 3864 3dbe caea 24be 5d8c 8f3d d79a 12bd
000000c0: d1d7 413e f962 943c 64fe 95bd 2c6f 90bc
000000d0: 4ebe e5bd 1dde 8fbc 65ec 43be 4bfa 54bc
000000e0: a3a4 4b3e bfa7 12be dd8c 2b3d 7f3e a23d
000000f0: 6733 51be 11af 75be 5ace 8b3c 1e63 c53d
00000100: 51e8 18bf 66ff 99be 1284 213d 78c6 2dbd
00000110: 60cf f6bd 8430 c23d 980f 403e eeb2 95be
00000120: fb1d 813e dd75 7a3e b2f4 06be 666c 43be
00000130: 83bf 5b3e 3059 18bd 445f 323f c9db 6b3c
00000140: ed6f 243e 2527 0fbe e759 da3d 3737 083e
00000150: 3ec0 153d a4d3 3b3e 7f34 1ebd e8b5 f33d
00000160: d2fa 0b3d ec74 acbd 74ae f1bc 439a cdbc
00000170: fda4 103f 3f98 013c 0767 05be 77e5 e0bd
00000180: 3905 b2bc 2f03 8f3d 0cc6 2fbe fd3e aa3d
00000190: 0ee6 183e 30d5 acbd 3e45 ca3c 6682 133e
000001a0: 643b 22b9 e5e0 903d c769 23be e7e2 8cbd
000001b0: a33f 1f3d ff71 993c 08db 63be 7053 38bb
000001c0: 79fb 183d f4fb 183e ef69 05bd bc69 25be
000001d0: b905 2f3e f071 b2bd 9f45 9ebd 47fd 423e
000001e0: a1ad c83d 8e2e 3d3e b17c 013e d212 4f3d
000001f0: 9f2e edbc ff14 7c3e d6ee 1a3d 6c74 9a3a
00000200: 4c72 043e 0751 9dbd 14e0 ba3e 16a3 68be
00000210: 0100 933e 0484 883c 30ae 383d 6ef5 883c
00000220: 935f aa3b a485 1fbd 1dcd 953d 6b34 0e3e
00000230: c74b 193e bd94 903c b9bc 39be d033 713d
00000240: a427 1dbd 8bff 803e d9c4 a33c 3b2e 713e
00000250: 5d9e 2dbe 5e19 dd3c 79d9 cb3d 1287 57be
00000260: 0c0c 853e 0097 993d e409 01be dce0 62bc
00000270: d5b3 86bd f313 bdbb 856b 9bbd 0792 e5bd
00000280: 348d 0dbe ea17 363d be65 12bd e312 acbd
00000290: b74f f73d 9ac1 2f3d 3edb 8c3d cea2 333e
000002a0: 84ff 24be a9ac 043e da10 12be b139 c2bd
000002b0: 0e3f 743e e456 cdbd dc6d a83c 6355 b83d
000002c0: 373f c4bc 6191 783c d98f 393d 1b28 023e
000002d0: 8433 f33b 3f06 623e 5c60 183d 363e 6d3e
000002e0: 184b 14bd 34bf 0c3e 5b14 cebd d7a0 223d
000002f0: a5e8 4cbe 50ca c73d 9bcf 3c3e 87c9 783e
00000300: 16a1 2b3e 7701 7ebc 3915 2b3e 1209 5fbe
00000310: 196f 4e3e 6fe8 013e 3b3e 5bbe 6aa7 43be
00000320: 0ac8 25be 77cb 0ebd 2a10 323d f54d d7bc
00000330: 1ae7 dcbd 3c3a ee3d 047a c5bc 77c8 fb3d
00000340: a769 ad3c fbc4 b73d ed1c 003b b137 8ebd
00000350: 8e30 9fbc a111 35bd 8124 333a bb03 d3bc
00000360: 05b2 f43a 7196 753d cc63 f4bc 43df 24be
00000370: 8fdf 853d 1a8b 783d 073b 483d f781 493e
00000380: 60f0 b9bc 6662 813e 96ed 253d 4fce 3ebe
00000390: 7a29 813e c3bc 86ba d19e c1bd 1e03 743d
000003a0: 1fc0 35bb d08d adbd efb9 363e 916a 0a3e
000003b0: 1b05 9c3c 1d56 2d3a 0ac5 163e d97d 05bd
000003c0: 3716 b4bc bb2d d93d e7aa 863d 29af 58bd
000003d0: 2c23 f33d bc56 50be 1851 3c3e 741c 243e
000003e0: 90d6 823d 549f 66bd 0496 66be 6384 3cbe
000003f0: 5aa3 9b3d edae 0fbe 94ad 143c d55a f7bd

w2.bias f4 [20]
-0.2904598 -0.5186984 -0.29140148 -0.757243 -0.17334215 0.18232442 0.080707066 -0.1707779
-1.5593401 -0.19846733 -0.45463198 0.006449628 0.1393623 -0.54406863 -0.45491904 -0.15630512
0.69136375 0.04397357 -0.8249414 0.17658903
00000000: 26b7 94be 6bc9 04bf 9332 95be adda 41bf
00000010: 9b80 31be 41b3 3a3e bf49 a53d 67e0 2ebe
00000020: 7598 c7bf 053b 4bbe 86c5 e8be 6757 d33b
00000030: feb4 0e3e 1548 0bbf 26eb e8be 730e 20be
00000040: 37fd 303f a11d 343d 5c2f 53bf c1d3 343e

w3.weight f4 [20, 20, 1]
0.010483222 1.2824601 -0.041797854 -0.06995919 0.09804456 -0.100179926 0.025098331 -0.14041555
0.09374452 -0.016056465 0.7736831 -0.17902155 0.036828678 -0.023498423 -0.20031968 0.09754627
-0.047878526 -0.20217781 0.018144108 -0.0670851 0.13774234 -0.12777776 -0.025950717 0.2036019
-0.15377045 -0.027223065 0.075619094 -0.1630423 0.15040036 0.14193182 0.02119918 -0.17139928
0.033232 -0.060799427 0.010673338 0.11468611 0.09787558 -0.2295299 0.15072447 0.17176706
0.17350155 -1.126851 0.019878784 0.091365635 0.16901338 -0.16002373 -0.15486006 0.18232185
0.11438637 0.13970183 -0.4935458 -0.23656654 0.05714547 0.05539485 -0.03328229 0.037704047
-0.069772676 0.19873793 -0.061894637 -0.23420179 0.052809756 0.13327602 -0.06769656 -0.041078486
-0.04118402 -0.11782839 -0.027967708 0.18943152 -0.121237785 -0.0769416 -0.55946034 -0.05392116
0.045444477 -0.022878384 0.056518756 0.038091313 0.055259228 -0.06126703 0.055865444 0.06562289
0.08365097 -0.25860336 -0.06132399 -0.052705336 -0.10012494 0.13940635 0.06280757 -0.20828302
0.28923106 0.077584565 -0.94122165 0.11865233 -0.15438682 0.036715727 0.02573072 -0.04643797
0.030910728 -0.018765502 0.065614454 0.0016467003 -0.06883782 -0.11438861 -0.06232014 0.04116205
-0.2062712 0.2752415 -0.23848177 -0.13547954 -0.15808849 0.08633961 0.072913446 0.061760172
-0.021229863 -0.07299975 0.09256892 0.11898474 0.023801913 0.0038800633 -0.021021958 -0.023541678
0.012321713 -0.36296296 -0.102598034 -0.07731924 0.0655295 -0.090391405 -0.057384633 0.034815814
-0.023585936 -0.07621917 -0.11937353 0.14203735 -0.117842786 -0.011749645 -0.1798813 -0.18385662
-0.053185225 0.24514899 0.11759445 0.07739777 0.06684169 0.7425895 -0.008196711 -0.04299527
0.1596327 -0.1749551 0.008113508 0.010222418 0.12657493 0.06669417 -0.07218866 -0.1831672
0.023645187 0.043829564 -0.04984136 -0.15229528 0.028161693 -0.01091632 0.05199475 -0.030400075
-0.04981542 -0.4361998 -0.04935995 -0.015578746 -0.22745864 -0.012539189 -0.19906071 -0.010668234
0.028931485 -0.012100835 -0.39685515 0.082343765 -0.059786342 0.002676669 -0.2476724 -0.14091119
0.037590846 0.079447754 -0.060343098 0.16007699 0.02500415 -0.04453876 -0.14546253 0.034755718
0.08523782 0.041914914 0.22016515 0.21693946 0.12562282 -0.04456722 -0.09364314 0.19760756
-0.0074884724 0.0022785568 -0.10866477 0.1065726 -0.10609959 0.17568804 -0.0013277134 -0.16411582
-0.06801266 -0.27464348 0.009304887 0.018545706 0.01704642 -0.021772299 -0.12387226 0.046001565
0.6227631 0.0033567813 -0.39273947 0.05860136 -0.05420651 0.10002333 -0.12836188 0.048452288
-0.086150356 -0.11920136 0.03874296 -0.0731554 0.027418228 0.018924706 -0.07294636 0.16826276
0.11697352 0.075405225 0.22509418 0.2447888 0.012806642 -0.008696591 -0.14153484 0.19175515
-0.013836606 0.04607102 0.05431701 0.12687768 0.10377873 0.21203119 -0.026543746 0.09472756
0.09887262 0.21652281 0.013323625 0.05180704 0.12689625 0.33851302 0.09738108 0.09829321
-0.032588173 -0.075282216 0.42657155 -0.09100502 -0.11830379 0.009147222 -0.04458532 -0.14436704
00000000: d2c1 2b3c a727 a43f 3a34 2bbd c446 8fbd
00000010: 96cb c83d 222b cdbd 049b cd3c 18c9 0fbe
00000020: 20fd bf3d d988 83bc 1810 463f 6d51 37be
00000030: abd9 163d c47f c0bc 9a20 4dbe 57c6 c73d
00000040: 461c 44bd b307 4fbe f4a2 943c ea63 89bd
00000050: 540c 0d3e 2cd8 02be 9996 d4bc 047d 503e
00000060: 0076 1dbe e802 dfbc 2fde 9a3d 90f4 26be
00000070: 8d02 1a3e 9356 113e e7a9 ad3c 4b83 2fbe
00000080: 471e 083d d208 79bd 39df 2e3c 8de0 ea3d
00000090: fe72 c83d e309 6bbe 8457 1a3e b4e3 2f3e
000000a0: 64aa 313e a73c 90bf d5d8 a23c e81d bb3d
000000b0: d811 2d3e 43dd 23be a393 1ebe 94b2 3a3e
000000c0: 6743 ea3d ff0d 0f3e 09b2 fcbe 803e 72be
000000d0: 5e11 6a3d b6e5 623d 0353 08bd 8f6f 1a3d
000000e0: fae4 8ebd f581 4b3e 3b85 7dbd 98d2 6fbe
000000f0: 0b4f 583d 8279 083e 7ea4 8abd ea41 28bd
00000100: 93b0 28bd 0350 f1bd 891c e5bc 56fa 413e
00000110: 844b f8bd 8f93 9dbd cb38 0fbf 6fdc 5cbd
00000120: fd23 3a3d 736b bbbc 3680 673d a305 1c3d
00000130: 8057 623d 23f3 7abd 2ad3 643d 4b65 863d
00000140: 3351 ab3d a967 84be dd2e 7bbd 8de1 57bd
00000150: 4e0e cdbd 8ac0 0e3e 41a1 803d 2548 55be
00000160: 1816 943e a8e4 9e3d e7f3 70bf feff f23d
00000170: 9417 1ebe 3b63 163d 3bc9 d23c be35 3ebd
00000180: 7f38 fd3c 1cba 99bc df60 863d 18d6 d73a
00000190: d8fa 8cbd 9344 eabd 6743 7fbd 8a99 283d
000001a0: c238 53be 74ec 8c3e 9134 74be 26bb 0abe
000001b0: f3e1 21be d2d2 b03d a553 953d 3cf8 7c3d
000001c0: 40ea adbc e580 95bd c694 bd3d 45ae f33d
000001d0: 3bfc c23c a948 7e3b 3e36 acbc 7ada c0bc
000001e0: 03e1 493c 48d6 b9be eb1e d2bd 8d59 9ebd
000001f0: 5534 863d 211f b9bd 260c 6bbd 079b 0e3d
00000200: 4b37 c1bc cc18 9cbd 1c7a f4bd 3d72 113e
00000210: 8f57 f1bd 9581 40bc ce32 38be e944 3cbe
00000220: c0d8 59bd 5608 7b3e 5cd5 f03d b982 9e3d
00000230: 4ce4 883d 581a 3e3f 7f4b 06bc cf1b 30bd
00000240: c176 233e 6e27 33be 85ee 043c ee7b 273c
00000250: dc9c 013e f496 883d a6d7 93bd 2f90 3bbe
00000260: 8db3 c13c a186 333d 7426 4cbd 4bf3 1bbe
00000270: 5ab3 e63c 5dda 32bc 72f8 543d 9409 f9bc
00000280: 410b 4cbd 9555 dfbe a92d 4abd ff3d 7fbc
00000290: ebea 68be 2c71 4dbc 92d6 4bbe d1c9 2ebc
000002a0: b901 ed3c 9542 46bc 9930 cbbe d9a3 a83d
000002b0: 86e2 74bd 0e6b 2f3b d59d 7dbe 064b 10be
000002c0: dcf8 193d 81b5 a23d 532a 77bd 39eb 233e
000002d0: 81d5 cc3c 466e 36bd 21f4 14be 035c 0e3d
000002e0: 2b91 ae3d f9ae 2b3d f972 613e 6125 5e3e
000002f0: 45a3 003e 1e8c 36bd f9c7 bfbd a359 4a3e
00000300: dc61 f5bb d753 153b a38b debd bc42 da3d
00000310: be4a d9bd 91e7 333e ab06 aeba fa0d 28be
00000320: 394a 8bbd 129e 8cbe 8673 183c 2aed 973c
00000330: efa4 8b3c d25b b2bc bdb0 fdbd 236c 3c3d
00000340: 676d 1f3f 72fd 5b3b 2615 c9be fb07 703d
00000350: a507 5ebd 08d9 cc3d 4c71 03be e875 463d
00000360: 996f b0bd d81f f4bd f0b0 1e3d 80d2 95bd
00000370: 319c e03c fc07 9b3c e764 95bd 134d 2c3e
00000380: d08f ef3d 0e6e 9a3d 177f 663e eaa9 7a3e
00000390: f3d2 513c 257c 0ebc 82ee 10be 765b 443e
000003a0: efb2 62bc f7b4 3c3d 837b 5e3d 39ec 013e
000003b0: f189 d43d b41e 593e 4572 d9bc 8600 c23d
000003c0: ba7d ca3d 28b8 5d3e 554b 5a3c 9e33 543d
000003d0: 17f1 013e 9451 ad3e bb6f c73d f34d c93d
000003e0: 2d7b 05bd 902d 9abd 9667 da3e d760 babd
000003f0: 4249 f2bd 3bde 153c 199f 36bd f4d4 13be

w3.bias f4 [20]
-0.16543445 0.06288944 -0.27691278 0.70768744 0.8889665 -0.042631663 -0.045749787 0.073271446
-0.006765905 0.043308116 0.17440297 0.17969865 -0.1872156 -0.08314009 0.25319898 0.17403291
-0.12153281 -0.11516875 0.38945827 0.27174953
00000000: a667 29be 2ecc 803d 83c7 8dbe 012b 353f
00000010: 4f93 633f 8a9e 2ebd 2164 3bbd 570f 963d
00000020: 86b4 ddbb da63 313d b196 323e ec02 383e
00000030: 72b5 3fbe 5a45 aabd 4ca3 813e af35 323e
00000040: 32e6 f8bd 98dd ebbd 1367 c73e c122 8b3e

fc1.weight f4 [128, 20]
-0.07123836 -0.023118211 0.025272874 0.17637844 -0.1141717 0.005474069 0.18366246 -0.017741524
-0.16387703 -0.109856844 0.020675004 -0.13354184 0.024160191 0.015232749 0.0009143859 0.028971683
0.11963263 0.0067883832 -0.02894213 -0.03245858 -0.08119379 -0.17332178 0.20364927 -0.01043119
-0.035273086 -0.120080344 0.019940268 0.13242383 -0.11939922 0.038304012 -0.07138399 0.13262962
0.0707563 -0.013780733 -0.07702488 -0.16102463 -0.19164462 -0.14494164 0.025358241 -0.23765354
-0.087493226 0.06358465 0.026137635 0.10020251 -0.24687538 -0.018642448 0.050059494 -0.0030310806
0.16381203 0.028505541 -0.015220244 0.017819088 -0.067967415 0.010823968 -0.112518415 -0.021508181
0.040456288 0.12442732 -0.05279252 -0.10931964 -0.21618709 -0.018101778 0.07400979 -0.031661086
0.14079888 -0.124237455 0.26693636 -0.11425461 0.16094083 0.27273405 0.09189274 0.13621996
-0.049727175 -0.013408789 0.054051522 0.2635761 0.24685325 0.05175635 -0.097935185 -0.07840897
-0.05376455 -0.031976588 -0.054807693 -0.039343696 -0.350908 -0.050727747 0.043480787 -0.00956953
-0.013736264 -0.1795232 0.1507573 -0.11214059 -0.27068132 -0.16941868 -0.055028144 0.19155996
0.21285851 -0.061387938 0.115200624 0.14403774 0.07781847 0.08984475 0.050016697 -0.17400578
-0.047698997 0.044052843 0.01923225 0.08500618 0.108539045 -0.10283627 -0.004272117 -0.1751442
-0.3584454 -0.022115424 0.25472227 -0.21482986 0.0631551 0.18016464 -0.045987178 0.27175772
0.05711317 -0.14285657 0.00844256 0.08222093 -0.2549346 0.12181818 -0.04402971 -0.05962734
0.024261858 -0.067893595 -0.065237276 0.10577744 0.084736675 -0.09828834 -0.12935205 -0.07069138
0.103594705 0.012014667 -0.19356067 0.10019835 0.032582436 -0.03602959 -0.24043764 0.084369354
0.048827425 -0.16037282 0.15302806 0.052377146 0.10137238 -0.107012026 0.16220002 0.0038365945
0.02832974 -0.15163511 -0.46154788 -0.2145127 0.1472543 -0.07094488 -0.20880653 -0.0019666965
0.009935503 0.09863918 0.111950554 0.2706961 0.0038794945 0.0506159 -0.12468014 0.2790444
-0.1363445 -0.18007027 0.06458397 -0.030276803 -0.10779287 -0.18411903 0.14283259 -0.33506268
-0.16340528 -0.114085376 -0.2337654 -0.19003539 0.022398138 0.20273128 -0.111952744 -0.043365095
-0.13494281 -0.01843392 -0.42509866 0.12398711 0.32881773 0.113223955 -0.04288353 -0.14668512
-0.15670936 0.023751171 0.11480953 0.090141445 -0.32104692 0.15103714 0.24766576 0.06052682
0.14719218 -0.21245565 -0.013065504 -0.15966216 -0.021829134 -0.1067957 0.12573771 -0.17705882
0.12610471 -0.07343794 -0.06837079 0.2454283 -0.15533195 0.2425938 0.027582524 0.05486951
0.07623522 -0.036560733 -0.04265653 -0.1624155 -0.18774384 -0.20353046 -0.14065936 -0.1199875
-0.0050433734 0.01307826 -0.061748378 -0.023574734 0.13791974 0.2804408 -0.1577894 0.2675769
-0.28415078 0.24792914 -0.041114405 0.01019027 -0.053556602 -0.1585656 0.23708108 0.13597986
0.19032107 -0.10622675 -0.113795005 0.0046936944 0.07471725 0.08131506 0.03508761 0.008361761
-0.26605994 0.09534049 0.021483622 -0.17888284 0.11762013 0.1646235 -0.14307417 0.02337763
00000000: 6be5 91bd 6762 bdbc 0f09 cf3c 8d9c 343e
00000010: dad2 e9bd d25f b33b 0312 3c3e ac56 91bc
00000020: 61cf 27be a0fc e0bd a05e a93c 31bf 08be
00000030: 98eb c53c c892 793c 66b3 6f3a 0656 ed3c
00000040: f401 f53d 1671 de3b 0c18 edbc 4af3 04bd
00000050: ee48 a6bd 447b 31be 6f89 503e 95e7 2abc
00000060: 837a 10bd afec f5bd c659 a33c 1d9a 073e
00000070: 9487 f4bd abe4 1c3d c531 92bd 0fd0 073e
00000080: aee8 903d 95c8 61bc 38bf 9dbd a4e3 24be
00000090: 7d3e 44be 956b 14be 16bc cf3c 735b 73be
000000a0: a62f b3bd ab38 823d 981e d63c f936 cd3d
000000b0: e6cc 7cbe 0cb8 98bc 2f0b 4d3d 18a5 46bb
000000c0: 57be 273e 7484 e93c 555e 79bc 56f9 913c
000000d0: 8032 8bbd 0357 313c 0e70 e6bd ed31 b0bc
000000e0: 7eb5 253d c0d3 fe3d f83c 58bd fae2 dfbd
000000f0: 2660 5dbe 2e4a 94bc 7292 973d 0eaf 01bd
00000100: 952d 103e 3570 febd e2ab 883e 52fe e9bd
00000110: accd 243e cca3 8b3e 4332 bc3d 3f7d 0b3e
00000120: b9ae 4bbd 8ab0 5bbc 2165 5d3d 72f3 863e
00000130: 19c7 7c3e 77fe 533d 3e92 c8bd e294 a0bd
00000140: 3738 5cbd e2f9 02bd 087e 60bd db26 21bd
00000150: 37aa b3be e6c7 4fbd e918 323d 85c9 1cbc
00000160: 110e 61bc eed4 37be 1f60 1a3e f7a9 e5bd
00000170: be96 8abe 177c 2dbe 3165 61bd 4b28 443e
00000180: 95f7 593e eb71 7bbd 4eee eb3d a17e 133e
00000190: 4a5f 9f3d 8600 b83d 4fde 4c3d 922e 32be
000001a0: 0660 43bd c170 343d f48c 9d3c b817 ae3d
000001b0: b849 de3d d39b d2bd 1dfd 8bbb 0059 33be
000001c0: 2886 b7be 682b b5bc f56a 823e 5cfc 5bbe
000001d0: 7657 813d 147d 383e 0d5d 3cbd d423 8b3e
000001e0: 80ef 693d fe48 12be aa52 0a3c 7263 a83d
000001f0: ca86 82be cf7b f93d 7f58 34bd cc3b 74bd
00000200: cec0 c63c cc0b 8bbd 1f9b 85bd d8a1 d83d
00000210: 6c8a ad3d 664b c9bd dd74 04be a4c6 90bd
00000220: 7629 d43d 2ad9 443c c534 46be cb34 cd3d
00000230: 2975 053d c393 13bd 4935 76be d7c9 ac3d
00000240: 44ff 473d c638 24be 63b3 1c3e 6b89 563d
00000250: 539c cf3d 1f29 dbbd c317 263e 606f 7b3b
00000260: c513 e83c 3c46 1bbe 0150 ecbe 38a9 5bbe
00000270: d5c9 163e 8d4b 91bd 61d1 55be b1e3 00bb
00000280: 85c8 223c 5703 ca3d 5546 e53d ae98 8a3e
00000290: 1e3f 7e3b 9e52 4f3d 4d58 ffbd e8de 8e3e
000002a0: e59d 0bbe 5764 38be 9a44 843d 0f07 f8bc
000002b0: 82c2 dcbd b389 3cbe b542 123e 568d abbe
000002c0: b753 27be 98a5 e9bd 3260 6fbe a398 42be
000002d0: 4d7c b73c ca98 4f3e 7b47 e5bd 999f 31bd
000002e0: 732e 0abe bb02 97bc 88a6 d9be f4ec fd3d
000002f0: cc5a a83e f6e1 e73d a4a6 2fbd a034 16be
00000300: 6b78 20be d191 c23c 4221 eb3d 149c b83d
00000310: 4360 a4be 7ba9 1a3e 189c 7d3e f9ea 773d
00000320: 8cb9 163e f98d 59be b210 56bc 7a7e 23be
00000330: 03d3 b2bc b4b7 dabd 63c1 003e e84e 35be
00000340: 9821 013e a166 96bd fc05 8cbd 8e51 7b3e
00000350: 570f 1fbe 826a 783e bff4 e13c dabe 603d
00000360: 3621 9c3d b5c0 15bd 9db8 2ebd 4050 26be
00000370: ec3f 40be 4a6a 50be 0209 10be 02bc f5bd
00000380: e242 a5bb 3346 563c deeb 7cbd cd1f c1bc
00000390: d53a 0d3e f095 8f3e 8b93 21be d7ff 883e
000003a0: 367c 91be 23e1 7d3e 9467 28bd 17f5 263c
000003b0: 2b5e 5bbd 055f 22be 62c5 723e 4e3e 0b3e
000003c0: 87e3 423e 698d d9bd 5b0d e9bd 90cd 993b
000003d0: 5c05 993d 8388 a63d 07b8 0f3d c5ff 083c
000003e0: 0239 88be e041 c33d 6cfe af3c 102d 37be
000003f0: d3e2 f03d 1093 283e 0982 12be 7282 bf3c

fc1.bias f4 [128]
-0.15392022 0.08209244 -0.41924107 0.17750251 -0.0016663366 -0.3831286 -0.4886723 -0.46393406
-0.15726542 -0.059939753 -0.04997495 -0.14105813 -1.6191324 -0.24533853 -0.22181235 -0.22598678
-0.37333968 -0.081137456 -0.565995 -1.1164377 0.107307814 -0.031936307 0.012829979 -0.47534385
-0.1969293 -0.795416 0.089176096 -0.6576533 0.14145821 -0.07738677 -1.5015931 -0.14445516
-0.0039501893 -0.0437633 -0.11637385 -0.65464646 -0.40574628 -0.28194848 -0.2751912 0.22131537
-0.17226256 -0.09301772 0.06729176 -0.32071963 0.32573858 0.22150342 -0.37800536 -0.44575346
-0.14178756 -0.3374256 0.11606774 -0.1939937 -0.03411606 -0.19637777 -0.11625158 0.39905125
0.03841097 -0.26736167 -1.0576062 -0.08159357 0.055435758 0.121901 0.1681479 0.21205735
-0.02060825 -0.2603104 -0.33633667 -1.1478307 -0.16693093 -0.20808426 0.28111458 -0.42623016
-0.28446364 -0.1472381 -0.11382384 -0.12325248 -0.020479798 0.118626535 -0.14055231 0.13456395
-0.22898985 -0.3573021 -1.0690613 -0.5108176 -0.04550458 0.12663181 0.03708411 -0.38589424
-0.16097437 -0.53446776 0.050099693 -0.41429016 -0.24345909 -0.26748845 -1.673834 -0.107253365
-0.1865614 0.43004188 -0.062965035 0.18541628 -0.048393413 -0.08625505 0.05301999 -0.1315363
-0.77933604 -0.045457456 -0.051415056 -0.35853517 -0.053621277 -0.15288182 -0.10704293 -0.14228524
-0.15976182 -0.66946054 -0.48059627 -0.12814645 0.09484731 -0.006600118 0.05085483 0.08151068
-0.2556411 -0.2007935 0.1250108 -1.0610354 0.0971286 -0.22030765 -0.18011169 0.17600179
00000000: 439d 1dbe 1520 a83d c4a6 d6be 38c3 353e
00000010: fa68 daba 6f29 c4be 4133 fabe c488 edbe
00000020: 300a 21be 6383 75bd 88b2 4cbd 8b71 10be
00000030: bb3f cfbf 063a 7bbe c722 63be 1469 67be
00000040: 6126 bfbe 652b a6bd 0ce5 10bf 6ee7 8ebf
00000050: 33c4 db3d a5cf 02bd d534 523c 4560 f3be
00000060: d6a7 49be 62a0 4bbf f5a1 b63d f75b 28bf
00000070: 6cda 103e f47c 9ebd 3434 c0bf 0eec 13be
00000080: 9770 81bb 2541 33bd 6a55 eebd e996 27bf
00000090: fabd cfbe 8d5b 90be dce5 8cbe 7fa0 623e
000000a0: 9965 30be 1380 bebd 43d0 893d 5d35 a4be
000000b0: 35c7 a63e cbd1 623e eb89 c1be cc39 e4be
000000c0: c230 11be 0cc3 acbe ecb4 ed3d 49a6 46be
000000d0: 48bd 0bbd 4117 49be 4f15 eebd 7250 cc3e
000000e0: d254 1d3d a1e3 88be a45f 87bf 881a a7bd
000000f0: 9b10 633d 3ba7 f93d f72e 2c3e 9025 593e
00000100: a2d2 a8bc 6847 85be 5234 acbe 1eec 92bf
00000110: f1ef 2abe 0a14 55be 40ee 8f3e d73a dabe
00000120: 38a5 91be 96c5 16be 791c e9bd cc6b fcbd
00000130: 40c5 a7bc 78f2 f23d f2ec 0fbe 22cb 093e
00000140: 517c 6abe 4df0 b6be 00d7 88bf f1c4 02bf
00000150: 0363 3abd c5ab 013e 82e5 173d ee93 c5be
00000160: 77d6 24be e1d2 08bf 5635 4d3d d71d d4be
00000170: 574d 79be 3ff4 88be 3140 d6bf a7a7 dbbd
00000180: f409 3fbe 732e dc3e d0f3 80bd c4dd 3d3e
00000190: 2c38 46bd 7da6 b0bd 7d2b 593d 74b1 06be
000001a0: 9182 47bf 9931 3abd 9898 52bd ec91 b7be
000001b0: fca1 5bbd 0d8d 1cbe 5339 dbbd 39b3 11be
000001c0: 9a98 23be c461 2bbf b710 f6be d338 03be
000001d0: 4e3f c23d cd45 d8bb 274d 503d 12ef a63d
000001e0: 64e3 82be d09c 4dbe d502 003e 02d0 87bf
000001f0: 5ceb c63d 5498 61be 336f 38be d039 343e

fc2.weight f4 [3, 128]
0.3557108 0.046765637 0.45061195 -0.004943622 0.0273756 -0.4898495 -0.18351671 0.08280683
0.040898874 -0.081926495 -0.033224963 -0.05684014 0.4782785 0.18737963 0.033722337 -0.666761
0.12586504 0.003956874 0.18367302 -0.39546862 0.029560206 -0.003444518 -0.20185694 0.77166015
0.51181185 -0.981969 0.03500195 -0.3850224 -0.17580645 -0.022178 -0.31608963 -0.019929659
0.11714849 0.056004956 -0.0054790755 0.07070928 0.06344015 0.038155846 0.53338236 0.04261093
0.29002684 -0.09234278 0.06357328 0.43907103 -0.05727817 0.03889745 -0.31870076 -0.45046198
-0.35322377 -0.51753473 0.04685965 -0.050185837 0.0011405069 0.5249509 0.08431312 0.21500862
-0.61581516 -0.02369099 -0.19736794 0.07442447 -0.037278082 0.08238098 0.04467763 0.045598067
-0.039231464 -0.27777076 -0.17131473 0.4059786 -0.2556348 0.36181417 -0.09777799 -0.12824088
0.09007921 -0.0021332751 -0.06849316 0.51564413 0.019569175 0.02672103 0.2578724 0.028562581
-0.027680952 -0.0081508085 0.43555656 0.32274246 -0.40407357 -0.046798687 0.042004373 0.025421387
-0.32214543 -0.1527583 -0.035857372 0.06336107 -0.04417966 0.023607997 -0.4787506 0.4227127
-0.020141833 0.13879515 0.004092941 -0.04062915 -0.058726635 -0.2574093 -0.055297192 -0.61843157
0.22868498 0.09197042 -0.01388997 0.09076536 0.12889938 -0.024562176 0.048733715 0.5531538
0.18845928 0.4707272 0.13476875 0.0031925044 0.079272404 -0.022163127 -0.038289387 0.09135942
-0.2729423 0.10215132 0.10489859 -0.33020648 -0.012936737 -0.028552145 -0.28163671 0.15837304
0.7654549 0.020214511 -0.293563 0.15035936 -0.09111429 0.37979388 0.27208206 -0.14108472
-0.13598189 -1.4596347 0.096392356 0.13482858 -0.12743267 -0.08006605 0.0931112 0.57656133
-0.6199743 0.041183416 -0.097563654 0.07236459 0.07892862 0.055804357 0.01798334 -0.80491406
0.3755424 0.110822916 0.006526947 0.31549042 0.018015813 0.05962682 0.0033229177 0.07844614
0.059933342 0.039639156 0.17405622 -0.051103767 0.21552145 -0.00669095 0.020996984 0.10912443
0.30185652 0.9335261 0.13153659 -1.8699216 0.19255373 0.1459121 -0.12628818 0.7450718
-0.755439 -0.52729815 0.07390505 0.1045761 0.19298048 -0.18415093 0.13709314 -0.04589362
-0.021863917 0.23359355 -0.028503913 0.08365163 0.3873947 0.07591045 0.10324106 0.12749664
0.13586134 -0.9828847 0.02735377 -0.21653242 0.4400688 -1.3190393 -0.09470382 -0.42512438
-0.12051599 0.12957823 0.12388436 -0.2770603 0.09561147 0.10277999 -0.83888525 0.12038772
0.058846064 0.5759306 -0.35081777 -0.008616042 -0.88021874 0.12938075 0.13234892 -0.76562315
-0.6005937 1.4841065 0.11879854 -0.015078949 0.04387461 0.017594865 -0.007605801 0.32637987
0.075550735 -0.20958592 0.13964921 0.096832104 0.12684914 0.016436217 0.11036253 -0.52392703
-0.160774 0.10927961 0.06981837 -0.66890633 -0.16505176 0.112491176 0.05655337 0.66483814
0.0017710583 -0.052562714 0.19469127 0.071008325 0.1504005 0.07989395 0.075266354 0.15828252
-0.032218285 -0.40715703 -0.012299691 -0.04803102 0.12681352 0.10212078 -0.30379164 -0.08040057
00000000: ba1f b63e 538d 3f3d 9cb6 e63e 1bfe a1bb
00000010: cb42 e03c 8ecd fabe ceeb 3bbe a196 a93d
00000020: 9485 273d 14c9 a7bd e616 08bd 35d1 68bd
00000030: ebe0 f43e 72e0 3f3e 6f20 0a3d d9b0 2abf
00000040: c4e2 003e aaa8 813b c814 3c3e dd7a cabe
00000050: 3f28 f23c 6cbd 61bb 96b3 4ebe 858b 453f
00000060: 1a06 033f 5262 7bbf 345e 0f3d a821 c5be
00000070: 9b06 34be a3ae b5bc 80d6 a1be 8643 a3bc
00000080: 8ceb ef3d 7465 653d d189 b3bb 07d0 903d
00000090: e9ec 813d 4e49 1c3d bf8b 083f cc88 2e3d
000000a0: 667e 943e 361e bdbd b532 823d ebcd e03e
000000b0: 849c 6abd ef52 1f3d bf2c a3be f4a2 e6be
000000c0: bfd9 b4be 287d 04bf e8ef 3f3d aa8f 4dbd
000000d0: 107d 953a 2f63 063f 5bac ac3d 382b 5c3e
000000e0: 10a6 1dbf 9b13 c2bc d21a 4abe db6b 983d
000000f0: e7b0 18bd 5cb7 a83d e4ff 363d 0ac5 3a3d
00000100: 2cb1 20bd f837 8ebe 216d 2fbe 6ddc cf3e
00000110: 91e2 82be b53f b93e d43f c8bd 9451 03be
00000120: 737b b83d 6bce 0bbb 2446 8cbd 4101 043f
00000130: 894f a03c 10e6 da3c da07 843e 13fc e93c
00000140: 2ac3 e2bc f88a 05bc 4501 df3e 803e a53e
00000150: bbe2 cebe fbaf 3fbd c70c 2c3d 8340 d03c
00000160: 3ff0 a4be ac6c 1cbe 2edf 12bd 73c3 813d
00000170: bbf5 34bd 8f65 c13c cc1e f5be cd6d d83e
00000180: 7c00 a5bc 5120 0e3e 141e 863b c06a 26bd
00000190: 578b 70bd 27cb 83be 4f7f 62bd 8851 1ebf
000001a0: 652c 6a3e fd5a bc3d c292 63bc 30e3 b93d
000001b0: 33fe 033e 9e36 c9bc 019d 473d 7d9b 0d3f
000001c0: 78fb 403e 2803 f13e d200 0a3e 5639 513b
000001d0: 9259 a23d 728f b5bc 55d5 1cbd a61a bb3d
000001e0: 18bf 8bbe b634 d13d 12d5 d63d d310 a9be
000001f0: 9cf4 53bc 30e6 e9bc b032 90be 8b2c 223e
00000200: daf4 433f e798 a53c e44d 96be cef7 193e
00000210: 219a babd 5874 c23e 574e 8b3e 8378 10be
00000220: d63e 0bbe 4fd5 babf 5b69 c53d 8110 0a3e
00000230: b67d 02be abf9 a3bd 16b1 be3d 8699 133f
00000240: a3b6 1ebf f1af 283d 74cf c7bd e333 943d
00000250: 54a5 a13d 1c93 643d cc51 933c d90e 4ebf
00000260: 1847 c03e 20f7 e23d 00e0 d53b f687 a13e
00000270: e695 933c 413b 743d 4fc5 593b 5fa8 a03d
00000280: aa7c 753d ab5c 223d cb3b 323e 2f52 51bd
00000290: a8b1 5c3e c23f dbbb de01 ac3c a17c df3d
000002a0: f08c 9a3e 91fb 6e3f 87b1 063e 9759 efbf
000002b0: ce2c 453e fb69 153e b051 01be 07bd 3e3f
000002c0: 7364 41bf 03fd 06bf 885b 973d ff2b d63d
000002d0: ad9c 453e 1092 3cbe 2562 0c3e f3fa 3bbd
000002e0: f51b b3bc 2633 6f3e 0a81 e9bc 8c51 ab3d
000002f0: 9958 c63e f076 9b3d 0d70 d33d 7b8e 023e
00000300: 3c1f 0b3e 559e 7bbf 0315 e03c adba 5dbe
00000310: b350 e13e 48d6 a8bf 14f4 c1bd e7a9 d9be
00000320: 16d1 f6bd 28b0 043e 15b7 fd3d d9da 8dbe
00000330: f2cf c33d 517e d23d 2fc1 56bf d68d f63d
00000340: 9208 713d 3070 133f 639e b3be 4d2a 0dbc
00000350: 0456 61bf 637c 043e 7a86 073e e1ff 43bf
00000360: 82c0 19bf 34f7 bd3f a64c f33d b20d 77bc
00000370: ddb5 333d 1b23 903c 153a f9bb 431b a73e
00000380: 58ba 9a3d b19d 56be 3400 0f3e e94f c63d
00000390: bee4 013e 3fa5 863c c005 e23d 1520 06bf
000003a0: f1a1 24be fdcd df3d effc 8e3d 723d 2bbf
000003b0: 5403 29be c661 e63d 82a4 673d d532 2a3f
000003c0: db22 e83a 004c 57bd 265d 473e d06c 913d
000003d0: 9702 1a3e 709f a33d 3f25 9a3d d014 223e
000003e0: 52f7 03bd e376 d0be a584 49bc 2dbc 44bd
000003f0: 67db 013e b324 d13d 948a 9bbe 0ea9 a4bd

fc2.bias f4 [3]
0.08886488 0.08819969 0.015348659
00000000: cafe b53d 0aa2 b43d f178 7b3c
