1DCFD_FNO/1D_CFD_Shock_Eta1.e-8_Zeta1.e-8_trans_Train_FNO.pt (torch, 541123 bytes, 42 tensors)

fc0.weight f4 [20, 31]
000000 ee cf ce 3d f3 20 26 bc ae a6 9c bc 5d a6 53 3d
       0.10098253 -0.010139692 -0.019122448 0.05167233
000010 53 f4 83 bd 28 cc 87 3d 4f eb 4c 3d a8 9b 9d bd
       -0.064430855 0.066307366 0.050029095 -0.07695705
000020 00 4e 59 3e 0b ef 03 3e cd db 07 ba 26 50 53 3e
       0.21221161 0.12884156 -0.0005182594 0.20636043
000030 83 c7 5f 3e 96 bb 9a bd e8 c0 03 3d bd 61 27 bd
       0.21853451 -0.075553104 0.03216639 -0.040864695
000040 6b 3b 3b be e2 44 ba bb c9 76 d9 bd 08 fe 66 3d
       -0.18284385 -0.005684481 -0.106183596 0.056394607
000050 53 e5 2a 3e 07 36 56 3d 4d e8 97 3d 4b 5e 6c 3e
       0.16689043 0.05229762 0.07417355 0.23082845
000060 eb 3a 77 bd 9e 5c 91 3d 04 36 2a bc cd 41 15 3d
       -0.060358923 0.070977435 -0.010388855 0.036439706
000070 b0 3c 16 be dc ad 50 be 93 89 21 bf 23 24 9d be
       -0.14671588 -0.20378822 -0.63100547 -0.30691633
000080 e7 cb c9 3d 49 63 a1 be 8b 9e 19 be 93 aa ab bd
       0.098533444 -0.3152106 -0.15001886 -0.08382144
000090 50 a8 a3 be 83 49 70 be b1 c8 79 bd 18 36 77 be
       -0.3196435 -0.23465542 -0.06098241 -0.24141729
0000a0 e7 49 c3 bd ac 15 d5 3d 65 a7 03 be a1 b2 89 3d
       -0.0953558 0.10404524 -0.12856825 0.06723524
0000b0 b2 74 09 bd 22 0f b1 be e3 1f 0f 3e f6 12 0e ba
       -0.033558555 -0.34581858 0.13977008 -0.00054196955
0000c0 de e6 5d be 0c 76 0c bd 8a 9d b9 3d 93 c6 c4 be
       -0.216701 -0.034292266 0.09063251 -0.3843275
0000d0 1d 83 ed bb 02 24 9a bd 65 89 d5 be 8c b2 55 3e
       -0.007248296 -0.07526399 -0.41706386 0.20868891
0000e0 1f 91 57 be 7d 33 91 be c6 26 bc 3e eb 7c 02 3d
       -0.21051453 -0.28359595 0.36748332 0.031857412
0000f0 09 68 85 38 91 9d d5 3e e7 07 07 3e bd f0 8a 3c
       6.361312e-05 0.41721776 0.13186608 0.016960496
000100 e3 6f 88 3e a1 52 8d bc 68 10 cd bd bd 94 1c 3c
       0.26647863 -0.017251315 -0.10012895 0.009556946
000110 cd 5a db 3a 7f e9 13 bc c0 4a 8c bd f6 38 ad 3e
       0.0016735435 -0.009027838 -0.06850195 0.3383252
000120 42 11 22 bd 3c fc ab bd bb 41 a1 3e 0b 29 a9 3d
       -0.03956724 -0.08397719 0.3149546 0.082597815
000130 42 8a f9 3b 10 a3 cd 3d 66 52 89 3d 1f 7e 05 be
       0.0076153586 0.10040867 0.067051694 -0.13036393
000140 69 90 69 3e 31 7c 5b 3e c6 d5 1f be 12 ae 4e 3e
       0.22808994 0.21434094 -0.15608892 0.2018359
000150 d4 21 3f bd e9 78 71 bd 42 6c ab 3d 61 52 2b 3d
       -0.04666312 -0.0589532 0.08370258 0.04182661
000160 e9 a7 99 bd bc e4 8b be 55 ca 83 be 53 72 74 be
       -0.075027294 -0.27322948 -0.25740305 -0.23871736
000170 ae 98 b6 be b4 13 b4 bc d1 af 7b 3d 2f 66 18 be
       -0.3566336 -0.021982051 0.06144697 -0.1488273
000180 40 d3 f4 bd 36 d2 0e bc 45 82 e0 bd 2f 53 19 bd
       -0.11954355 -0.00871711 -0.10962347 -0.037432846
000190 36 cc a0 bd ed 55 1c 3e 55 73 08 3d 0c 6c 55 3d
       -0.0785145 0.15267153 0.033313114 0.052104995
0001a0 8c 79 b2 3d 97 bb 08 3e 4e 64 e8 3d 49 59 40 3e
       0.087145895 0.1335281 0.113472566 0.1878406
0001b0 0c 23 38 be 83 fa 2f 3d 8b 35 68 bd d2 9a 35 bd
       -0.1798212 0.042963516 -0.056691688 -0.0443371
0001c0 97 d3 59 3d b9 82 12 3e da 3c 7b bd c3 ae 2e 3d
       0.053180303 0.14307679 -0.06133733 0.042647135
0001d0 f3 a4 2a 3d 10 8b 8c bd 39 a4 31 3e 13 89 3d 3e
       0.041661214 -0.068624616 0.17347802 0.18509321
0001e0 6c 2b 8a 3d c6 49 44 3e e0 83 4a 3b 3e 6d ae be
       0.06746563 0.19168767 0.0030901358 -0.3406772
0001f0 29 79 30 be 56 21 a8 bc b3 59 4b 3e 4e ab 07 bd
       -0.17233719 -0.020523708 0.19858436 -0.033122353
000200 84 df cc 3d a4 98 2a 3d bc 8a 18 3c 24 0a f4 bc
       0.1000357 0.041649476 0.009310421 -0.029789992
000210 14 10 e7 bd bf 2d b3 bd e6 dc 6a bd 1e fe be bd
       -0.112823635 -0.0874896 -0.05733957 -0.09325813
000220 7c 0f c0 3b aa fa 24 be e7 f4 89 bc df c3 d7 3d
       0.005861221 -0.16111246 -0.016840411 0.10535406
000230 f5 b9 3f be 5f 95 24 bd e3 e9 cf 3c 79 5e fa 3d
       -0.1872328 -0.040181514 0.02538008 0.122250505
000240 79 4e 02 3d ff 5d b8 3d 2f d1 3d 3e 99 54 a9 3c
       0.03181312 0.09002303 0.18536828 0.020670222
000250 d3 31 16 3e a6 72 65 3e 7b a2 03 3e e5 79 a2 bd
       0.14667444 0.22407016 0.1285495 -0.07933406
000260 b6 d2 28 bd 18 1e 26 bb 0f 5e 10 3f e2 89 1f 3d
       -0.041216575 -0.0025347527 0.5639352 0.038949855
000270 1c 83 f8 3b be 57 4a 3e 01 ba 00 3e e7 63 07 be
       0.007583989 0.19760033 0.12570955 -0.13221703
000280 80 f5 a9 3d 38 4d 16 3e 42 47 74 3d f8 ce 16 3e
       0.082987785 0.14677894 0.05963827 0.1472739
000290 6e ed 03 bd c6 c2 a1 bd 44 a1 24 bd d5 fb c9 bd
       -0.032208852 -0.07898478 -0.040192857 -0.09862486
0002a0 3a f9 f9 3c db a0 30 bd cf 86 c5 bd d0 cf 3f 3d
       0.030514348 -0.043122154 -0.09644853 0.046829045
0002b0 1c fa 02 be de bd ba bd 9e c4 3f be 30 fc 2d be
       -0.12790722 -0.091182455 -0.18727347 -0.16990733
0002c0 ff ea f5 bc f5 dc 9b 3d 91 01 1a be 02 73 95 3d
       -0.030019281 0.076105036 -0.1503966 0.072973266
0002d0 b9 86 fe b9 5d d0 22 3d 7f 41 f1 3d 6d 8d 3b be
       -0.00048547031 0.039749492 0.117800705 -0.18315668
0002e0 10 3a 3f be 39 87 38 3e 50 14 7b bb a8 87 e6 3d
       -0.18674493 0.18020333 -0.0038311668 0.11256343
0002f0 48 9e 16 3e 40 13 c0 bd a5 3f f7 bc 66 8c 1e bc
       0.14708817 -0.09378672 -0.030181715 -0.009677028
000300 30 93 8e bc 5c 39 14 bd 16 ab 5b 3c c9 75 26 be
       -0.017404169 -0.036187515 0.013407489 -0.16255869
000310 b5 f3 63 3e 3d 9d 26 be 60 83 85 3d ab e4 d5 bd
       0.22260936 -0.16270919 0.065191984 -0.104440056
000320 0d b8 11 3e 3b 00 0c 3c f4 93 d5 bd 8b 49 7d 3e
       0.14230366 0.008544977 -0.104286104 0.24735086
000330 f4 8a 4a 3e ea 68 9b bd 87 9f 6c 3e b1 41 4c be
       0.19779569 -0.0758837 0.2310773 -0.19946934
000340 7b ea 00 3e f8 66 7b 3e 2f 66 42 3b ba 53 67 bd
       0.12589447 0.24550998 0.0029662957 -0.056476332
000350 d2 d6 ea 3e 32 c9 8d bc 45 37 e9 bd 00 8e ed 3e
       0.4586702 -0.017307851 -0.11387495 0.463974
000360 ff f2 90 3e 10 dc c5 bc 34 31 da bc 40 7e 7a 3d
       0.2831039 -0.024152786 -0.02663479 0.061155558
000370 75 ce 93 bc 97 f7 11 be 57 a9 37 3e b1 5c 99 bc
       -0.018042782 -0.14254604 0.17935692 -0.018720957
000380 b1 25 a5 bd 88 81 15 be 23 63 9c bd c5 78 8c 3c
       -0.0806383 -0.14600194 -0.07636096 0.017147431
000390 4e 59 b4 3d d4 ca 0c be d4 c3 27 bd 0f 32 64 be
       0.08806096 -0.13749248 -0.04095824 -0.22284721
0003a0 12 97 8a bd 72 4c 9a 3d 2f 24 76 be 5f c7 f4 bd
       -0.067670956 0.07534112 -0.2403724 -0.119520895
0003b0 c0 2a 86 3d 5f 7c 21 be cb 3f f1 3d dd 23 80 bd
       0.06551123 -0.157701 0.11779746 -0.062568404
0003c0 99 5f aa be 48 bc 00 3c 02 39 77 3e fd b7 2a be
       -0.3327606 0.00785739 0.2414284 -0.16671748
0003d0 57 c7 94 bd c6 a2 96 3c 9f d2 22 3d 53 fd c8 be
       -0.072645836 0.018388163 0.039751645 -0.3925577
0003e0 e2 ce 0e be 6d 19 d4 3d a9 c9 bd 3d 42 15 d0 3d
       -0.13946107 0.10356412 0.09266979 0.101603046
0003f0 af 86 a6 bd 70 fa 88 3c 09 92 55 3d ea 67 90 3d
       -0.081311576 0.01672098 0.052141223 0.0705107

fc0.bias f4 [20]
000000 00 3a 7c bd 59 30 c9 3e a8 61 8b be ac 48 80 3d
       -0.06157875 0.392947 -0.27222943 0.06263861
000010 26 f2 71 be f2 14 01 bd 06 fe 8a 3f ab c6 17 bf
       -0.23627529 -0.031514116 1.0858772 -0.5928752
000020 bd 47 30 bd a9 cc 45 3e 62 14 e3 bc fd dc 59 be
       -0.043037165 0.19316353 -0.02771968 -0.21275707
000030 23 90 13 bd 57 85 de be 76 56 a3 bc f8 d2 99 3d
       -0.03602613 -0.43461105 -0.019938689 0.07510942
000040 92 68 cd 3d 65 05 4d 3e f8 6f 04 3f b4 3d 4b be
       0.10029711 0.20021589 0.5173335 -0.19847757

w0.weight f4 [20, 20, 1]
000000 ed 5c 8d bd a6 3b 1f 3c 8e 54 3c 3e 0a 40 79 3e
       -0.0690249 0.009718811 0.1839163 0.24340835
000010 a2 11 75 bc 42 7b 46 be 47 cb dc 3d 28 e6 40 3e
       -0.014957817 -0.19382957 0.107809596 0.18837798
000020 08 bf 1b 3e c6 2f 1d 3e 5e e5 a1 bc 32 cb 61 3d
       0.15209591 0.15350255 -0.019762691 0.055125423
000030 6b d8 38 3c fc 6b 51 bd bd 32 d1 3d bc 70 0f be
       0.011282067 -0.051128373 0.10214756 -0.14007849
000040 cc 28 3a 3e b8 f9 08 be 68 de 00 3e 1b 52 64 3d
       0.18179625 -0.1337651 0.12584841 0.055742364
000050 d9 fb 9c 3b a8 b2 38 3d da 7c 86 bd 3e 31 21 be
       0.004790765 0.045092255 -0.06566782 -0.1574144
000060 a0 5e 13 3e 42 44 d2 3d 5d e2 b9 3d bb 92 05 3e
       0.14391565 0.102669254 0.090763785 0.13044254
000070 bd 51 f6 bd 83 6b ee bd ac 91 c1 3d 1b f3 88 3d
       -0.12027309 -0.116416 0.09451613 0.06686994
000080 d4 0d f2 3d ad 39 bf 3b 5d 43 05 be c8 e0 6a bd
       0.11819044 0.005835733 -0.13013978 -0.057343274
000090 4a 4b f4 bc 10 f5 e1 bd e8 57 0d 3b ab 16 0b 3e
       -0.029821057 -0.1103307 0.0021567289 0.13582866
0000a0 61 99 2c 3e e6 f3 5b bd 23 14 0b 3e eb 4e 70 be
       0.16855384 -0.053699397 0.135819 -0.23467605
0000b0 c0 39 07 be b9 7f 32 3e 97 41 8d 3d 26 53 29 bd
       -0.13205624 0.17431535 0.06897276 -0.041339062
0000c0 4e 54 40 bd ed 7e da bd 07 27 86 bd 26 64 10 be
       -0.0469554 -0.106687404 -0.065504126 -0.14100704
0000d0 5b 89 9b bd bf bb 92 3d 91 1e 7d be b6 be 99 bc
       -0.07594558 0.07164716 -0.24718691 -0.018767696
0000e0 a4 af d2 bd 08 e3 ba bc 87 d3 ae bd 92 06 dd bd
       -0.10287407 -0.022813335 -0.085364394 -0.10792269
0000f0 d1 51 d7 3c a6 53 69 bb 39 4d c9 bd 58 f1 e1 3d
       0.02628413 -0.0035602837 -0.09829182 0.11032361
000100 8b 90 7f 3c e4 13 8b bd b7 a9 b5 bd c1 45 bb bd
       0.015598427 -0.06790903 -0.08870261 -0.09144164
000110 03 14 c7 bd 22 98 12 be a6 33 93 3d 38 e0 ed bd
       -0.09720614 -0.14315847 0.071875855 -0.11615032
000120 04 7c a4 bb 1e 71 05 3e 6f 1a 4b 3e 1a c7 16 3d
       -0.0050196666 0.13031432 0.19834302 0.03681097
000130 12 d5 0e 3e 09 a1 29 3e 9a fa 3f bd a7 34 27 3e
       0.13948467 0.16565336 -0.04686985 0.16328679
000140 50 1d a4 3c 48 6d ed 3d 13 48 a1 be be 51 9b bc
       0.020033509 0.11593109 -0.315003 -0.018959876
000150 76 ba 62 be 78 8a 21 be ac b7 8d bd ef 34 22 3e
       -0.22141442 -0.15775478 -0.06919798 0.15840505
000160 0a e6 5e bd e1 8b f9 3d b6 0c 8a 3b b4 6c 0a be
       -0.0544186 0.12184883 0.004212941 -0.1351803
000170 0c 29 5e bd 1f 71 0e be d4 57 6b bb 28 2e 8b 3e
       -0.054238364 -0.1391034 -0.0035910504 0.27183652
000180 38 a8 6c 3e e1 31 00 be c4 d8 33 3e a8 f9 a0 bd
       0.23111045 -0.12519027 0.17563158 -0.07860118
000190 8e 97 37 3e 5f d8 82 be 12 26 52 bd 18 f7 b2 bd
       0.17928907 -0.25555703 -0.051305838 -0.08738536
0001a0 e9 2a 52 bc df 25 d4 bd 3d 22 52 3e 7c 28 5d be
       -0.012827613 -0.10358786 0.20520873 -0.21597475
0001b0 04 c1 33 3e 9f 01 89 bd f3 a0 75 bd a2 38 36 bd
       0.17554098 -0.06689762 -0.059967946 -0.044487603
0001c0 95 87 13 3d 20 85 9b bb 80 43 62 3c 68 9f a0 bd
       0.036017973 -0.0047460943 0.013810039 -0.07842904
0001d0 b2 0a c8 3b 25 11 27 be 1b 5b 97 be c0 8b 87 3e
       0.0061047906 -0.16315134 -0.29561695 0.26473808
0001e0 15 e8 1b be c4 11 12 3e 67 95 c7 ba cb 7d 16 be
       -0.15225251 0.1426459 -0.001522702 -0.14696424
0001f0 ce 67 d4 bc b4 5a da bd cd 5a 1c be 95 df 1d 3e
       -0.025928404 -0.106618315 -0.15269013 0.15417321
000200 ab fe fd bd 1d db 37 3e c7 7c 36 3e 5d 65 7d 3e
       -0.1240209 0.17954679 0.17821036 0.24745698
000210 ef f7 2c 3e cf 8d 18 bc 02 01 3f be c7 b8 0e 3d
       0.16891454 -0.009311154 -0.18652728 0.034844186
000220 d3 bb f0 3c 28 db 92 3d 9d 8a 13 3d ba d3 a7 be
       0.029386437 0.07170707 0.036020864 -0.32778722
000230 22 62 38 be 91 33 82 bd 42 45 1f be 12 4d 54 3e
       -0.18006185 -0.06357492 -0.15553764 0.20732525
000240 9e 16 58 3e 60 49 b5 bd 8d 02 de 3a 63 d2 a8 bb
       0.21102378 -0.08851886 0.0016938016 -0.005152033
000250 4c 67 db 3d c2 09 5b be 1a 38 f3 3d b9 52 d6 3d
       0.10713062 -0.21390441 0.11875935 0.10464997
000260 18 ef 40 3d b9 64 4e be 21 fb 76 3e 3d ae 00 bd
       0.047103018 -0.2015561 0.24119236 -0.031416167
000270 d1 c6 b8 bd d6 56 01 3e de 0f 3f 3e d8 96 6c 3e
       -0.09022296 0.12630782 0.18658397 0.23104417
000280 fc 6d 0f bb 8a 36 86 be 71 d0 d1 bc d3 28 60 be
       -0.0021885624 -0.26213485 -0.025612088 -0.21890573
000290 a1 17 22 3e dd bc ef bd 63 65 92 bd cc ca 19 bd
       0.15829326 -0.11705945 -0.07148244 -0.037546918
0002a0 81 62 4b 3d 5b 69 f4 bd aa a9 65 bd 2d c7 c0 3d
       0.049654488 -0.119341575 -0.056070007 0.0941299
0002b0 86 03 18 be a6 3c 3d bd f5 d6 86 3d da 47 27 be
       -0.14845094 -0.046200417 0.065839685 -0.16336003
0002c0 e7 8e bf bd 20 ad 50 be df bc 09 be ad e9 60 3e
       -0.09353428 -0.20378542 -0.13450955 0.2196414
0002d0 11 c9 40 be 89 b9 22 be f7 be 5d 3e 1d 10 5a 3e
       -0.18826701 -0.15891089 0.21654879 0.21295209
0002e0 c5 e2 ef 3d b8 8b 21 be 5b e3 17 be 2a 73 2f 3e
       0.11713175 -0.15775955 -0.14832823 0.17133775
0002f0 d3 42 b2 bd 14 e4 1e be 00 cb 12 3e 16 d3 5b 3e
       -0.08704152 -0.15516692 0.14335251 0.21467242
000300 a0 50 d9 3d 4b 2f b5 3d 68 1e 77 3e 49 4c 82 be
       0.10611081 0.08846911 0.24132693 -0.25448826
000310 ca e1 04 3e b4 e2 3f 3b b0 cd ce 3b ae c8 35 be
       0.12976757 0.0029279413 0.006311141 -0.17752334
000320 d1 f2 96 bd 76 c9 55 3e e0 54 17 3b 87 19 f5 3d
       -0.07370532 0.20877632 0.002309136 0.119677596
000330 12 8e 16 be ec c2 2c 3e 76 8f 9c 3d f9 c2 4f be
       -0.14702633 0.16871232 0.076445505 -0.2028922
000340 ae 9d db 3d 6d 7f 1d bd b6 34 82 bd 3c 3c 72 3e
       0.107234344 -0.0384516 -0.0635771 0.2365579
000350 72 40 1a 3c 7d 36 be 3d 13 d9 aa bd ef 94 35 3d
       0.009414779 0.092877366 -0.08342185 0.044331487
000360 98 12 9c be a1 da 51 be d0 8d 2c 3e 44 2a 5c bc
       -0.30482936 -0.20493557 0.16850972 -0.013437811
000370 9b 48 19 3e bc fa 2a 3e 46 ea ff 3d b0 a3 28 be
       0.14969103 0.1669721 0.12495856 -0.16468692
000380 a9 46 43 3e 9d d0 68 3d 21 56 65 3e 47 a0 9a bd
       0.19069923 0.056839574 0.22396137 -0.07550102
000390 1a 19 36 3e 0c d7 a1 3e a1 f6 85 3e 4b 47 5c 3d
       0.17783013 0.3160938 0.26164725 0.053778928
0003a0 95 9a 59 3e 75 21 3d 3e 31 70 f0 bd b1 8f 5b 3e
       0.21250375 0.18469794 -0.11740149 0.21441533
0003b0 88 88 c6 3c 7a f4 47 bc 70 34 9e 3d 95 e5 47 3e
       0.024235025 -0.012204284 0.077248454 0.19521172
0003c0 18 2a fc 3d a4 e4 31 be 62 34 2c 3e 13 22 62 bc
       0.12312716 -0.17372376 0.16816857 -0.013802069
0003d0 96 4d 5d bd 69 e8 24 be a7 4b 1b be 6e 4c cf b9
       -0.05402907 -0.16104282 -0.15165578 -0.0003953906
0003e0 2c bc 41 3e ef 32 51 bb 89 38 65 3d d1 52 15 be
       0.18919438 -0.0031921228 0.05596212 -0.14582373
0003f0 49 a8 0c 3e 32 9d 1a bd 02 68 a6 3c c5 2f 18 be
       0.1373607 -0.03774757 0.020313267 -0.14861973

w0.bias f4 [20]
000000 7f 29 59 be 71 d2 80 3e fd e6 17 be 6c 8e a1 bd
       -0.21207236 0.25160554 -0.14834209 -0.07888493
000010 0e 92 54 3e f1 ec aa be a6 64 d1 bd b7 88 ae 3d
       0.2075884 -0.33383897 -0.10224275 0.0852217
000020 93 27 38 bf 73 b3 0a bd 72 b3 ce 3d f4 57 1f 3e
       -0.71935385 -0.033862542 0.1009282 0.15560895
000030 10 17 e2 be e4 d9 cf be 04 e0 bf 3d b8 0d 86 3c
       -0.4415822 -0.40595925 0.093688995 0.016363963
000040 d4 3e f1 bd ee 6a 00 3e 91 b0 20 3d 2a b9 ae be
       -0.11779562 0.1254079 0.039230887 -0.34125644

w1.weight f4 [20, 20, 1]
000000 e3 1b 4a 3e ec b2 26 3d f4 1f 61 be 66 8e 50 3e
       0.197372 0.040697977 -0.21984845 0.2036682
000010 2e 60 9d 3c bc 67 30 be df 99 b8 3d 20 15 3a 3e
       0.019210901 -0.17227072 0.090137236 0.18172121
000020 b4 e4 e7 ba 90 bf 95 bd cf c3 5f 3d 71 7c 49 be
       -0.001769206 -0.07311928 0.054630097 -0.19676377
000030 a9 fe 02 3e f8 d8 6d 3e 57 eb b7 3d 60 c4 94 bd
       0.12792458 0.23227298 0.089804344 -0.07264018
000040 84 8d 83 3e 86 ca 1b be aa fd 82 3d db c0 87 bd
       0.25693905 -0.15213975 0.06396039 -0.06628581
000050 1e bf ca 3d ac d2 31 be 62 b6 68 be e9 9b b7 bd
       0.09899734 -0.17365521 -0.22725824 -0.089652844
000060 ed 7b 96 bd 86 31 23 be 3b 96 d8 3d 1a 48 6c 3d
       -0.07347856 -0.1593686 0.10575529 0.05768595
000070 34 c8 99 3d 80 bf fa bd a8 ba a4 ba e1 d5 04 3e
       0.07508889 -0.12243557 -0.0012567835 0.12972213
000080 e1 92 b0 3e 9f d2 cd 3d a3 cd 78 bd 52 4b 67 3d
       0.3448706 0.100499384 -0.060742985 0.056468315
000090 83 b4 20 3e df 04 31 be 15 77 2d be 21 58 5a be
       0.1569386 -0.17287014 -0.16939957 -0.21322681
0000a0 82 ce 60 3e 9a bd d3 bd fd 39 9d 3c 40 5d 61 bc
       0.21953776 -0.10338898 0.01919269 -0.013755143
0000b0 42 1c 03 3e 77 4c 06 be 63 50 5e bc 69 ee d0 3c
       0.12803748 -0.13115107 -0.01356897 0.025504308
0000c0 23 05 aa bd e5 2a f1 3d 20 00 93 3e ba db 22 be
       -0.08301761 0.117757596 0.28711033 -0.15904132
0000d0 46 f9 b5 be b5 3b 05 3e b1 c9 d6 bd 24 64 8b bd
       -0.35541743 0.13011058 -0.10487688 -0.0680621
0000e0 bc b7 92 be bd 20 a5 be 7d 46 2c 3f 63 88 09 3f
       -0.28655803 -0.3225154 0.67295057 0.53723735
0000f0 5f b7 0d 3e 60 d2 f4 bd b8 f8 d8 be 82 f6 36 be
       0.13839482 -0.11954188 -0.42377257 -0.17867473
000100 d1 63 2c 3e 03 ba b2 bc 81 40 67 3b 10 77 f8 3d
       0.16834952 -0.021817213 0.003528625 0.12132084
000110 42 ce 38 bd 94 94 3d be 26 59 ab be 17 08 3b be
       -0.045118578 -0.1851371 -0.33466452 -0.18264805
000120 6f a2 c3 bd dd 39 cd 3e af f9 af bd ed b4 2c bc
       -0.09552466 0.4008321 -0.08592545 -0.010541183
000130 64 fb ab 3e 2a ac 2c 3e 70 be bf 3e ac 4b 22 3a
       0.33590233 0.1686255 0.3744998 0.00061910856
000140 3d 5d 09 be e5 99 50 3e 89 8f 3b bd 02 4b 80 bd
       -0.13414474 0.20371206 -0.045791183 -0.062643066
000150 a5 68 4c be c2 a7 63 3e b9 a5 8b 3c 67 e3 b2 be
       -0.19961794 0.22231963 0.017046796 -0.3493912
000160 23 92 6e be 2e 64 75 3b 14 bf 44 be 43 3a 6c 3d
       -0.23297934 0.0037443745 -0.19213516 0.05767275
000170 b8 77 ae bd bd 83 ce 3d fb ef c1 be a7 23 a7 be
       -0.08518928 0.10083721 -0.37878403 -0.32644388
000180 fe d9 02 bd 70 53 0f 3e 31 df 95 3e 39 cc 55 bf
       -0.031946175 0.13996673 0.29271844 -0.83514744
000190 f5 20 30 be 8c cf 80 bd 45 ba e2 3e aa 54 52 3c
       -0.17200072 -0.062895864 0.44282737 0.012837568
0001a0 ca 64 ac bd 8e 8e f3 3d 39 77 42 be 49 da 3d be
       -0.084176615 0.118924245 -0.18990792 -0.185403
0001b0 e9 b6 0c be 27 a6 2f 3e 03 12 bd bc 68 3c 83 bd
       -0.1374165 0.17153226 -0.023079878 -0.06408006
0001c0 07 63 63 bd c1 56 14 be ba cc 5b 3e 48 4f 07 be
       -0.05551436 -0.14486219 0.21464816 -0.13213837
0001d0 8d ea 61 bc 1e b1 37 bd f3 d1 20 3e bd 05 cb 3b
       -0.013788831 -0.044846646 0.1570509 0.0061957524
0001e0 dd 46 22 3e 62 ba 5c bd 31 f2 20 3d 93 fb 7a be
       0.15847345 -0.053888686 0.03929347 -0.2451003
0001f0 03 85 9e bd 2e b2 0a be f5 78 db 3d ac 15 53 3d
       -0.07740214 -0.13544533 0.1071643 0.05153434
000200 fc 59 d3 bd 67 fc 45 be f1 fa 60 be 7f 08 0f be
       -0.103198975 -0.19334565 -0.21970727 -0.13968085
000210 4f 94 45 be a7 40 da bc d6 40 57 be be 7f 17 bd
       -0.19294856 -0.026642157 -0.21020827 -0.03698706
000220 e6 fe 60 be 04 a4 50 3e 72 da c1 3c 21 e2 7b be
       -0.21972236 0.20375067 0.023663733 -0.2459798
000230 b5 56 94 bd 01 4a b1 bc e2 7c 38 3f 36 a6 cc be
       -0.072431006 -0.021641733 0.72065556 -0.3997056
000240 cc 66 93 be 4a 42 04 3e 3f e9 65 bf d0 c2 8b 3d
       -0.28789365 0.12915912 -0.8980903 0.06824267
000250 6b 7e 0e be 8d 16 3c be 88 8f 82 bc 4f 92 0a be
       -0.13915412 -0.18367977 -0.015937582 -0.13532375
000260 1c f4 d1 bd 86 e2 c1 3d 40 c7 c6 3e cd 2b d1 be
       -0.10251638 0.09467034 0.3882389 -0.4085373
000270 16 0b 4f 3e ec ab 51 be 10 68 1d 3f 84 dc dc be
       0.20219073 -0.20475739 0.6148691 -0.4313699
000280 a8 58 a3 3d 43 8d 9e bd 7c 58 f3 3c 93 ee ca 3d
       0.07975894 -0.07741787 0.029705279 0.09908786
000290 9a 0b 48 3e a3 76 27 be 06 82 74 bd 38 c2 d9 ba
       0.19535676 -0.1635385 -0.059694313 -0.0016613668
0002a0 26 2b d3 3d 2d 82 d4 bd a0 18 f6 3c 12 55 30 3e
       0.10310964 -0.103763916 0.030041039 0.17219952
0002b0 89 0a 1a be fe 24 b7 3d 6d f3 da 3d 8b e8 89 3d
       -0.15043081 0.089426026 0.10690961 0.06733807
0002c0 8b d8 bf 3c eb 9a b8 bd 61 80 70 3e 76 4f dd 3d
       0.023418685 -0.09013923 0.23486473 0.108061716
0002d0 d2 c8 f8 3d 11 fb 09 3d d8 e8 ee 3d 9b 16 ca bd
       0.121476784 0.0336867 0.11665505 -0.09867593
0002e0 3e 2c 72 bd d1 2f e3 bd c5 cf d7 bb 93 89 20 3d
       -0.059124224 -0.11093105 -0.0065860474 0.0391937
0002f0 57 eb 02 be 15 e3 69 3e 0f a3 1d bd 44 74 0f 3e
       -0.12785088 0.22840531 -0.038485583 0.14009196
000300 d1 4f cc 3d 40 42 8c be c7 4d dd 3c 01 35 09 3e
       0.09976161 -0.27394295 0.027014626 0.13399126
000310 9e c9 81 3e f6 c2 c0 3d aa 8f e7 bc 16 34 87 3d
       0.25349134 0.09412186 -0.028266747 0.066017315
000320 a9 34 43 3d 8d 27 d4 3d 8f fa e0 3e 50 09 85 3d
       0.047657643 0.10359106 0.4394116 0.06495917
000330 a0 75 97 3d b1 25 bc 3d b4 62 f7 bb 4d f5 98 bd
       0.07395482 0.091868766 -0.007549608 -0.074686624
000340 ca 0c c5 3d f0 1c 9a bc c1 04 ad 3b ef 59 67 bd
       0.0962158 -0.018812627 0.0052801077 -0.05648225
000350 66 69 84 3d 2e 78 48 be a8 38 ac bd 1b 14 e4 3c
       0.06465416 -0.19577095 -0.08409244 0.027841618
000360 52 1e 26 be d9 b6 b7 bd 56 bb 55 3d ee 68 de 3c
       -0.16222504 -0.08970422 0.05218061 0.027149644
000370 b0 b8 f0 3d 45 4e de bd 70 9e 6c be 0c e2 0b be
       0.11753976 -0.108547725 -0.23107314 -0.13660449
000380 d2 a6 bc bd a7 ce db 3d 14 31 1b 3e 7d bb 63 3e
       -0.09211506 0.10732775 0.1515544 0.2223949
000390 e2 26 e7 3d 2b 69 e5 bc 29 d9 bc 3c a7 23 66 3e
       0.11286713 -0.02800425 0.023052769 0.22474538
0003a0 f3 16 a6 be c1 37 84 3e a7 c7 f8 bd 00 df 04 3e
       -0.32439384 0.25823787 -0.12147456 0.12975693
0003b0 69 d3 e4 3d 3a ac 30 bd 4a dd 96 3e 48 77 03 3e
       0.11173136 -0.043132998 0.29465705 0.12838471
0003c0 2a 06 d7 3d 77 db 77 bd 44 ff ab be 2b 69 b3 bc
       0.104992226 -0.060512032 -0.3359319 -0.021900734
0003d0 3d 72 13 3e ed 88 1b be 9f 36 3c 3d 3c 69 55 3e
       0.14399047 -0.15188952 0.04595053 0.20840925
0003e0 af 8a 33 be b2 90 af 3d 75 42 40 3e 3b a7 ae 3d
       -0.17533372 0.0857252 0.18775351 0.085279904
0003f0 39 09 0b 3c c9 f4 6f bc 94 68 69 3c 0d 2d 06 3e
       0.008486086 -0.014645764 0.014246125 0.13103123

w1.bias f4 [20]
000000 a9 ac a7 be 66 37 44 be dd 6e 3b bf 26 68 2e bd
       -0.32748917 -0.19161758 -0.7321604 -0.042579792
000010 7d 9c 13 be 59 6e 53 be d8 31 ca be 03 77 0c bf
       -0.14415164 -0.20647563 -0.39491153 -0.548691
000020 3b 93 b4 3e 37 a3 c5 bd 30 9e cb be 6c 1c 5d bd
       0.35268578 -0.096502714 -0.39769125 -0.053982183
000030 4f 0d 9f 3b 6d 94 0c 3e ff d7 0d bf 85 3a 8b 3e
       0.0048538814 0.13728495 -0.5540771 0.27193084
000040 37 16 fb bc 81 84 10 bf c8 43 9a be 5b 76 0a 3e
       -0.030650241 -0.56452185 -0.30129838 0.13521712

w2.weight f4 [20, 20, 1]
000000 44 f1 41 3d 3c 87 0b 3e 43 2a 5a 3e 0f 4a 90 be
       0.04734923 0.13625807 0.21305184 -0.28181502
000010 3d 6b 5f bf f9 0b 8a be 39 9d 59 be 52 84 16 be
       -0.8727301 -0.2696226 -0.21251382 -0.14698914
000020 4e 9d bc bd cc 99 3e 3e 30 bb b0 3e ab 15 87 3d
       -0.09209691 0.18613356 0.34517813 0.0659593
000030 39 6d 27 be af 08 67 be 07 ce a4 3d 12 29 40 3e
       -0.16350259 -0.22561906 0.08047109 0.18765667
000040 a0 77 25 be 55 22 04 3d dd 77 0f bd ce 3b 0e bd
       -0.16158915 0.032259304 -0.03502642 -0.034725003
000050 69 af 06 3e 70 07 26 3e 4f 59 0f 3e 42 ad 7e 3c
       0.13152851 0.16213775 0.13998912 0.015544238
000060 a3 87 b9 3e 3b e2 b2 bd 64 05 b6 3e c9 f4 43 be
       0.36236295 -0.08734556 0.35550988 -0.19136347
000070 a6 6a a6 bd ee 57 b6 3d 3a 05 0b 3f 2b 42 3b 3d
       -0.0812581 0.0890349 0.5430485 0.0457174
000080 f3 4b 7b 3c e9 eb 3a 3e 9f 07 7b be 0e 7d ee 3e
       0.015337932 0.18254055 -0.24514626 0.46579784
000090 96 80 50 3d 8a 97 79 be ad 83 91 bd d0 8a 77 3e
       0.05090388 -0.24374214 -0.07105193 0.24174047
0000a0 dd ff 03 3e 63 22 bd bd e4 6b b7 3c ac 94 06 3e
       0.12890573 -0.09235074 0.022390313 0.13142651
0000b0 5b 19 8e 3c e6 bb 4e 3e 92 e9 55 bd 6b 36 40 3d
       0.017346075 0.20188865 -0.052224703 0.046926897
0000c0 f5 24 2c 3d da 37 27 be a6 95 19 bf 63 60 00 3e
       0.042027432 -0.163299 -0.5999397 0.12536769
0000d0 8c b1 99 bd 6a 6f d9 bc 8b db 65 3d e5 ea 13 be
       -0.075045675 -0.026542384 0.056117576 -0.14445074
0000e0 6f 39 1a bd e5 8b 8b bc 5a 9f 87 bd 84 8a bb bd
       -0.03765243 -0.01703448 -0.06622191 -0.09157279
0000f0 95 1b 45 be fa 9f eb bd 71 a0 32 bb 00 1d 7d 3d
       -0.19248803 -0.115051225 -0.0027256275 0.061795235
000100 77 1e 0b be 0e df a1 3c db 91 41 be 27 10 c5 bc
       -0.1358584 0.019759681 -0.18903296 -0.024055554
000110 98 73 b0 3d 5a ec c1 bd 58 32 f4 3d 49 a4 81 3e
       0.08615798 -0.094689086 0.11923665 0.25320652
000120 0c 59 3c 3c 4b 6e 80 3e a7 8d 4d bd 2d a1 d9 be
       0.01149584 0.25084147 -0.05018392 -0.4250578
000130 ad e8 db 3b 15 34 61 bc 41 8d 88 bc 02 06 b2 bd
       0.0067110867 -0.0137453275 -0.016668918 -0.08692552
000140 6a 2c 5d bb d2 2b 44 3d 62 4b a3 bd 88 87 46 be
       -0.0033748397 0.047893353 -0.079733625 -0.19387639
000150 f0 93 87 3e 2c 97 f4 bd 5b 5f 45 bd cd f1 00 bd
       0.26480055 -0.11942896 -0.04818664 -0.0314806
000160 1b 26 bd bd c3 8a 2b be bf 45 1d be 5b 5d 3d be
       -0.09235784 -0.16752152 -0.15358637 -0.18492644
000170 38 55 f9 bc fb db 1f 3d 3a 1d 48 3e df ae a6 3e
       -0.030436143 0.03902815 0.19542399 0.3255529
000180 81 6b 84 3e 5b e8 8d 3e d8 b7 6b bd 3b 3f fc 3d
       0.2586327 0.27716336 -0.057548374 0.12316748
000190 6c d6 5a be 1c 41 2f 3e 6c c1 b3 bd 3f 4a e1 3c
       -0.21370858 0.17114681 -0.08777127 0.027501224
0001a0 3e ea 19 3e e6 a5 4c be 3c e1 f8 3a 8c 0d a7 be
       0.15030763 -0.1998516 0.0018988024 -0.32627523
0001b0 af 4e f3 bd 1d 20 08 bd 1a 61 b9 bb 4f e0 53 3e
       -0.11880242 -0.03323375 -0.0056573274 0.20691036
0001c0 57 b4 1f 3e 41 e7 7f 3d 56 3d 1f be 13 42 bd be
       0.15596138 0.0624764 -0.15550742 -0.36964473
0001d0 03 f7 76 bd d2 b8 a0 3c c6 72 05 bd 13 ff 0f 3e
       -0.060294162 0.01961938 -0.03258016 0.14062147
0001e0 6f 1d 27 be fc 7d 86 3e 0c 00 72 be a3 cc e9 bd
       -0.16319822 0.26267993 -0.2363283 -0.114159845
0001f0 58 60 3c 3e 68 0e b6 bd 4e 4a 28 3e a7 da 24 3e
       0.18396127 -0.088894665 0.16434595 0.16099034
000200 70 36 01 bd ad 15 12 3e a0 d7 25 bf 6c 5a 1f 3e
       -0.031546056 0.14266081 -0.6478214 0.15561837
000210 b0 2d 3b bd 4c 21 ea bd 66 48 5c 3d ff 62 96 3d
       -0.045697868 -0.11432132 0.053779982 0.07343101
000220 93 54 c1 bd b5 d4 19 3e 98 b8 2a bd 7c 9f af bd
       -0.094399594 0.15022548 -0.04167995 -0.08575341
000230 a7 9c 94 bd 99 37 d3 3c 04 9a ff bd 50 aa a4 3c
       -0.072564416 0.025783347 -0.12480548 0.020100743
000240 86 4b 7d 3e 47 30 a4 be 58 b8 66 3e fc 4d 2d be
       0.24735841 -0.32068083 0.22531259 -0.1692428
000250 2c f3 3d 3e cd 0d c3 3c ab a0 3a 3e 9f 1a 07 3e
       0.18549794 0.023810292 0.18225352 0.13193749
000260 37 bd cb 3a 8d 65 51 bd d2 42 0e 3d 4b f0 70 be
       0.0015544061 -0.051122237 0.034731694 -0.23529164
000270 c3 4d 9d be 33 17 b5 3e 36 fe ed 3d 9d 32 e4 bd
       -0.3072339 0.35369262 0.116207525 -0.11142466
000280 12 b6 2d 3e 9f 20 46 3e a7 58 21 3e 55 bb f9 3d
       0.16963986 0.19348381 0.15756474 0.12193934
000290 7d fc b5 3e e3 62 70 bd 81 3b 96 3c 14 73 71 be
       0.35544196 -0.058688056 0.01833892 -0.23579055
0002a0 21 a0 44 be 5a 4b 4d be a1 3c 15 3f 6c 0e 66 3d
       -0.1920171 -0.20048276 0.5829564 0.056166098
0002b0 7d ed 5e 3e 1c 8a 39 3e 44 e2 79 3e cd 72 fc 3d
       0.21770282 0.18119091 0.2440272 0.12326584
0002c0 c8 e1 0c 3d 02 3f 81 be de 07 d8 bd 7d 4f b6 bc
       0.03439501 -0.25243384 -0.105483755 -0.0222547
0002d0 91 c0 b5 3d 3e aa c2 3d 41 48 c0 3c 4c 38 45 bd
       0.0887462 0.09505127 0.023471953 -0.048149392
0002e0 34 10 7d be 1f 8c 5f bd b7 50 7f bc cb d4 c8 bd
       -0.24713212 -0.05457699 -0.015583209 -0.09806212
0002f0 fb de d8 3d a7 3d 3e 3e 11 df 1c 3e 32 06 90 bd
       0.10589405 0.18578206 0.15319468 -0.07032432
000300 2e df 2e 3e 9d 41 74 3e 9e 42 17 3e 9a f2 ed be
       0.17077324 0.23853154 0.14771506 -0.46474153
000310 50 7d 22 be 73 25 6c be 0f 31 22 3e d7 32 18 3e
       -0.15868115 -0.2306116 0.15839027 0.14863144
000320 5b 95 ec bb 9b bf 3c be 43 29 a2 be 60 3e d0 bd
       -0.007219953 -0.18432467 -0.31672105 -0.10168147
000330 3d 0a 2b 3f c8 bd c5 3c 3a 5c e5 3a a8 f3 cb bd
       0.668125 0.024138346 0.0017498799 -0.09958583
000340 ff 58 0a bc 79 e3 1d 3e 88 72 62 be a6 64 b5 bc
       -0.00844407 0.15418805 -0.22114003 -0.02214272
000350 e6 26 3f be 47 c1 1a be 36 b5 3d 3e 81 7d 55 3f
       -0.18667182 -0.15112792 0.18526158 0.8339463
000360 4b d6 c7 be 52 f4 14 bc bc 47 cd bd 59 71 24 be
       -0.3903068 -0.009091454 -0.10023448 -0.16058864
000370 9b 26 bb 3d 34 fe 1c be 50 b4 48 bd c2 7d 02 3c
       0.09138223 -0.15331346 -0.049000084 0.007964553
000380 19 f9 74 bd ad 51 79 bd 21 70 46 3e 0a de 4a 3d
       -0.05980787 -0.060868908 0.19378711 0.04952816
000390 66 b9 fa bd 63 81 92 3c ad f5 2c be 36 7f 76 3d
       -0.12242393 0.017883962 -0.16890593 0.06017991
0003a0 ac f2 24 be 9e 66 2a 3e 02 8a f8 3d 98 34 8e bd
       -0.16108197 0.16640708 0.12135698 -0.06943625
0003b0 57 7e da 3c 09 19 2f 3d 57 fc fa bd 76 57 80 3e
       0.026671572 0.042748485 -0.12255161 0.25066727
0003c0 44 87 28 3c 6e 0f 6f 3e d4 bc 74 be 64 5b 21 3e
       0.010286156 0.2334573 -0.23900157 0.15757519
0003d0 cc f0 3e bd 81 e7 52 bc cd 5f 19 bd 0f 29 0d 3e
       -0.04661636 -0.012872578 -0.03744488 0.13785194
0003e0 57 ab 94 3d 12 f9 8f 3d b4 f0 fb bc f8 c2 81 be
       0.07259243 0.07029928 -0.030754425 -0.25344062
0003f0 ff 67 1b 3d b4 36 19 bd 8d b0 1e 3e b7 74 b2 3e
       0.037940975 -0.037405685 0.15497036 0.3485467

w2.bias f4 [20]
000000 5c 4a 16 3f b0 1f 43 be 4d 46 04 bf 92 d3 94 3e
       0.58707213 -0.19055057 -0.5166977 0.29067665
000010 d2 11 d5 bd fa 39 f5 bd 2d 9b 1d bd 66 a5 86 bc
       -0.104037896 -0.11973949 -0.038478065 -0.01643629
000020 d2 dd 58 be 85 3f 32 3e c7 bd ea be 90 99 9f bd
       -0.21178368 0.17407043 -0.45847914 -0.077929616
000030 25 b8 15 3e f6 6e 76 bd bf 73 e2 3d b3 ce c6 be
       0.14621027 -0.060164414 0.11057233 -0.38829574
000040 43 f2 07 3e da 14 c4 bd 2a ae 3a bf 50 96 4e be
       0.1327601 -0.095742896 -0.72922003 -0.20174527

w3.weight f4 [20, 20, 1]
000000 32 98 15 3e ee df 22 be 09 26 45 3d 4f 30 05 3e
       0.14608839 -0.15905735 0.048131976 0.1300671
000010 5e 40 51 be f2 ce 15 3e a3 43 d6 ba 40 cb af bd
       -0.2043471 0.14629725 -0.0016347062 -0.08583689
000020 a3 7d 57 be 54 d8 25 3e 6b 5a c8 be 20 02 44 3e
       -0.2104402 0.16195804 -0.39131483 0.19141436
000030 26 ab b1 bb 17 d3 80 3c 1c 6f fa 3d 4c e4 8e 3d
       -0.005422014 0.015725655 0.12228224 0.06977138
000040 7a 1b 02 bd 5c ce 38 bd 28 6f 5b 3d 04 f2 55 3e
       -0.031764485 -0.045118675 0.053572804 0.20893103
000050 bb 09 da 3a 6e 64 59 be 59 01 df bd 53 2f b4 bc
       0.001663498 -0.21229717 -0.10888929 -0.021995222
000060 4c cf 93 bc f0 ff 17 3c e2 c8 b4 bc 00 e2 c9 bd
       -0.018043183 0.009277329 -0.022068445 -0.09857559
000070 32 f4 0e 3e b5 6f 45 3e e9 e6 8e be bb 1d 02 3e
       0.1396034 0.19280894 -0.27910545 0.12706654
000080 cc 99 30 3e 83 3f 8e 3d 8f 44 8e 3d dd f5 ad 3d
       0.17246169 0.06945708 0.0694667 0.0849416
000090 eb b4 e1 bd 61 b4 4f be 14 8d cc 3c e5 20 1f 3d
       -0.110208355 -0.20283653 0.024969615 0.03884973
0000a0 32 61 57 3d be e1 b4 3c 2e 9a 32 bd ce 4b 60 bc
       0.052582927 0.022080299 -0.04360407 -0.013689948
0000b0 f3 aa 51 be 19 ae 71 3e 9d 8b 87 bd 99 0e f6 bd
       -0.20475368 0.23601569 -0.06618426 -0.12014503
0000c0 0a 6e fc 3c 31 d9 5c 3e 95 58 b2 be 76 b3 6e be
       0.03081419 0.21567227 -0.34833208 -0.23310646
0000d0 29 4a ff bc c3 3c 6c be ef 08 92 bd 1a a1 81 3e
       -0.031163292 -0.23070054 -0.0713061 0.25318223
0000e0 c0 a4 a1 3c 38 d6 a7 bb 4b 77 78 bd 01 e0 0a 3e
       0.01973188 -0.0051219724 -0.06066064 0.13562013
0000f0 83 68 95 3b 50 3e 35 3e f5 e6 f0 3d 24 49 b7 bc
       0.004559578 0.17699552 0.117628016 -0.022373743
000100 b9 83 95 bd 52 bf 2f be 0a af 56 bc 23 42 f9 3d
       -0.07300515 -0.17162827 -0.013103256 0.12170818
000110 ee 75 60 3e c6 e9 ee 3d 57 0f d4 bc 30 7c 5c be
       0.21919987 0.116656825 -0.02588622 -0.21531749
000120 f5 0e 5a be cf d2 8f be 17 5e 57 be a5 7e 33 bd
       -0.21294768 -0.28090522 -0.21031986 -0.04382195
000130 89 af 3f bc 3f fb dd bd 33 9d 64 bd 94 54 9c 3d
       -0.011699566 -0.10838937 -0.05581398 0.076333195
000140 80 d4 d3 3d f3 cb 85 bd a6 ce 39 3d 0c 0c 10 3e
       0.103432655 -0.06533041 0.04536309 0.14067096
000150 c8 6a 8d 3d e8 cc 59 3e 9f ae 10 be 28 ad 15 bd
       0.069051325 0.21269572 -0.14129113 -0.036542088
000160 d8 d6 ac bd 0c ce 4d be 9f 24 c6 bd 50 6c 5a 3d
       -0.08439416 -0.20098132 -0.09674954 0.05332595
000170 de 04 8d be 07 ee 04 bd 44 33 5f be 54 b3 1d 3e
       -0.27542776 -0.032453563 -0.217969 0.1540044
000180 ab 85 8d 3d a8 9c 3f 3e 5d 56 60 bd f9 6e 5a 3d
       0.06910261 0.18712103 -0.054769862 0.053328488
000190 15 5b 6b bd 57 ea 37 bd 40 f6 e8 3d 42 ef 04 3e
       -0.05745991 -0.04490122 0.113750935 0.12981895
0001a0 47 d3 ce 3d 66 38 b7 bd 85 d3 a8 3a 4f 9d b2 3c
       0.10098892 -0.08946304 0.001288042 0.021803526
0001b0 5c ae 37 bd b2 bb 9d bd 02 a1 30 3e 6e 16 51 3e
       -0.044844016 -0.07701816 0.1724892 0.20418712
0001c0 b0 46 cc bd 34 be a3 be bc e6 21 be a3 6c b9 bd
       -0.0997442 -0.3198105 -0.15810674 -0.09053924
0001d0 aa 00 db 3d 04 47 c0 bc 15 bd 25 3d 8d 88 d9 bd
       0.10693486 -0.023471363 0.040463526 -0.10621748
0001e0 85 38 40 bd 12 e6 f1 ba 30 26 52 3d 4f b1 7f 3e
       -0.0469289 -0.0018455407 0.05130595 0.24969982
0001f0 05 23 2c be df ed 81 bd cd e9 d4 bd 05 da 24 be
       -0.16810234 -0.063441984 -0.103961565 -0.16098793
000200 69 df 4b 3e c1 e4 24 3e c4 4e b6 be ab 00 01 3d
       0.19909443 0.16102888 -0.35606968 0.031494778
000210 b2 88 2f 3d c7 2e 91 be 19 3a 42 3e b0 f3 2b be
       0.042854972 -0.28356 0.18967475 -0.16792178
000220 e5 38 09 be e6 fb c1 3d 22 05 2a 3c d9 4c 49 3e
       -0.1340061 0.09471874 0.0103772 0.19658221
000230 94 bb a9 3c 7a 2f af 3c 6d fb ac bd 0a 49 29 3e
       0.020719327 0.021384943 -0.08446393 0.16531768
000240 85 60 b4 3d 03 f6 31 be 80 d0 0a bd 12 cd 55 bc
       0.08807472 -0.17379002 -0.033890247 -0.013049381
000250 92 f1 56 be 27 13 ed 3c 21 58 20 3e fd a0 4a 3e
       -0.2099059 0.028939797 0.15658619 0.19787975
000260 70 b5 0f 3e d1 75 c7 3d b9 ae c0 3d f3 59 8c 3d
       0.14034057 0.097392686 0.09408326 0.06853094
000270 25 ed c8 3d a8 7c 2b bd 11 12 1b 3e 05 72 67 be
       0.09810857 -0.04186693 0.1514361 -0.22602089
000280 7a 5a e9 bd 65 09 50 be 2e 6b aa bd 08 e3 92 bc
       -0.1139421 -0.20316084 -0.08321224 -0.017930523
000290 8b ae 1b be c8 40 d5 bd c2 b0 34 3c 77 44 90 bd
       -0.15203302 -0.10412747 0.0110284705 -0.07044309
0002a0 13 b7 3b be 39 77 7f be 8b f2 a0 bd 35 d3 c2 bd
       -0.18331556 -0.24947824 -0.078587614 -0.09512941
0002b0 3b 69 62 be 25 fd 4e bd b5 ee a3 bd 54 02 18 3e
       -0.22110455 -0.050534386 -0.08004514 0.14844638
0002c0 d0 74 e1 3b de 16 c4 3d d7 d2 3d 3e 8c f8 c7 bc
       0.00688038 0.09574674 0.1853746 -0.024410509
0002d0 e3 0e 04 be 62 b9 af 3d 8d 73 18 3c 3b 19 89 3d
       -0.12896304 0.08580281 0.009304893 0.066942655
0002e0 ea 2e 77 3c f6 82 e7 3c d1 30 87 bd 39 e6 0c 3d
       0.015086869 0.02826069 -0.06601108 0.034399245
0002f0 00 59 08 3e eb c6 82 be 9b 81 74 3e 6f ff 0f be
       0.13315201 -0.25542387 0.23877566 -0.14062284
000300 5d 61 1b 3d 93 95 1e 3e c6 8d 4a 3e 7d 18 80 3e
       0.03793465 0.15486746 0.19780645 0.25018683
000310 1a 30 26 be d1 75 a3 3c b1 b4 1e 3d ef a7 f0 bd
       -0.16229287 0.01995364 0.03874654 -0.11750781
000320 93 b4 d9 3d a4 62 b6 bd 2b 95 4f bd 8a cc 04 3e
       0.10630145 -0.08905533 -0.050679367 0.1296865
000330 af 0a 83 3c fc 17 95 bd af ad da bd 24 5a 2c bb
       0.015996305 -0.07279965 -0.10677659 -0.0026298845
000340 f1 8a 3c be da 30 ba 3c b0 f5 d9 bd 6d 45 21 be
       -0.18412377 0.022728372 -0.10642564 -0.1574914
000350 d3 97 13 bd c8 dc 40 3d 34 5b 5c 3e ed f8 3c be
       -0.036033463 0.047085553 0.21519166 -0.18454333
000360 05 48 7c be 76 2d 87 3c 11 6f 00 3d 0a fc c2 3c
       -0.24636848 0.01650117 0.03135592 0.023801822
000370 2e 67 f8 3a d6 16 a8 bd 08 8b d4 3d 50 ca 23 3e
       0.0018951648 -0.082074806 0.103780806 0.15995145
000380 3f bf e3 ba 71 33 7a be a9 00 dc 3d fe 0f 99 3d
       -0.0017375721 -0.24433686 0.107423134 0.074737534
000390 bf bb 2a be 68 c0 ae 3d f2 46 b9 be e4 78 38 be
       -0.16673182 0.08532792 -0.3618694 -0.18014866
0003a0 9a e1 3e 3e 6a 5d 96 be 81 50 4d bb c4 09 04 3e
       0.18640748 -0.29368144 -0.0031328502 0.1289435
0003b0 6d c7 6b bd fe 2a aa bb d4 9c 5a be ba 31 17 bc
       -0.057563234 -0.0051931133 -0.21348888 -0.009228164
0003c0 fc 07 51 bc c1 5c 48 be 92 23 0f 3d 6e 5f 30 3d
       -0.012758251 -0.19566633 0.034946032 0.04305976
0003d0 5c 08 55 3e 8e ca 14 be 43 e8 a1 3d 0f 89 a6 3d
       0.2080397 -0.14530393 0.079056285 0.081316106
0003e0 19 7e 80 3d 60 51 3f bd ba c6 b5 3e c5 b9 01 be
       0.06274051 -0.046708465 0.3550318 -0.12668522
0003f0 b3 81 bf 3d 5e 41 e6 3e 6b 1a d5 bd 9d 8e 5f 3e
       0.0935091 0.44971746 -0.104054295 0.21831746

w3.bias f4 [20]
000000 e4 44 78 bd b4 53 d2 3d 55 21 4a 3e 92 c3 5c bd
       -0.060612574 0.10269871 0.19739278 -0.053897448
000010 a5 63 e8 bd 98 67 77 be 7f 27 31 3e 35 eb b0 be
       -0.11347131 -0.24160612 0.17300223 -0.3455445
000020 a2 55 20 3e bb 97 4b 3e 76 a2 e6 bd 78 8c 07 bd
       0.15657666 0.198821 -0.11261456 -0.033092946
000030 df 79 c0 bd d3 d2 7c bd 87 28 92 be ee 41 3b 3e
       -0.09398245 -0.061724495 -0.28546545 0.18286869
000040 de bf 91 be 3f 78 90 3e d3 4b b1 bd c8 00 0f bf
       -0.28466696 0.2821674 -0.086570404 -0.5586057

fc1.weight f4 [128, 20]
000000 ca 0d cf 3d 2f f9 2b 3e 67 57 66 bd 8a c7 60 3e
       0.10110052 0.16794275 -0.056235697 0.21951118
000010 a9 ba 65 bd 3f 19 83 bc d0 84 23 3e ba a0 d7 3b
       -0.056086216 -0.01600325 0.15968633 0.0065804394
000020 18 4b 7d 3d e1 d9 63 be e0 51 1f be 27 5a 50 be
       0.061839193 -0.22251083 -0.15558577 -0.2034689
000030 7e bd 56 bd f3 bd b4 3c 2d 54 39 be e5 fd 0f 3e
       -0.052426808 0.022063231 -0.18098517 0.14061697
000040 65 45 39 3e 4a dc 63 bb 5a a3 24 3e 41 fb 88 3c
       0.18092878 -0.0034768754 0.16077939 0.01672137
000050 dd b3 79 be 07 28 7f 3d fc 14 2b 3d 24 18 8b bb
       -0.24385019 0.062294032 0.04176806 -0.004244821
000060 35 c4 a4 3c fb 08 07 be 7f 4e 98 3d e9 0c e7 3d
       0.02011309 -0.1318702 0.07436847 0.11281759
000070 14 dc 14 3e 1f eb 03 bd 37 89 a1 3d b7 15 4c 3c
       0.14537078 -0.03220665 0.078875 0.012456349
000080 bb 06 80 be 78 99 47 bd d1 ed 3b bd 2c 99 99 3d
       -0.25005135 -0.048730344 -0.045881096 0.07499918
000090 2d d6 31 bd af 62 56 be e9 94 31 be 3a fd 44 3e
       -0.043417145 -0.20936082 -0.17341961 0.19237223
0000a0 9d 71 0f 3d 6a 2f 20 be 1a 7a 6a bd ce 0a 78 3e
       0.03502046 -0.15643087 -0.05724535 0.24222872
0000b0 c9 1b 26 be 6a 5d e4 3c 6e 91 0c be 1d 00 74 3e
       -0.16221537 0.027876575 -0.13727352 0.23828168
0000c0 3c b4 17 be 96 c1 cd 3d 60 8d 8a 3d f0 24 51 3d
       -0.14814848 0.10046689 0.067652464 0.051060617
0000d0 0a 0c 10 bb 16 b3 2a 3e 92 bd fb bd 66 45 9b 3d
       -0.0021979832 0.16669878 -0.12292017 0.07581596
0000e0 18 0f a1 bd 31 d3 c7 3d e6 01 10 bd ad a7 4f 3b
       -0.07864207 0.097570784 -0.03515806 0.0031685636
0000f0 f2 f0 66 3d 73 e9 4e 3e 98 fe 10 bc 1b 65 10 3e
       0.056382127 0.20206241 -0.008849762 0.14101069
000100 2c 05 ed 3d 3c cd 3b bc d7 fd 31 3d 19 d6 0e be
       0.11573252 -0.011462506 0.04345497 -0.1394886
000110 12 f1 45 bd fc 13 8f bc ef 4a 24 3e a8 74 37 be
       -0.048325606 -0.017465584 0.1604421 -0.17915595
000120 83 35 d6 bd 2b dd bf bd 1a 8e 8a bd 15 ac 51 bd
       -0.10459425 -0.09368356 -0.06765385 -0.0511895
000130 9f 34 3f be c7 fc d8 3d 1b 7d e7 bd 74 59 9f 3d
       -0.18672417 0.105950885 -0.11303159 0.07780734
000140 b5 ec 86 3d 86 08 ea bd 0a e0 b1 3d d6 da fb bd
       0.06588117 -0.11427407 0.0868531 -0.12297599
000150 2f ea 47 bd 37 4b 3b be 5b 84 b4 3d 7c e9 c8 bd
       -0.04880732 -0.18290411 0.08814307 -0.098101586
000160 3c 08 f1 3d 74 81 64 be 81 04 05 be 92 74 22 bc
       0.11769149 -0.22315007 -0.1299 -0.009915488
000170 ae 11 1d 3e db 09 08 3d 87 72 10 bc e5 1e f4 bc
       0.15338776 0.033212524 -0.008816368 -0.029799888
000180 b5 0c 87 be fd 2e d6 3d a2 e9 f3 be 27 64 80 bc
       -0.26376882 0.10458181 -0.47639185 -0.015672756
000190 e4 f2 3f be 0a 75 f8 3d 7b ea c9 be 48 64 22 be
       -0.18744999 0.121316984 -0.39436707 -0.15858567
0001a0 c1 43 9c bd e5 ff 8c 3e 34 97 11 3e d9 d8 ef bd
       -0.076301105 0.27538982 0.14217836 -0.11711282
0001b0 4d e2 2f 3c e3 77 53 3d 5e c4 45 3e ee 4c 21 3e
       0.010735107 0.051628005 0.1931319 0.15752003
0001c0 2e 0a 6e bd 8b 04 6b 3d 92 69 89 3d 30 2f f3 bd
       -0.058115177 0.05737738 0.06709589 -0.11874235
0001d0 11 85 0a 3e 93 95 c6 3c 61 20 61 3e 0f f9 76 3e
       0.13527323 0.024241244 0.21985008 0.24118446
0001e0 d7 14 e2 3d 15 7c 7e 3e 79 4d 66 be ae 16 23 3e
       0.11039131 0.24852021 -0.22490491 0.1592662
0001f0 d8 3b f4 bd 7a 74 38 bd 81 da 9f bd 4c a6 47 bd
       -0.11925477 -0.045032956 -0.07805348 -0.048742577
000200 ec 82 5e be 46 c6 e6 3d d6 c3 50 be 16 3f 81 bd
       -0.2172963 0.112682864 -0.20387205 -0.06310861
000210 c8 4c a6 3d c3 63 13 be e6 72 dc bd 17 51 db 3d
       0.081201136 -0.14393525 -0.10764103 0.10708826
000220 21 1d e6 3b b2 39 30 3d 2d bd 7a 3e 67 61 29 be
       0.0070225154 0.043023773 0.24486227 -0.16541062
000230 da 72 41 bd f2 bb 5b be ef 18 93 3e 9c bd 2f be
       -0.04722867 -0.21458414 0.2872996 -0.17162174
000240 92 b6 8c be fb df 0c 3e 03 d2 7a 3d ff d3 21 be
       -0.2748304 0.13757317 0.06123544 -0.15803526
000250 4a b3 23 be 87 a2 f5 bd a9 73 3e 3e a2 43 f2 bd
       -0.15986362 -0.1199389 0.18598808 -0.11829306
000260 c8 03 a7 3d b2 84 36 3d d2 2a fd bd 92 52 17 3e
       0.08155018 0.04456014 -0.12361683 0.14777592
000270 a3 09 2b bd 6a e8 1c 3e 02 78 87 be 7d 74 4c be
       -0.041757237 0.15323034 -0.26458746 -0.19966312
000280 9f 45 48 be 30 b0 83 bc 26 ce cc be 8c 63 85 be
       -0.19557808 -0.016075224 -0.4000103 -0.2605251
000290 5c f6 f2 bd 81 92 c2 bd f4 66 8f 3d 84 ee 28 bd
       -0.118633956 -0.095006 0.070020586 -0.04124309
0002a0 07 2a ac 3d 1a cf 90 be 78 9c 12 3e e4 dc a0 3e
       0.084064536 -0.28283006 0.143175 0.31418526
0002b0 f6 e8 4a bd a1 cb d6 3d e5 f9 5c be 75 62 f0 3d
       -0.049538575 0.10488058 -0.21579702 0.11737529
0002c0 76 1d 77 bd 48 8b 8e be 58 6e d8 bd 6b 71 be 3d
       -0.06033083 -0.27840638 -0.105679214 0.092989765
0002d0 4b 41 6b 3d 23 11 3c bd 7c 23 d7 3b 18 7b 7d be
       0.057435315 -0.04591478 0.0065655094 -0.24753988
0002e0 28 cd 58 3e d1 91 d9 bd f6 09 54 be 81 1e b0 3e
       0.21172011 -0.106235154 -0.20706925 0.34398273
0002f0 c8 6b aa 3c 19 df 87 be 84 6c 3f 3d 7d 05 43 3e
       0.020803347 -0.26537398 0.046734348 0.19045062
000300 e5 26 80 3d 67 0b 71 3d f4 00 c8 bd af 9d bc bd
       0.062574185 0.058848765 -0.09765807 -0.09209763
000310 1b 85 83 3e d8 7d ec 3d 4b 4d 54 3d 16 62 4c be
       0.2568749 0.1154744 0.051831525 -0.19959292
000320 8b dd 9b 3d c5 7a 49 3e e1 0e f0 bd e8 33 2c be
       0.07610615 0.19675739 -0.11721588 -0.16816676
000330 09 73 70 3d c9 d2 41 3c c6 51 78 3e 71 07 2d be
       0.058703456 0.01183004 0.24249944 -0.1689737
000340 f8 38 ca bd c7 e4 8c 3d e3 34 fd 3d 18 a5 5c be
       -0.09874147 0.06879573 0.12363603 -0.21547353
000350 f6 85 2f 3e bf d9 39 3e 17 73 0d be d7 84 85 3e
       0.17140946 0.1814947 -0.13813435 0.2607791
000360 c6 bb d1 3c 11 8d 44 3e 20 5b df 3d 6b 8c bb bc
       0.025602233 0.19194438 0.109060526 -0.022894105
000370 db b0 12 3a 57 3b 58 3e b2 25 6e be 54 6c 62 3d
       0.00055958115 0.21116386 -0.23256567 0.05527909
000380 18 96 db 3d d0 ae 5b be 0b 13 56 3e c3 e9 3e 3d
       0.107219875 -0.21453404 0.20905702 0.04660965
000390 d8 0b af bc f6 6b 09 bd 05 67 46 3b 1a 20 67 be
       -0.021367952 -0.033550225 0.0030273807 -0.2257084
0003a0 4f ed 5c 3c 98 c8 99 3d 5a 8e 31 be 19 d9 30 3e
       0.013484313 0.07508963 -0.17339459 0.17270316
0003b0 50 cd ea 3d 0e 28 6d 3e 3e 1c 6f 3e 8d b2 1b 3e
       0.114649415 0.23159811 0.23350617 0.1520483
0003c0 3f 26 c6 be d2 5c b6 bd ef 42 81 3d d1 94 53 3e
       -0.38701054 -0.08904423 0.06311595 0.20662238
0003d0 bf 71 8a 3e 50 6b 80 bd eb 2f bd 3d 96 9c df bd
       0.27039906 -0.06270468 0.09237655 -0.10918538
0003e0 0d 40 1f be e0 b0 18 3b 85 96 1d 3e 68 d2 c1 bc
       -0.15551777 0.0023298785 0.1538945 -0.0236599
0003f0 e3 31 85 3e 92 15 bc bd 22 cb 33 bd 57 03 9d be
       0.26014623 -0.09183802 -0.043894894 -0.3066661

fc1.bias f4 [128]
000000 f3 91 4c bd 9a 5e 9d bd 1a 08 da be b8 86 56 3e
       -0.049943876 -0.076840594 -0.42584306 0.20949829
000010 aa 51 14 3f 2b ad 64 be bc 9e 8a 3e 2e 84 15 be
       0.5793711 -0.22331683 0.2707423 -0.14601204
000020 4c bc 49 be 68 18 20 be 97 fa 2e 3e e3 65 14 be
       -0.19700736 -0.1563431 0.1708778 -0.14491992
000030 5f f9 72 be fd 82 16 bf c8 0e 0c bf ee 84 17 bf
       -0.2372794 -0.5879362 -0.54710054 -0.5918721
000040 28 4c fd 3d ce bb b3 be 9d 29 2e 3c 7d 14 84 3d
       0.12368041 -0.3510422 0.010630039 0.0644922
000050 bb 86 3f be 5a b5 1f be 7b 46 0f bf 31 e2 7f be
       -0.1870374 -0.15596524 -0.5596692 -0.24988629
000060 89 8c 84 3e c4 ae 86 be 3b 2e 8a 3d de bf 43 be
       0.2588847 -0.2630521 0.06747099 -0.1911616
000070 79 d1 6f 3e 9b 67 03 3e 41 e8 97 3d d6 cf 15 3e
       0.23419751 0.12832491 0.07417346 0.14630064
000080 91 92 5a bd 9f ff 57 be 58 49 46 3d 9a f3 19 bf
       -0.053362433 -0.21093605 0.04840979 -0.6013733
000090 75 e0 2c be 0c d7 c2 3e 23 7e c7 bc a2 8f 54 bd
       -0.16882499 0.38054693 -0.024352139 -0.05189479
0000a0 f4 15 5c be 3d 8d 9d bd 39 fe 01 bf f9 e5 93 3b
       -0.2149275 -0.07692955 -0.5077854 0.004513499
0000b0 35 e9 a8 be c2 15 2d 3d ad a2 fb 3d 29 13 ba be
       -0.32990423 0.042257078 0.12286887 -0.36342743
0000c0 ef 87 73 3e 9a c8 06 be e9 54 44 bd 65 ef 84 3d
       0.23782323 -0.13162461 -0.04793254 0.064909734
0000d0 25 48 8a be 8b 18 3c 3d d0 17 b6 3e 03 4e 1f be
       -0.27008167 0.045921843 0.35565042 -0.15557103
0000e0 c4 41 9c 3c 3a f6 c2 3e 3b 25 71 bf 9a a4 a2 be
       0.019074328 0.3807848 -0.94197434 -0.31766206
0000f0 c8 68 d1 3d 85 08 6a 3d d1 8b 50 3f ac e8 9b 3d
       0.102250636 0.05713703 0.8146334 0.07612738
000100 24 eb 27 bf f4 91 0f bd a8 7b c7 bd 3e 26 91 3e
       -0.6559317 -0.0350513 -0.097403824 0.2834949
000110 38 7f b5 be 9b ec cc bd 41 e7 bc 3d 40 e0 8e be
       -0.35448623 -0.100060664 0.09223796 -0.27905464
000120 48 20 40 3d 00 c9 17 bf 12 5a da 3e ca 53 b9 bd
       0.046905786 -0.59291077 0.42646843 -0.090491846
000130 dd 6e c1 3d cb 21 81 be 43 4e 46 3e e4 ca 41 3e
       0.094449736 -0.25221094 0.19365792 0.18925053
000140 1b 55 33 3e 7d 9f 07 be 58 15 39 be 22 de 73 3d
       0.17512934 -0.13244434 -0.18074548 0.059538014
000150 83 02 d4 3d d5 ef 0c 3f b0 89 9c bd 78 fa 3a 3c
       0.103520416 0.55053455 -0.07643449 0.0114122555
000160 4d 1a df 3d 19 18 aa bc b6 49 19 3e 7c 25 35 3e
       0.10893688 -0.020763444 0.14969525 0.1769008
000170 93 90 27 bf a2 5e 26 bd fa 27 f1 3e 1e b5 72 be
       -0.6545498 -0.040617593 0.47100812 -0.23701903
000180 fd d5 8b 3d a9 c0 91 3d 57 53 9d 3e 6a ab 19 be
       0.068279244 0.07116825 0.30727646 -0.15006796
000190 9f 0c 8d bc 32 be 0e 3e 25 46 59 be 9d 69 d6 3d
       -0.017217932 0.13939741 -0.21218164 0.10469363
0001a0 d6 4e 8f 3e 1a 3c ea bd 36 f4 32 be 8e 68 04 be
       0.27989835 -0.11437245 -0.17475972 -0.1293051
0001b0 17 dd 0c 3e 42 4c 42 be a5 f3 9a 3d 10 07 38 be
       0.13756214 -0.18974403 0.07566003 -0.17971444
0001c0 ff 0a a4 bd 78 59 6a bf c1 fe 7e bf 36 4b c6 bd
       -0.0800991 -0.9154277 -0.99607474 -0.09682314
0001d0 c5 a4 0b 3f 0a c3 33 be d7 7d 89 bd 99 1a 05 3e
       0.54548293 -0.1755487 -0.06713455 0.12998427
0001e0 30 78 09 be be 4f 93 bf 44 69 e0 be 8d bb 19 bf
       -0.13424754 -1.150871 -0.4383031 -0.60051805
0001f0 c9 71 03 3e e5 1b 4f bd 20 90 6a be 69 1e bc bc
       0.12836374 -0.05056371 -0.22906542 -0.02296372
