1DCFD_FNO/1D_CFD_Rand_Eta1.e-8_Zeta1.e-8_trans_Train_FNO.pt (torch, 541123 bytes, 42 tensors)

fc0.weight f4 [20, 31]
-0.013710932 0.029600697 -0.011842601 -0.14269005 0.10448699 0.21607201 0.043386817 -0.09317307
0.07212115 0.04046784 0.1110134 0.02737699 0.04888426 0.0027904478 -0.035592306 -0.075111136
0.19259618 0.075321205 -0.036524877 -0.10718453 -0.12712893 0.0771264 0.19692557 -0.0058534695
0.052573625 0.015576316 -0.03938584 -0.057537116 0.15635233 -0.10987389 -0.27649245 0.019899966
-0.1401974 -0.24225011 -0.115993336 -0.18793967 -0.20908448 -0.035610948 -0.07625553 -0.28679153
0.12964864 0.07003771 -0.27221584 0.11390449 0.17826585 -0.25057593 0.007929363 0.16471034
-0.32022965 0.19615448 0.09444458 -0.45435756 0.17546019 0.048793305 -0.43131906 0.09323035
0.062516905 -0.27618158 -0.12404773 -0.14835532 -0.21175747 0.25286585 -0.0030023172 -0.13517822
-0.08796985 0.16659766 -0.0009036866 -0.13956219 0.27032208 -0.032125086 -0.00075749884 0.13603237
0.12573951 0.14018497 0.023101155 -0.064708754 -0.16165969 0.20009616 -0.031390853 -0.13234158
0.0035079974 -0.16145687 -0.19396868 0.006170465 0.04344671 -0.2581645 -0.17230408 -0.031142417
-0.31432036 -0.40756768 0.23450528 -0.46906868 0.13608499 -0.13918495 -0.11903606 0.13842213
-0.1237951 -0.17051992 0.117527455 -0.15321884 0.10338106 0.22353123 -0.22736797 -0.047937315
0.27030975 -0.18573861 -0.052128427 0.24016236 0.041433178 -0.08666732 0.25222993 -0.008216857
0.12659693 0.2780973 0.061968487 -0.019818049 0.52447474 0.34392214 0.05566954 0.7799619
0.21708462 0.23124444 0.7519794 -0.46930084 0.12782541 -0.07291716 -0.23321615 -0.15416616
-0.00300898 -0.2243875 -0.0006745503 -0.09906718 -0.02913739 0.070724465 0.13549364 -0.059594896
-0.117504485 -0.15461959 -0.11020322 0.13799837 -0.008361673 -0.044627022 -0.07991281 0.0552542
-0.23708281 0.018599829 -0.19683215 -0.22090544 0.035658438 -0.058993414 -0.4725542 0.044983916
0.09379805 -0.8021074 -0.20757112 0.117891625 0.1149275 -0.12699458 -0.027926875 0.109516576
-0.031303197 -0.030912835 -0.030363485 -0.22843198 -0.0011939516 0.09968754 -0.2883611 -0.078068785
0.1169597 -0.050138645 0.14647022 -0.04393339 -0.15386643 -0.07575794 0.16607945 -0.11072295
-0.11909008 0.032052927 0.031364564 -0.021194054 0.12996925 -0.05724759 0.046574134 0.094287485
0.031997122 0.92085946 0.09253175 -0.00029297583 0.0060756616 -0.1536295 0.07689488 0.1574965
-0.058437932 0.068640694 0.15649016 -0.17289041 -0.16189565 -0.020775665 0.075688325 -0.10781481
0.048000373 -0.12028134 -0.19179071 0.111742325 0.09948701 -0.17524265 -0.11304883 -0.08607222
0.05789973 0.06851709 0.053340167 -0.0029453894 -0.030337226 0.18081582 0.042548295 -0.10981679
3.1785686 0.29416475 0.022060324 0.5918534 -0.07339502 -0.16672128 0.33546755 0.17065911
-0.14227466 0.11664045 0.20303412 -0.11034966 0.2911914 0.054148555 -0.0027556934 0.13850218
0.18073097 -0.028260335 0.011789096 -0.041413598 0.13278142 0.32154924 -0.02504212 0.02228636
0.1697562 -0.12336328 -0.16659091 0.10624796 -0.18606955 0.0028895035 -0.07668397 -0.3445782
0.12541074 0.06290712 0.024178905 0.11712208 0.14771578 0.015397554 0.03469141 -0.06724306
00000000: d1a3 60bc 297d f23c 7807 42bc 571d 12be
00000010: 46fd d53d fb41 5d3e 60b6 313d 86d1 bebd
00000020: 41b4 933d 9bc1 253d fe5a e33d b645 e03c
00000030: dd3a 483d f2df 363b 3dc9 11bd ded3 99bd
00000040: ef37 453e 0142 9a3d 1c9b 15bd 9083 dbbd
00000050: 162e 02be 72f4 9d3d dba6 493e 76ce bfbb
00000060: 7157 573d ce33 7f3c 0c53 21bd 0aac 6bbd
00000070: d31a 203e 9005 e1bd 6b90 8dbe 4105 a33c
00000080: e88f 0fbe 6a10 78be ea8d edbd 4273 40be
00000090: 3e1a 56be c9dc 11bd dc2b 9cbd 57d6 92be
000000a0: 9dc2 043e ee6f 8f3d e05f 8bbe c246 e93d
000000b0: 538b 363e 7d4b 80be 29ea 013c d4a9 283e
000000c0: 24f5 a3be b8dc 483e 296c c13d 8ea1 e8be
000000d0: d6ab 333e 7ddb 473d dad5 dcbe 8eef be3d
000000e0: dd08 803d ac67 8dbe bc0c febd 75ea 17be
000000f0: f3d6 58be a277 813e 86c2 44bb 296c 0abe
00000100: 8929 b4bd 9498 2a3e 62e5 6cba 64e9 0ebe
00000110: a867 8a3e 9895 03bd e392 46ba 124c 0b3e
00000120: dcc1 003e a68c 0f3e a23e bd3c 0686 84bd
00000130: 1e8a 25be 02e6 4c3e b293 00bd 8d84 07be
00000140: 6ee6 653b f354 25be ba9f 46be 9d31 ca3b
00000150: 2df5 313d 232e 84be 7b70 30be 621e ffbc
00000160: 99ee a0be b6ac d0be 2722 703e c529 f0be
00000170: dd59 0b3e 8086 0ebe 2ec9 f3bd 88be 0d3e
00000180: 4988 fdbd c69c 2ebe 3cb2 f03d 66e5 1cbe
00000190: 73b9 d33d 5fe5 643e 26d3 68be eb59 44bd
000001a0: 0a66 8a3e 4332 3ebe 9e84 55bd 1fed 753e
000001b0: d6b5 293d a37e b1bd 4824 813e ff9f 06bc
000001c0: a0a2 013e c562 8e3e abd2 7d3d 7659 a2bc
000001d0: fa43 063f 9016 b03e be05 643d 95ab 473f
000001e0: 6e4b 5e3e 58cb 6c3e b981 403f 3348 f0be
000001f0: aae4 023e 9855 95bd 37d0 6ebe bcdd 1dbe
00000200: 4f32 45bb d6c5 65be 4ed4 30ba bce3 cabd
00000210: 89b1 eebc fdd7 903d d8be 0a3e c719 74bd
00000220: 31a6 f0bd 9954 1ebe 3ab2 e1bd 724f 0d3e
00000230: 66ff 08bc d3ca 36bd 54a9 a3bd 3a52 623d
00000240: d6c5 72be ab5e 983c 5e8e 49be 0935 62be
00000250: 950e 123d 14a3 71bd a0f2 f1be 0e41 383d
00000260: 3119 c03d e956 4dbf 868d 54be 2a71 f13d
00000270: 1c5f eb3d de0a 02be e7c6 e4bc 3a4a e03d
00000280: c837 00bd ea3c fdbc d8bc f8bc 13ea 69be
00000290: 5e7e 9cba fb28 cc3d 11a4 93be 87e2 9fbd
000002a0: 9188 ef3d 2e5e 4dbd 4afc 153e 80f3 33bd
000002b0: 298f 1dbe fb26 9bbd bb10 2a3e b7c2 e2bd
000002c0: 80e5 f3bd ee49 033d 2178 003d 279f adbc
000002d0: a916 053e 737c 6abd 85c4 3e3d cc19 c13d
000002e0: 6a0f 033d 72bd 6b3f 4981 bd3d 8d9a 99b9
000002f0: 5816 c73b 0d51 1dbe 107b 9d3d c346 213e
00000300: 9d5c 6fbd 7e93 8c3d f53e 203e 2f0a 31be
00000310: f9c7 25be ba31 aabc 7b02 9b3d 03ce dcbd
00000320: 0a9c 443d 1056 f6bd c964 44be 29d9 e43d
00000330: d8bf cb3d cf72 33be 2586 e7bd a246 b0bd
00000340: 4428 6d3d b052 8c3d 387b 5a3d 6f07 41bb
00000350: c685 f8bc c827 393e 1f47 2e3d a0e7 e0bd
00000360: ab6d 4b40 c39c 963e dab7 b43c b483 173f
00000370: 2150 96bd fcb8 2abe 67c2 ab3e 43c1 2e3e
00000380: 73b0 11be 30e1 ee3d 2de8 4f3e 01ff e1bd
00000390: 0a17 953e e0ca 5d3d dd98 34bb 84d3 0d3e
000003a0: 8a11 393e 3882 e7bc 0d27 413c 4ea1 29bd
000003b0: daf7 073e 1aa2 a43e 2225 cdbc e291 b63c
000003c0: 92d4 2d3e e3a5 fcbd cf96 2abe 8898 d93d
000003d0: 0489 3ebe d35d 3d3b 7c0c 9dbd 8e6c b0be
000003e0: ac6b 003e 73d5 803d d712 c63c b3dd ef3d
000003f0: ce42 173e 0646 7c3c 9418 0e3d bbb6 89bd

fc0.bias f4 [20]
0.03879661 -0.33422154 0.06445145 0.075515285 0.09359545 -0.17289424 -0.106495686 -0.09947626
-0.49841064 0.00013628225 -0.067696184 0.26212975 -0.21810487 -0.011750387 -0.8407054 -0.36996487
0.09292917 -0.24640171 -0.20521714 -0.3897957
00000000: 32e9 1e3d 161f abbe 1fff 833d c2a7 9a3d
00000010: f9ae bf3d 300b 31be 691a dabd 36ba cbbd
00000020: ae2f ffbe fde6 0e39 4ca4 8abd df35 863e
00000030: e256 5fbe b284 40bc 7838 57bf 096c bdbe
00000040: a651 be3d bb50 7cbe 7124 52be 4d93 c7be

w0.weight f4 [20, 20, 1]
-0.082101025 0.5880706 0.20029004 -0.11743139 0.11357081 0.14062117 -0.14240392 0.20618075
0.04537725 -0.22727875 0.0225658 0.08533207 0.21977124 -0.07226287 -0.002083242 -0.0513848
-0.26735955 0.12087372 0.1558843 0.09257883 -0.0227477 -0.24987264 -0.15358546 -0.052906234
-0.1860148 0.1920648 -0.1621847 -0.14744823 0.21368009 0.08468658 0.13347922 -0.05332263
-0.1867268 0.20353061 0.04459108 -0.05259291 0.17829043 -0.16044778 0.12046921 -0.08734238
0.20934713 0.019363318 0.07034848 0.16406125 -0.112947695 0.17382124 0.047094364 -0.19674282
0.22527407 -0.10843045 0.1441518 -0.039497744 -0.09810845 -0.050177414 -0.10929451 0.03688195
-0.14621352 0.043455172 -0.0582484 0.17356974 0.15914886 -0.13496932 0.225286 0.27331683
0.058470357 0.06889965 -0.074729465 0.107220106 0.17100976 0.13678826 0.004899745 -0.12585258
-0.105909556 0.13912976 0.04177529 -0.08706591 -0.09280418 0.16796117 -0.18944676 0.30407643
-0.64363706 -0.45092008 0.28409067 0.19397628 0.47159466 -0.42348462 0.6248433 0.5267506
-0.65093815 0.20547004 -0.5983742 0.63561046 0.23780282 -0.46745396 -0.39404994 0.686022
0.56414586 -0.68710923 0.2977459 -0.044047646 -0.038843665 0.15466723 -0.011910709 -0.08011771
0.15039009 0.22934593 -0.17269397 -0.23979189 -0.13353288 -0.0041716485 0.0725155 -0.24272755
0.10768566 -0.1087569 -0.33174446 0.16620107 -0.16098776 0.116841815 0.022545878 0.10655633
0.15059955 -0.30452013 0.23165289 0.048347853 -0.1777724 -0.0185789 -0.21466999 0.09945983
0.04022195 -0.23350105 0.103708655 -0.13642515 -0.09528288 -0.035571706 0.2524756 0.00950877
0.060606446 -0.17262991 -0.013187445 0.03740831 -0.063216455 0.19780335 -0.08417277 -0.23221935
0.16332336 -0.023281796 0.08195449 -0.16679126 0.08506063 -0.20420264 0.038247433 -0.1234936
-0.411962 -0.07158271 -0.009667043 -0.08506282 0.025014278 -0.039906796 -0.123031646 0.1370134
0.17253563 0.08048611 -0.15270194 0.17241678 0.0010099602 -0.23068109 -0.18258947 -0.1645639
-0.10913171 -0.06678826 -0.16730088 -0.105698906 0.15103804 0.04743879 0.07471399 -0.005579147
0.24534763 0.025256248 0.24293299 -0.09413962 -0.02400853 -0.09284952 0.008572029 0.17703234
-0.13844681 0.08354864 -0.24377084 -0.22068311 0.24255742 -0.0870969 -0.06732943 0.10868572
-0.15583983 0.23789318 -0.07974922 -0.050440803 0.041142702 0.1723436 -0.085652985 -0.0815543
-0.31570187 0.41113496 -0.13342696 0.3118911 0.4398816 -0.2876995 0.10270866 0.5725109
0.07167269 0.13740985 -0.06901894 0.42117524 0.2298726 -0.45750302 0.000732116 0.36154068
0.3033416 -0.35991392 0.28849885 -0.17966896 -0.28926024 -0.21742655 -0.1642107 -0.11004422
-0.19812573 0.1529491 0.30293676 0.041979834 -0.11196983 -0.1474287 0.08279017 0.19273938
0.26026765 0.063428365 -0.24529926 -0.04039628 0.12930073 -0.10023692 0.097646244 -0.08714514
-0.210223 0.07388207 -0.051196445 -0.032092154 0.08843035 -0.19512503 0.13269147 -0.096540354
0.0008517074 0.44321302 -0.12287108 0.109322436 0.045996606 0.17177944 0.39328954 0.18726024
00000000: 9524 a8bd cb8b 163f d518 4d3e de7f f0bd
00000010: d097 e83d fffe 0f3e 55d2 11be 0c21 533e
00000020: 7fdd 393d c3bb 68be eadb b83c 95c2 ae3d
00000030: b60b 613e 8efe 93bd 0087 08bb de78 52bd
00000040: 5ae3 88be a48c f73d 22a0 1f3e f899 bd3d
00000050: 6259 babc 9dde 7fbe 8245 1dbe 35b4 58bd
00000060: aa7a 3ebe a3ac 443e bf13 26be abfc 16be
00000070: f4ce 5a3e 2870 ad3d c7ae 083e d468 5abd
00000080: 4f35 3fbe 546a 503e 23a5 363d aa6b 57bd
00000090: c491 363e 6c4c 24be 90b8 f63d 90e0 b2bd
000000a0: 185f 563e d29f 9e3c dd12 903d acff 273e
000000b0: 1f51 e7bd 32fe 313e 05e6 403d f376 49be
000000c0: 3fae 663e c910 debd 889c 133e 63c8 21bd
000000d0: 15ed c8bd d586 4dbd cdd5 dfbd 8711 173d
000000e0: ffb8 15be 0dfe 313d e095 6ebd 44bc 313e
000000f0: ebf7 223e 6635 0abe 60b1 663e 2ff0 8b3e
00000100: 9d7e 6f3d 421b 8d3d c30b 99bd 3796 db3d
00000110: 2f1d 2f3e 3912 0c3e 0a8e a03b 80df 00be
00000120: 1ce7 d8bd 0878 0e3e 911c 2b3d 9d4f b2bd
00000130: 1e10 bebd 03fe 2b3e 55fe 41be e8af 9b3e
00000140: 66c5 24bf ffde e6be 5574 913e b8a1 463e
00000150: db74 f13e fad2 d8be bbf5 1f3f 21d9 063f
00000160: e2a3 26bf bd66 523e 0d2f 19bf 5eb7 223f
00000170: 9582 733e 2056 efbe eac0 c9be 239f 2f3f
00000180: dd6b 103f 64e6 2fbf 2772 983e 4e6b 34bd
00000190: 891a 1fbd 1661 1e3e 2225 43bc c114 a4bd
000001a0: dcff 193e a9d9 6a3e b0d6 30be 018c 75be
000001b0: d8bc 08be 53b2 88bb 0283 943d 928d 78be
000001c0: 4d8a dc3d f0bb debd 69da a9be 9d30 2a3e
000001d0: fad9 24be c34a ef3d 22b2 b83c 353a da3d
000001e0: c536 1a3e 10ea 9bbe 6a36 6d3e 6608 463d
000001f0: f809 36be c732 98bc 73d2 5bbe 98b1 cb3d
00000200: c5bf 243d e61a 6fbe 3465 d43d 09b3 0bbe
00000210: ac23 c3bd a3b3 11bd 7b44 813e acca 1b3c
00000220: 773e 783d e5c5 30be 2710 58bc 7539 193d
00000230: a177 81bd f68c 4a3e c662 acbd e9ca 6dbe
00000240: 3d3e 273e 77b9 bebc c1d7 a73d 54cb 2abe
00000250: 4534 ae3d 7f1a 51be 57a9 1c3d 36ea fcbd
00000260: afec d2be f599 92bd 8462 1ebc 6a35 aebd
00000270: beea cc3c 4f75 23bd 04f8 fbbd 3e4d 0c3e
00000280: 2ead 303e e7d5 a43d e65d 1cbe 068e 303e
00000290: a460 843a aa37 6cbe bcf8 3abe 7083 28be
000002a0: 7280 dfbd 49c8 88bd ec50 2bbe ab78 d8bd
000002b0: b7a9 1a3e 2d4f 423d a603 993d 47d1 b6bb
000002c0: 693c 7b3e 31e6 ce3c 6dc3 783e 46cc c0bd
000002d0: 89ad c4bc e427 bebd b271 0c3c f747 353e
000002e0: 00c5 0dbe 8d1b ab3d 109f 79be c1fa 61be
000002f0: f960 783e dc5f b2bd 03e4 89bd 9e96 de3d
00000300: 7a94 1fbe 459a 733e 8f53 a3bd 049b 4ebd
00000310: 4085 283d d77a 303e d56a afbd f105 a7bd
00000320: ada3 a1be 4880 d23e 14a1 08be 31b0 9f3e
00000330: 2938 e13e 594d 93be eb58 d23d 1390 123f
00000340: 22c9 923d 2bb5 0c3e cd59 8dbd 48a4 d73e
00000350: b963 6b3e d63d eabe 79eb 3f3a dc1b b93e
00000360: 974f 9b3e a346 b8be 1fb6 933e 24fb 37be
00000370: eb19 94be 11a5 5ebe da26 28be dd5e e1bd
00000380: 79e1 4abe b09e 1c3e 871a 9b3e 0cf3 2b3d
00000390: 7050 e5bd 8df7 16be e58d a93d 795d 453e
000003a0: cd41 853e bbe6 813d bb2f 7bbe 9276 25bd
000003b0: 6967 043e 0449 cdbd c1fa c73d 2779 b2bd
000003c0: b344 57be 7c4f 973d 5db3 51bd 1073 03bd
000003d0: f91a b53d dbce 47be 46e0 073e f3b6 c5bd
000003e0: 1e45 5f3a d1ec e23e d5a3 fbbd 71e4 df3d
000003f0: f066 3c3d f3e6 2f3e 3f5d c93e 26c1 3f3e

w0.bias f4 [20]
-0.1144756 -0.046349894 -0.04300752 -0.37155262 0.0038564233 0.19007319 0.2950566 -0.5632527
0.20052403 -0.047797535 0.004700304 -0.6405932 -0.29059342 -0.06001725 -0.0073338477 -0.66340184
-0.44894975 -0.10615716 -0.6412839 -0.317352
00000000: 2f72 eabd 63d9 3dbd a728 30bd 253c bebe
00000010: 0cbc 7c3b 8ca2 423e a911 973e 5431 10bf
00000020: 2c56 4d3e 59c7 43bd 0205 9a3b eafd 23bf
00000030: a9c8 94be a6d4 75bd c650 f0bb b4d4 29bf
00000040: bedc e5be ed68 d9bd 2f2b 24bf f67b a2be

w1.weight f4 [20, 20, 1]
0.024158511 -0.014829318 0.011623102 0.06916909 0.05086045 -0.08817914 0.06290959 -0.017762631
0.026152516 0.017937848 0.052627567 -0.31497553 0.022838628 0.014692871 0.029032383 0.054050274
-0.051188048 -0.012379351 -0.0015463446 0.017798275 -0.06346508 -0.05508956 -0.09520431 -0.035029117
-0.32335153 -0.10771837 0.029831456 -0.35671675 0.07046 0.021028323 -0.011183227 0.033164013
0.016966306 0.23514149 0.19010629 0.46773085 -0.057207465 -0.074765176 0.063517384 0.11936843
0.12972355 0.026999895 0.1590112 -0.097340055 -0.5907783 -0.13004568 0.019140534 -0.0026333553
-0.03961779 -0.20924535 -0.17416957 0.15818408 0.0004432902 0.097695164 0.10376887 0.12748612
-0.07906431 0.07145712 0.19343948 -0.18167524 -0.035593387 0.1394629 0.11056892 -0.2785663
0.25978595 0.097227275 0.08123035 0.0814215 -0.19938467 -0.19479749 -0.011578162 -0.009865979
0.15111719 0.09853256 0.04053758 -0.07679634 0.32253984 -0.018883703 -0.107241414 -0.027041985
0.250634 -0.0009939121 -0.020436333 -0.07713427 -0.20995769 0.1549139 0.19813107 -0.066637926
-0.18339345 0.108184986 -0.27891433 0.3193095 0.12189302 -0.18554895 0.07212144 0.25111726
-0.25631595 -0.044171322 -0.06288145 0.17642404 -0.14067386 0.07162016 -0.085067175 -0.20023185
-0.5246032 0.16636467 -0.020534698 0.17550406 0.20232916 -0.09761547 0.12279118 -0.11583835
0.18108892 0.014567374 0.07516849 0.3101678 0.23385996 -0.14951172 -0.015164119 -0.105527975
-0.037375256 -0.08249705 -0.22085312 -0.022399377 0.46583098 -0.015295242 -0.017927686 -0.63606644
0.03135208 -0.08607042 -0.3075854 -0.040128186 0.19604069 0.05106404 -0.08035786 0.020904502
-0.18128675 -0.078154735 0.051145233 -0.1407844 0.29100433 0.17626579 -0.13420248 0.12918468
-0.34135938 0.076961726 -0.061484627 -0.16670215 -0.07554677 0.0568698 -0.16232193 -0.0064473026
0.047300994 0.20670217 -0.13068941 -0.047959 -0.059499152 0.09787532 -0.05460594 0.17700548
-0.06659484 0.05713061 -0.11845706 -0.021497516 -0.21786971 0.16922466 0.077597514 0.05210937
0.15753624 0.18351689 0.03545163 -0.06328827 0.023274736 0.19667777 0.14486678 -0.026326671
0.31789857 -0.06579536 0.069879726 0.15460156 -0.020732494 0.099636085 -0.15933819 -0.19544183
0.47295377 -0.005952823 -0.047218148 -0.42173535 -0.23086534 -0.079600535 -0.01116635 -0.46191457
0.26315814 0.1849995 -0.009453899 0.015242605 0.15156847 -0.023628818 -0.1911675 0.011069577
0.014998838 -0.13813683 -0.10859566 -0.017241014 0.6363988 -0.09558419 -0.08786776 -0.6060073
-0.03377366 0.09444924 -0.10975109 0.13792524 0.14274381 0.11655827 -0.14707756 -0.19249043
0.18296203 -0.07138893 -0.057301406 0.1719225 -0.15528226 -0.24608578 -0.2509102 -0.047210526
-0.19446293 0.25534332 0.09094379 -0.29927915 -0.047524165 -0.346665 0.7844899 0.0699707
0.19182943 -0.13031283 -0.009627537 0.063767575 -0.11970297 -0.1921149 0.09563852 0.051259745
-0.0295475 -0.13608173 -0.03707691 0.045993343 0.3171776 -0.19017333 -0.11451507 -0.11708671
-0.15572318 -0.0044384645 -0.084009945 0.03727716 0.19187036 0.025080059 0.042089723 0.048046973
00000000: 12e8 c53c abf6 72bc d36e 3e3c 86a8 8d3d
00000010: 0c53 503d 4497 b4bd bed6 803d f082 91bc
00000020: cd3d d63c 65f2 923c 0190 573d 7944 a1be
00000030: 1318 bb3c 5eba 703c 52d5 ed3c d263 5d3d
00000040: 8faa 51bd c3d2 4abc b7ae caba b0cd 913c
00000050: fbf9 81bd 97a5 61bd 7afa c2bd b17a 0fbd
00000060: 558e a5be 739b dcbd 1961 f43c 94a3 b6be
00000070: 554d 903d 9743 ac3c db39 37bc fdd6 073d
00000080: ecfc 8a3c eec8 703e 39ab 423e 6b7a ef3e
00000090: 6052 6abd 7c1e 99bd 6715 823d 6f77 f43d
000000a0: 40d6 043e e22e dd3c d5d3 223e 395a c7bd
000000b0: 3f3d 17bf b22a 05be 9ccc 9c3c 5f94 2cbb
000000c0: 4446 22bd 6a44 56be 8259 32be 02fb 213e
000000d0: 6769 e839 6714 c83d c684 d43d b98b 023e
000000e0: 78ec a1bd 1c58 923d 0015 463e 1309 3abe
000000f0: 5fca 11bd 5dcf 0e3e f571 e23d 3ea0 8ebe
00000100: aa02 853e 181f c73d 195c a63d 51c0 a63d
00000110: 7f2b 4cbe fe78 47be 55b2 3dbc eaa4 21bc
00000120: 77be 1a3e 70cb c93d bc0a 263d 6647 9dbd
00000130: f123 a53e ffb1 9abc 63a1 dbbd 2787 ddbc
00000140: 1a53 803e 2846 82ba 196a a7bc 92f8 9dbd
00000150: 26ff 56be c0a1 1e3e dfe2 4a3e 7779 88bd
00000160: 7ecb 3bbe 1790 dd3d dccd 8ebe 897c a33e
00000170: 0ca3 f93d 8b00 3ebe 68b4 933d 7192 803e
00000180: d83b 83be fdec 34bd fdc7 80bd 81a8 343e
00000190: cf0c 10be 97ad 923d b337 aebd 9409 4dbe
000001a0: 654c 06bf 805b 2a3e 6238 a8bc 56b7 333e
000001b0: 602f 4f3e 9fea c7bd f179 fb3d a83c edbd
000001c0: 606f 393e ffab 6e3c f0f1 993d 50ce 9e3e
000001d0: fc78 6f3e 9a19 19be ed72 78bc 0d1f d8bd
000001e0: cc16 19bd 37f4 a8bd 5227 62be e67e b7bc
000001f0: 6681 ee3e e598 7abc 15dd 92bc 40d5 22bf
00000200: 0a6b 003d b045 b0bd d57b 9dbe 745d 24bd
00000210: e4be 483e 8728 513d a992 a4bd eb3f ab3c
00000220: 3ca3 39be 970f a0bd aa7d 513d c929 10be
00000230: 85fe 943e 057f 343e 606c 09be fd48 043e
00000240: a8c6 aebe 1c9e 9d3d 4ed7 7bbd f8b3 2abe
00000250: 44b8 9abd 4ff0 683d b837 26be e543 d3bb
00000260: b0be 413d bca9 533e 72d3 05be a870 44bd
00000270: 62b5 73bd db72 c83d 7aaa 5fbd ed40 353e
00000280: e062 88bd c901 6a3d 9d99 f2bd 8f1b b0bc
00000290: 3d19 5fbe 3b49 2d3e 72eb 9e3d a270 553d
000002a0: 2e51 213e daeb 3b3e ba35 113d 489d 81bd
000002b0: a9aa be3c e665 493e f557 143e 08ab d7bc
000002c0: 9ac3 a23e b8bf 86bd 1a1d 8f3d df4f 1e3e
000002d0: 31d7 a9bc 010e cc3d 8d29 23be e721 48be
000002e0: ff26 f23e e60f c3bb d167 41bd b2ed d7be
000002f0: f767 6cbe 9b05 a3bd 11f3 36bc 1180 ecbe
00000300: aabc 863e 8270 3d3e 87e4 1abc 1ebc 793c
00000310: c434 1b3e 3991 c1bc 6ac1 43be 2c5d 353c
00000320: b0bd 753c be73 0dbe 6767 debd 073d 8dbc
00000330: 08eb 223f a5c1 c3bd 03f4 b3bd 4b23 1bbf
00000340: 4056 0abd 9a6e c13d 2ec5 e0bd 463c 0d3e
00000350: 6f2b 123e 1ab6 ee3d 809b 16be 361c 45be
00000360: 665a 3b3e 5c34 92bd e1b4 6abd 740c 303e
00000370: 5002 1fbe e9fd 7bbe 4d77 80be d35f 41bd
00000380: 4a21 47be 5cbc 823e bd40 ba3d 1e3b 99be
00000390: b3a8 42bd 137e b1be 55d4 483f cc4c 8f3d
000003a0: ef6e 443e ba70 05be d1bc 1dbc 9398 823d
000003b0: d526 f5bd c5b9 44be 21de c33d bdf5 513d
000003c0: 990d f2bc 0259 0bbe f5dd 17bd 8463 3c3d
000003d0: 1a65 a23e ccbc 42be e186 eabd 28cb efbd
000003e0: e675 1fbe 8a70 91bb 680d acbd efaf 183d
000003f0: aa79 443e b274 cd3c 4666 2c3d e7cc 443d

w1.bias f4 [20]
-0.5164903 -0.13415185 0.10827505 0.12175534 0.08354358 0.2034612 -0.07993514 -0.16360731
-0.024485411 0.09631301 -0.13004108 0.050862107 -1.2914969 -0.20738326 -0.2209539 -0.14776118
0.061139643 0.08234675 -0.59770185 -0.6317861
00000000: b538 04bf 1a5f 09be 4fbf dd3d dd5a f93d
00000010: e518 ab3d 2258 503e 09b5 a3bd ad88 27be
00000020: a195 c8bc c13f c53d 7d29 05be c954 503d
00000030: c54f a5bf 475c 54be bd41 62be b54e 17be
00000040: 906d 7a3d 6aa5 a83d fd02 19bf bcbc 21bf

w2.weight f4 [20, 20, 1]
0.09368568 0.17746012 -0.114416376 0.14352393 0.04315353 0.17281845 -0.004197408 0.18436544
0.066210195 -0.11092756 0.07811298 -0.07083907 0.01789142 0.24720098 0.2217639 -0.21419063
0.19391157 -0.0746926 -0.09764112 -0.40769792 0.14771831 -0.11684756 -0.03400876 -0.007436789
-0.10877232 -0.111004986 0.06779204 -0.010340105 0.017244216 0.015522986 -0.13494375 -0.0006165271
0.096860394 -0.073988825 -0.009829773 -0.083638445 0.0006783394 -0.021204086 -0.11021891 -0.022805678
-0.17358273 0.17090958 -0.14566079 0.013952291 -0.098963 0.058694743 0.042241514 0.1937583
0.19626111 -0.14105697 -0.04902757 -0.16566212 0.114405535 -0.17958006 0.16567434 0.09132912
-0.043277215 -0.048463047 -0.0011001319 -0.23247398 0.33956307 0.06449764 -0.18327898 0.08011481
0.14776222 -0.06592364 0.048955876 -0.05716112 0.096014544 -0.08139329 0.2278685 -0.13226767
0.20003676 -0.14620881 -0.0712985 0.1725872 0.021714104 0.049982283 -0.054057043 -0.38426447
0.24340276 0.17724174 0.10023665 -0.11369523 -0.16799663 0.013438796 -0.24920353 0.1427101
0.18537194 0.2554016 -0.017853847 -0.007966783 0.039921623 0.24155493 0.22195384 0.24563299
0.021979075 -0.1864527 0.12629612 -0.40113905 -0.31022358 -0.11682145 -0.019259408 -0.07479945
-0.250752 -0.20068246 0.079912506 -0.17293505 -0.121837385 -0.09693672 0.043151014 0.07028469
0.2591816 0.09749593 -0.33502734 0.16962583 -0.05694817 -0.005757636 0.024820978 -0.07918057
-0.4730136 0.0123386085 0.051167127 0.09666071 -0.13561657 0.021361858 -0.16412991 -0.11452411
-0.17410317 0.012970579 0.017522682 -0.21084762 0.41246787 0.03752206 0.0606574 -0.19924682
0.1144733 0.24345389 -0.22066309 0.22628888 0.26170915 -0.013945378 0.11601998 0.021404166
0.123581365 0.043657523 -0.15481995 0.009242331 0.037596185 -0.0030958236 0.018915046 -0.18752901
0.27467808 0.077167705 0.067998715 0.1117175 0.12187636 0.15680677 0.07678762 -0.631505
0.12296053 -0.18834586 -0.105881095 0.1051798 -0.10249957 -0.1333244 -0.19861522 -0.10309843
0.07503741 -0.094778806 0.036592375 0.42229566 0.0037209436 0.17607842 0.030492287 -0.06332235
-0.023236943 -0.09153258 0.22466923 0.14494827 0.14390115 -0.044199724 0.05937414 -0.11092404
0.21236107 0.007600407 -0.15505974 0.039399773 -0.23592253 0.05404898 -0.24458681 0.3754084
0.013749277 -0.041078452 0.20147072 0.019972939 0.24825735 0.13498 0.04655241 0.07648734
-0.13092516 0.055858884 0.019666994 -0.101790525 -0.22758982 0.18040869 -0.12609787 -0.01653637
0.001276097 -0.06836571 -0.107833885 0.05361677 -0.12640071 0.21869642 0.101906374 0.09229294
0.015032366 -0.052041624 -0.13115364 -0.20115657 0.041251186 0.11993968 -0.02334832 -0.097781256
-0.14382459 0.060221396 -0.01142745 -0.23309901 0.20101005 0.04569651 0.01667859 -0.06640711
0.31059444 -0.014189056 0.09808092 0.0859903 0.09410285 0.10984967 0.15814325 -0.12943433
0.58954376 0.018675126 -0.026825748 0.05238751 -0.11315584 -0.05583167 -0.7714549 0.017339032
-0.08702513 -0.032516394 -0.07456245 -0.11140514 0.8669642 0.19608237 0.07089774 -0.07314317
00000000: 47de bf3d 1bb8 353e 2253 eabd f0f7 123e
00000010: c2c1 303d 52f7 303e 698a 89bb 4bca 3c3e
00000020: 3699 873d fd2d e3bd b3f9 9f3d 1314 91bd
00000030: 0791 923c 4122 7d3e 1316 633e ca54 5bbe
00000040: c190 463e 6ff8 98bd 11f8 c7bd c8bd d0be
00000050: 7843 173e c64d efbd c54c 0bbd 4fb0 f3bb
00000060: 06c4 debd 9556 e3bd 8ed6 8a3d 8b69 29bc
00000070: be43 8d3c 1f54 7e3c b22e 0abe 6f9e 21ba
00000080: be5e c63d 7487 97bd 0e0d 21bc a24a abbd
00000090: 96d2 313a 31b4 adbc 74ba e1bd f9d2 babc
000000a0: acbf 31be ec02 2f3e 1a28 15be 2698 643c
000000b0: 1dad cabd e669 703d 7005 2d3d 9368 463e
000000c0: acf8 483e 3d71 10be 22d1 48bd 55a3 29be
000000d0: 734d ea3d d6e3 37be 89a6 293e c30a bb3d
000000e0: 7343 31bd 3081 46bd 4d32 90ba a90d 6ebe
000000f0: 36db ad3e 5717 843d 7cad 3bbe 3c13 a43d
00000100: fb4e 173e f902 87bd f585 483d c721 6abd
00000110: 46a3 c43d 86b1 a6bd 5c56 693e 2d71 07be
00000120: 70d6 4c3e c3b7 15be f304 92bd b3ba 303e
00000130: c7e1 b13c 39ba 4c3d eb6a 5dbd 50be c4be
00000140: 933e 793e dc7e 353e df48 cd3d 0bd9 e8bd
00000150: 4f07 2cbe 652e 5c3c 362f 7fbe 9922 123e
00000160: 24d2 3d3e 00c4 823e 3b42 92bc 1c87 02bc
00000170: db84 233d 2d5a 773e de47 633e 3787 7b3e
00000180: 760d b43c 75ed 3ebe c553 013e 1962 cdbe
00000190: a0d5 9ebe 1640 efbd e8c5 9dbc 7430 99bd
000001a0: 9162 80be b47f 4dbe 2ba9 a33d e315 31be
000001b0: e185 f9bd c286 c6bd 1ebf 303d 6bf1 8f3d
000001c0: 73b3 843e f2ab c73d b488 abbe 65b2 2d3e
000001d0: 7c42 69bd 8daa bcbb 5d55 cb3c 6c29 a2bd
000001e0: d72e f2be e027 4a3c 9f94 513d 0df6 c53d
000001f0: 12df 0abe 10ff ae3c ac11 28be 9e8b eabd
00000200: 1a48 32be 8d82 543c ba8b 8f3c 70e8 57be
00000210: fd2e d33e bbb0 193d e573 783d 5c07 4cbe
00000220: fa70 ea3d fa4b 793e 81f5 61be 46b8 673e
00000230: befe 853e 287b 64bc e29b ed3d ca57 af3c
00000240: 3a18 fd3d 3bd2 323d 1f89 1ebe 256d 173c
00000250: 75fe 193d 4de3 4abb baf3 9a3c 9b07 40be
00000260: 9ba2 8c3e 1a0a 9e3d e942 8b3d 25cc e43d
00000270: 509a f93d f491 203e d442 9d3d 50aa 21bf
00000280: bbd2 fb3d bddd 40be 30d8 d8bd 8268 d73d
00000290: 4beb d1bd 3186 08be ca61 4bbe 4525 d3bd
000002a0: 37ad 993d 641b c2bd e3e1 153d 2337 d83e
000002b0: 13db 733b e74d 343e f6ca f93c 26af 81bd
000002c0: 675b bebc 6f75 bbbd b10f 663e 526d 143e
000002d0: d35a 133e c50a 35bd 4c32 733d 252c e3bd
000002e0: 2e75 593e d60c f93b fbc7 1ebe a861 213d
000002f0: ad95 71be 7762 5d3d f774 7abe 8835 c03e
00000300: a644 613c e141 28bd 574e 4e3e 4a9e a33c
00000310: 2d37 7e3e 3238 0a3e bdad 3e3d 65a5 9c3d
00000320: 3f11 06be 49cc 643d ad1c a13c 8d77 d0bd
00000330: 4e0d 69be 0ebd 383e cd1f 01be 4877 87bc
00000340: b642 a73a 5203 8cbd 03d8 dcbd 429d 5b3d
00000350: 306f 01be f4f1 5f3e 4ab4 d03d 1504 bd3d
00000360: 504a 763c 9929 55bd 244d 06be fdfb 4dbe
00000370: 01f7 283d efa2 f53d fa44 bfbc 8a41 c8bd
00000380: c146 13be b6aa 763d 333a 3bbc 82b1 6ebe
00000390: 94d5 4d3e 432c 3b3d 8aa1 883c 7300 88bd
000003a0: 3c06 9f3e 3779 68bc a6de c83d af1b b03d
000003b0: ffb8 c03d ddf8 e03d 4ef0 213e 6f8a 04be
000003c0: 57ec 163f 94fc 983c acc1 dbbc 4994 563d
000003d0: 40be e7bd c0af 64bd 117e 45bf 960a 8e3c
000003e0: 3b3a b2bd e92f 05bd 33b4 98bd 6128 e4bd
000003f0: 5ef1 5d3f d1c9 483e d632 913d 16cc 95bd

w2.bias f4 [20]
-4.326125e-05 -0.12938632 -0.17256483 -0.11247283 -0.2605169 -0.32925162 -0.068842985 0.10697048
-0.9686659 0.17399308 0.15082349 0.41802534 -0.54705244 -0.9198437 -0.022097174 0.11807571
-0.75017756 0.16225466 0.0074313716 -0.40199178
00000000: 6a73 35b8 d97d 04be d6b4 30be 2858 e6bd
00000010: 7962 85be ab93 a8be 8dfd 8cbd 5713 db3d
00000020: 7dfa 77bf 3e2b 323e 7971 1a3e 6b07 d63e
00000030: a10b 0cbf e07a 6bbf 2205 b5bc aed1 f13d
00000040: a30b 40bf 1626 263e dd82 f33b ded1 cdbe

w3.weight f4 [20, 20, 1]
-0.074996814 0.12004786 -0.13124487 0.17576402 -0.1662278 -0.120149836 0.22414884 0.13315187
0.02219461 -0.08348502 -0.010360264 -0.03134042 -0.13994657 -0.3122565 0.11149776 0.0691602
-0.23988186 0.021052837 0.21473095 -0.36113796 -0.04651522 -1.6124507 0.09182062 0.17221329
0.04777539 0.039653316 -0.03958286 -0.06208195 0.110316016 -0.29190338 0.01167723 0.008078637
-0.0049545076 -0.116797976 -0.11628338 -0.14970599 0.09706381 -0.09850578 0.1552842 -0.42151284
0.065676555 -1.4119265 -0.033293147 0.08744037 -0.01958357 -0.39284036 -0.21177281 0.0738855
0.04805815 -0.14668125 0.08941586 -0.054706812 0.018367065 0.012633123 -0.22230013 -0.021443797
0.103990786 -0.06035927 0.005793822 -0.3439761 0.07917225 0.9960759 -0.10443012 -0.06734294
-0.20827079 0.0640068 -0.14579017 -0.1949706 0.14428245 -0.14383304 0.13050656 -0.018689968
0.023611827 0.1068028 -0.22814862 -0.14486367 0.0046111783 -0.12174162 -0.17009948 0.44153962
-0.22403435 1.0524962 -0.2116106 -0.11320602 -0.19117936 0.059379566 -0.041147966 -0.086789295
0.036955934 -0.16744976 0.14021032 0.15933011 0.06538886 0.094165206 -0.08946325 -0.013501962
-0.019037127 0.08667874 0.061154127 -0.05345495 0.030375851 1.4994781 0.17947984 -0.14567213
-0.2505254 0.0050975387 -0.042338494 -0.23540612 0.2626007 0.16201957 -0.22939493 0.1368747
-0.019606307 -0.12776664 -0.124302626 0.16999759 0.12885126 -0.034499012 0.1356171 0.1543293
-0.18227445 2.450095 -0.14921165 0.18784901 -0.13408835 -0.10055181 0.18141213 -0.24751082
0.12445699 0.1902005 -0.1792249 -0.11660809 -0.009810628 0.12500347 -0.033026364 0.09842742
0.14602004 -0.093684845 0.0718526 0.28254783 -0.13506699 -1.1657091 -0.023833169 -0.013372302
0.19168709 -0.26992086 0.014935805 0.07501739 -0.002325861 -0.04617361 0.06736691 -0.042211395
0.047639936 0.20771785 -0.034281448 0.13220398 -0.038395762 -0.0064021093 -0.0686369 0.15675724
0.07768399 -1.6905442 0.0035270553 0.13744469 0.24383871 -0.4062488 0.09173111 -0.04871182
0.054575324 -0.06834018 0.041392546 -0.0934265 0.02210898 0.08148039 -0.21263914 0.166235
0.07452809 0.0570705 0.21912374 -0.22517239 0.10564257 0.99108183 -0.08520753 0.0025244518
-0.19522877 -0.06781636 0.0127864955 0.07819816 -0.16468829 -0.10478722 0.09330797 0.064774945
0.10087541 0.17949376 0.08339711 0.13223466 -0.26005608 0.124220505 -0.24984756 -0.32525417
-0.025374928 -0.6506298 -0.06942478 0.16770072 -0.13424608 -0.6797648 0.22884732 0.024147369
-0.10498659 0.08898455 0.033303145 0.03324216 -0.15566552 0.043735676 0.0135621345 -0.13870184
-0.17922756 0.034115214 0.24368067 -0.48000866 0.18103296 -1.7195561 -0.24384682 -0.054784782
0.10499933 0.033649206 0.08549641 0.22621521 0.07919764 0.14506325 -0.03737215 -0.13173127
-0.014386434 -0.018575167 0.14101858 0.1310049 0.19103962 0.19624639 0.021684099 0.080211274
-0.24151625 -0.1390154 0.13633911 0.01036319 0.18158266 -0.15431277 0.03477016 -0.050539088
0.0928164 -0.18271647 -0.08635583 0.07988697 -0.06304888 -0.023744492 0.2218437 -0.06293118
00000000: ee97 99bd a7db f53d 0e65 06be 7cfb 333e
00000010: 9f37 2abe 1e11 f6bd 4687 653e f758 083e
00000020: 79d1 b53c 32fa aabd 19be 29bc d05e 00bd
00000030: 274e 0fbe 15e0 9fbe f058 e43d dda3 8d3d
00000040: 97a3 75be 0077 ac3c 6ee2 5b3e 13e7 b8be
00000050: be86 3ebd c964 cebf 730c bc3d ae58 303e
00000060: 21b0 433d 846b 223d a321 22bd a549 7ebd
00000070: 5ded e13d 5c74 95be da51 3f3c 425c 043c
00000080: 6c59 a2bb c733 efbd fb25 eebd 874c 19be
00000090: 64c9 c63d 66bd c9bd d202 1f3e 88d0 d7be
000000a0: 6e81 863d 02ba b4bf 655e 08bd f013 b33d
000000b0: b96d a0bc 5f22 c9be f9da 58be 4851 973d
000000c0: 9fd8 443d 9c33 16be aa1f b73d 4014 60bd
000000d0: 8776 963c 29fb 4e3c a5a2 63be e7aa afbc
000000e0: 1ff9 d43d 483b 77bd 1ada bd3b a31d b0be
000000f0: 1025 a23d d5fe 7e3f 75df d5bd 18eb 89bd
00000100: f044 55be ff15 833d 054a 15be 5fa6 47be
00000110: c7be 133e f848 13be 83a3 053e b41b 99bc
00000120: 976d c13c 6dbb da3d cb9f 69be 2457 14be
00000130: 5e19 973b ac53 f9bd 8f2e 2ebe 7b11 e23e
00000140: 4369 65be 32b8 863f 73b0 58be 8fd8 e7bd
00000150: 86c4 43be fd37 733d c58a 28bd 96be b1bd
00000160: 1b5f 173d f377 2bbe 4b93 0f3e 6f27 233e
00000170: 98ea 853d b0d9 c03d 8238 b7bd 5537 5dbc
00000180: c0f3 9bbc a084 b13d c07c 7a3d 94f3 5abd
00000190: c7d6 f83c e6ee bf3f 90c9 373e 132b 15be
000001a0: dd44 80be 4109 a73b 216b 2dbd 4d0e 71be
000001b0: 9973 863e 75e8 253e 81e6 6abe e228 0c3e
000001c0: 689d a0bc 42d5 02be 6092 febd d913 2e3e
000001d0: 96f1 033e d64e 0dbd 36df 0a3e 8008 1e3e
000001e0: 27a6 3abe 5bce 1c40 f0ca 18be 7e5b 403e
000001f0: 754e 09be 1bee cdbd 1ac4 393e 7a73 7dbe
00000200: 4ee3 fe3d ebc3 423e bb86 37be 39d0 eebd
00000210: c2bc 20bc e900 003e a746 07bd 5194 c93d
00000220: 4786 153e d7dd bfbd 7527 933d 1caa 903e
00000230: 004f 0abe f535 95bf c73d c3bc 8017 5bbc
00000240: 9f49 443e 1133 8abe 4fb5 743c b8a2 993d
00000250: 796d 18bb 8a20 3dbd aaf7 893d dbe5 2cbd
00000260: 1822 433d fdb3 543e b46a 0cbd 7b60 073e
00000270: e044 1dbd c9c8 d1bb 8191 8cbd f884 203e
00000280: c918 9f3d c163 d8bf 2b26 673b 4dbe 0c3e
00000290: dbb0 793e d8ff cfbe 85dd bb3d 0c86 47bd
000002a0: 608a 5f3d f0f5 8bbd 3b8b 293d 6556 bfbd
000002b0: e41d b53c 31df a63d 13be 59be 8239 2a3e
000002c0: 2fa2 983d c2c2 693d f961 603e 9793 66be
000002d0: 225b d83d 8ab7 7d3f 4981 aebd 4671 253b
000002e0: 0dea 47be 4ee3 8abd 737e 513c 5b26 a03d
000002f0: 0ca4 28be af9a d6bd 4018 bf3d baa8 843d
00000300: c497 ce3d 36cd 373e 1bcc aa3d 8668 073e
00000310: 1226 85be 5267 fe3d 0ad8 7fbe b787 a6be
00000320: 15df cfbc ad8f 26bf 942e 8ebd bdb9 2b3e
00000330: ce77 09be 1105 2ebf f456 6a3e b4d0 c53c
00000340: 3603 d7bd 883d b63d e168 083d ee28 083d
00000350: c866 1fbe 2e24 333d b733 5e3c db07 0ebe
00000360: 6e87 37be 65bc 0b3d 6d87 793e b2c3 f5be
00000370: b460 393e 6a1a dcbf fbb2 79be 0266 60bd
00000380: e409 d73d c0d3 093d be18 af3d f6a4 673e
00000390: 5f32 a23d 768b 143e 8a13 19bd 90e4 06be
000003a0: 14b5 6bbc f32a 98bc 2d67 103e 2626 063e
000003b0: e49f 433e d0f4 483e daa2 b13c cf45 a43d
000003c0: 0950 77be 0e5a 0ebe 7b9c 0b3e 5fca 293c
000003d0: cef0 393e 2b04 1ebe 286b 0e3d 1302 4fbd
000003e0: 8616 be3d 071a 3bbe 53db b0bd c89b a33d
000003f0: c51f 81bd cf83 c2bc ff2a 633e 10e2 80bd

w3.bias f4 [20]
-0.17272301 -0.10814431 0.12265099 0.19084464 -0.19574803 0.22567134 -0.2338691 -0.22072843
0.21796326 0.5302363 -0.23435214 0.07459955 -0.091192044 -0.0476856 -0.14233392 -0.075217195
1.0754624e-06 0.21968104 0.19509305 0.23596077
00000000: 4dde 30be c47a ddbd 7130 fb3d c76c 433e
00000010: 2c72 48be 6316 673e 627b 6fbe a206 62be
00000020: c331 5f3e 91bd 073f 02fa 6fbe a6c7 983d
00000030: e5c2 babd fa51 43bd fcbf 11be 790b 9abd
00000040: 9b58 9035 11f4 603e 79c6 473e b39f 713e

fc1.weight f4 [128, 20]
0.23985554 0.19013666 -0.18457161 -0.24732563 0.055545982 -0.021841876 -0.03964305 -0.122228816
0.027314268 0.027440831 0.0014014047 0.031064285 -0.110021755 -0.13696073 0.22651161 -0.22353086
-0.03120124 -0.24219573 0.07451091 -0.10701991 -0.13636811 0.2620119 0.20412469 0.07331075
-0.053480383 0.030501915 -0.08657912 0.23539439 0.011357551 -0.08105383 -0.20718817 0.14938414
-0.11626571 0.15064082 0.02770957 0.09959685 0.073838 0.048049655 -0.058303416 0.009776641
0.190764 -0.057718728 0.14147416 -0.08599127 -0.09876214 -0.044132154 0.055015985 0.12212228
0.03359296 -0.0276157 -0.03535761 -0.08760981 0.115225405 -0.06884154 0.19766887 -0.231039
0.15906872 -0.10694057 -0.055957872 -0.15662593 -0.06762924 -0.21754426 0.09504729 0.19043863
-0.07535768 -0.038246475 0.031623777 0.007578743 0.24540427 -0.057919495 0.015957335 0.038133945
-0.061575133 -0.07524419 0.099717446 -0.09938272 0.12382336 -0.22793305 0.17149344 -0.12637135
0.13279626 -0.17986242 0.101820864 -0.25696734 -0.0026939276 -0.10277841 -0.22806075 0.22003473
0.1714987 -0.14665948 -0.041074272 0.15938082 -0.18402106 0.08330124 -0.018295089 0.10744644
0.19143611 -0.2570969 -0.06501651 -0.07303818 0.0015273328 0.016261429 0.05188274 0.0047994736
-0.08647588 -0.10756977 -0.03387113 0.1043847 0.033897366 -0.020691182 0.09193635 -0.043764353
0.23425099 0.17845367 -0.14384018 -0.008167287 0.124547854 0.0073367977 0.03941115 0.16347343
-0.121473595 0.18317248 0.18683848 0.10962212 0.14631122 -0.11168881 -0.0015886257 0.052494325
-0.1428388 -0.04668534 -0.47964823 0.10875519 -0.19251192 0.13764262 0.027960382 0.0072984686
-0.0074407463 -0.14661865 -0.15556246 -0.16931121 -0.14088927 0.060502023 0.16570964 -0.21808341
-0.22033063 -0.13554591 -0.1181052 0.15590714 0.10356807 -0.07237362 0.18111871 0.15962054
-0.035553593 -0.06682523 0.039689887 0.00024413633 -0.096361905 -0.26751786 -0.116496556 -0.16879632
0.084384605 0.030869344 -0.26552823 -0.090513326 0.100977525 -0.10645106 0.06510761 0.20636255
-0.08231417 0.15681599 0.024251152 -0.18442442 -0.017258355 -0.032872442 -0.13080226 -0.0389884
0.09103996 0.024525907 -0.022645073 -0.06889124 0.11576226 -0.033582546 -0.11056312 -0.15606347
-0.1778672 -0.21293841 -0.058720343 0.045041017 0.0738997 -0.00040047066 -0.1648239 0.16885377
-0.10853388 -0.19841069 0.24226187 0.061267078 0.014554761 0.044920325 -0.15576208 0.13456915
-0.022666486 0.16550773 0.13588129 -0.0796903 0.10444609 -0.0007551164 0.09017993 0.074218474
-0.13598366 -0.11486008 0.13940974 0.10319392 0.043405928 0.17985764 0.1186731 -0.16325708
0.18106389 0.0396306 -0.017192394 0.002481433 -0.22843346 0.38856906 -0.11416087 -0.15705384
-0.15704265 0.21219224 0.26248866 -0.30252188 0.05472189 -0.0064512785 -0.4340215 0.1003492
0.019861631 -0.12857467 -0.19704698 0.34856853 -0.068407536 -0.06087896 0.04856976 0.06282531
-0.08457103 -0.14202768 0.122449055 0.03995956 -0.12223687 -0.0032311492 -0.008409227 -0.045738526
0.03092358 0.024618445 0.27734268 -0.1291457 0.061182912 0.08998132 -0.22784932 -0.21514398
00000000: b19c 753e 2fb3 423e 5700 3dbe ee42 7dbe
00000010: 2f84 633d bced b2bc c060 22bd 1a53 fabd
00000020: 2cc2 df3c 98cb e03c 57af b73a 877a fe3c
00000030: 1653 e1bd 6f3f 0cbe a9f2 673e 46e5 64be
00000040: be99 ffbc 2802 78be 2d99 983d 412d dbbd
00000050: 15a4 0bbe 6c26 863e 1006 513e f223 963d
00000060: 3f0e 5bbd 27df f93c 6550 b1bd 3a0b 713e
00000070: 0615 3a3c 8dff a5bd 2329 54be 28f8 183e
00000080: b71c eebd 9641 1a3e 2eff e23c 6ff9 cb3d
00000090: 6138 973d b7cf 443d 90cf 6ebd 342e 203c
000000a0: a357 433e 796a 6cbd 9ade 103e 311c b0bd
000000b0: ce43 cabd ebc3 34bd 7158 613d 3f1b fa3d
000000c0: c698 093d 523a e2bc 24d3 10bd c66c b3bd
000000d0: 4cfb eb3d cbfc 8cbd b569 4a3e 7d95 6cbe
000000e0: e9e2 223e a803 dbbd 1534 65bd 8c62 20be
000000f0: 3381 8abd ecc3 5ebe 27a8 c23d 5802 433e
00000100: 2155 9abd 56a8 1cbd ef87 013d 1b57 f83b
00000110: 424b 7b3e fe3c 6dbd f5b8 823c 5732 1c3d
00000120: 3536 7cbd a019 9abd a938 cc3d 2b89 cbbd
00000130: 1a97 fd3d 4867 69be fa9b 2f3e 7e67 01be
00000140: befb 073e db2d 38be 7587 d03d 3991 83be
00000150: 9b8c 30bb 7d7d d2bd c288 69be c950 613e
00000160: 5b9d 2f3e e72d 16be 7f3d 28bd ba34 233e
00000170: 0470 3cbe d799 aa3d 95df 95bc e10c dc3d
00000180: d407 443e 34a2 83be 6027 85bd 0b95 95bd
00000190: c930 c83a b036 853c ff82 543d e744 9d3b
000001a0: 441a b1bd 8a4d dcbd 74bc 0abd a5c7 d53d
000001b0: f7d7 0a3d 8e80 a9bc 2049 bc3d 4042 33bd
000001c0: 7edf 6f3e 8fbc 363e d74a 13be 16d0 05bc
000001d0: f212 ff3d 8569 f03b 966d 213d 9465 273e
000001e0: 26c7 f8bd 9191 3b3e 9652 3f3e 9081 e03d
000001f0: 9cd2 153e 1abd e4bd 6f39 d0ba 4a04 573d
00000200: 5644 12be 2139 3fbd 7494 f5be 0bbb de3d
00000210: d821 45be 30f2 0c3e 2c0d e53c fe27 ef3b
00000220: 81d1 f3bb 3323 16be c44b 1fbe eb5f 2dbe
00000230: 4745 10be f8d0 773d caaf 293e 4251 5fbe
00000240: 5a9e 61be 8ccc 0abe 24e1 f1bd 1fa6 1f3e
00000250: 7f1b d43d 9f38 94bd 2f77 393e 9173 233e
00000260: a5a0 11bd abdb 88bd dd91 223d d9fe 7f39
00000270: 6459 c5bd 1af8 88be bf95 eebd f1d8 2cbe
00000280: d6d1 ac3d b5e1 fc3c 51f3 87be 0d5f b9bd
00000290: 4ecd ce3d 0303 dabd 2357 853d b450 533e
000002a0: 5594 a8bd 5f94 203e 5aaa c63c c1d9 3cbe
000002b0: 6561 8dbc 41a5 06bd 07f1 05be 4db2 1fbd
000002c0: 2973 ba3d 8eea c83c 2982 b9bc da16 8dbd
000002d0: c414 ed3d da8d 09bd eb6e e2bd 1acf 1fbe
000002e0: d222 36be 870c 5abe be84 70bd ee7c 383d
000002f0: ba58 973d 43f6 d1b9 99c7 28be 01e8 2c3e
00000300: 0347 debd 2c2c 4bbe 7f13 783e 30f3 7a3d
00000310: 1877 6e3c 60fe 373d 1880 1fbe 7fcc 093e
00000320: 11af b9bc dc7a 293e 7724 0b3e ab34 a3bd
00000330: d5e7 d53d 01f3 45ba 41b0 b83d dbff 973d
00000340: 4d3f 0bbe c33b ebbd 6dc1 0e3e 5557 d33d
00000350: 6aca 313d 9a2c 383e e20a f33d dd2c 27be
00000360: d068 393e b253 223d 10d7 8cbc 8a9f 223b
00000370: 76ea 69be 86f2 c63e 2dcd e9bd b9d2 20be
00000380: cacf 20be ec48 593e ea64 863e 26e4 9abe
00000390: 0f24 603d 3f65 d3bb 1138 debe e283 cd3d
000003a0: dcb4 a23c 14a9 03be afc6 49be 9377 b23e
000003b0: 4019 8cbd 375c 79bd 16f1 463d 8eaa 803d
000003c0: 9433 adbd b46f 11be 92c6 fa3d a3ac 233d
000003d0: 5357 fabd b0c1 53bb dbc6 09bc 5258 3bbd
000003e0: 7353 fd3c 9fac c93c dcff 8d3e c53e 04be
000003f0: ef9a 7a3d 2048 b83d 5551 69be b44e 5cbe

fc1.bias f4 [128]
-0.06982793 0.8886133 -0.4286334 0.004203107 0.20920664 0.073796175 -0.014244205 0.07496483
-0.9415019 0.03456905 -0.22912376 0.083622806 -0.3355382 -0.29127803 -0.091937535 -0.6980851
-0.17963293 -0.53211254 -0.57634574 -0.22080383 -0.12379956 -0.94251245 -0.13060509 -0.30141017
-0.1348867 -0.408626 0.3487914 0.043673366 0.018560043 -0.80858713 -0.04253101 0.04667385
-0.18536067 -0.22887835 -0.7135732 0.21097213 -0.17403841 0.33572263 -0.6300831 -0.42926612
0.12625267 0.05577968 -0.35044253 0.078989476 -0.20952015 -0.4270402 0.123919934 -0.066595115
-0.8475869 -0.17908652 -0.66898704 -0.23075855 0.13321781 -0.40784588 -0.42455027 -0.16917531
-0.49657956 -0.51365626 -0.0039333915 -0.0066491878 0.6220889 -0.17087826 -0.258686 -0.19102007
0.62110394 -0.05963502 -0.73180026 -1.4734968 -0.97510445 0.15958059 -0.3722575 0.18247446
-0.0660362 -0.11278512 -0.0714008 -0.4020505 -0.6311495 -0.020708945 -0.13265398 -0.32785606
0.09871935 -0.7807851 0.049790405 -0.24536417 -0.08878485 -0.24916926 -0.16727108 -0.48352355
0.13195747 -0.14169288 0.4887879 -0.75327283 -0.7983097 0.34037873 -0.49713168 -0.0024889861
0.030287847 -0.18828805 -0.45427644 -0.109009095 -0.69499326 0.12125125 -0.06011292 -0.9598027
0.20705278 0.104358576 0.35151944 0.14767815 0.06212139 -0.3050679 -0.6683344 -0.023199432
-0.37152636 -1.2215904 0.047766574 -0.013002288 0.19635424 -0.027774096 -0.80759305 -0.70604014
0.01371951 -0.40784803 -0.34568363 -0.9593128 -0.3327689 -0.9116161 -0.16722533 -0.17268632
00000000: f201 8fbd 297c 633f d675 dbbe 38ba 893b
00000010: 443a 563e 7322 973d 8760 69bc 2987 993d
00000020: 4506 71bf 4798 0d3d 6b9f 6abe 6f42 ab3d
00000030: aacb abbe 6522 95be bf49 bcbd b5b5 32bf
00000040: b2f1 37be 8738 08bf 658b 13bf 661a 62be
00000050: a08a fdbd 7f48 71bf 57bd 05be 6f52 9abe
00000060: bd1f 0abe 6d37 d1be c994 b23e d8e2 323d
00000070: 3b0b 983c 91ff 4ebf ff34 2ebd 142d 3f3d
00000080: 30cf 3dbe 165f 6abe bcac 36bf 1409 583e
00000090: 2037 32be d6e3 ab3e 204d 21bf c5c8 dbbe
000000a0: 6148 013e 3c79 643d 346d b3be 3cc5 a13d
000000b0: 738c 56be 03a5 dabe bcc9 fd3d 0563 88bd
000000c0: 75fb 58bf 7562 37be bc42 2bbf f84b 6cbe
000000d0: 406a 083e 2dd1 d0be a75e d9be 4b3c 2dbe
000000e0: ad3f febe fa7e 03bf aee3 80bb 6ee1 d9bb
000000f0: 3841 1f3f b6fa 2ebe 7e72 84be c49a 43be
00000100: ab00 1f3f da43 74bd 4357 3bbf 8b9b bcbf
00000110: 72a0 79bf 1869 233e 8998 bebe 96da 3a3e
00000120: fd3d 87bd e3fb e6bd 953a 92bd 90d9 cdbe
00000130: 0393 21bf cea5 a9bc 72d6 07be c0dc a7be
00000140: 5f2d ca3d 88e1 47bf 06f1 4b3d bf40 7bbe
00000150: d5d4 b5bd 3a26 7fbe 1c49 2bbe 6690 f7be
00000160: dc1f 073e f017 11be 6842 fa3e 7dd6 40bf
00000170: 065e 4cbf 1f46 ae3e 0b88 febe 421e 23bb
00000180: 381e f83c 95ce 40be ec96 e8be 2940 dfbd
00000190: 14eb 31bf 9352 f83d f738 76bd a1b5 75bf
000001a0: a505 543e f3b9 d53d 5bfa b33e f138 173e
000001b0: 0073 7e3d dc31 9cbe f717 2bbf bc0c bebc
000001c0: b438 bebe 135d 9cbf e2a6 433d 8c07 55bc
000001d0: 1611 493e 8086 e3bc 6bbe 4ebf 0cbf 34bf
000001e0: ccc7 603c 75d1 d0be 72fd b0be 8695 75bf
000001f0: af60 aabe ac5f 69bf 1e3d 2bbe afd4 30be

fc2.weight f4 [3, 128]
0.0005147653 -0.48981878 -0.06227159 0.093662895 0.044930775 -0.27986896 -0.34491834 0.06037044
0.9260544 0.028930683 0.7435004 -0.120796524 0.059950765 0.3002735 -0.052710917 -0.68500274
-0.05860527 -0.27490765 -0.3107106 -0.45573378 0.08187675 -0.2928414 0.38898578 0.08056131
-0.011563863 0.32126036 0.36968124 -0.034854352 0.07118617 -0.4833401 -0.0028361743 0.02184642
0.04303971 0.0795973 -0.2322286 0.2731085 -0.50373316 0.123925395 -0.04353214 0.33034524
-0.15122654 0.09124747 0.3865326 0.01012316 0.12561107 -0.4869095 0.12152759 0.056993727
-0.5892085 -0.12187358 0.2554086 -0.9696944 0.102111116 -0.041837446 -0.267485 0.33248097
-0.49269468 -0.06468576 -0.06775234 0.021565426 0.055384 0.05229627 1.0040644 0.04997691
0.025906567 0.34283483 -1.0604283 0.5221169 0.034833875 0.0821028 0.026437555 0.2563366
0.13988724 0.0073334645 -0.08724205 -0.05038813 0.015626054 0.03435467 0.25993437 -0.47920045
0.08225173 1.1904843 0.12260357 -0.06533344 -0.0009346318 -0.271757 -0.07780958 0.09231565
0.08193151 -0.93124646 -0.83597 -0.07959823 0.21926977 0.101383604 -0.0057205292 0.29140812
0.06123759 -0.033375032 -1.0510283 -0.093731605 -0.3516138 -0.039855648 0.015238834 -0.66793674
0.02181611 0.19945952 0.05587179 0.09463764 0.05897459 0.30779704 -0.4535749 -0.05593749
-0.2320708 -1.753851 -0.058036875 0.6683273 0.17946857 0.38940233 0.62944245 0.04691125
0.008348392 -0.033206113 -0.0956439 -0.092602424 -0.022955492 -0.065384805 -0.0645662 -0.06560008
0.112597495 0.035610322 0.063369565 0.06961011 0.10225526 -0.16016398 -0.044836927 0.11912422
-0.13700461 0.11104812 0.21477947 -0.9592386 0.04871138 -0.22865817 0.08963104 -0.3190034
0.09198859 -0.77815413 0.47411874 0.18443842 -0.0039941403 -0.26607484 -0.12699996 -0.03103689
0.058286037 0.23214954 -0.012613381 0.08175848 0.08642142 0.9741854 0.13659665 0.029205043
0.08208287 -0.124215074 -0.49993783 0.0841948 0.63415015 0.049507253 -0.2559485 -0.116094366
0.15243122 0.11811662 -0.27824175 0.08700158 -0.17547841 -0.24188514 0.01916675 -0.103195935
-0.5369214 -0.74634796 -0.3857815 -0.92263144 0.056880753 -1.1504109 0.066460036 -0.7676361
-0.21487701 0.60926914 -0.12946801 0.06651112 -0.3601633 0.11936632 0.27515435 0.08498379
0.16373049 -0.13207774 0.45195946 -0.22153296 -0.52957207 0.061709423 -0.80428964 0.30764443
-0.46449092 0.09125596 0.026530024 0.07416525 -1.1235787 0.124488585 0.26481092 -1.176284
0.07857966 -0.45610407 -0.49260318 0.06722119 0.04980705 0.44220358 0.112089634 -0.4120392
0.06127703 -0.28897753 0.11028455 0.5766157 -0.2691312 0.062176492 -0.16705081 -0.36650583
0.0946155 0.07543854 -0.5768563 0.81922317 0.0296079 0.072422504 0.12859444 -0.1902836
0.1274107 0.39670417 1.0285717 0.05992381 0.09585285 0.13559674 -0.41739166 -0.14286853
-1.4505953 2.4922009 -0.03143115 0.122080356 -0.0050220145 -0.040832378 0.25382885 1.2367599
0.11340886 -0.9620363 -0.12207508 -0.9041284 0.07165801 -0.06661323 0.07348498 0.08363169
00000000: 51f1 063a 87c9 fabe 7f10 7fbd 55d2 bf3d
00000010: 5509 383d fc4a 8fbe 2399 b0be ff46 773d
00000020: e711 6d3f 0a00 ed3c 0b56 3e3f 2b64 f7bd
00000030: ef8e 753d 73bd 993e 67e7 57bd 575c 2fbf
00000040: 140c 70bd b2c0 8cbe 7615 9fbe f055 e9be
00000050: ffae a73d 4fef 95be 2529 c73e 54fd a43d
00000060: 5b76 3dbc 3d7c a43e dc46 bd3e 70c3 0ebd
00000070: 0eca 913d 5b78 f7be 1cdf 39bb 43f7 b23c
00000080: 684a 303d e903 a33d 56cd 6dbe e1d4 8b3e
00000090: a8f4 00bf 99cc fd3d c24e 32bd 0323 a93e
000000a0: 21db 1abe f4df ba3d 9ae7 c53e 9cdb 253c
000000b0: 30a0 003e 344c f9be 75e3 f83d 4172 693d
000000c0: 5ed6 16bf db98 f9bd ebc4 823e e43d 78bf
000000d0: a21f d13d be5d 2bbd cbf3 88be f23a aa3e
000000e0: 7a42 fcbe f879 84bd bdc1 8abd faa9 b03c
000000f0: 55da 623d 9d34 563d 2f85 803f 97b4 4c3d
00000100: 023a d43c 0c88 af3e 1dbc 87bf 74a9 053f
00000110: f7ad 0e3d 8325 a83d 9293 d83c 8d3e 833e
00000120: 9a3e 0f3e 8f4d f03b f6ab b2bd c963 4ebd
00000130: 3602 803c 7cb7 0c3d 1e16 853e c359 f5be
00000140: 9873 a83d ca61 983f 9517 fb3d 8acd 85bd
00000150: 1402 75ba bc23 8bbe a15a 9fbd fd0f bd3d
00000160: b5cb a73d 2b66 6ebf 2102 56bf 6604 a3bd
00000170: 4188 603e 35a2 cf3d 4773 bbbb 7233 953e
00000180: 44d4 7a3d 42b4 08bd 1888 86bf 5bf6 bfbd
00000190: b906 b4be ad3f 23bd 4dac 793c e7fd 2abf
000001a0: b3b7 b23c 1e3f 4c3e d1d9 643d 61d1 c13d
000001b0: 578f 713d 9397 9d3e f83a e8be b61e 65bd
000001c0: f8a3 6dbe 317e e0bf 13b8 6dbd 7f17 2b3f
000001d0: 9cc6 373e be5f c73e 2423 213f 0326 403d
000001e0: b2c7 083c 2203 08bd f3e0 c3bd 57a6 bdbd
000001f0: 280d bcbc 78e8 85bd 493b 84bd 5659 86bd
00000200: 8499 e63d 21dc 113d e7c7 813d bf8f 8e3d
00000210: 356b d13d 0702 24be eda6 37bd 66f7 f33d
00000220: f04a 0cbe 326d e33d 26ef 5b3e a990 75bf
00000230: 9685 473d 5e25 6abe 7b90 b73d 6a54 a3be
00000240: 8464 bc3d 1c35 47bf b1bf f23e 6ddd 3c3e
00000250: 47e1 82bb f63a 88be 470c 02be 1341 febc
00000260: 57bd 6e3d 9cb8 6d3e 5ba8 4ebc fd70 a73d
00000270: b7fd b03d 3764 793f fedf 0b3e 6a3f ef3c
00000280: 101b a83d 7964 febd daf7 ffbe 536e ac3d
00000290: aa57 223f 1ec8 4a3d af0b 83be e2c2 edbd
000002a0: ee16 1c3e 20e7 f13d b475 8ebe e22d b23d
000002b0: 9db0 33be bdb0 77be 9703 9d3c 6458 d3bd
000002c0: ae73 09bf a910 3fbf 2785 c5be 9331 6cbf
000002d0: cbfb 683d aa40 93bf 331c 883d cd83 44bf
000002e0: b808 5cbe 10f9 1b3f 4393 04be fb36 883d
000002f0: 5367 b8be 5476 f43d 08e1 8c3e fb0b ae3d
00000300: f7a8 273e 633f 07be 3b67 e73e 89d9 62be
00000310: 0992 07bf 05c3 7c3d ede5 4dbf 9283 9d3e
00000320: c1d1 edbe 68e4 ba3d 7e55 d93c f3e3 973d
00000330: 6dd1 8fbf dff3 fe3d 4c95 873e 7990 96bf
00000340: 5fee a03d 7986 e9be 7c36 fcbe 43ab 893d
00000350: 7a02 4c3d 8268 e23e 408f e53d cdf6 d2be
00000360: 9ffd 7a3d ddf4 93be dedc e13d 169d 133f
00000370: 91cb 89be c7ac 7e3d 5e0f 2bbe a7a6 bbbe
00000380: c5c5 c13d 857f 9a3d dbac 13bf 9cb8 513f
00000390: 448c f23c 4052 943d 43ae 033e b4d9 42be
000003a0: f377 023e cf1c cb3e 3da8 833f ab72 753d
000003b0: 804e c43d dfd9 0a3e 5cb4 d5be 214c 12be
000003c0: 1bad b9bf 3880 1f40 f3bd 00bd 4405 fa3d
000003d0: b68f a4bb da3f 27bd dbf5 813e 264e 9e3f
000003e0: e842 e83d 0348 76bf 8002 fabd f574 67bf
000003f0: 6fc1 923d 846c 88bd 4b7f 963d 1747 ab3d

fc2.bias f4 [3]
0.26209688 -0.025021076 0.124535665
00000000: 9031 863e 00f9 ccbc 8e0c ff3d
