1DCFD_FNO/1D_CFD_Rand_Eta1.e-8_Zeta1.e-8_periodic_Train_FNO.pt (torch, 541123 bytes, 42 tensors)

fc0.weight f4 [20, 31]
-0.22153549 -0.024797574 -1.8129963 -0.4367609 -0.13250941 -1.1976023 -0.21757674 0.09928778
-1.1947653 -0.3198451 -0.03228536 -0.9336113 -0.2769731 -0.0592638 -1.0101236 -0.11183278
0.114249185 -0.81803775 -0.09960068 -0.18703397 -0.5993387 0.2154692 0.13332395 -0.1812736
0.29799038 0.090816274 0.25337875 0.3369631 0.015117357 1.6829661 -0.20252557 -0.21885891
0.04698086 -0.2840603 0.007209949 0.027784435 -0.2947585 -0.0034926543 0.09569812 -0.24904558
-0.17748737 0.008138418 -0.3002464 0.030046932 -0.042233463 -0.47066274 -0.07678961 0.043934163
-0.16080676 -0.14609171 0.03174688 -0.23092294 -0.06653803 -0.14998583 0.02851114 -0.032166142
-0.1769103 -0.70259404 0.41849095 -0.102786854 0.21063124 -0.13164581 0.39654905 0.045799136
0.23834321 0.34753913 -0.13960469 0.10798786 0.27918002 0.06891045 0.011079896 0.12953247
-0.1330758 0.16292702 0.25811985 0.06691565 0.06809886 0.30378646 -0.13699141 0.11851899
0.10210204 0.15423235 0.13669342 0.13253024 -0.19169497 0.273467 -0.03263359 0.001259085
0.26255402 -0.016341768 0.17916718 -0.30371413 0.18419553 -0.59849364 0.057008084 1.0533074
-0.34351048 0.1548295 0.6233432 -0.37153637 0.10359917 0.5721576 -0.32641125 -0.092442594
0.80253345 -0.24580838 0.080871835 0.70434415 -0.06396298 0.0073842267 0.62186086 -0.18034385
-0.17984748 0.4874287 0.20850906 -0.10992717 0.23307043 0.23093519 0.06910563 0.45066524
0.071050294 -0.07059481 -0.9120493 -0.011739323 -0.4195105 -0.014135903 -0.08352002 -0.3308172
-0.068422735 0.051837333 -0.26188138 -0.12729791 0.07313256 -0.2543554 0.15252267 -0.17464308
-0.18229097 -0.064475514 -0.10034485 -0.13966781 -0.0061225817 -0.24859463 0.00959271 -0.0065015494
0.10515895 0.5305262 -0.08878254 0.01594871 0.76232475 0.08634848 0.88119197 1.0686399
-0.1614916 0.105197474 -0.113918334 -0.12186888 0.003513036 0.38765368 0.055426706 -0.09044193
0.1878575 0.010319067 0.01879084 0.2390084 -0.029987544 -0.093240924 0.6260869 -0.034877457
-0.16183119 0.62268573 0.1714734 0.1251499 0.5344452 0.17572527 -0.07787194 0.463197
0.26710412 0.06896368 0.3811463 0.017217822 0.17764668 -0.08851006 -0.085214645 -0.08868348
0.2809285 0.17438203 0.06874696 -0.09701596 -0.08065245 0.19783941 0.009086065 0.071197756
0.23145376 0.08994156 -0.1351731 0.2052756 -0.011779329 0.034410365 0.31538022 0.043176882
0.04952659 0.34351027 0.087065294 0.015820723 0.16789135 -0.10876664 0.10527723 0.017866675
-0.07258505 0.2520876 0.20627211 -0.17046124 0.006880823 0.033238888 0.12160276 0.28742507
0.088772096 0.19302955 -0.0806517 -0.09978073 0.21178588 -0.09070914 -0.34885216 0.16595367
-0.12600186 -0.054429505 0.00946202 -0.019165946 0.09295143 0.27176014 -0.092024274 0.062109623
0.21705757 -0.04690052 0.11618819 0.08991421 0.024712216 0.15541536 -0.07609945 0.12245252
0.19546299 0.040577367 -0.006320638 0.57465434 -0.06465945 -0.09533222 0.046547186 -0.043793205
0.26990023 -0.076906405 -0.46736717 0.34917617 0.12806746 -0.2624244 0.07743057 -0.0012604784
00000000: 33da 62be 4824 cbbc 4310 e8bf 209f dfbe
00000010: 8cb0 07be 084b 99bf 70cc 5ebe 6457 cb3d
00000020: 12ee 98bf bdc2 a3be a73d 04bd 2601 6fbf
00000030: 6bcf 8dbe 99be 72bd bb4b 81bf 9608 e5bd
00000040: 7afb e93d ec6a 51bf 71fb cbbd d585 3fbe
00000050: 436e 19bf f5a3 5c3e 1386 083e c99f 39be
00000060: 3292 983e e2fd b93d dcba 813e 6d86 ac3e
00000070: caae 773c 6f6b d73f dd62 4fbe 8d1c 60be
00000080: 016f 403d 5a70 91be 7041 ec3b 2f9c e33c
00000090: 96ea 96be 04e5 64bb 60fd c33d ce05 7fbe
000000a0: 40bf 35be 0057 053c e5b9 99be fc24 f63c
000000b0: fffc 2cbd b5fa f0be df43 9dbd 4ff4 333d
000000c0: 87aa 24be 1199 15be 0409 023d 1077 6cbe
000000d0: 1745 88bd e395 19be 3290 e93c a5c0 03bd
000000e0: f927 35be 34dd 33bf 7244 d63e ea81 d2bd
000000f0: b7af 573e 29ce 06be 7a08 cb3e e097 3b3d
00000100: 3e10 743e a6f0 b13e 88f4 0ebe bd28 dd3d
00000110: aff0 8e3e ec20 8d3d 7488 353c 29a4 043e
00000120: 0645 08be 57d6 263e 4928 843e 130b 893d
00000130: 6a77 8b3d e689 9b3e 7a47 0cbe 16ba f23d
00000140: e01a d13d 16ef 1d3e 5cf9 0b3e 02b6 073e
00000150: b04b 44be de03 8c3e cdaa 05bd e207 a53a
00000160: 7b6d 863e 2cdf 85bc 9a77 373e 6b80 9bbe
00000170: c19d 3c3e e136 19bf 4f81 693d c7d2 863f
00000180: 9be0 afbe a08b 1e3e 6c93 1f3f 043a bebe
00000190: cd2b d43d ec78 123f 601f a7be 8b52 bdbd
000001a0: d572 4d3f 31b5 7bbe 22a0 a53d e64f 343f
000001b0: 06ff 82bd 62f7 f13b 4632 1f3f 0fac 38be
000001c0: f029 38be 4190 f93e 6683 553e 7f21 e1bd
000001d0: 04aa 6e3e 467a 6c3e 4187 8d3d 98bd e63e
000001e0: d182 913d 0394 90bd 107c 69bf 4a56 40bc
000001f0: 15ca d6be 469a 67bc 8b0c abbd df60 a9be
00000200: 3821 8cbd 6253 543d 5115 86be 625a 02be
00000210: 86c6 953d df3a 82be e72e 1c3e a3d5 32be
00000220: 7caa 3abe bd0b 84bd 9a81 cdbd 1405 0fbe
00000230: f09f c8bb 978f 7ebe be2a 1d3c f30a d5bb
00000240: 935d d73d 91d0 073f 9fd3 b5bd dea6 823c
00000250: b727 433f 79d7 b03d cc95 613f 31c9 883f
00000260: 0e5e 25be c671 d73d 044e e9bd 6496 f9bd
00000270: f73a 663b 8b7a c63e 1d07 633d 9e39 b9bd
00000280: b75d 403e 4e11 293c 3fef 993c 9ebe 743e
00000290: 70a8 f5bc 19f5 bebd 3b47 203f aadb 0ebd
000002a0: 13b7 25be 5568 1f3f b996 2f3e 4c27 003e
000002b0: 67d1 083f 53f1 333e 537b 9fbd 2828 ed3e
000002c0: dfc1 883e d43c 8d3d 9c25 c33e 640c 8d3c
000002d0: 03e9 353e c344 b5bd 0485 aebd af9f b5bd
000002e0: dcd5 8f3e 3491 323e 35cb 8c3d 4eb0 c6bd
000002f0: 1d2d a5bd 6a96 4a3e b8dd 143c 21d0 913d
00000300: 3702 6d3e 4833 b83d d16a 0abe c433 523e
00000310: 16fe 40bc e2f1 0c3d 8479 a13e 3eda 303d
00000320: 65dc 4a3d 94e0 af3e 4a4f b23d 769a 813c
00000330: b6eb 2b3e 0bc1 debd 979b d73d 225d 923c
00000340: 78a7 94bd a011 813e ff38 533e 648d 2ebe
00000350: 8778 e13b 8025 083d de0a f93d 6129 933e
00000360: 25ce b53d 8aa9 453e b82c a5bd d759 ccbd
00000370: 66de 583e b7c5 b9bd c09c b2be c2ef 293e
00000380: a206 01be 79f1 5ebd 9706 1b3c e701 9dbc
00000390: 525d be3d 2524 8b3e 3977 bcbd a966 7e3d
000003a0: 5744 5e3e c21a 40bd 13f4 ed3d f124 b83d
000003b0: 4671 ca3c 3425 1f3e 07da 9bbd 63c8 fa3d
000003c0: 7327 483e 7434 263d 5b1d cfbb 8c1c 133f
000003d0: 2c6c 84bd 8a3d c3bd 43a8 3e3d 8160 33bd
000003e0: 5d30 8a3e 1b81 9dbd c04a efbe 38c7 b23e
000003f0: 1e24 033e 7e5c 86be eb93 9e3d a336 a5ba

fc0.bias f4 [20]
0.28911212 0.14857957 0.06417762 -0.06304833 0.20852558 -0.4060525 0.12286768 -0.36097205
-0.31822717 -0.058960635 -0.72868276 0.7070536 -0.5151782 0.19467182 0.41060892 0.46569917
0.36565262 -0.16169383 0.40945983 -0.10148389
00000000: 8106 943e 3e25 183e 8e6f 833d 7c1f 81bd
00000010: bb87 553e 1de6 cfbe 0da2 fb3d 54d1 b8be
00000020: acee a2be b580 71bd f48a 3abf 7701 353f
00000030: b8e2 03bf 0d58 473e 553b d23e 1f70 ee3e
00000040: d236 bb3e 1193 25be b8a4 d13e c9d6 cfbd

w0.weight f4 [20, 20, 1]
-0.13739187 -0.123941176 -0.077818 0.08624475 0.11415861 -0.19692074 -0.04984364 -0.17617373
0.14059544 0.057608847 -0.024229856 -0.19222246 0.13237248 0.008213784 -0.13679214 -0.15618317
-0.05984702 -0.033400755 0.07034863 0.06108289 -0.13238895 -0.26776114 0.20000741 -0.23978256
-0.18387647 -0.05625456 -0.11296854 0.2009077 0.09161633 0.004475693 0.11206811 -0.09189463
0.083178006 -0.23417999 -0.17665815 0.05593768 -0.007904298 -0.061145533 -0.19250889 -0.02649185
0.17734025 0.4839981 -0.059814375 0.09550164 -0.36790773 -0.65453106 -0.19472472 0.03014775
-0.4960476 -0.2912696 0.39077473 -0.3710003 -0.2500999 0.6421341 0.60106426 0.68475455
0.048203234 -0.20559476 0.06869424 -0.12547764 0.20109403 0.17848964 0.035115283 0.10467289
0.24765617 0.12941842 0.017724464 0.1570366 -0.104984865 -0.001356939 0.049432505 0.064583756
0.18199705 0.13956039 0.102941096 0.006784992 0.15684515 -0.17730533 -0.03243392 -0.08981586
-0.033213414 0.09087889 -0.113021165 0.19540444 -0.042328317 -0.25969604 -0.32487282 -0.0644457
-0.12928028 -0.024229867 0.1986468 -0.28235877 -0.04907926 -0.042405695 0.2148996 0.005731185
0.1793749 -0.06930783 -0.031769816 -0.0102469465 -0.4601006 -0.18101677 0.22837554 0.13524123
-0.065285385 0.068532616 0.0813099 0.050638746 0.011559903 -0.105176 -0.0643195 -0.028988352
-0.044898275 -0.08303515 -0.019680055 0.0804679 0.002796509 -0.26025224 0.06826182 0.16762331
-0.10697496 -0.0733766 -0.11782722 0.045950543 0.05494621 0.14976785 -0.0742202 -0.021923654
-0.09862778 0.04846552 -0.036788635 0.03539784 -0.0049790996 0.12659702 -0.12868796 0.013047741
-0.074837916 0.03686588 -0.09497933 0.15808918 -0.12402547 -0.10221474 0.081663646 -0.03623099
0.12020642 0.116906814 -0.063607916 -0.20668064 -0.06744688 0.15893584 -0.16322397 -0.0900257
-0.056315124 -0.21250431 0.13196492 0.15436637 -0.13123427 0.0703388 0.25051025 0.009901764
-0.015897032 0.31430337 -0.07316978 0.04353117 0.3046775 0.08774747 0.17019244 0.28127965
0.037829414 0.11136043 0.24473378 -0.5828236 0.016558176 0.34122473 -0.32215014 0.19715603
0.4247782 -0.1247777 -0.1190363 -0.20166655 0.00019549532 0.18827726 -0.33606654 0.2076295
0.13887104 0.05410398 -0.17082225 -0.13520508 -0.11249207 -0.02093112 0.19276017 -0.040460162
-0.13645859 -0.21544652 0.09178938 -0.13490945 0.15817541 -0.415168 0.15241331 0.036264792
0.054675374 0.08780535 0.36014485 0.24018182 -0.13337655 -0.04616067 -0.15884927 0.109628625
0.27425155 0.119535424 0.019510077 0.15104632 -0.005825003 -0.1921219 0.20138781 -0.23510166
-0.017305238 -0.087235875 -0.1267328 0.054121766 -0.066952944 -0.14835323 0.188092 -0.13297972
-0.15791973 -0.15607429 0.08225502 0.04301535 0.17775972 -0.13104722 -0.23154764 0.1165532
-0.0824279 0.07684839 0.062011603 0.022859765 0.1508478 -0.015200845 0.15566874 0.210865
0.03218229 -0.04385366 -0.015029718 0.061908297 -0.11670499 -0.1173398 -0.078943714 -0.22892688
-0.05257994 -0.12475554 -0.19632973 0.16919422 -0.044243388 -0.23748899 0.10068813 -0.032218844
00000000: 74b0 0cbe dfd4 fdbd 0b5f 9fbd 16a1 b03d
00000010: fdcb e93d 97a5 49be d828 4cbd e366 34be
00000020: 40f8 0f3e 41f7 6b3d b17d c6bc f7d5 44be
00000030: a78c 073e 1b93 063c 3d13 0cbe 7bee 1fbe
00000040: 2622 75bd 3bcf 08bd f112 903d 0d32 7a3d
00000050: f890 07be fd17 89be bece 4c3e 8f89 75be
00000060: 1d4a 3cbe 2e6b 66bd 0d5c e7bd c0ba 4d3e
00000070: 58a1 bb3d d6a8 923b f783 e53d 4033 bcbd
00000080: 3b59 aa3d e1cc 6fbe e0e5 34be e91e 653d
00000090: 0781 01bc bd73 7abd 0d21 45be 7005 d9bc
000000a0: af98 353e 99ce f73e ebff 74bd 5d96 c33d
000000b0: 675e bcbe 598f 27bf eb65 47be 6af8 f63c
000000c0: f3f9 fdbe 4a21 95be a013 c83e c0f3 bdbe
000000d0: 180d 80be e662 243f 59df 193f 134c 2f3f
000000e0: c170 453d 6f87 52be 91af 8c3d 367d 00be
000000f0: 98eb 4d3e fdc5 363e 0bd5 0f3d bd5e d63d
00000100: 9499 7d3e 4386 043e e532 913c 34ce 203e
00000110: 4e02 d7bd 51db b1ba bd79 4a3d 7d44 843d
00000120: 6f5d 3a3e ebe8 0e3e c8d2 d23d a354 de3b
00000130: 049c 203e 878f 35be 6ed9 04bd 61f1 b7bd
00000140: ca0a 08bd b61e ba3d a477 e7bd 1a18 483e
00000150: 7560 2dbd e1f6 84be bb55 a6be 1bfc 83bd
00000160: 0d62 04be b77d c6bc 116a 4b3e 5491 90be
00000170: 5607 49bd 98b1 2dbd a40e 5c3e aacc bb3b
00000180: 0eae 373e 43f1 8dbd 1121 02bd cfe2 27bc
00000190: 4e92 ebbe 765c 39be 47db 693e ad7c 0a3e
000001a0: 58b4 85bd d45a 8c3d ce85 a63d 936a 4f3d
000001b0: bf65 3d3c 8466 d7bd f1b9 83bd fb78 edbc
000001c0: 41e7 37bd 550e aabd 1138 a1bc 5bcc a43d
000001d0: a345 373b c83f 85be dacc 8b3d 72a5 2b3e
000001e0: b015 dbbd 7946 96bd 664f f1bd a336 3c3d
000001f0: 470f 613d be5c 193e c300 98bd 3c99 b3bc
00000200: 5dfd c9bd c883 463d aeaf 16bd 53fd 103d
00000210: b727 a3bb a6a2 013e c7c6 03be 31c6 553c
00000220: 9f44 99bd ad00 173d 8684 c2bd 21e2 213e
00000230: 1101 febd f655 d1bd 453f a73d f266 14bd
00000240: c92e f63d d76c ef3d de44 82bd 17a4 53be
00000250: 9721 8abd 14c0 223e 2f24 27be 655f b8bd
00000260: b0aa 66bd bb9a 59be d021 073e 3812 1e3e
00000270: 4762 06be ca0d 903d e142 803e 023b 223c
00000280: 7e3a 82bc 5fec a03e 0ada 95bd bd4d 323d
00000290: b0fe 9b3e f2b4 b33d ed46 2e3e e303 903e
000002a0: 04f3 1a3d f010 e43d 7e9b 7a3e ed33 15bf
000002b0: 03a5 873c 02b5 ae3e ddf0 a4be 45e3 493e
000002c0: 877c d93e 738b ffbd 4ec9 f3bd ad81 4ebe
000002d0: e0fd 4c39 c1cb 403e ea10 acbe d49c 543e
000002e0: 3634 0e3e 239c 5d3d 07ec 2ebe 3373 0abe
000002f0: 3e62 e6bd bd77 abbc ec62 453e 8eb9 25bd
00000300: cdbb 0bbe 039e 5cbe 12fc bb3d b425 0abe
00000310: bcf8 213e e690 d4be 3c12 1c3e 648a 143d
00000320: 49f3 5f3d 4bd3 b33d e864 b83e 39f2 753e
00000330: dd93 08be f912 3dbd 62a9 22be f984 e03d
00000340: b36a 8c3e fdce f43d 99d3 9f3c e3ab 1a3e
00000350: abdf bebb 9abb 44be 9b38 4e3e 7dbe 70be
00000360: b7c3 8dbc b9a8 b2bd 3ec6 01be c9ae 5d3d
00000370: a01e 89bd e9e9 17be 309b 403e d62b 08be
00000380: b6b5 21be f0d1 1fbe 5275 a83d dd30 303d
00000390: a506 363e 3e31 06be d31a 6dbe 72b3 ee3d
000003a0: f5cf a8bd b062 9d3d e1ff 7d3d 6744 bb3c
000003b0: d877 1a3e f70c 79bc a067 1f3e ffec 573e
000003c0: 94d1 033d e59f 33bd 353f 76bc 8e93 7d3d
000003d0: 0703 efbd d94f f0bd 3ead a1bd cf6b 6abe
000003e0: 105e 57bd d57f ffbd a90a 49be 4041 2d3e
000003f0: 8e38 35bd 5030 73be 9435 ce3d e8f7 03bd

w0.bias f4 [20]
-0.17373975 -0.2788258 0.23063171 0.70552224 -0.9752816 -0.8103821 -0.06423326 0.1776929
0.09607812 0.2580417 -1.2596245 0.5576911 0.2517144 -0.50294936 -0.86176395 0.21267323
0.06787178 -0.29161373 0.5936402 -0.047454488
00000000: d5e8 31be 41c2 8ebe b82a 6c3e 1b9d 343f
00000010: 0eac 79bf 3475 4fbf ba8c 83bd 21f5 353e
00000020: 9bc4 c43d 0b1e 843e 603b a1bf d8c4 0e3f
00000030: b6e0 803e 4ac1 00bf 909c 5cbf 03c7 593e
00000040: 5c00 8b3d 654e 95be cef8 173f a35f 42bd

w1.weight f4 [20, 20, 1]
0.09156157 0.16099586 0.05168817 -0.028369464 0.07517934 -0.07785269 -0.35046446 0.014071383
-0.008694628 0.17444244 -0.095986955 -0.18854117 -0.1352324 -0.2418278 0.2359769 -0.2093402
0.18857652 0.10913298 -0.07814172 0.08070352 -0.06716814 -0.104346246 0.5236025 -0.28926167
-0.1117383 -0.5415367 -0.6374138 0.06709385 -0.06551044 0.050762214 0.03308628 0.2215992
-0.04692787 0.27185574 0.0004530072 0.106803216 -0.11161297 0.11904682 -0.0016788499 -0.04615609
-0.00882232 0.08657405 0.097495824 -0.33102587 0.17204073 -0.07866642 0.4481773 -0.14221914
0.045894057 -0.090157405 0.15218204 0.041192617 -0.04764452 0.08048836 0.003453147 -0.13997838
-0.10571086 -0.10133019 -0.12977421 0.14724083 -0.08997089 0.031583052 0.0327775 0.031043915
0.07071752 0.0062472955 -0.026866388 0.1373409 -0.022432083 -0.127051 0.15713008 0.21784481
-0.1953493 0.14757843 0.055807073 0.24158071 0.06626305 0.07613702 0.18828033 0.110573485
0.24842575 0.101106375 0.03923994 -0.14111052 0.11609327 0.14298913 0.9231935 -0.059373993
-0.0100633195 -0.11650413 -0.16504182 -0.12227465 0.16948463 0.083441816 0.024634365 -0.1540502
0.021359136 0.14712314 -0.096150555 0.14281979 -0.13945043 0.061417416 -0.19777222 -0.00025779213
-0.013246237 -0.0012432522 -0.05960976 -0.11171413 0.17618543 -0.08266581 -0.20909245 0.085781254
-0.14250264 -0.0836877 0.07245398 0.07402806 0.08345216 0.19481298 -0.34209526 0.06530187
0.11770688 0.031159095 -0.23128954 -0.09554779 0.020401763 0.43095604 0.5450158 -0.031109523
-0.0022099374 -0.36426672 0.07188814 -0.2717902 -0.19324258 -0.08771923 -0.121697284 -0.04709673
-0.12844114 0.062193036 -0.016040267 0.102887996 0.053368784 -0.14967862 0.1957668 0.14040883
0.20594722 0.0135050975 -0.6410045 -0.035960764 0.092960976 0.10582426 0.10681391 0.05875708
0.09943051 -0.021741733 -0.04398816 0.14865306 -0.12642491 0.19563173 0.464582 0.1125021
-0.1777382 -0.108348206 0.11872637 -0.20405556 -0.052969836 -0.024385756 0.52422786 0.06845586
0.24670997 0.03369884 -0.017828116 0.008153287 0.11451708 -0.13027363 -0.092502944 0.06814351
0.052492276 -0.008125095 0.039618425 0.07880383 0.00037539395 0.20074372 0.006215224 0.20236644
-0.07820738 -0.19452244 -0.24948514 0.08472701 -0.07601847 -0.12151142 0.02076486 0.087861106
-0.12658949 0.2004196 -0.058097914 0.13063931 0.11148485 0.061710816 0.08610265 0.12626739
-0.1607069 -0.08818809 -0.22110789 0.101467624 -0.014602236 0.18953818 0.77565897 -0.05272134
0.047511995 -0.03977678 0.19793357 0.005121307 -0.085258126 0.26558992 -0.042124245 0.3719808
0.1868287 0.027909338 -0.096853845 0.14297222 0.04836995 -0.23244005 -0.016428998 -0.03148313
-0.02309959 -0.08241363 -1.1057805 -0.016276872 0.09771313 0.086892754 0.1401278 0.24589555
0.17826684 0.059413187 -0.048256226 0.12533729 0.0043955217 0.07702357 0.29641068 0.21793066
-0.04240008 -0.0125980545 0.0036704864 0.13524835 0.2710889 -0.13283104 1.2702109 -0.12382801
-0.41041613 0.26220605 0.05943579 -0.09096125 0.050588418 0.06872451 0.08618455 0.0736271
00000000: a284 bb3d 19dc 243e f9b6 533d 1467 e8bc
00000010: a0f7 993d 3b71 9fbd 1470 b3be a88b 663c
00000020: ea73 0ebc 0aa1 323e cf94 c4bd f010 41be
00000030: 5d7a 0abe b5a1 77be eea3 713e 475d 56be
00000040: 341a 413e 1d81 df3d c408 a0bd e347 a53d
00000050: 738f 89bd 7cb3 d5bd d00a 063f 1b1a 94be
00000060: 0dd7 e4bd 26a2 0abf 8d2d 23bf 8068 893d
00000070: 562a 86bd 0aec 4f3d 7b85 073d e7ea 623e
00000080: 7037 40bd ad30 8b3e 9981 ed39 a5bb da3d
00000090: 5795 e4bd d2ce f33d db0c dcba 2b0e 3dbd
000000a0: 7e8b 10bc bc4d b13d e4ab c73d 397c a9be
000000b0: 722b 303e dc1b a1bd 7f77 e53e e5a1 11be
000000c0: 68fb 3b3d 72a4 b8bd 9cd5 1b3e 97b9 283d
000000d0: e626 43bd 15d7 a43d 314e 623b 7e56 0fbe
000000e0: ef7e d8bd 3486 cfbd 88e3 04be 4dc6 163e
000000f0: a842 b8bd 3b5d 013d b341 063d cf4f fe3c
00000100: 59d4 903d 1db6 cc3b e616 dcbc 18a3 0c3e
00000110: 7dc3 b7bc a819 02be b5e6 203e b612 5f3e
00000120: a609 48be cd1e 173e f595 643d ef60 773e
00000130: ecb4 873d baed 9b3d 8fcc 403e 5a74 e23d
00000140: 5263 7e3e dc10 cf3d 0fba 203d 477f 10be
00000150: 4fc2 ed3d be6b 123e 6956 6c3f 2532 73bd
00000160: 9fe0 24bc b899 eebd b900 29be 226b fabd
00000170: 618d 2d3e 8be3 aa3d 02ce c93c 56bf 1dbe
00000180: 5bf9 ae3c 73a7 163e 95ea c4bd 5a3f 123e
00000190: 18cc 0ebe d490 7b3d cd84 4abe 4628 87b9
000001a0: bf06 59bc 9ff4 a2ba 5d29 74bd 61ca e4bd
000001b0: f469 343e b14c a9bd 551c 56be 15ae af3d
000001c0: 36ec 11be 7564 abbd c162 943d 069c 973d
000001d0: f7e8 aa3d 0e7d 473e 1c27 afbe fdbc 853d
000001e0: 4e10 f13d 5c41 ff3c 2ad7 6cbe 8fae c3bd
000001f0: 9921 a73c 45a6 dc3e 2886 0b3f 66d9 febc
00000200: 99d4 10bb 2b81 babe 173a 933d 1628 8bbe
00000210: 62e1 45be 24a6 b3bd 6d3c f9bd 80e8 40bd
00000220: 1386 03be 20be 7e3d e166 83bc f1b6 d23d
00000230: 3a99 5a3d 5a45 19be 1877 483e 55c7 0f3e
00000240: d4e3 523e 7c44 5d3c df18 24bf 984b 13bd
00000250: 5362 be3d 64ba d83d 40c1 da3d 44ab 703d
00000260: 39a2 cb3d b81b b2bc ee2c 34bd 8238 183e
00000270: 8875 01be af53 483e b1dd ed3e 8067 e63d
00000280: 0101 36be aae5 ddbd d026 f33d f1f3 50be
00000290: e6f6 58bd a3c4 c7bc cc33 063f 9632 8c3d
000002a0: 8aa1 7c3e cb07 0a3d 450c 92bc 5d95 053c
000002b0: ee87 ea3d 7366 05be 2f72 bdbd d38e 8b3d
000002c0: 2402 573d 1e1f 05bc ee46 223d e763 a13d
000002d0: 86d0 c439 c38f 4d3e 14a9 cb3b 2639 4f3e
000002e0: 312b a0bd e430 47be 0879 7fbe 5b85 ad3d
000002f0: 92af 9bbd fbda f8bd 111b aa3c 86f0 b33d
00000300: ada0 01be cc3a 4d3e 14f8 6dbd 50c6 053e
00000310: 2b52 e43d 7bc4 7c3d 9656 b03d 3d4c 013e
00000320: 5990 24be f59b b4bd 1b6a 62be 42ce cf3d
00000330: 383e 6fbc 4c16 423e 9691 463f 55f2 57bd
00000340: f09b 423d faec 22bd 19af 4a3e a3d0 a73b
00000350: d09b aebd 67fb 873e 798a 2cbd 4474 be3e
00000360: 0650 3f3e 20a2 e43c 4f5b c6bd 4f67 123e
00000370: 921f 463d c404 6ebe 1b96 86bc 74f4 00bd
00000380: 5a3b bdbc 7ac8 a8bd 378a 8dbf 1357 85bc
00000390: d21d c83d d4f4 b13d a97d 0f3e 0bcc 7b3e
000003a0: 958b 363e 3e5b 733d 52a8 45bd 6b58 003e
000003b0: 4f08 903b 89be 9d3d 24c3 973e 3729 5f3e
000003c0: b5ab 2dbd 1268 4ebc 8b8c 703b 8b7e 0a3e
000003d0: 2acc 8a3e dc04 08be 4596 a23f 8a99 fdbd
000003e0: 1022 d2be df3f 863e f172 733d e449 babd
000003f0: cd35 4f3d 70bf 8c3d 8681 b03d cec9 963d

w1.bias f4 [20]
0.020879364 0.22733498 0.25158888 0.0773357 -0.37822548 0.085650414 -0.9268552 -0.15912658
0.2389256 0.08021324 -0.0043619834 0.5267556 -0.09325131 0.3522741 -0.21741591 -2.1711247
-0.01767141 -0.041107472 -0.033143014 -0.37537694
00000000: 330b ab3c 80ca 683e 42d0 803e 2e62 9e3d
00000010: c5a6 c1be 7c69 af3d 6246 6dbf 14f2 22be
00000020: eaa8 743e d746 a43d f8ee 8ebb 74d9 063f
00000030: 8bfa bebd 455d b43e 47a2 5ebe b5f3 0ac0
00000040: a2c3 90bc 4f60 28bd f8c0 07bd 6831 c0be

w2.weight f4 [20, 20, 1]
0.09650229 0.021049554 -0.21035174 -0.04449052 0.013454823 -0.09511752 -0.12793529 -0.19031622
0.21637976 -0.19903007 -0.15648915 0.17229688 0.22396746 -0.16799703 0.04485681 0.17440717
-0.20282884 -0.025360046 0.12103838 0.19871122 0.1587437 -0.032367945 0.0050440864 0.21115115
-0.2500315 -0.026569879 -0.13876654 0.21779086 -0.044865027 -0.056140665 0.16025373 0.09191315
-0.14061895 -0.14060757 0.13515359 -0.233944 0.046729308 -0.007101514 0.07569357 0.15518168
-0.0069008875 -0.14087164 -0.05491436 0.19342463 0.21834904 -0.14478011 -0.010474912 0.036965977
-0.07154413 0.13946752 -0.17869517 -0.060418878 0.10774121 0.17029645 -0.10931655 -0.08476778
-0.06083613 -0.006257464 0.13025762 0.18561304 -0.05199824 0.069547065 -0.040995613 -0.014114936
0.07532559 0.098200455 0.01561931 -0.055932432 0.099137746 0.020000327 -0.10765433 -0.12293582
-0.07674328 -0.04007483 0.09662283 0.12419583 -0.15985389 0.06741179 -0.025753805 0.14818534
-0.115354486 0.095060326 -0.1580749 -0.022728749 0.022936288 0.06282063 -0.13461037 -0.17609482
-0.15413965 -0.18436429 0.047668934 0.16403864 0.07687747 0.22478917 -0.12789986 0.16445012
0.13528615 0.0026235022 0.097763136 0.13946486 0.009878729 -0.052435897 0.06629801 -0.05532495
-0.0449695 -0.04066119 -0.080926515 0.03413502 0.038526844 0.049272798 0.026833313 -0.027530503
0.032593388 0.038060874 -0.010981999 -0.03717678 -0.024266778 -0.019577572 -0.00030429795 0.014285541
-0.19455002 0.07773173 -0.035525803 0.09830035 -0.13268118 0.26666978 0.031365365 0.18685216
0.12190549 -0.166287 0.11451197 0.15184659 0.0641802 -0.16542433 -0.11638569 0.30565292
-0.15143864 -0.012853629 -0.14608543 -0.060141813 -0.116613194 0.036117047 0.11111476 -0.12952779
-0.16719477 0.17113961 0.15447652 -0.15521932 0.20351568 0.1338742 -0.04373351 -0.16120446
0.00026957298 0.10435858 0.0131564615 -0.07657758 0.14107697 -0.010925515 -0.10059538 0.21812114
-0.23804094 0.18955842 -0.174308 -0.049329158 0.2577066 0.16921054 -0.0601441 0.0033112627
-0.22472447 0.19882323 0.19057955 -0.01359731 -0.008560843 -0.12995753 0.11326006 0.404655
-0.044608135 -0.10194906 0.038270544 -0.14239351 0.2181049 -0.21086642 0.1316405 -0.09986164
-0.023263752 -0.005789982 -0.0031978 0.07277312 0.08878222 0.005987244 -0.24995668 0.09729686
-0.13369219 -0.18858512 -0.33203834 -0.14639057 0.17446111 0.027008604 -0.05204761 -0.060590044
0.07014434 -0.06484493 0.03269625 0.030040307 0.11077902 -0.030198652 -0.011755269 0.09059148
-0.00675131 -0.17480718 0.17242841 -0.20479289 -0.035677712 -0.14955989 0.14767043 -0.11801493
-0.05264382 0.0029099842 0.12993516 0.08602536 0.12333595 0.12141554 0.0015485041 -0.094482645
-0.12766983 -0.03837515 -0.12873033 -0.18918966 0.18956047 0.15193555 0.2419908 0.13381732
0.1598304 -0.050212614 -0.04288344 0.090657964 0.13719104 0.041007057 -0.123539545 0.23449874
0.14142725 0.05138634 -0.07691343 -0.2607965 0.018263504 0.113272585 -0.044374987 0.010035908
0.00035385255 -0.016178017 -0.010629931 -0.036136787 0.21705993 0.0020505188 -0.104601465 0.16470219
00000000: fea2 c53d 1d70 ac3c 7266 57be b13b 36bd
00000010: 9e71 5c3c f9cc c2bd 7801 03be 41e2 42be
00000020: a892 5d3e 8ace 4bbe b13e 20be 986e 303e
00000030: ba57 653e 6a07 2cbe c6bb 373d cb97 323e
00000040: 5db2 4fbe dfbf cfbc f8e2 f73d f47a 4b3e
00000050: b58d 223e 4094 04bd dd48 a53b 0238 583e
00000060: 2104 80be 13a9 d9bc d118 0ebe 9104 5f3e
00000070: 64c4 37bd c1f3 65bd 8e19 243e f63c bc3d
00000080: 6afe 0fbe 6efb 0fbe b465 0a3e 048f 6fbe
00000090: 3b67 3f3d d1b3 e8bb 3b05 9b3d f2e7 1e3e
000000a0: d720 e2bb a840 10be e1ed 60bd 1b11 463e
000000b0: e496 5f3e 3d41 14be f79e 2bbc a369 173d
000000c0: bb85 92bd 93d0 0e3e defb 36be c979 77bd
000000d0: 6ca7 dc3d 3162 2e3e 5be1 dfbd bb9a adbd
000000e0: 4e2f 79bd 6a0b cdbb 4162 053e 5811 3e3e
000000f0: 1bfc 54bd b16e 8e3d 04eb 27bd 5542 67bc
00000100: 4e44 9a3d 521d c93d 22e8 7f3c 6819 65bd
00000110: bb08 cb3d bad7 a33c e079 dcbd c6c5 fbbd
00000120: 952b 9dbd 8125 24bd 31e2 c53d 625a fe3d
00000130: bdb0 23be 310f 8a3d a5f9 d2bc e6bd 173e
00000140: f93e ecbd fdae c23d 63de 21be a431 babc
00000150: e2e4 bb3c 1aa8 803d 4dd7 09be 3352 34be
00000160: c9d6 1dbe fec9 3cbe 8040 433d bff9 273e
00000170: ef71 9d3d 222f 663e 2ef8 02be 9d65 283e
00000180: 7488 0a3e 10ef 2b3b 0a38 c83d e0cf 0e3e
00000190: 64da 213c 06c7 56bd 40c7 873d 6a9c 62bd
000001a0: f031 38bd 598c 26bd cdbc a5bd 2ad1 0b3d
000001b0: 53ce 1d3d 46d2 493d 89d1 db3c a687 e1bc
000001c0: a580 053d b8e5 1b3d d8ed 33bc ae46 18bd
000001d0: 1fcb c6bc 2561 a0bc 2e8a 9fb9 e70d 6a3c
000001e0: 1f38 47be d031 9f3d 8183 11bd b251 c93d
000001f0: 93dd 07be f188 883e f878 003d 2c56 3f3e
00000200: 96a9 f93d 2447 2abe 4085 ea3d ac7d 1b3e
00000210: e970 833d ff64 29be 9f5b eebd 8a7e 9c3e
00000220: bb12 1bbe 0798 52bc 6b97 15be 4357 76bd
00000230: e6d2 eebd 78ef 133d 2390 e33d efa2 04be
00000240: 1b35 2bbe 393f 2f3e 182f 1e3e d0f1 1ebe
00000250: 6a66 503e 5116 093e e921 33bd c812 25be
00000260: 7955 8d39 f4b9 d53d 338e 573c b5d4 9cbd
00000270: 7b76 103e ee00 33bc f304 cebd 265b 5f3e
00000280: 01c1 73be 9a1b 423e cc7d 32be 5f0d 4abd
00000290: 1ff2 833e 8745 2d3e a959 76bd c501 593b
000002a0: 2c1e 66be 5198 4b3e 4927 433e 40c7 5ebc
000002b0: c742 0cbc 9613 05be e4f4 e73d f12e cf3e
000002c0: 05b7 36bd abca d0bd 93c1 1c3d 9bcf 11be
000002d0: e456 5f3e 5eed 57be c4cc 063e 4284 ccbd
000002e0: a093 bebc e4b9 bdbb 2e92 51bb 130a 953d
000002f0: 74d3 b53d a530 c43b a5f4 7fbe 9343 c73d
00000300: 9be6 08be 751c 41be ee00 aabe 69e7 15be
00000310: efa5 323e 2641 dd3c e02f 55bd 442d 78bd
00000320: d6a7 8f3d 6bcd 84bd 81ec 053d 1717 f63c
00000330: 1ce0 e23d 2a63 f7bc 2c99 40bc 0788 b93d
00000340: 183a ddbb a700 33be 1391 303e 3ab5 51be
00000350: cb22 12bd 3a26 19be eb36 173e d0b1 f1bd
00000360: 0ca1 57bd 6fb5 3e3b b90d 053e 102e b03d
00000370: 8f97 fc3d b6a8 f83d 2df7 ca3a 1e80 c1bd
00000380: e1bb 02be 432f 1dbd e2d1 03be efba 41be
00000390: 241c 423e fe94 1b3e 70cc 773e 6807 093e
000003a0: 95aa 233e beab 4dbd 8ca6 2fbd e2aa b93d
000003b0: cf7b 0c3e 04f7 273d 4d02 fdbd 7020 703e
000003c0: 4ed2 103e 7c7a 523d ca84 9dbd 1e87 85be
000003d0: 589d 953c 75fb e73d 8cc2 35bd a66d 243c
000003e0: 4985 b939 c387 84bc 2a29 2ebc 2b04 14bd
000003f0: f544 5e3e ff61 063b 4b39 d6bd b1a7 283e

w2.bias f4 [20]
-0.24399397 -0.015654402 0.05503414 -0.64650023 0.11252521 -0.22506008 -0.27310628 0.19584073
-0.31672537 -0.02646609 -2.6018975 0.3035369 0.015117009 0.3872491 -0.1753098 0.09933987
-0.30242506 0.43316135 -0.09470993 0.10152966
00000000: 8ed9 79be a93d 80bc 7a6b 613d 0a81 25bf
00000010: 9e73 e63d 2676 66be 96d4 8bbe 798a 483e
00000020: d429 a2be 6acf d8bc 7d85 26c0 3069 9b3e
00000030: 55ad 773c 8445 c63e 6a84 33be b472 cb3d
00000040: 75d7 9abe 53c7 dd3e 48f7 c1bd c8ee cf3d

w3.weight f4 [20, 20, 1]
-0.20051691 -0.045556884 -0.08360325 0.007947768 -0.11072486 -0.7289492 -0.13654447 0.1299726
2.205099e-05 0.21398793 0.08988888 -0.048603274 -0.13074535 -0.10149282 -0.0061506117 -0.14908773
0.04860148 -0.09655196 -0.11589759 -0.035456818 0.079939626 -0.09381346 0.10594357 0.02036331
0.13824306 -0.44578508 0.14954403 -0.23258305 -0.07606417 -0.12834619 0.04724325 0.17587407
-0.13532506 -0.10087101 0.027043479 -0.06644628 -0.08327185 0.08798507 -0.17891426 -0.20113009
-0.0414709 0.024727797 0.11274285 0.05225626 -0.13938004 -0.06334715 -0.02975744 -0.051039364
0.012539658 -0.12816083 -2.4576348e-05 -0.007446101 -0.14018235 0.003861377 -0.030819174 0.13219208
0.11355335 0.060069904 0.061667215 0.23439625 0.104261376 -0.24008845 0.007059871 -0.010043386
-0.0011400558 0.55483204 -0.047321048 -0.17383294 -0.062443998 0.12264715 0.02299753 -0.10515112
0.04649641 0.13069016 -0.043457184 0.01660221 0.18952328 0.13345541 0.21749191 -0.02469421
-0.14960381 -0.064408004 0.2039899 -0.082665384 -0.033145547 0.19090787 -0.11341709 -0.054457113
-0.14183846 0.05479644 0.12876342 -0.16421624 0.073185615 0.010834672 0.023345267 0.12810028
-0.039005417 -0.061228592 0.15450795 -0.06538331 -0.0029248737 0.03165487 -0.11738244 0.09714872
0.22986364 0.20887975 0.062073454 0.17580363 -0.18414447 0.1891416 0.0244662 0.14762151
-0.12698324 -0.11005966 0.116741486 0.08982198 -0.10815569 0.12590727 0.077088214 0.12449147
0.0047158524 0.18612538 -0.092924885 0.0831662 0.1580834 -0.055676885 0.18766886 -0.14331555
0.24117282 -0.13074088 -0.12769671 -0.098948225 0.025847198 0.023953581 -0.01976005 0.07998363
-0.054797117 -0.013740394 -0.10122641 -0.0910513 0.18838498 -0.031319994 -0.21093896 -0.032185894
0.1062107 0.21787356 -0.075978294 -0.121480286 0.17322442 -0.023186782 -0.16695024 -0.12224917
0.22393984 0.15215965 -0.019668931 -0.15803935 0.0664594 0.21723233 -0.13405372 -0.029128565
-0.08486808 -0.004469948 0.050626636 -0.026668947 -0.1383585 -0.51360655 -0.24179266 0.078872405
-0.010849488 0.108051054 0.04881673 0.21123867 0.17161497 0.15391701 -0.0057537947 0.15085877
-0.11445457 -0.03417951 0.008445139 -0.07363524 0.07131758 0.032824807 0.01890646 0.061420728
-0.11080351 -0.0918525 -0.08731149 -0.08139906 -0.15394995 0.18257637 -0.044054724 0.20142423
-0.14278607 0.05524654 0.11572806 -0.076726094 -0.042002063 -0.06541078 -0.12855794 -0.11552395
0.01623862 0.04715363 -0.008967258 0.004629263 0.20082554 -0.12771623 0.018888043 0.004490586
0.020741606 0.06564779 0.017241161 -0.19065537 0.014884174 0.09311065 0.018347189 0.04809938
0.12684181 0.18958008 0.21565433 -0.06015485 -0.15265256 0.006307682 0.16425574 -0.06485565
-0.040532388 -0.50008994 -0.20795617 -0.034558494 -0.11014361 0.13635822 0.24031378 -0.015417067
-0.10546009 0.049235314 -0.011019119 0.05044187 0.16515058 0.014029306 0.027113035 -0.07427042
0.0070154257 0.24264383 -0.17085458 0.074852675 -0.03071915 0.5016214 -0.08485448 -0.05594103
0.13260098 0.03735028 -0.14510837 0.13098106 0.21399057 -0.025721421 -0.10136096 0.13514338
00000000: 4e54 4dbe db99 3abd 2e38 abbd 5b37 023c
00000010: b7c3 e2bd 6a9c 3abf 50d2 0bbe 8a17 053e
00000020: 24fa b837 a71f 5b3e a917 b83d 3a14 47bd
00000030: 1ce2 05be 78db cfbd 128b c9bb 74aa 18be
00000040: 5812 473d 09bd c5bd b75b edbd 2b3b 11bd
00000050: 63b7 a33d 4521 c0bd f1f8 d83d f5d0 a63c
00000060: 978f 0d3e f13d e4be 1222 193e 402a 6ebe
00000070: 88c7 9bbd 2f6d 03be 2382 413d 5518 343e
00000080: a792 0abe 7695 cebd 498a dd3c fd14 88bd
00000090: 6f8a aabd 8431 b43d 4d35 37be 0cf5 4dbe
000000a0: 64dd 29bd f391 ca3c b9e5 e63d a90a 563d
000000b0: a4b9 0ebe 27bc 81bd e0c5 f3bc a70e 51bd
000000c0: 2373 4d3c 983c 03be 4e29 ceb7 6cfe f3bb
000000d0: f68b 0fbe 280f 7d3b 7e78 fcbc 5c5d 073e
000000e0: a98e e83d dc0b 763d c396 7c3d 9205 703e
000000f0: fd86 d53d bfd9 75be 7e56 e73b 048d 24bc
00000100: ed6d 95ba 7909 0e3f b7d3 41bd 4301 32be
00000110: 47c5 7fbd 6e2e fb3d 5165 bc3c 7859 d7bd
00000120: 0573 3e3d a4d3 053e 2900 32bd 5c01 883c
00000130: 6412 423e 89a8 083e 33b6 5e3e 834b cabc
00000140: be31 19be 58e8 83bd bae2 503e 784c a9bd
00000150: a0c3 07bd 5a7d 433e 3847 e8bd 6c0e 5fbd
00000160: 1a3e 11be 3b72 603d 8fda 033e 4d28 28be
00000170: 57e2 953d e883 313c 933e bf3c b82c 033e
00000180: 25c4 1fbd d5ca 7abd 5537 1e3e afe7 85bd
00000190: 3daf 3fbb 89a8 013d 3466 f0bd e8f5 c63d
000001a0: 6061 6b3e 93e4 553e bc40 7e3d de05 343e
000001b0: 5e90 3cbe 56ae 413e 576d c83c 182a 173e
000001c0: e507 02be f666 e1bd 2916 ef3d 96f4 b73d
000001d0: bb80 ddbd d6ed 003e 6de0 9d3d 62f5 fe3d
000001e0: 7087 9a3b a797 3e3e 674f bebd 0a53 aa3d
000001f0: 9de0 213e 720d 64bd 442c 403e 50c1 12be
00000200: 02f6 763e f0e0 05be edc2 02be 5ea5 cabd
00000210: 81bd d33c 4d3a c43c d4df a1bc 75ce a33d
00000220: f172 60bd 641f 61bc cb4f cfbd 1b79 babd
00000230: fee7 403e 6549 00bd 6200 58be 5bd5 03bd
00000240: ff84 d93d 3f1a 5f3e 829a 9bbd a8ca f8bd
00000250: be61 313e 35f2 bdbc 01f5 2abe c65d fabd
00000260: 7c50 653e bdcf 1b3e bd20 a1bc 11d5 21be
00000270: de1b 883d 2772 5e3e 6145 09be 079f eebc
00000280: 51cf adbd a478 92bb e05d 4f3d d678 dabc
00000290: daad 0dbe b87b 03bf 7f98 77be db87 a13d
000002a0: 0dc2 31bc df49 dd3d 0df4 473d f34e 583e
000002b0: d6bb 2f3e 6c9c 1d3e 548a bcbb b97a 1a3e
000002c0: 2867 eabd d0ff 0bbd 7b5d 0a3c 13ce 96bd
000002d0: f40e 923d 4e73 063d b8e1 9a3c 4d94 7b3d
000002e0: f3ec e2bd 2a1d bcbd 5ed0 b2bd 8db4 a6bd
000002f0: 0ea5 1dbe 4df5 3a3e ba72 34bd 2742 4e3e
00000300: 8336 12be 324a 623d d502 ed3d 9222 9dbd
00000310: 5b0a 2cbd 16f6 85bd b1a4 03be d297 ecbd
00000320: db06 853c 2a24 413d 68eb 12bc 13b1 973b
00000330: 36a5 4d3e 0bc8 02be 19bb 9a3c c425 933b
00000340: 4dea a93c 5972 863d 563d 8d3c 293b 43be
00000350: c0dc 733c ccb0 be3d d84c 963c db03 453d
00000360: d2e2 013e 4821 423e 7dd4 5c3e ef64 76bd
00000370: f450 1cbe acb0 ce3b a832 283e 0ad3 84bd
00000380: 4a05 26bd e505 00bf 76f2 54be 358d 0dbd
00000390: f992 e1bd 7da1 0b3e d114 763e de97 7cbc
000003a0: 76fb d7bd f8aa 493d 8989 34bc 229c 4e3d
000003b0: 3c1d 293e 2ddb 653c 281c de3c 171b 98bd
000003c0: a8e1 e53b a077 783e 81f4 2ebe 5c4c 993d
000003d0: baa6 fbbc 436a 003f 30c8 adbd 6c22 65bd
000003e0: 8dc8 073e 9bfc 183d 4a97 14be e61f 063e
000003f0: 5820 5b3e bbb5 d2bc 5696 cfbd 0763 0a3e

w3.bias f4 [20]
0.17680225 0.25074875 0.25386173 -0.10036718 0.17956442 0.3968879 -0.022844737 -0.06846625
0.25913134 0.0001875617 0.07617655 -0.2120264 -0.26626652 0.006256461 0.45667416 0.014247618
-0.53805864 0.08643784 0.020783918 0.12044948
00000000: a60b 353e 2462 803e 2afa 813e 4f8d cdbd
00000010: bcdf 373e e434 cb3e e324 bbbc 0938 8cbd
00000020: ddac 843e 36ac 4439 7302 9c3d 731d 59be
00000030: 1654 88be 0003 cd3b 32d1 e93e d76e 693c
00000040: 36be 09bf 5206 b13d 0943 aa3c 38ae f63d

fc1.weight f4 [128, 20]
-0.06738241 -0.07234416 -0.0067825024 -0.15298487 -0.19687751 -0.15899889 -0.067586064 -0.30882904
-0.111558475 0.13184321 0.12768058 0.30568734 -0.35848767 -0.18255539 0.3835801 0.18980911
-0.106998056 0.03553095 0.08733891 -0.23513988 -0.012077086 0.20914964 0.11660729 -0.08371855
-0.21319613 0.20111145 0.11109938 0.21213368 0.06083157 -0.02189722 0.123781286 -0.37778804
-0.23804191 -0.036453314 -0.14410752 -0.10639693 -0.25140783 0.12028045 0.24377693 0.01295586
-0.32122687 0.025489442 -0.06632526 0.023019016 0.02022145 -0.1301933 0.005499057 -0.09312856
-0.10647832 0.13312507 -0.08684878 0.08925792 0.19156608 -0.0055276463 -0.11654531 0.021397784
0.22519754 -0.06786272 0.17586555 0.12182213 -0.17036968 -0.12884156 -0.19718187 0.13389103
0.13090529 -0.14490484 -0.06154875 -0.0051352414 -0.07920294 0.16598462 -0.089252956 0.146384
-0.10838061 0.082124494 0.06661641 0.045000006 -0.012092017 -0.112734385 0.1312388 0.2247419
0.2163529 0.0019890442 -0.14519194 0.09741628 0.11405363 0.07062743 -0.063852966 0.0365967
0.06500459 -0.038145307 0.027584622 -0.4649583 -0.23650709 -0.03977283 0.10515993 0.21718204
0.39040524 0.3216429 -0.029288856 -0.092541635 -0.17996223 -0.055835035 0.082654916 0.066056155
0.18000507 0.08008191 0.023777349 -0.030029625 0.23645644 0.1480686 0.12930614 0.5263515
0.0027936513 0.1354961 -0.037864402 0.07873431 0.014192816 -0.15769736 0.104658276 -0.014546527
-0.16782492 0.10975159 0.11209844 0.069354564 0.17524853 -0.009811624 0.06459195 0.23036039
-0.011878543 0.18993144 -0.019161556 -0.22231103 0.26660588 -0.17338336 -0.055278424 0.010044297
-0.104206935 0.17175908 -0.25426662 0.20259716 0.07279545 0.19791435 0.040724505 0.23185095
-0.09448528 -0.010460709 0.039582618 0.049789887 0.049139105 0.044659104 0.0035690628 -0.2247844
0.23845436 -0.11272763 -0.1526783 0.020783186 0.034856718 -0.059450872 -0.1797115 0.10784376
-0.088812396 -0.0018829639 0.029168095 0.11363596 0.011124267 -0.05800829 0.018950872 0.017852597
-0.049227003 0.060622863 -0.12265857 -8.054724e-05 0.053350575 -0.00990822 -0.09394495 -0.03536209
0.054148614 0.010705552 0.042365193 -0.1299423 -0.2147478 -0.14098553 -0.09750394 -0.20956287
-0.14988334 0.18896006 0.108285844 -0.034849163 0.21565546 0.14604987 0.070160106 0.14259534
-0.019933999 0.047847856 0.05111341 -0.12785111 0.31185123 0.2307464 0.23339611 0.18074265
0.074298106 0.25326607 0.072678044 -0.12094903 0.102304764 0.04685115 -0.029528184 -0.05166194
-0.008027741 0.13568416 -0.12551026 -0.0010969848 0.30916572 0.15612078 0.1566511 -0.06683767
-0.05159968 -0.18884873 0.23561633 0.166932 -0.030102795 0.11491505 0.05316628 0.0028756347
0.100504994 0.0026028317 0.23186083 0.21263488 0.120922506 -0.03736296 0.11994472 0.15264224
0.09406588 -0.086322755 -0.08484038 -0.12468606 -0.16838634 0.068462655 0.016673231 -0.1588055
-0.0958241 0.045629248 -0.11530648 -0.027420903 -0.034473762 -0.12204413 0.058379035 -0.11610161
-0.14414766 0.059907686 0.10984478 0.19455484 0.053798616 0.18079975 -0.13209991 -0.029186998
00000000: caff 89bd 2d29 94bd c13f debb 11a8 1cbe
00000010: 429a 49be 9bd0 22be 906a 8abd d71e 9ebe
00000020: c578 e4bd e801 073e b3be 023e 0d83 9c3e
00000030: b28b b7be cdef 3abe 9c64 c43e 525d 423e
00000040: cc21 dbbd e788 113d bede b23d 82c8 70be
00000050: f8de 45bc 532b 563e cecf ee3d a274 abbd
00000060: 1650 5abe 29f0 4d3e 1288 e33d 9239 593e
00000070: 862a 793d cc61 b3bc 0b81 fd3d 6f6d c1be
00000080: 42c1 73be 1250 15bd ec90 13be a2e6 d9bd
00000090: 87b8 80be 9955 f63d a9a0 793e d144 543c
000000a0: d977 a4be 3ccf d03c 8ad5 87bd 6092 bc3c
000000b0: 74a7 a53c 6451 05be 6f31 b43b 30ba bebd
000000c0: 4e11 dabd f051 083e c6dd b1bd dbcc b63d
000000d0: e629 443e 4221 b5bb 4faf eebd 684a af3c
000000e0: 2f9a 663e 9cfb 8abd 1916 343e e27d f93d
000000f0: 6475 2ebe 0bef 03be 0bea 49be bb1a 093e
00000100: 090c 063e ef61 14be 8b1a 7cbd 8745 a8bb
00000110: 2735 a2bd dff7 293e 41ca b6bd b0e5 153e
00000120: a7f6 ddbd e330 a83d 2f6e 883d ed51 383d
00000130: 981d 46bc 49e1 e6bd 7763 063e be22 663e
00000140: 9d8b 5d3e a05a 023b 32ad 14be 3082 c73d
00000150: f394 e93d 1da5 903d 58c5 82bd 6ce6 153d
00000160: 2021 853d 413e 1cbd 25f9 e13c 040f eebe
00000170: ea2e 72be d6e8 22bd 175e d73d f864 5e3e
00000180: 32e3 c73e 61ae a43e 2fef efbc 7886 bdbd
00000190: 0548 38be 47b3 64bd fb46 a93d 7348 873d
000001a0: 4053 383e fc01 a43d b7c8 c23c b000 f6bc
000001b0: a321 723e 4c9f 173e d468 043e f9be 063f
000001c0: b115 373b 7dbf 0a3e b417 1bbd 743f a13d
000001d0: fc88 683c 6b7b 21be 1457 d63d 8e54 6ebc
000001e0: 4cda 2bbe 71c5 e03d de93 e53d c409 8e3d
000001f0: 5a74 333e efc0 20bc c948 843d 98e3 6b3e
00000200: 389e 42bc 637d 423e b2f8 9cbc 81a5 63be
00000210: 9180 883e 688b 31be a16b 62bd d690 243c
00000220: 726a d5bd 9de1 2f3e 3c2f 82be a175 4f3e
00000230: c815 953d 0faa 4a3e bdce 263d 566a 6d3e
00000240: 8081 c1bd 6563 2bbc 6221 223d 7bf0 4b3d
00000250: 1646 493d 77ec 363d f0e6 693b e22d 66be
00000260: 612d 743e bedd e6bd b357 1cbe 8041 aa3c
00000270: ebc5 0e3d c282 73bd 4b06 38be 30dd dc3d
00000280: 46e3 b5bd c9cd f6ba eef1 ee3c f8b9 e83d
00000290: 8f42 363c 1a9a 6dbd dc3e 9b3c 9c3f 923c
000002a0: 41a2 49bd ae4f 783d 6b34 fbbd 78eb a8b8
000002b0: 2286 5a3d 1656 22bc 3666 c0bd d7d7 10bd
000002c0: f0ca 5d3d 5766 2f3c 2087 2d3d 980f 05be
000002d0: d9e6 5bbe 835e 10be 25b0 c7bd a697 56be
000002e0: 057b 19be bf7e 413e f8c4 dd3d ffbd 0ebd
000002f0: c9d4 5c3e 198e 153e 1ab0 8f3d 8304 123e
00000300: a04c a3bc 1dfc 433d 4c5c 513d 67eb 02be
00000310: f7aa 9f3e c948 6c3e 64ff 6e3e 9a14 393e
00000320: 9b29 983d 17ac 813e 3ad8 943d 20b4 f7bd
00000330: 2985 d13d fee6 3f3d 17e5 f1bc 789b 53bd
00000340: c986 03bc caf0 0a3e c385 00be b4c8 8fba
00000350: f84a 9e3e 20de 1f3e 2569 203e 30e2 88bd
00000360: 305a 53bd 9061 41be 6845 713e 39f0 2a3e
00000370: 239a f6bc 9558 eb3d e3c4 593d 2575 3c3b
00000380: 90d5 cd3d 4594 2a3b ed6c 6d3e f5bc 593e
00000390: 38a6 f73d e709 19bd 94a5 f53d 3f4e 1c3e
000003a0: 9da5 c03d fcc9 b0bd cbc0 adbd 685b ffbd
000003b0: 786d 2cbe 2636 8c3d 4d96 883c e99d 22be
000003c0: 6d3f c4bd bce5 3a3d ce25 ecbd cda1 e0bc
000003d0: 5c34 0dbd 46f2 f9bd db1e 6f3d aec6 edbd
000003e0: 729b 13be c361 753d 4df6 e03d 6239 473e
000003f0: f05b 5c3d 9223 393e 3345 07be 9219 efbc

fc1.bias f4 [128]
0.33079797 0.6748813 -0.783578 -0.5974874 0.65981644 -0.12374945 0.27324715 0.116915524
-0.42414358 0.027414743 -0.624914 -0.14336213 -0.46288094 -0.18185277 -0.20725341 0.1548124
-0.16423674 -0.22617464 -0.7726613 -0.6327657 -0.25184777 0.05836407 -0.25125116 -0.14796768
-0.24709639 -0.7042956 -0.002746319 0.24155594 -0.46914178 0.018350987 -0.112314135 -0.11665314
-0.53643745 -0.8294149 -0.3185232 0.089575 -0.3627806 0.31324598 -0.33012274 -0.46636188
0.10277139 -0.48932624 -0.12852384 -0.8946179 0.1952784 0.23728372 0.1830381 0.06830715
0.025830097 -0.058254067 0.14013644 -0.44441244 0.2865006 0.2527301 0.22178584 -1.8821524
-0.13247697 -0.78088427 -0.34135076 0.13712925 0.12841433 0.12491095 -0.74154675 -0.88169897
0.085039474 -1.7679931 0.13616885 -1.8990372 -0.23030216 0.105314136 -0.0023809439 -0.44262543
-0.2690747 -0.18938169 -0.013479544 -0.64361185 0.060506053 0.09342075 -0.741288 0.17962594
-0.44165218 0.22221462 0.11601788 -0.62906325 -0.15264414 -0.13561383 -0.40048683 -0.75033164
0.06778886 0.24964653 -0.25602573 -0.26183945 -0.5957598 -0.58188206 -0.09025204 -0.29167876
0.07479457 -0.680937 -0.15683731 0.022130746 0.21355978 -0.95215946 0.025313694 -0.14724642
0.027668484 -0.63103706 0.10168041 -0.1388385 -0.07415943 0.29814944 -0.55961645 -0.72671974
0.04619763 0.009643235 -1.0093534 0.22751589 -0.08374953 -0.31200773 -0.7253918 0.20770265
0.0880336 -1.0863283 -0.5837661 -0.072901376 -0.7451257 0.099796206 1.2085432 -0.28792474
00000000: 5a5e a93e 05c5 2c3f 9198 48bf eff4 18bf
00000010: bbe9 283f 5a70 fdbd 0de7 8b3e 6871 ef3d
00000020: 5929 d9be e294 e03c 5dfa 1fbf 86cd 12be
00000030: bbfe ecbe 9d37 3abe 3d3a 54be 2487 1e3e
00000040: ad2d 28be 539a 67be 22cd 45bf effc 21bf
00000050: 31f2 80be 2a0f 6f3d fea3 80be d784 17be
00000060: d606 7dbe b74c 34bf 96fb 33bb 715a 773e
00000070: 5a33 f0be cf54 963c f404 e6bd d7e7 eebd
00000080: f753 09bf 8954 54bf 7915 a3be 1973 b73d
00000090: 61be b9be c761 a03e d905 a9be fcc6 eebe
000000a0: ce79 d23d f888 fabe c19b 03be ae05 65bf
000000b0: 10f7 473e 81fa 723e 576e 3b3e 9ee4 8b3d
000000c0: a499 d33c d19b 6ebd ed7f 0f3e 078a e3be
000000d0: 35b0 923e d765 813e d41b 633e 5fea f0bf
000000e0: 0ba8 07be 08e8 47bf 87c5 aebe 9c6b 0c3e
000000f0: 0c7f 033e 50d1 ff3d 02d6 3dbf 06b7 61bf
00000100: 2d29 ae3d 994d e2bf d96f 0b3e a713 f3bf
00000110: 54d4 6bbe f0ae d73d 9c09 1cbb cd9f e2be
00000120: 29c4 89be 46ed 41be 4ed9 5cbc bfc3 24bf
00000130: 32d5 773d 6153 bf3d 0dc5 3dbf ddef 373e
00000140: 3c20 e2be 3b8c 633e c89a ed3d 4a0a 21bf
00000150: bf4e 1cbe 5ade 0abe 9c0c cdbe bc15 40bf
00000160: e3d4 8a3d 57a3 7f3e ce15 83be d20f 86be
00000170: b783 18bf 39f6 14bf 10d6 b8bd eb56 95be
00000180: e52d 993d e351 2ebf f699 20be 8a4b b53c
00000190: 6aaf 5a3e b9c0 73bf aa5e cf3c c4c7 16be
000001a0: 04a9 e23c a58b 21bf d23d d03d ae2b 0ebe
000001b0: e6e0 97bd 0ba7 983e 0643 0fbf 4e0a 3abf
000001c0: ba39 3d3d a9fe 1d3c 7e32 81bf edf9 683e
000001d0: e084 abbd 7abf 9fbe 47b3 39bf 01b0 543e
000001e0: f64a b43d ce0c 8bbf b271 15bf 514d 95bd
000001f0: 8fc0 3ebf f461 cc3d 8bb1 9a3f df6a 93be

fc2.weight f4 [3, 128]
0.029856702 0.047067262 0.04155149 -0.14596877 0.01173663 0.0053302054 0.0125988955 -0.071274295
-0.78613114 0.09165309 0.09824192 0.083193794 0.6022475 -0.058315393 -0.22179155 -0.028946891
-0.010961708 -0.024483774 0.46999264 -0.4829098 -0.029385839 0.004261008 0.019713433 -0.028470041
-0.007323337 0.04751755 0.04953287 0.076773055 -0.10110431 0.07831945 0.03817241 0.044379365
-0.3956165 -0.20825455 -0.005360912 0.0650664 -0.27694565 -0.021101283 -0.03983384 -0.09488161
-0.05207446 -0.09913716 0.04168991 0.10089313 0.04892933 -0.041258417 -0.06146996 0.05373478
0.5028247 -0.032590687 0.009313487 -0.024325615 -0.016876046 -0.022011233 0.02024969 -0.006827343
-0.028267771 -0.0795778 -0.069609195 0.10834936 0.09977073 0.075151965 0.22948894 0.75220954
-0.006267713 0.4073876 -0.04992408 -0.16400817 0.008797944 0.18154538 -0.01789536 0.0314497
0.44527087 0.03811643 0.013382365 0.07584845 -0.013416533 -0.0072288974 0.12839378 -0.030011354
0.41403937 -0.03773525 0.067308396 -0.0537763 -0.015293673 0.06963002 0.06017564 -0.14723112
-0.022215711 0.07476074 0.08375691 -0.27118576 0.24653836 -0.61471415 -0.025859334 -0.026261935
-0.017483423 -0.94204557 -0.23110451 0.020348117 0.046436753 -0.020980636 0.0035994262 0.03873186
0.014523339 -0.50664234 0.040887855 0.09918852 -0.06890369 0.038568195 0.09500598 0.5402423
0.0043850634 0.027839568 0.24687646 -0.04660081 0.02964662 -0.044279862 0.4742382 0.05611643
0.06508334 0.013217422 -0.21894293 -0.05388408 -0.094868526 0.04052069 0.021750076 0.100575395
0.3553884 0.37976548 0.7129066 0.31822255 0.24963404 0.11848114 -0.32503575 -0.14601609
1.030524 0.14639974 -0.18130222 -0.016227415 1.8342907 0.09459089 -1.4498109 0.13274546
0.27007675 -0.23475686 -1.297137 -0.59333074 0.5146291 0.28439054 0.120098606 0.16162705
0.14671831 -0.8941277 0.1607327 0.4997215 -0.4603257 0.085572205 -0.5173116 0.09964073
-0.816628 -0.9713511 -0.38275737 0.14888957 0.24235909 0.109939456 0.17980029 -0.46326202
0.12790148 -0.60171497 0.15935811 -0.32520512 0.08946621 0.17871301 0.14945802 -0.22660853
-2.1928756 0.14224221 0.3093283 -0.44854614 0.18051009 0.13677564 0.13286287 1.0907773
0.15679666 -0.71072453 -0.29713827 0.119127244 -0.026272235 0.4716312 -0.1302773 -2.2172616
0.14047189 -0.61092746 0.16029909 -0.5861415 0.079144 -0.06084354 0.11739186 -0.38119516
0.3030441 0.2294438 -0.35424387 0.6329723 0.19379988 0.14390536 -0.9761479 0.13284087
-0.57788736 0.1293766 -0.046294358 -0.005224552 0.12633853 -0.29124022 0.41884318 -0.47679195
0.13877304 0.07906912 0.17232673 -0.07885779 0.10803432 -2.173734 0.16837819 -0.46824893
0.07952369 1.6431265 -0.74931455 0.33139402 0.08349702 1.3161012 -0.4718205 0.13608442
0.41705924 -0.11836043 0.110963315 0.15910842 -0.45862594 0.5292947 -0.23339312 -1.693627
0.19275975 0.18809415 -0.93839157 0.1550234 0.10761337 -2.2890203 -1.6585376 0.078438595
0.27299207 0.80430955 0.18581761 0.15466483 -0.6872526 0.16489376 -0.13561833 -0.06255576
00000000: 0b96 f43c 9ac9 403d e531 2a3d d678 15be
00000010: ff4a 403c 01a9 ae3b 996b 4e3c 42f8 91bd
00000020: e43f 49bf 9eb4 bb3d 0f33 c93d 8261 aa3d
00000030: e42c 1a3f 1fdc 6ebd 531d 63be 0822 edbc
00000040: bc98 33bc 3292 c8bc e0a2 f03e f43f f7be
00000050: 92ba f0bc ed9f 8b3b 117e a13c 013a e9bc
00000060: 9af8 efbb c3a1 423d fbe2 4a3d 313b 9d3d
00000070: c70f cfbd f365 a03d ac5a 1c3d 23c7 353d
00000080: 3f8e cabe ae40 55be 97aa afbb 8841 853d
00000090: d2cb 8dbe 99dc acbc cf28 23bd 4a51 c2bd
000000a0: 074c 55bd 6c08 cbbd 0ac3 2a3d 0fa1 ce3d
000000b0: 1f6a 483d 96fe 28bd edc7 7bbd 0019 5c3d
000000c0: 1fb9 003f d07d 05bd 9997 183c 8346 c7bc
000000d0: a23f 8abc e750 b4bc aee2 a53c e7b7 dfbb
000000e0: d091 e7bc b0f9 a2bd 448f 8ebd 45e6 dd3d
000000f0: 9954 cc3d 46e9 993d 26ff 6a3e ce90 403f
00000100: 6361 cdbb 1c95 d03e 317d 4cbd c2f1 27be
00000110: 4025 103c 08e7 393e 4a99 92bc 67d1 003d
00000120: 8bfa e33e f91f 1c3d b541 5b3c 6f56 9b3d
00000130: 05d1 5bbc 63e0 ecbb a979 033e 5fda f5bc
00000140: f8fc d33e 4790 1abd fcd8 893d 8a44 5cbd
00000150: 5092 7abc 2f9a 8e3d bb7a 763d c1c3 16be
00000160: b9fd b5bc 291c 993d be88 ab3d dcd8 8abe
00000170: 8d74 7c3e e85d 1dbf f4d6 d3bc 4523 d7bc
00000180: 6539 8fbc e629 71bf a9a6 6cbe 18b1 a63c
00000190: 7734 3e3d 95df abbc 5ae4 6b3b 4da5 1e3d
000001a0: 4df3 6d3c 50b3 01bf 067a 273d 5a23 cb3d
000001b0: 611d 8dbd aff9 1d3d 7f92 c23d 524d 0a3f
000001c0: 94b0 8f3b ce0f e43c 2fcd 7c3e 7ee0 3ebd
000001d0: 78dd f23c cd5e 35bd 59cf f23e 57da 653d
000001e0: 6a4a 853d e38d 583c 9332 60be 8eb5 5cbd
000001f0: 6e4a c2bd 06f9 253d 372d b23c 79fa cd3d
00000200: 78f5 b53e 9f70 c23e 0c81 363f 11ee a23e
00000210: 11a0 7f3e 3da6 f23d 166b a6be 3e85 15be
00000220: 36e8 833f d0e9 153e 4aa7 39be 5bef 84bc
00000230: 0aca ea3f deb8 c13d 6793 b9bf 6dee 073e
00000240: 8047 8a3e 1a64 70be 9608 a6bf 86e4 17bf
00000250: bcbe 033f a39b 913e 42f6 f53d 9081 253e
00000260: 533d 163e 8ee5 64bf 1d97 243e 7fdb ff3e
00000270: cfaf ebbe 7b40 af3d 886e 04bf 7010 cc3d
00000280: 880e 51bf 77aa 78bf c6f8 c3be 8276 183e
00000290: fb2c 783e f027 e13d 911d 383e ae30 edbe
000002a0: 9bf8 023e fe09 1abf c62e 233e 4981 a6be
000002b0: 0f3a b73d 8b00 373e 860b 193e 110c 68be
000002c0: 1358 0cc0 f1a7 113e 4760 9e3e d7a7 e5be
000002d0: a3d7 383e ea0e 0c3e 340d 083e 979e 8b3f
000002e0: 4e8f 203e 0bf2 35bf 8222 98be fcf8 f33d
000002f0: df38 d7bc a579 f13e 6a67 05be 9de7 0dc0
00000300: ddd7 0f3e be65 1cbf 7225 243e 5f0d 16bf
00000310: 4016 a23d 1337 79bd 256b f03d 032c c3be
00000320: 9928 9b3e 51f3 6a3e 745f b5be 790a 223f
00000330: 7a73 463e ed5b 133e d4e4 79bf 7007 083e
00000340: 6df0 13bf 4d7b 043e 279f 3dbd b832 abbb
00000350: e35e 013e 701d 95be 9d72 d63e 131e f4be
00000360: 851a 0e3e feee a13d 6b76 303e 3180 a1bd
00000370: 1941 dd3d 751e 0bc0 556b 2c3e 53be efbe
00000380: 51dd a23d f851 d23f 14d3 3fbf 7aac a93e
00000390: 7c00 ab3d 0176 a83f 7592 f1be b759 0b3e
000003a0: ca88 d53e f466 f2bd bc40 e33d 51ed 223e
000003b0: 05d1 eabe dc7f 073f 9bfe 6ebe c5c8 d8bf
000003c0: d062 453e c19b 403e 6e3a 70bf 74be 1e3e
000003d0: 6664 dc3d 4f7f 12c0 f64a d4bf 6aa4 a03d
000003e0: 9ec5 8b3e 3be7 4d3f f946 3e3e 7560 1e3e
000003f0: c9ef 2fbf e9d9 283e 88df 0abe 3c1d 80bd

fc2.bias f4 [3]
0.024968617 0.06871445 -0.089912824
00000000: fc8a cc3c 29ba 8c3d 3724 b8bd
