1DCFD_FNO/1D_CFD_Rand_Eta0.01_Zeta0.01_periodic_Train_FNO.pt (torch, 541123 bytes, 42 tensors)

fc0.weight f4 [20, 31]
0	0xbe3fbf04	-0.1872521
1	0xbd37aefe	-0.04484462
2	0xbe964db1	-0.2935615
3	0xbe419d29	-0.18907608
4	0x3e2dcf22	0.16973546
5	0xbda95e1d	-0.08269904
6	0xbe6db740	-0.23214436
7	0x3d48a343	0.048983824
8	0xbd191615	-0.037374575
9	0xbd9eeb09	-0.07759673
10	0x3dd5bef7	0.10436814
11	0xbe0335e0	-0.1281352
12	0xbe52bc61	-0.20579673
13	0xbd2e9d94	-0.042630747
14	0xbd3d6c97	-0.046246137
15	0xbe905697	-0.28191063
16	0x3e085b0f	0.13315986
17	0xbdd41173	-0.10354891
18	0xbd8600dd	-0.065431334
19	0x3e0020d7	0.12512527
20	0xbddc7c8e	-0.107659444
21	0xbd974d9c	-0.0738785
22	0x3aa8b1d3	0.0012870379
23	0x3e804137	0.25049755
24	0xbe5d58cd	-0.21615906
25	0x3c7758dd	0.01509687
26	0x3eabd32f	0.33559558
27	0xbdd42dcd	-0.10360298
28	0x3e2cb821	0.16867115
29	0x3f08fdf5	0.5351251
30	0x3def0d50	0.11672461
31	0x3e3eb039	0.18621911
32	0xbd851283	-0.064976715
33	0xbf0731f5	-0.52810603
34	0x3d327d97	0.043576803
35	0x3b4c386f	0.0031161567
36	0xbed2a586	-0.4114191
37	0xbdd8e21d	-0.10590003
38	0xbe15ce40	-0.1462946
39	0xbec072ae	-0.37587494
40	0xbe0be6f4	-0.1366232
41	0xbd168e73	-0.036756944
42	0xbedcd133	-0.43128356
43	0x3ddd5e21	0.10808969
44	0x3d9efcfc	0.07763097
45	0xbf0bef0f	-0.5466165
46	0x3d578ce8	0.052624613
47	0x3d0d60a5	0.034515996
48	0xbe9ffd02	-0.31247717
49	0x3cf7d1df	0.030251442
50	0xbe00981e	-0.12558028
51	0xbe71cf64	-0.2361427
52	0xbdb735b5	-0.08945791
53	0x3def4d03	0.11684611
54	0xbe925ab1	-0.28584817
55	0x3e0513e5	0.1299587
56	0xbe10f362	-0.14155343
57	0x3e81727a	0.2528265
58	0x3e99702f	0.29968402
59	0x3e02af86	0.1276227
60	0xbf2d6534	-0.6773255
61	0xbce46130	-0.027878374
62	0xbd3f6bb0	-0.04673356
63	0xbd7628cc	-0.0600975
64	0xbe82bcce	-0.25534672
65	0x3dbcf6de	0.09226774
66	0xbddb686d	-0.10713277
67	0xbe6cf285	-0.23139389
68	0x3dede88e	0.11616622
69	0xbc99b9a0	-0.01876527
70	0xbd7a1a02	-0.06105996
71	0x3e262696	0.16225657
72	0x3cacf123	0.021111077
73	0xbe2a38fe	-0.16623303
74	0x3e1caede	0.15301082
75	0x3dc849c5	0.097796954
76	0xbd915038	-0.07095379
77	0x3e4fb94a	0.20285526
78	0x3c2f9492	0.010716574
79	0xbe001a78	-0.12510097
80	0x3dabe50d	0.08393297
81	0x3dc87b8e	0.09789191
82	0xbe2fc669	-0.17165531
83	0xbe8a63ab	-0.27029166
84	0xbd7f72ea	-0.06236545
85	0xbe9fbb3d	-0.3119754
86	0xbf0787d6	-0.52941644
87	0x3e03942a	0.12849489
88	0xbe677832	-0.22604445
89	0xbecffb12	-0.4062124
90	0xbde90216	-0.11377351
91	0xbeca7690	-0.3954358
92	0x3e9bd37c	0.30434787
93	0x3e0bf15b	0.13666289
94	0xbdc9f203	-0.09860613
95	0xbf884567	-1.064618
96	0xbdf6812f	-0.120363586
97	0xbdbd0270	-0.092289805
98	0xbf63fbf1	-0.8905631
99	0xbe0d3c3c	-0.13792509
100	0xbe24690c	-0.16055697
101	0xbf78a2a6	-0.9712318
102	0xbd32048e	-0.043461375
103	0xbde8a7db	-0.11360141
104	0xbf5054c3	-0.81379336
105	0xbd70a2b4	-0.058748916
106	0x3d12015c	0.035645828
107	0xbf17e36d	-0.593314
108	0x3e12e210	0.14344049
109	0x3e0c6352	0.13709763
110	0xbeab5ccd	-0.3346924
111	0x3cd73369	0.026269631
112	0xbc8156f6	-0.015788537
113	0xbe67782e	-0.22604439
114	0xbdb7582a	-0.08952363
115	0xbc2c9323	-0.010533127
116	0x3e960f27	0.29308435
117	0xbe3520d0	-0.17688298
118	0x3dfb2454	0.122627884
119	0x3e27cb8f	0.16386245
120	0xbd180d9c	-0.037122354
121	0x3e01d4eb	0.12678878
122	0x4000fc87	2.015413
123	0x3f16b556	0.58870447
124	0xbdab475a	-0.083632186
125	0x3d379e2b	0.044828575
126	0x3ee68d6a	0.45029765
127	0xbd0556e0	-0.032553554
128	0x3ae126e3	0.0017177727
129	0x3e69cb8b	0.22831552
130	0xbe1b8e30	-0.15190959
131	0x3c37cbfb	0.011218066
132	0x3e4b5467	0.19856416
133	0x3ccaf1ce	0.024773505
134	0xbd750fcb	-0.059829514
135	0x3eaf5b66	0.3424942
136	0xbe22a4bf	-0.15883158
137	0x3dcc541f	0.09976982
138	0x3e499651	0.19686247
139	0xbe8e5573	-0.27799568
140	0x3e07cfc5	0.13262852
141	0x3ef5fca2	0.48044306
142	0xbe542136	-0.20715794
143	0x3d652850	0.055946648
144	0x3e5d665b	0.21621077
145	0xbe06cde9	-0.13164486
146	0xbdf2b496	-0.1185085
147	0x3d00c33b	0.031436186
148	0x3d9d8887	0.07692056
149	0x3e21c75d	0.15798707
150	0xbc7a3f55	-0.015273889
151	0xbdbc36fe	-0.091901764
152	0xbdf81753	-0.12113824
153	0xbfc24e79	-1.5180198
154	0x3dceab64	0.10091284
155	0xbdfeb062	-0.12435986
156	0xbd4c057c	-0.049809918
157	0x3c938418	0.018007323
158	0xbd69f801	-0.05712128
159	0xbca4417d	-0.020050758
160	0xbd230a3d	-0.039804686
161	0xbe3f7b0a	-0.1869928
162	0x3d5fc9c8	0.054635793
163	0xbe257392	-0.16157368
164	0xbe1a19d1	-0.1504891
165	0xbd89bd4e	-0.0672556
166	0x3e0ead58	0.13933313
167	0xbe9ecb2f	-0.31014392
168	0x3d045283	0.03230525
169	0xbd9af300	-0.0756588
170	0xbeb08f5c	-0.34484375
171	0xbdb0d844	-0.086349994
172	0x3ca3a504	0.019976147
173	0xbeacf2f5	-0.33779112
174	0x3bb97a7b	0.0056603528
175	0xbe73f3d6	-0.23823485
176	0xbed241a2	-0.410657
177	0x3be0c521	0.006859437
178	0xbd7bfc67	-0.061520007
179	0xbe67eb73	-0.2264841
180	0xbe45f215	-0.19330628
181	0xbf025e25	-0.50924903
182	0x3f061387	0.52373546
183	0xbdbe161b	-0.0928156
184	0x3ee5feca	0.4492095
185	0xbf2262e4	-0.63432145
186	0x3cbf4f41	0.02335322
187	0x3c6db979	0.014509552
188	0x3e29ed4f	0.16594432
189	0xbce8f5f4	-0.028437592
190	0x3e360dea	0.17778745
191	0x3e1d5641	0.15364935
192	0xbda8ef84	-0.08248809
193	0xbe131f4e	-0.1436741
194	0xbe16637c	-0.14686388
195	0xbe13dbde	-0.14439341
196	0xbbbf368a	-0.005835359
197	0x3de9e063	0.114197515
198	0xbd86fc78	-0.06591123
199	0x3e0f8b9e	0.14018103
200	0x3e07c493	0.13258581
201	0xbdd5dbc9	-0.10442311
202	0xbe1d4712	-0.15359142
203	0x3d04a7f6	0.032386743
204	0x3d8e4263	0.06946256
205	0x3e0ea1f1	0.13928963
206	0x3e433a26	0.1906515
207	0x3d96b13c	0.073580235
208	0x3e11c73a	0.14236155
209	0x3ecafc88	0.3964579
210	0x3e01ce78	0.12676418
211	0x3bb4da34	0.005519176
212	0x3e57a185	0.21057709
213	0x3e23b81a	0.15988198
214	0xbdf3c6c4	-0.11903146
215	0x3eda82fe	0.42678064
216	0xbf182621	-0.5943318
217	0xbd27d433	-0.040973853
218	0xbd07b629	-0.033132706
219	0x3e34f67b	0.1767215
220	0xbd086f23	-0.033309113
221	0x3cc441f1	0.023957225
222	0x3e0afb09	0.13572325
223	0xbd8572ae	-0.06516014
224	0x3d06eed2	0.0329426
225	0x3e8215ee	0.25407356
226	0xbd8e8b1c	-0.06960127
227	0x3d855192	0.06509699
228	0x3ce8933d	0.028390521
229	0x3da1f69c	0.07908365
230	0x3d836586	0.064158484
231	0xbb66b17b	-0.0035201001
232	0xbd019822	-0.031639226
233	0x3de38ca2	0.11110808
234	0x3cbfaa6d	0.023396695
235	0xbe3ad651	-0.18245818
236	0x3c3223a9	0.01087276
237	0x3e9581bd	0.29200545
238	0xbe1d4495	-0.15358193
239	0x3cf37d6b	0.02972289
240	0xbd630e77	-0.055433717
241	0xbd32ae12	-0.043623038
242	0x3e06392d	0.13107748
243	0x3f2e6a52	0.6813098
244	0x3e66c7e0	0.22537184
245	0xbd73c7b0	-0.05951661
246	0x3eb67fce	0.35644382
247	0x3d8325f4	0.06403723
248	0x3e55b307	0.20869075
249	0xbdfc8bad	-0.123313285
250	0x3fec5421	1.8463174
251	0x3dcc592f	0.09977948
252	0x3d201de0	0.03909099
253	0x3fc5a024	1.5439496
254	0x3d83884b	0.0642248
255	0xbe3f6f5d	-0.18694825

fc0.bias f4 [20]
0	0x3db5711f	0.08859467
1	0xbd532036	-0.05154439
2	0x3d018f2f	0.03163069
3	0x3cf33f95	0.029693404
4	0xbe12631f	-0.14295624
5	0xbde27326	-0.11057119
6	0xbe98648c	-0.2976421
7	0x3e444eff	0.1917076
8	0x3ea57d9f	0.32322404
9	0x3e339fa8	0.17541373
10	0x3d86ee2a	0.06588395
11	0x3c5331e2	0.012890311
12	0xbeb0bbda	-0.3451832
13	0x3eb037df	0.34417626
14	0x3fcd5127	1.6040391
15	0x3b6e79f1	0.00363886
16	0xbdbf8e5a	-0.09353323
17	0x3f8dd496	1.1080501
18	0x3eb1f0ba	0.34753972
19	0x3f8775ce	1.0582826

w0.weight f4 [20, 20, 1]
0	0xbe543643	-0.20723824
1	0x3da96513	0.082712315
2	0x3d60b98e	0.05486446
3	0xbdada395	-0.084784664
4	0x3d79e914	0.061013296
5	0x3d97dbf5	0.07415
6	0xbe19e129	-0.15027298
7	0xbe4340d8	-0.19067705
8	0xbdccf4e8	-0.1000765
9	0x3cb16d6f	0.021658627
10	0x3e400b0c	0.18754214
11	0x3e30cb41	0.17265035
12	0x3e240e74	0.16021138
13	0x3e57b1e6	0.21063957
14	0x3d7129c4	0.05887772
15	0xbd05465d	-0.032537807
16	0x3da80e3f	0.08205842
17	0xbc555cc7	-0.013022608
18	0xbe1ce159	-0.15320338
19	0xbe5a4902	-0.21316913
20	0xbdd11316	-0.102087185
21	0x3c11d95b	0.008901919
22	0x3e1e5a23	0.15464072
23	0xbd3e6aed	-0.04648869
24	0xbc93f80b	-0.018062612
25	0xbd63a54f	-0.055577572
26	0xbb5f2acc	-0.0034052609
27	0xbd8ed996	-0.06975095
28	0x3e2805b5	0.16408427
29	0xbd7ab1e4	-0.061204806
30	0x3e677103	0.22601704
31	0xbe4409cc	-0.19144362
32	0x3d5cd328	0.05391231
33	0xbda658f9	-0.08122439
34	0x3cae0bce	0.021245863
35	0xbe322ba9	-0.17399468
36	0x3eac0629	0.3359845
37	0xbda0ffe0	-0.07861304
38	0xbea7ec16	-0.32797307
39	0x3d890f48	0.06692368
40	0x3deccaad	0.11562095
41	0x3e064f4a	0.13116184
42	0x3ce3f5d3	0.027827179
43	0xbdc697d3	-0.09696927
44	0xbe0ad4cd	-0.1355774
45	0x3e0d5aec	0.13804215
46	0xbd183ab3	-0.037165355
47	0xbc8b9472	-0.017038558
48	0x3e257601	0.16158296
49	0xbcac4c05	-0.021032343
50	0x3d77e117	0.060517397
51	0xbc6a870c	-0.014314424
52	0xbdd63c5d	-0.10460732
53	0xbcfc2182	-0.030777697
54	0xbdff64a1	-0.12470365
55	0xbd0e227d	-0.03470086
56	0x3d43d2f5	0.047808606
57	0x3e01cb5d	0.12675233
58	0xbea17ecf	-0.3154206
59	0x3d775f1a	0.06039343
60	0x3d02f1ad	0.03196876
61	0xbd943f84	-0.07238677
62	0xbe013472	-0.12617663
63	0xbed5854f	-0.4170327
64	0x3e5d3d2d	0.21605368
65	0x3e21ee74	0.15813619
66	0x3e0a6005	0.13513191
67	0xbe1017fd	-0.14071651
68	0x3eaf5ad0	0.34248972
69	0xbe1051f4	-0.14093763
70	0xbda3e360	-0.08002353
71	0x3d3fe601	0.04685021
72	0x3e521aff	0.2051811
73	0x3d586002	0.052825935
74	0xbe488515	-0.19582017
75	0xbd2e2098	-0.042511553
76	0x3df24bb1	0.11830843
77	0xbdd41b46	-0.103567645
78	0xbe3c4e65	-0.1838928
79	0xbe3b4c55	-0.18290837
80	0x3dcd70c6	0.100312755
81	0x3d20b322	0.039233334
82	0x3c1f08f3	0.0097067235
83	0xbe482192	-0.19544056
84	0xbc95e7f3	-0.018299079
85	0xbe60c696	-0.21950755
86	0x3da26967	0.0793026
87	0x3db1d4b1	0.08683146
88	0x3dba52c6	0.09097819
89	0xbdb293c2	-0.08719589
90	0x3bb13f3e	0.0054091504
91	0x3d713383	0.058887016
92	0x3c322649	0.010873386
93	0x3e668ce9	0.2251469
94	0x3e284d09	0.16435637
95	0x3cf3f087	0.029777778
96	0x3deda487	0.11603647
97	0xbc90c4e6	-0.017672013
98	0x3e7f02e3	0.24903445
99	0xbe128df6	-0.14311966
100	0xbdddd11e	-0.108309016
101	0x3ccc3061	0.024925413
102	0x3d776644	0.060400262
103	0xbd0ffb74	-0.035151914
104	0xbe14f070	-0.14544845
105	0x3e180ef2	0.14849451
106	0xbd87b4f0	-0.06626308
107	0x3e3c0a65	0.1836334
108	0xbd58a942	-0.05289579
109	0x3dfc6a41	0.12324954
110	0x3dcdefbb	0.100554906
111	0x3e0727fe	0.1319885
112	0x3e78c79e	0.24294898
113	0x3b00f08c	0.0019674627
114	0x3e113cd5	0.14183362
115	0xbdd8541a	-0.10562916
116	0x3e849056	0.2589137
117	0xbd54473f	-0.051825758
118	0xbe0d8461	-0.1382003
119	0x3e299784	0.16561705
120	0x3e3060d6	0.1722444
121	0xbda3a061	-0.07989574
122	0x3e217d8b	0.15770547
123	0x3e1b5cc0	0.151721
124	0xbd98b66d	-0.0745667
125	0xbd4b4827	-0.049629357
126	0x3e5c1a98	0.2149452
127	0x3dfe8d1a	0.12429257
128	0x3cb9decd	0.022689248
129	0x3dc6c629	0.09705765
130	0x3df23b89	0.11827762
131	0xbe0035c8	-0.12520516
132	0xbc446d42	-0.01198894
133	0xbe50889b	-0.20364611
134	0xbe38eadb	-0.1805834
135	0xbdfc54d6	-0.12320869
136	0xbd48285e	-0.048866622
137	0x3e3f6f6c	0.18694848
138	0xbe44b915	-0.19211228
139	0xbe280769	-0.16409077
140	0xbb9cbc63	-0.0047831996
141	0xbd15dd51	-0.036588017
142	0xbd6ad8e3	-0.057335746
143	0x3dfe5f96	0.12420575
144	0xbe089ff8	-0.13342273
145	0x3db01b22	0.08598925
146	0xbdc32f58	-0.095305145
147	0x3dc42c32	0.09578742
148	0xbca5e05f	-0.02024859
149	0xbdd282c7	-0.1027885
150	0x3cc57583	0.024103886
151	0xbd4b686e	-0.04966014
152	0x3d967884	0.07347205
153	0xbd939b8f	-0.07207405
154	0x3d5a0160	0.053223968
155	0xbd282fc3	-0.041061174
156	0x3d9afe7e	0.07568072
157	0xbcef7189	-0.029228942
158	0xbd7f2bb2	-0.06229753
159	0x3deb4cdd	0.1148927
160	0x3df0d012	0.11758436
161	0xbe27ef9c	-0.16399997
162	0x3db60831	0.08888281
163	0x3dc67c33	0.09691658
164	0x3e102e5d	0.14080186
165	0x3e0e39d4	0.13889247
166	0xbce6335a	-0.028100658
167	0xbd3910df	-0.045182105
168	0xbe07df44	-0.13268763
169	0x3e825c2b	0.25460944
170	0xbddac58a	-0.10682209
171	0xbe4d2ab5	-0.20035823
172	0xbd2925d2	-0.041295834
173	0x3c273567	0.010205603
174	0x3c97aed7	0.018515987
175	0x3e418724	0.18899208
176	0xbda72602	-0.08161546
177	0xbdcfd24b	-0.10147532
178	0xbe5d3741	-0.21603109
179	0x3d731297	0.0593439
180	0xbe107247	-0.14106093
181	0x3e534664	0.2063232
182	0x3e19b621	0.15010883
183	0x3e4a5e66	0.19762573
184	0x3e657871	0.22409226
185	0x3dd75e8f	0.105160825
186	0x3e0b6b53	0.1361516
187	0x3c04a38f	0.008095636
188	0x3b04e87e	0.0020280178
189	0xbd97c177	-0.07409947
190	0x3dfe607e	0.12420748
191	0xbe420aa8	-0.18949378
192	0xbe66a652	-0.22524384
193	0x3daee013	0.085388325
194	0xbd8581ba	-0.06518884
195	0x3bce0331	0.0062870015
196	0x3db89a97	0.09013861
197	0x3bb97aa8	0.0056603737
198	0x3d96dd82	0.07366468
199	0x3e0fd47d	0.14045902
200	0xbe1675d0	-0.1469338
201	0xbe2cca61	-0.16874076
202	0xbd3cacb5	-0.046063144
203	0xbde0950f	-0.10965931
204	0x3d1c7783	0.038199913
205	0xbe434ae0	-0.19071531
206	0x3de6516f	0.11246001
207	0x3e235b18	0.15952718
208	0x3d81f1f6	0.063449785
209	0x3de821a4	0.113345414
210	0x3d11fd0f	0.035641726
211	0xbd9d39b4	-0.076770216
212	0xbe93f633	-0.28898773
213	0x3d6d7f7a	0.0579829
214	0x3df1e037	0.11810344
215	0xbd140490	-0.036137164
216	0x3dfc7e59	0.123287864
217	0x3db1fea1	0.08691145
218	0xbddbf9e4	-0.10741022
219	0xbdda01e5	-0.106448926
220	0x3e137340	0.14399433
221	0x3dcb211d	0.09918425
222	0xbdbbfaa4	-0.09178665
223	0x3e0f572c	0.13998097
224	0x3dfcbb27	0.12340384
225	0xbcd1e457	-0.025621576
226	0x3e0e1bac	0.13877743
227	0x3e3909e8	0.18070185
228	0x3d81ffbe	0.06347607
229	0xbe003eb9	-0.12523927
230	0xbdc0fd80	-0.09423351
231	0x3e03e35b	0.12879698
232	0xbe03eea7	-0.12884007
233	0xbe699151	-0.2280934
234	0xbd86d7b7	-0.06584113
235	0xbc5ed227	-0.013599909
236	0xbd082a60	-0.033243537
237	0x3db0a218	0.08624667
238	0x3e3df029	0.18548645
239	0x3ce3fb89	0.027829902
240	0x3d540167	0.05175915
241	0x3e03bab3	0.12864189
242	0x3df48110	0.11938679
243	0x3b6bb3f8	0.0035965424
244	0x3e19e1b8	0.15027511
245	0x3d88d56a	0.066813305
246	0x3e12528a	0.14289299
247	0x3d1450ec	0.036209986
248	0x3ca29c49	0.019849913
249	0xbe42fea9	-0.19042458
250	0x3df05ce6	0.11736469
251	0x3e14c7b4	0.14529306
252	0xbdcdffd0	-0.10058558
253	0x3db69334	0.089147955
254	0x3dd28c09	0.10280616
255	0xbd046618	-0.032323927

w0.bias f4 [20]
0	0x3ebc1beb	0.3674005
1	0x3dd50602	0.104015365
2	0xbe4447a7	-0.19167958
3	0xbf64cae7	-0.89372104
4	0x3e17cacd	0.14823456
5	0x3e872bc6	0.26400584
6	0x3e19d8bd	0.15024085
7	0x3ff3237b	1.8995203
8	0xbd3ab503	-0.045582782
9	0x3f167f71	0.5878821
10	0x3cae9405	0.021310816
11	0x3e551897	0.20810162
12	0xbd83eb1c	-0.06441328
13	0xbd073af8	-0.03301522
14	0xbf68458f	-0.9073114
15	0x3def6046	0.116882846
16	0x3e25740d	0.16157551
17	0xbec824f0	-0.3909068
18	0xbc7d7c9f	-0.0154716065
19	0x3e43e03c	0.19128507

w1.weight f4 [20, 20, 1]
0	0x3de02c2f	0.10945927
1	0x3d64e2c2	0.055880316
2	0x3dbc92c2	0.09207679
3	0xbde9391b	-0.11387845
4	0xbd0fdbb8	-0.03512165
5	0x3e219f58	0.15783441
6	0xbe3f41c5	-0.18677433
7	0x3b9e3d19	0.0048290608
8	0x3e26dee3	0.16295962
9	0x3d1a5ed2	0.037688084
10	0xbd90518b	-0.07046803
11	0x3d84e3a3	0.06488731
12	0x3e869097	0.26282188
13	0x3de468f7	0.11152833
14	0x3e044e21	0.12920429
15	0xbcd4bacc	-0.025967978
16	0xbd7b8107	-0.061402347
17	0xbdeede1e	-0.11663459
18	0xbd8f0e8d	-0.06985197
19	0xbd1b8ca6	-0.03797593
20	0x3dae0dc4	0.08498719
21	0xbe34758d	-0.17622967
22	0x3b3dca53	0.0028959706
23	0xbd2a7171	-0.041612092
24	0x3e14f927	0.14548169
25	0x3d1bd89c	0.03804837
26	0xbe588281	-0.21143533
27	0x3dce09b8	0.100604475
28	0x3e1149e2	0.1418834
29	0x3e0db79b	0.13839571
30	0xbe39c8bc	-0.1814298
31	0x3dbcc4f9	0.09217257
32	0xbd062268	-0.032747656
33	0x3e724c50	0.23661923
34	0x3df769ba	0.120807126
35	0xbe601766	-0.21883926
36	0xbc402b1a	-0.011729026
37	0x3e42e974	0.19034368
38	0x3ac149de	0.0014746746
39	0x3ccf1d52	0.025282536
40	0x3eb99847	0.3624899
41	0x3dfa031f	0.122076266
42	0x3c42ee53	0.011897641
43	0x3ad906e3	0.0016557839
44	0xbe3dc9ed	-0.1853406
45	0x3df45880	0.119309425
46	0xbe0c7385	-0.13715942
47	0xbcb6a344	-0.022294648
48	0x3e27a083	0.16369824
49	0xbd05204c	-0.032501504
50	0x3c2e47c3	0.0106372265
51	0xbddacbfb	-0.106834374
52	0x3e9df2b2	0.30849224
53	0x3e276fbf	0.16351222
54	0x3d6ce7d7	0.057838287
55	0xbe39bd86	-0.18138704
56	0xbd6c39d2	-0.05767233
57	0xbe60ba48	-0.2194606
58	0xbdc16e62	-0.09444882
59	0x3d360890	0.04444176
60	0xbd88810f	-0.06665241
61	0x3dc70ec8	0.09719616
62	0xbe541ca7	-0.20714055
63	0x3dfc005a	0.123047546
64	0x3d9c615a	0.07635756
65	0x3cdb7bb2	0.026792381
66	0xbe116007	-0.14196788
67	0x3d08f2d2	0.033434696
68	0x3e8750d4	0.26428854
69	0x3ddd1fa8	0.107970536
70	0xbe6f07ba	-0.23342791
71	0x3de1dcc5	0.110284366
72	0xbea100a0	-0.3144579
73	0x3d44c671	0.04804081
74	0xbcd77d9e	-0.026305016
75	0x3ddc37cf	0.10752832
76	0xbdc7093b	-0.097185574
77	0xbe83e67e	-0.2576179
78	0xbdbc2694	-0.09187046
79	0xbddf0a5b	-0.10890647
80	0xbe03654e	-0.12831613
81	0x3d094e7e	0.03352212
82	0xbd1f1a02	-0.038843162
83	0x3bc79f94	0.0060920212
84	0x3e43ada9	0.19109215
85	0xbcbcc754	-0.023044266
86	0x3e678871	0.22610642
87	0xbb5b94ff	-0.0033505557
88	0x3dc12c75	0.09432308
89	0xbd135f10	-0.03597933
90	0x3e0596f6	0.13045868
91	0xbc203e4a	-0.009780476
92	0xbc481fed	-0.012214643
93	0xbe01975c	-0.12655395
94	0xbd00687f	-0.031349655
95	0x3dbc5e21	0.09197641
96	0x3de9431b	0.113897525
97	0x3e37854a	0.1792194
98	0x3e4752e0	0.19465208
99	0xbd3e02a0	-0.046389222
100	0x3df2066a	0.1181763
101	0xbdeac93d	-0.114641644
102	0x3dc1ff90	0.09472573
103	0x3dad9839	0.084763
104	0x3e101899	0.14071883
105	0x3e0bdaad	0.13657637
106	0xbdcfe176	-0.10150425
107	0x3c9e408f	0.019317893
108	0xbd6c5943	-0.057702314
109	0xbc986f76	-0.018607836
110	0x3d8e1836	0.069382116
111	0x3dc0c891	0.09413255
112	0xbe3f8495	-0.1870292
113	0x3dd650cf	0.10464632
114	0xbe83bf0f	-0.25731704
115	0xbde06050	-0.1095587
116	0xbdb21264	-0.08694914
117	0xbdc8654c	-0.09784946
118	0xbd928b37	-0.071554594
119	0x3da5dc7f	0.08098697
120	0xbec7c9b0	-0.39021063
121	0xbb39311c	-0.0028258031
122	0x3e48fc48	0.19627488
123	0xbdf77694	-0.12083164
124	0xbdeb7ff4	-0.114990145
125	0x3e1157de	0.14193675
126	0x3e19d79a	0.15023652
127	0xbd3f0de7	-0.046644118
128	0x3d0068b8	0.031349868
129	0xbe4f51b6	-0.20246014
130	0xbc81bcc9	-0.01583709
131	0x3d1c834e	0.03821116
132	0xbeaba698	-0.33525538
133	0x3d48ac2b	0.048992317
134	0x3ecf9ef4	0.4055096
135	0xbdd02d08	-0.10164839
136	0xbe4545c0	-0.19264889
137	0x3c9f13e6	0.019418668
138	0xbc14e3db	-0.009087528
139	0xbde6fdfc	-0.112789124
140	0x3cc93784	0.024562605
141	0x3ea0de7b	0.3141974
142	0x3da52fee	0.080657825
143	0x3d8020d6	0.06256263
144	0xbd378eb9	-0.044813845
145	0x3d0571c3	0.032579195
146	0x3df536b2	0.11973323
147	0xbd159cab	-0.036526363
148	0xbd49be21	-0.049253587
149	0x3d072b07	0.03300002
150	0x3e86ca2c	0.2632612
151	0x3da861f6	0.082218096
152	0xbd8dd604	-0.06925586
153	0xbe47a978	-0.19498241
154	0xbd5a15ab	-0.05324332
155	0x3e7559c9	0.23960032
156	0x3df30fcd	0.11868248
157	0xbde9c7da	-0.11415072
158	0xbd5130b2	-0.05107183
159	0xbc936b3b	-0.017995467
160	0x3d9c4a9d	0.07631419
161	0xbe5ab6ce	-0.21358797
162	0x3d9c68dd	0.076371886
163	0xbd77bf86	-0.060485385
164	0x3e49a1a5	0.19690569
165	0xbdaba909	-0.0838185
166	0x3e72b7bf	0.23702906
167	0x3cb284f2	0.021791909
168	0x3e056fe0	0.13030958
169	0xbc45e4c5	-0.012078469
170	0x3dbb694a	0.09150942
171	0xbd17e6b4	-0.03708525
172	0xbb92368d	-0.0044620694
173	0x3d9172b2	0.071019545
174	0x3bab60fc	0.0052300673
175	0x3d6af41c	0.057361707
176	0x3e78934a	0.24274936
177	0xbd286f74	-0.041121915
178	0x3e0ff5c3	0.14058594
179	0xbc855db4	-0.016280033
180	0x3e36e428	0.17860472
181	0x3c3582fe	0.011078594
182	0x3a3f0a45	0.0007287602
183	0xbd5afd6e	-0.053464346
184	0x3e19fed7	0.1503862
185	0x3e27332f	0.16328119
186	0xbd2703ae	-0.040774994
187	0xbca1b927	-0.019741608
188	0x3e4e6402	0.20155337
189	0x3b96d8fb	0.004603503
190	0x3d0d4030	0.034485042
191	0x3d8b4f6f	0.0680226
192	0x3e144cb8	0.14482391
193	0x3dd777af	0.10520875
194	0xbcb2b6ca	-0.021815676
195	0x3c6750e1	0.014118404
196	0x3bdf5924	0.0068160463
197	0x3dcdd768	0.10050851
198	0x3ddfce09	0.1092797
199	0x3d53f057	0.051742878
200	0x3d1e6437	0.03866979
201	0x3d0ad132	0.03389091
202	0x3e029619	0.1275257
203	0x3d3fa807	0.046791103
204	0x3d43d1cf	0.04780751
205	0x3e06020e	0.13086721
206	0xbe5eae44	-0.21746165
207	0xbcac9ba3	-0.021070307
208	0x3e3b4a43	0.18290047
209	0xbf5d4fca	-0.86449873
210	0xbe4da0b6	-0.20080838
211	0xbed16647	-0.40898344
212	0x3d977b38	0.07396549
213	0xbe06dcb6	-0.13170132
214	0x3d919a7a	0.07109542
215	0x3d86d3cc	0.06583366
216	0xbe02094e	-0.12698862
217	0xbe596976	-0.21231636
218	0xbd703b15	-0.058650095
219	0x3ddbdc15	0.10735337
220	0xbd99bfec	-0.07507309
221	0x3d817507	0.06321149
222	0xbe06a7e0	-0.13149977
223	0xbcea8731	-0.028628917
224	0x3e52e040	0.20593357
225	0x3da2be92	0.07946505
226	0xbe4a12ce	-0.19733736
227	0xbcbc2137	-0.022965057
228	0xbe08e48f	-0.13368438
229	0xbd2bf3a3	-0.041980397
230	0xbdf347c9	-0.11878926
231	0xbd8fcc6f	-0.070214145
232	0x3df5a75b	0.11994811
233	0x3e02633d	0.12733169
234	0x3e178440	0.14796543
235	0xbd6efb62	-0.058345206
236	0x3d293dfa	0.04131887
237	0x3db2371e	0.08701919
238	0xbd88a720	-0.066725016
239	0x3d1572aa	0.036486305
240	0x3c86eb77	0.0164697
241	0xbe0a13da	-0.13484135
242	0x3ddef302	0.10886194
243	0xbdd709fe	-0.10499953
244	0xbd5d5602	-0.0540371
245	0x3e10cfc2	0.14141753
246	0x3e1528c3	0.1456633
247	0xbdf2d14f	-0.11856329
248	0xbda8787b	-0.08226105
249	0xbd4e61ce	-0.050386243
250	0x3d89c31b	0.067266665
251	0xbd9356eb	-0.07194313
252	0xbd9611ea	-0.073276356
253	0xbdd0aa3e	-0.10188721
254	0x3e0907b5	0.13381846
255	0xbd227f77	-0.03967234

w1.bias f4 [20]
0	0x3e0cde80	0.13756752
1	0xbe056438	-0.13026512
2	0xbdd376c3	-0.103253864
3	0x3ec8ee1b	0.3924416
4	0x3ddd5e97	0.10809057
5	0x3f81598b	1.0105451
6	0xbf0bd05d	-0.5461481
7	0x3d84a616	0.06476991
8	0x3df88eea	0.12136634
9	0x3a97cdac	0.0011581681
10	0x3d8ba411	0.068184026
11	0x3e8e0435	0.27737585
12	0xbe747c1f	-0.23875473
13	0xbea8a53b	-0.3293856
14	0xbeb7b75a	-0.35882074
15	0xbf62208d	-0.8833092
16	0xbfa5ca39	-1.2952338
17	0xbf21db17	-0.6322493
18	0xbec6cff5	-0.38830534
19	0xbcb9372b	-0.022609314

w2.weight f4 [20, 20, 1]
0	0x3c83e71e	0.016101416
1	0x3bf285a9	0.0074011874
2	0x3b887916	0.004164825
3	0xbbcd5f8a	-0.0062674927
4	0x3dcc27de	0.099685416
5	0xbc2a7585	-0.010403995
6	0xbcf06d86	-0.0293491
7	0x3d942009	0.07232673
8	0xbd632777	-0.05545756
9	0xbcf0315a	-0.029320408
10	0x3ddbea7d	0.107380845
11	0xbcd9a15a	-0.026566196
12	0xbcc0cd1d	-0.023535306
13	0x3d0c9d84	0.034329906
14	0xbda50fc8	-0.08059651
15	0x3cd9f806	0.026607525
16	0x3cd4656b	0.025927266
17	0x3c01b14b	0.007915805
18	0x3e2f7e00	0.17137909
19	0xbd385687	-0.045004394
20	0x3bbd9aed	0.005786291
21	0x3e52f017	0.205994
22	0xbd815b61	-0.06316257
23	0x3d8b125e	0.06790613
24	0xbda5dd2b	-0.08098825
25	0x3d2737ee	0.040824823
26	0xbc084ca7	-0.008319057
27	0x3c327b5f	0.010893672
28	0xbdc39f11	-0.09551824
29	0x3e10c4d6	0.14137587
30	0xbdae33c5	-0.08505968
31	0x3dbd8b19	0.092550464
32	0x3c9ff886	0.019527685
33	0x3dc82230	0.09772146
34	0x40229d4c	2.5408506
35	0x3cfdfa72	0.03100321
36	0x3e7d0cfd	0.24711986
37	0x3a58651a	0.00082548114
38	0x3ff85900	1.9402161
39	0x3d725f09	0.059172664
40	0xbd9cb142	-0.07650997
41	0x3cdcc406	0.02694894
42	0xbe301297	-0.17194591
43	0x3bb1397e	0.005408465
44	0x3e057a99	0.13035049
45	0xbdb78822	-0.08961512
46	0xbc15fc4e	-0.009154392
47	0xbca9f144	-0.020744927
48	0xbdedf090	-0.11618149
49	0xbcd3d22c	-0.025857054
50	0x3de15cc4	0.11004022
51	0xbc60e27c	-0.013725873
52	0x3b732540	0.003710106
53	0xbdc77a57	-0.09740131
54	0x3f3213a9	0.6956125
55	0xbd12d50d	-0.035847712
56	0xbcb27563	-0.02178449
57	0xbd0e8c03	-0.034801494
58	0x3f35e4aa	0.7105204
59	0x3df0507c	0.11734101
60	0xbc929f8d	-0.017898345
61	0x3e555b5d	0.20835634
62	0xbe294d1f	-0.16533326
63	0xbde9a720	-0.1140883
64	0xbdcef182	-0.10104658
65	0x3cc9cae0	0.024632871
66	0x3d97cb06	0.074117705
67	0xbd8c7997	-0.06859129
68	0x3d90a779	0.07063193
69	0x3e5be5e7	0.2147442
70	0xbeea6d47	-0.45786497
71	0x3d12b224	0.03581442
72	0xbd765a3e	-0.060144655
73	0xbae8381c	-0.0017716917
74	0xbec8715f	-0.39148995
75	0x3dbf8c4c	0.093529314
76	0x3e2a9407	0.1665803
77	0x3ec0ba92	0.37642342
78	0xbea06385	-0.31325927
79	0xbe200caa	-0.15629831
80	0xbad56e72	-0.0016283526
81	0xbe3a76ab	-0.1820933
82	0xbd1e80af	-0.03869694
83	0x3d89a455	0.06720797
84	0x3e46d857	0.19418465
85	0xbdbb9e7c	-0.09161088
86	0x3d4e9b4f	0.050441083
87	0xbdd25474	-0.102700144
88	0x3e915a34	0.28389132
89	0xbdef855c	-0.11695358
90	0x3bd79ece	0.0065802103
91	0x3da4f6dc	0.08054897
92	0x3dcb1aab	0.09917196
93	0x3c0514d0	0.008122638
94	0xbe42380a	-0.1896669
95	0xbcef268a	-0.029193182
96	0xbda58e53	-0.08083787
97	0x3d9952c7	0.07486492
98	0xbf2408fb	-0.64076203
99	0x3d356959	0.04428992
100	0x3adfa1ed	0.0017061807
101	0xbd27168e	-0.040792994
102	0x3d27ac46	0.040935777
103	0x3e0f4612	0.13991573
104	0x3e30a45d	0.172502
105	0xbd052b7d	-0.032512177
106	0xbca74959	-0.020420717
107	0xbe8e44c1	-0.2778683
108	0xbe1f29a5	-0.1554323
109	0x3ca86ec6	0.020560633
110	0x3cfc5cd3	0.03080598
111	0x3dc0a7c1	0.094069965
112	0x3d551a21	0.05202687
113	0x3dfe688e	0.12422286
114	0xbf18c1b6	-0.5967058
115	0x3ca9ea71	0.020741673
116	0x3d101a46	0.035181306
117	0xbd5725f5	-0.052526433
118	0xbe1657a8	-0.14681876
119	0x3cdd3cbb	0.027006498
120	0xbd514109	-0.051087413
121	0xbd527787	-0.05138352
122	0x3e8f8ba5	0.28036228
123	0x3ca830ac	0.020531021
124	0x3dbe34b6	0.092873976
125	0x3dca2e4c	0.09872112
126	0xbbe028c1	-0.0068407957
127	0xbe57ac0b	-0.21061723
128	0x3d1d69da	0.038431026
129	0x3e41a396	0.1891006
130	0x3df1dbea	0.118095234
131	0x3d0c21e1	0.034211997
132	0xbd3b88c8	-0.04578474
133	0xbe2b9123	-0.16754584
134	0x3f250b21	0.64470106
135	0xbe13435c	-0.14381164
136	0xbd7ed27f	-0.062212463
137	0x3d8015a3	0.06254127
138	0x3f0b5764	0.5443022
139	0xbe557ff2	-0.20849589
140	0x3d2887a5	0.041144986
141	0xbde6cfe1	-0.112701185
142	0xbe36447e	-0.17799565
143	0x3c1384d9	0.009003841
144	0xbd42011f	-0.04736435
145	0xbd7e13ba	-0.06203053
146	0xbc0847bc	-0.008317884
147	0xbdf5044e	-0.11963712
148	0xbd784f41	-0.060622457
149	0x3ddc7585	0.107646026
150	0x3d731a91	0.059351508
151	0x3c9f7653	0.019465601
152	0xbcf94509	-0.030428426
153	0x3e20b0c3	0.15692429
154	0x3ff3c480	1.9044342
155	0x3da6a39e	0.08136676
156	0x3e474367	0.19459306
157	0xbcef072b	-0.029178223
158	0x3f6020dc	0.8755014
159	0x3d9a11d0	0.07522929
160	0xbe29edcd	-0.1659462
161	0xbd253a73	-0.040338945
162	0x3e2f2d43	0.1710711
163	0xbca24f4c	-0.019813202
164	0xbcbcf85d	-0.023067648
165	0x3d381b91	0.044948164
166	0x3d2ff666	0.042959593
167	0xbe4d3b04	-0.20042044
168	0x3da71154	0.08157602
169	0xbe189eab	-0.14904277
170	0x3e0dfff1	0.13867165
171	0xbd91e7ce	-0.07124291
172	0xbc65f751	-0.014036016
173	0xbaccc688	-0.0015623132
174	0x3f2f40f2	0.68458474
175	0x398638ba	0.00025600736
176	0x3d778cc6	0.060436986
177	0x3df09801	0.117477424
178	0xbd543a03	-0.051813137
179	0xbc4bc3c6	-0.012436813
180	0xbcda527d	-0.026650662
181	0xbe107a8d	-0.1410925
182	0x3de08350	0.10962546
183	0xbb059257	-0.0020381415
184	0x3c01c547	0.00792057
185	0x3ddf9210	0.10916531
186	0x3cb058c9	0.021526711
187	0x3e1bf308	0.15229428
188	0x3e47c8f8	0.19510257
189	0x3db7c6d0	0.08973467
190	0x3e2a47a9	0.16628899
191	0xbda3a1a8	-0.07989818
192	0x3dbbc97e	0.09169291
193	0x3d97ec96	0.07418172
194	0xbdd7e682	-0.10542013
195	0xbd9d6168	-0.076845944
196	0x3e8d1140	0.27552223
197	0xbd4a651b	-0.049412828
198	0xbf23d387	-0.6399464
199	0xbe10eb91	-0.14152361
200	0x3dbd4aa3	0.092427514
201	0x3caa1f5f	0.020766912
202	0x3e61b45d	0.2204146
203	0x3d82b186	0.06381516
204	0xbe5107d9	-0.2041315
205	0xbd51dd57	-0.051236477
206	0x3cb70ff1	0.022346469
207	0xbd397db5	-0.0452859
208	0xbe0a3d73	-0.13500004
209	0x3df1dfd8	0.11810273
210	0x3e6b710a	0.2299234
211	0x3d423933	0.04741783
212	0xbdc6148b	-0.09671887
213	0x3d4ec8f1	0.0504846
214	0x3fd6efac	1.6791892
215	0x3d2a469c	0.041571245
216	0x3ced8902	0.028995994
217	0x3e4fb6ca	0.20284572
218	0x3f7716f1	0.9651938
219	0x3dbfc5a8	0.09363872
220	0xbb5e0941	-0.0033880027
221	0xbcff8789	-0.031192558
222	0x3ec0dd99	0.37669066
223	0x3d9d96f0	0.07694805
224	0xbc98831c	-0.018617205
225	0xbbb73221	-0.0055906926
226	0xbd4e5e03	-0.050382625
227	0xbbcec9eb	-0.0063106916
228	0xbe641e6c	-0.2227723
229	0x3d157eeb	0.03649799
230	0xbd2e380c	-0.04253392
231	0xbda35235	-0.07974664
232	0xbdaa84e9	-0.08326132
233	0xbda1dc56	-0.07903354
234	0x3f084f58	0.5324607
235	0x3dad26bd	0.08454654
236	0x3cd460e5	0.02592511
237	0x3ec74a6a	0.3892396
238	0x3ecfe595	0.40604845
239	0xbd351633	-0.044210624
240	0xbc996fc7	-0.018730057
241	0xbdcb39e7	-0.09923153
242	0x3a64a2e7	0.0008721784
243	0x3cbbab0d	0.022908712
244	0x3e394f3e	0.18096635
245	0x3d015057	0.03157076
246	0x3c95650d	0.018236661
247	0xbe1930cb	-0.1496002
248	0x3c9cba24	0.019131728
249	0x3e01201a	0.12609902
250	0xbbed0286	-0.007232967
251	0xbcc73572	-0.024317477
252	0xbd68f7aa	-0.056876816
253	0xbd909d14	-0.0706121
254	0xbd421260	-0.047380805
255	0xbd66caa6	-0.056345604

w2.bias f4 [20]
0	0xbd6fd3ca	-0.058551587
1	0xbfd28041	-1.644539
2	0x3e47a7b1	0.19497563
3	0x3e50cfff	0.20391844
4	0x3dd6d371	0.10489548
5	0xbd8eafe7	-0.069671445
6	0xbdcc289f	-0.09968685
7	0xbfa1491a	-1.2600434
8	0x3d14bff1	0.036315862
9	0xbc0186d1	-0.007905678
10	0xbf8af486	-1.0855873
11	0xbf4a5a83	-0.7904436
12	0x3d865243	0.06558659
13	0xbf4c8d5a	-0.79903185
14	0x3ec50d83	0.3848687
15	0x3e5565e5	0.20839651
16	0xbe55b86f	-0.20871137
17	0x3d227b87	0.039668586
18	0xbdb28c54	-0.08718172
19	0x3ce73dff	0.028227804

w3.weight f4 [20, 20, 1]
0	0xbdcdae26	-0.10042982
1	0xbe63f3f1	-0.22261025
2	0x3cb81c83	0.022474533
3	0x3de5a618	0.112133205
4	0xbe0c6a85	-0.13712509
5	0xbda64451	-0.08118499
6	0x3d946e00	0.07247543
7	0x3d4f5069	0.050613794
8	0x3d2e356f	0.042531427
9	0xbd8f3586	-0.06992631
10	0xbe27cf1a	-0.16387597
11	0x3da97eaa	0.082761124
12	0xbdf5e6e2	-0.12006928
13	0xbe76bf1b	-0.24096338
14	0xbdb1cc60	-0.086815596
15	0xbde8b3b4	-0.11362401
16	0x3e0f51e1	0.13996078
17	0xbe5aa9fe	-0.2135391
18	0x3ac4f957	0.0015027922
19	0xbce3cf7e	-0.0278089
20	0x3d0a1819	0.033714388
21	0x3ce0a757	0.027423544
22	0xbe20f47d	-0.15718265
23	0x3d8d2bc9	0.06893117
24	0xbe1a76f0	-0.15084434
25	0x3d83075b	0.06397887
26	0x3dd4b177	0.10385411
27	0xbcc502f4	-0.02404926
28	0x3cad13c3	0.021127587
29	0x3e72242f	0.23646615
30	0x3e611ec9	0.219844
31	0xbd2be7dd	-0.04196917
32	0x3d5809e6	0.052743815
33	0x3ef3739b	0.47549137
34	0x3d797393	0.060901236
35	0xbd7930cb	-0.06083755
36	0x3e555bea	0.20835844
37	0x3e262029	0.16223206
38	0xbd5b7c7f	-0.053585526
39	0xbd696219	-0.05697832
40	0xbc900134	-0.017578699
41	0xbe7c059c	-0.24611515
42	0xbc8dc37f	-0.017305134
43	0xbe875bcc	-0.26437223
44	0xbe1b17c1	-0.1514578
45	0xbe14853e	-0.14503953
46	0xbdd726df	-0.10505461
47	0x3df191d8	0.117953956
48	0x3e133acb	0.14377896
49	0x3d5bf541	0.05370069
50	0xbd29b4d8	-0.04143223
51	0x3e258542	0.16164115
52	0xbe000014	-0.1250003
53	0x3e74d8bd	0.23910804
54	0xbd02e538	-0.03195688
55	0x3d3c7863	0.046013247
56	0x3e4a24e3	0.19740634
57	0x3d8e793b	0.069567166
58	0x3d8ab8cd	0.06773529
59	0x3e5186c8	0.20461571
60	0x3c0c8973	0.008577692
61	0x3c3f3c34	0.011672068
62	0xbdd60dfa	-0.104518846
63	0x3e035321	0.1282468
64	0x3d4fc0b3	0.05072088
65	0xbcce4990	-0.025181562
66	0x3d2bb4e4	0.041920558
67	0xbd8ce80d	-0.06880198
68	0xbceea7b1	-0.029132696
69	0x3e073855	0.13205083
70	0xbdbb51cb	-0.0914646
71	0xbd8c3fce	-0.06848107
72	0xbe1d34c6	-0.15352163
73	0x3f49f7e6	0.7889389
74	0xbd96e4f2	-0.073678866
75	0x3de3ca5c	0.11122581
76	0x3cdeeeb6	0.027213436
77	0xbe367a40	-0.17820072
78	0xbe21cfde	-0.15801951
79	0xbbd710ad	-0.006563267
80	0xbd91f053	-0.07125916
81	0xbd82cdd7	-0.06386917
82	0x3d8572ae	0.06516014
83	0xbdbdff89	-0.09277255
84	0xbdbec2c3	-0.093144916
85	0x3dfa07af	0.12208497
86	0xbd12e6a7	-0.0358645
87	0x3e70a6ac	0.2350108
88	0xbe08d904	-0.13364035
89	0xbe1d8012	-0.15380886
90	0x3e13cd4d	0.14433785
91	0x3d126b9b	0.03574715
92	0x3e58c786	0.21169862
93	0x3e0ff2a9	0.14057411
94	0xbdb9edf8	-0.09078592
95	0x3e346351	0.17616011
96	0x3d8542f2	0.065069094
97	0xbe286ebb	-0.1644849
98	0x3de9a6aa	0.11408742
99	0xbce534da	-0.027979303
100	0x3d7c7a29	0.06163994
101	0xbe6c308a	-0.23065391
102	0x3b9176e5	0.004439222
103	0x3ca50ea8	0.02014859
104	0x3e269dfd	0.16271205
105	0xbcd29356	-0.02570502
106	0xbca4ee77	-0.02013324
107	0xbe53f770	-0.20699859
108	0x3e059e32	0.13048628
109	0xbdd02e92	-0.101651326
110	0xbde1a0e0	-0.110170126
111	0x3e00be0a	0.12572494
112	0xbdcefc54	-0.101067215
113	0xbaabf9f5	-0.0013120758
114	0xbdc5428a	-0.09631832
115	0x3d8d7834	0.069076926
116	0x3c6e43e2	0.014542552
117	0x3e2ef75a	0.17086545
118	0x3e3c401c	0.18383831
119	0xbda5239b	-0.08063432
120	0xbdbd627d	-0.09247301
121	0x3e01cd7f	0.12676047
122	0xbe973739	-0.2953432
123	0x3da2c4b1	0.07947672
124	0x3df48765	0.11939887
125	0x3d97e6b5	0.07417051
126	0x3c40292c	0.011728566
127	0xbdf5a836	-0.11994974
128	0x3bbf88d3	0.005845168
129	0x3d6f9063	0.058487307
130	0x3e4dbdaf	0.2009189
131	0x3d139b6d	0.036036897
132	0xbe16f754	-0.14742786
133	0x3f3f5d6f	0.74751943
134	0xbd8fc825	-0.070205964
135	0xbdc6b32e	-0.097021446
136	0x3def9880	0.11699009
137	0xbe424732	-0.18972471
138	0xbe261f09	-0.16222776
139	0xbd5680bd	-0.05236887
140	0x3d34bee9	0.04412738
141	0x3d56cb8d	0.052440215
142	0x3e070b89	0.13187994
143	0x3d95e9d1	0.073199876
144	0xbe3c3afc	-0.18381876
145	0x3e4eb4d5	0.2018617
146	0x3d4574f0	0.048207223
147	0xbe9355b3	-0.2877632
148	0x3a69366d	0.00088963547
149	0x3da388c6	0.07985072
150	0x3d206972	0.03916306
151	0xbdb90288	-0.09033686
152	0x3c969bdb	0.018384865
153	0x3e8545cb	0.2602981
154	0x3c8abd66	0.016936015
155	0x3db2b5c2	0.08726074
156	0x3dd76621	0.105175264
157	0xbd5797e8	-0.052635103
158	0x3cefc2d7	0.029267712
159	0x3ddc63ce	0.10761224
160	0x3e0e3405	0.13887031
161	0xbd0fd59d	-0.035115827
162	0xbdcf2467	-0.10114365
163	0x3d2342c8	0.03985861
164	0xbc83ba63	-0.016080087
165	0x3dc60c5d	0.09670327
166	0xbdaeed27	-0.08541327
167	0x3e0a6a13	0.13517027
168	0x3d51f975	0.05126329
169	0xbe15fca9	-0.14647163
170	0x3e065a80	0.1312046
171	0x3de49fee	0.11163317
172	0x3e4132d1	0.18867041
173	0xbc9b1961	-0.018933
174	0xbc8c8255	-0.01715199
175	0xbde42dfc	-0.11141583
176	0x3e2c0c1a	0.16801491
177	0x3e080f0b	0.13286988
178	0xbd51dddd	-0.051236976
179	0xbcc71326	-0.024301123
180	0x3c337fc2	0.010955753
181	0x3d367342	0.044543512
182	0xbdae3d0c	-0.085077375
183	0x3d8ef2a2	0.06979872
184	0x3e82c2ca	0.25539237
185	0x3e1a02fc	0.15040201
186	0x3ddd3b28	0.10802299
187	0xbe324f7c	-0.17413133
188	0x3db0a050	0.08624327
189	0x3d9b6629	0.07587845
190	0xbe230127	-0.15918408
191	0xbde21c7c	-0.11040589
192	0xbe17e914	-0.14835006
193	0xbf71302b	-0.94214123
194	0x3e0aa2da	0.13538685
195	0x3dbe0f18	0.09280223
196	0xbd24fe15	-0.040281374
197	0x3b410aff	0.0029456017
198	0x3dfda089	0.12384135
199	0xbe18ebd7	-0.14933716
200	0x3cce8882	0.025211576
201	0xbdd5c3ea	-0.10437758
202	0x3e03952d	0.12849875
203	0x3d5f8094	0.05456598
204	0x3e5324fc	0.20619577
205	0xbe1632c1	-0.14667799
206	0x3d8c1e56	0.068417236
207	0xbcb99103	-0.022652155
208	0xbe0f2647	-0.13979445
209	0x3debc059	0.11511297
210	0x3e1c77f0	0.15280128
211	0xbca08c70	-0.019598216
212	0x3e6442c5	0.22291096
213	0xbf28c8c2	-0.6593133
214	0x3e0fed54	0.14055377
215	0x3e6cb602	0.23116305
216	0x3d9a7eea	0.07543738
217	0x3e7651f0	0.24054694
218	0xbcde3fae	-0.027129974
219	0xbdac8f05	-0.08425716
220	0x3df51219	0.119663425
221	0x3df36fc8	0.11886555
222	0x3e5399e9	0.20664181
223	0x3c99ca39	0.018773185
224	0x3dd7e7c8	0.10542256
225	0xbd4f4155	-0.050599415
226	0xbcd481d4	-0.025940813
227	0xbe50cf18	-0.203915
228	0x3d379e13	0.044828486
229	0x3d343aca	0.044001378
230	0xba1c0fbb	-0.0005953272
231	0x3d42e731	0.047583763
232	0xbe69a3af	-0.22816347
233	0xbe73b4a6	-0.2379938
234	0xbd70206a	-0.058624662
235	0x3e07143e	0.13191316
236	0xbd482e6e	-0.048872404
237	0x3d29c8df	0.04145133
238	0xbdb452e3	-0.08804872
239	0x3dd3a4e3	0.10334184
240	0x3d3c3eb5	0.04595824
241	0x3c8f08ad	0.017460192
242	0xbde766c7	-0.112989
243	0xbdb6daa3	-0.089284204
244	0x3dd8dbb9	0.10588784
245	0xbd9af9b1	-0.07567156
246	0xbd28079d	-0.041022886
247	0xbb75835e	-0.0037462334
248	0x3d7f0fa7	0.062270787
249	0xbd0ea5c7	-0.034826066
250	0xbdcac06f	-0.09899985
251	0x3d7dca5d	0.061960567
252	0x3e6549a3	0.22391371
253	0xbdab14bc	-0.08353564
254	0xbe063142	-0.13104728
255	0x3dcc5095	0.09976307

w3.bias f4 [20]
0	0x3d6db108	0.05803016
1	0xbe37c1b8	-0.17944992
2	0xbe88bc1d	-0.2670602
3	0xbe7c85c7	-0.24660407
4	0x3e6c644e	0.23085138
5	0x38b46947	8.602678e-05
6	0x3e5fa5da	0.21840611
7	0x3d60c6c6	0.054877065
8	0x3daf207d	0.085511185
9	0xbd2a917a	-0.041642644
10	0xbd07f37c	-0.03319119
11	0x3ee72462	0.45144945
12	0x3dd6f4d5	0.10495917
13	0x3eac6601	0.33671573
14	0x3e1a4de3	0.15068774
15	0xbd8ba23a	-0.06818052
16	0x3e8dcce5	0.27695385
17	0xbe44ed0a	-0.19231048
18	0x3ea4dde4	0.3220054
19	0xbe900c8a	-0.28134567

fc1.weight f4 [128, 20]
0	0xbe4c1ab5	-0.19932063
1	0xbc49f600	-0.012326717
2	0xbd06ce89	-0.03291181
3	0xbe10aa3b	-0.14127438
4	0x3e02ed24	0.12785774
5	0xbc939d08	-0.018019214
6	0xbd714ef2	-0.05891318
7	0x3e419218	0.18903387
8	0xbe0c39e0	-0.13693953
9	0x3dc311ae	0.095248565
10	0x3d9e44ca	0.07727964
11	0x3db8d135	0.09024278
12	0xbcba5bcf	-0.022748856
13	0x3df6869b	0.12037393
14	0x3ccc84de	0.0249657
15	0x3db7db4e	0.08977376
16	0xbd755aba	-0.059900977
17	0x3e57930f	0.21052192
18	0x3d4debc6	0.05027368
19	0x3d94cb04	0.07265285
20	0x3cef3a7b	0.02920269
21	0x3d33e76f	0.043921884
22	0x3d62e782	0.055396564
23	0x3d711910	0.058861792
24	0x3c37321e	0.011181382
25	0x3e031115	0.12799485
26	0x3d9485f5	0.07252113
27	0xbe2672f1	-0.16254784
28	0x3db1941e	0.08670829
29	0xbd9824b3	-0.07428875
30	0x3d46ce43	0.04853655
31	0xbd922241	-0.0713544
32	0x3e090a6c	0.13382882
33	0xbe0e1b76	-0.13877663
34	0x3e4753c6	0.19465551
35	0xbe4f7229	-0.20258392
36	0x3c66374e	0.014051272
37	0x3dc974c8	0.098367274
38	0xbdb50389	-0.08838565
39	0x3da0b8ec	0.07847771
40	0xbd9ca46b	-0.07648548
41	0x3d2d15f5	0.042257268
42	0x3dc30012	0.09521498
43	0x3e5f04c2	0.21779159
44	0xbe9c168c	-0.30485952
45	0xbd6586a0	-0.05603659
46	0x3d1e8663	0.03870238
47	0xbdaface8	-0.08577901
48	0xbd75dc19	-0.060024355
49	0xbd02fc57	-0.03197893
50	0xbd3a9dae	-0.04556053
51	0xbea1766b	-0.31535658
52	0x3d266101	0.040619854
53	0x3d6fba88	0.0585275
54	0x3d1d08c3	0.038338434
55	0xbe04c2b4	-0.12964898
56	0x3e3952aa	0.1809794
57	0xbdf0bfbc	-0.117553204
58	0x3ca1c371	0.019746514
59	0xbcc89900	-0.024487019
60	0x3e887b27	0.26656458
61	0x3d8b6a14	0.06807342
62	0x3dbb0c71	0.091332324
63	0x3e16784e	0.1469433
64	0x3e6d30e9	0.23163189
65	0x3e448b0b	0.19193666
66	0xbdd165ff	-0.10224532
67	0xbe1f363e	-0.15548036
68	0x3d7686f4	0.060187295
69	0x3c6498a7	0.013952411
70	0x3e22853c	0.15871137
71	0x3dcb0966	0.09913902
72	0xbdf1566f	-0.11784064
73	0x3d84fa8c	0.064931005
74	0x3d3b40f5	0.045716245
75	0x3ece508e	0.40295833
76	0x3e198107	0.14990626
77	0x3dd215ca	0.10258062
78	0xbe34215c	-0.1759085
79	0x3d1df3f1	0.03856272
80	0xbd388f98	-0.045058817
81	0x3dbf2232	0.09332694
82	0xbd653c11	-0.055965487
83	0xbe1967d3	-0.14981012
84	0xbdbf2889	-0.09333903
85	0x3e2c80be	0.16845986
86	0xbdb36099	-0.08758659
87	0x3ec223b3	0.3791786
88	0x3e25dd23	0.16197638
89	0x3dc0f8c0	0.09422445
90	0x3d81cd03	0.06337931
91	0x3e4beacd	0.19913788
92	0xbe45e3b1	-0.19325139
93	0x3e182d4f	0.14861034
94	0x3e2018d6	0.15634474
95	0xbe13a266	-0.14417419
96	0x3e4f940c	0.20271319
97	0x3db57493	0.088601254
98	0x3db6c217	0.089237384
99	0xbe70fc9c	-0.23533863
100	0x3de0e6ea	0.10981543
101	0x3dc62fa6	0.09677057
102	0xbe224802	-0.15847781
103	0xbd3749b2	-0.044748016
104	0x3e223fa7	0.15844594
105	0xbe1e28ac	-0.15445203
106	0xbdd1ae81	-0.10238362
107	0xbe0c4058	-0.1369642
108	0xbe0e84ec	-0.13917893
109	0x3d970f91	0.07376016
110	0xbdb7eed7	-0.08981102
111	0xbd60433a	-0.054751612
112	0xbd283a72	-0.041071363
113	0xbe2dc1d8	-0.16968477
114	0xbe988190	-0.29786348
115	0xbdd893d0	-0.10575068
116	0xbdc40df3	-0.09572973
117	0x3daafba2	0.083487764
118	0xbe943ef5	-0.28954282
119	0xbe0c56ab	-0.13704936
120	0xbe2d6206	-0.16931924
121	0x3e0a436a	0.13502279
122	0x3e85061f	0.25981233
123	0x3c96d65e	0.018412765
124	0xbdb83a4c	-0.08995494
125	0xbe57cc0b	-0.2107393
126	0xbe6fe4f2	-0.2342718
127	0x3e6b4dc5	0.22978885
128	0x3cd01c24	0.025404043
129	0x3ceab639	0.028651344
130	0x3e5e652c	0.21718282
131	0xbe0cca1f	-0.13748978
132	0x3e4879fc	0.19577783
133	0xbe4d89ef	-0.20072149
134	0x3e86737d	0.26259986
135	0xbe666d32	-0.22502592
136	0xbe313737	-0.17306219
137	0x3e20f2f6	0.15717682
138	0xbe357730	-0.17721248
139	0x3d8e36ff	0.069440834
140	0xbc9ef28c	-0.019402765
141	0xbd1026f7	-0.03519341
142	0xbe0597f5	-0.13046248
143	0x3e79d633	0.24398117
144	0x3cd60421	0.026125016
145	0xbe4980a5	-0.1967798
146	0xbdbdd923	-0.09269931
147	0x3bb31546	0.0054651825
148	0x3e1df82e	0.15426704
149	0x3d516d9e	0.05112993
150	0xbd720296	-0.059084497
151	0xbdee2e5a	-0.116299346
152	0xbdb5f40f	-0.08884441
153	0xbe5b7623	-0.21431784
154	0xbe5cccc6	-0.2156249
155	0xbe7a23f7	-0.24427782
156	0xbe4d59e4	-0.20053822
157	0xbcf1e62c	-0.0295287
158	0xbe144959	-0.14481105
159	0xbe197b62	-0.14988473
160	0x3e452679	0.19252957
161	0xbb20cbe6	-0.0024535595
162	0x3cc01f1b	0.023452332
163	0xbdca569e	-0.09879802
164	0xbe50f28b	-0.20405023
165	0x3cff4071	0.031158658
166	0xbe76dfa6	-0.24108753
167	0x3bcc8220	0.006241098
168	0x3e06f37f	0.13178824
169	0xbe041b2d	-0.12900992
170	0xbe0da030	-0.13830638
171	0xbe291953	-0.16513567
172	0x3dc75f33	0.09734955
173	0xbde9595f	-0.11393999
174	0x3e80087e	0.2500648
175	0x3ddf5cda	0.10906382
176	0xbe165908	-0.146824
177	0x3d533c8d	0.051571418
178	0xbd918af4	-0.07106581
179	0xbe16cf66	-0.14727554
180	0xbdda5af4	-0.10661879
181	0x3e72d064	0.23712307
182	0x3e4e7203	0.2016068
183	0xbe70e59c	-0.23525089
184	0xbda3592d	-0.07975993
185	0x3dd6b9cd	0.104846574
186	0xbc6b0af6	-0.014345875
187	0x3d24e2da	0.040255405
188	0xbc992813	-0.018695867
189	0x3dd43343	0.1036134
190	0x3e5c263d	0.21498962
191	0xbd7d60b4	-0.0618598
192	0x3cfff71f	0.031245766
193	0xbbf62e8a	-0.007512872
194	0xbdf95f57	-0.12176388
195	0x3d9cdadb	0.07658931
196	0xbc85dc41	-0.016340377
197	0xbd5b9a26	-0.053613804
198	0xbde5e050	-0.11224425
199	0x3c2daaf1	0.010599838
200	0x3e352d54	0.17693073
201	0x3e0e9606	0.13924417
202	0x3e1b5f08	0.1517297
203	0xbdaa5cde	-0.08318494
204	0x3dc62c6f	0.09676444
205	0x3d711132	0.05885429
206	0x3b3402de	0.002746753
207	0xbdf8385d	-0.121201254
208	0xbe881902	-0.2658158
209	0x3ddbebed	0.10738359
210	0xbdffd320	-0.12491441
211	0xbe54f567	-0.20796739
212	0x3dfc5ba0	0.123221636
213	0xbc45e183	-0.012077692
214	0xbe515be1	-0.20445205
215	0xbd0773eb	-0.033069532
216	0x3e2e7aa0	0.17038965
217	0x3df8c862	0.12147595
218	0xbe05d116	-0.13068041
219	0x3df41584	0.11918166
220	0x3c843da9	0.016142683
221	0xbe3a8cb7	-0.18217741
222	0xbcc3ba2a	-0.02389248
223	0xbbc4e1bb	-0.0060083545
224	0xbe1fb2e5	-0.15595587
225	0x3d601551	0.05470783
226	0x3c4dfeac	0.012572926
227	0xbd9e41ed	-0.07727418
228	0xbc6d0306	-0.014466053
229	0xbd3f5494	-0.04671152
230	0x3d8c272c	0.06843409
231	0xbe6a0357	-0.22852837
232	0xbe36bdf3	-0.17845897
233	0x3dcf1101	0.10110665
234	0x3e7d11e7	0.2471386
235	0x3e244aa3	0.16044097
236	0x3ca58dcc	0.020209216
237	0xbc485ad6	-0.012228688
238	0xbdeeee30	-0.116665244
239	0xbe04c68d	-0.12966366
240	0x3e4b359d	0.1984467
241	0x3dc85169	0.09781153
242	0x3d182cca	0.03715209
243	0x3da2b62b	0.07944902
244	0xbbffbd57	-0.0078045535
245	0xbc2c3327	-0.010510243
246	0xbb9d28f5	-0.004796142
247	0xbe024691	-0.12722231
248	0xbe1e3752	-0.1545079
249	0xbd2d2eab	-0.042280834
250	0x3d634f63	0.05549563
251	0xbe3a9286	-0.18219957
252	0x3e32951c	0.17439693
253	0xbe3bb200	-0.1832962
254	0x3e07a0a6	0.13244876
255	0x3dcef039	0.101044126

fc1.bias f4 [128]
0	0x3d62b59e	0.055348985
1	0xbe05640c	-0.13026446
2	0xbe8a9803	-0.270691
3	0xbf75621f	-0.95852846
4	0x3d80df8d	0.06292639
5	0xbeea26a8	-0.45732617
6	0xbdda6884	-0.10664466
7	0x3e1d66cc	0.15371245
8	0xbea4d24b	-0.3219169
9	0x3dff5bdf	0.12468695
10	0xbee82f76	-0.4534871
11	0xbe9aad79	-0.30210474
12	0xbf0061f6	-0.50149477
13	0xbe3ed077	-0.1863421
14	0x3e2d62ac	0.16932172
15	0xbe659da3	-0.22423415
16	0x3d740ddc	0.05958353
17	0xbf2835d6	-0.6570715
18	0x3e50a85f	0.20376728
19	0x3f17bdb3	0.59273833
20	0xbda817e4	-0.08207682
21	0xbe1b1717	-0.15145527
22	0x3ce20338	0.027589425
23	0xbf0bb1d5	-0.54568225
24	0x3d0c9263	0.034319293
25	0x3e2558b0	0.16147113
26	0xbeda870a	-0.42681152
27	0xbf7c7cf0	-0.9862814
28	0x3e995c35	0.2995316
29	0xbf6a84d9	-0.9160896
30	0x3e686232	0.22693709
31	0xbef46925	-0.4773647
32	0xbd934928	-0.07191688
33	0xbe3e029a	-0.1855568
34	0xbea2674c	-0.31719434
35	0xbec48f92	-0.38390785
36	0xbe1dd8b3	-0.15414695
37	0xbc1fca0e	-0.009752763
38	0xbe286205	-0.16443641
39	0x3da7be38	0.08190578
40	0xbd97783c	-0.0739598
41	0xbd4b5c02	-0.049648292
42	0xbe9b6e49	-0.30357578
43	0x3d3b9331	0.04579467
44	0x3e488bb0	0.19584537
45	0x3c025074	0.007953752
46	0xbefc7574	-0.4930836
47	0x3e0a4726	0.13503703
48	0xbecf7e80	-0.405262
49	0x3d60d86f	0.054893907
50	0xbecfec62	-0.40610033
51	0xbe220060	-0.15820456
52	0xbe5ccb5f	-0.21561955
53	0x3dc9b6f5	0.098493494
54	0xbb83af1d	-0.004018678
55	0x3ca2ae87	0.019858612
56	0x3cf6db8d	0.030133987
57	0x3ddee346	0.10883193
58	0x3e2b4f7b	0.16729538
59	0xbe25df96	-0.16198573
60	0xbec9e448	-0.39431977
61	0xbf29a8af	-0.66273016
62	0xbd31af5b	-0.043380123
63	0x3d7d5d18	0.06185636
64	0xbf629650	-0.8851061
65	0xbedf7caa	-0.436498
66	0x3d916a9a	0.07100411
67	0x3e645edb	0.2230181
68	0x3e0b2fa9	0.135924
69	0xbd13cf9d	-0.036086667
70	0x3e2b26c5	0.16714008
71	0xbf24be52	-0.64352906
72	0x3e0c38d6	0.13693556
73	0xbcbbe290	-0.022935182
74	0xbd4b6c2a	-0.0496637
75	0xbb718921	-0.0036855417
76	0x3cafe720	0.021472514
77	0xbdb49bd1	-0.08818782
78	0xbe671376	-0.22566018
79	0xbd8be62b	-0.068310104
80	0x3e97cbeb	0.29647765
81	0xbd276ef1	-0.040877286
82	0x3dd7dd12	0.10540213
83	0xbf93039f	-1.148548
84	0xbea7a868	-0.3274567
85	0xbe270b38	-0.16312873
86	0x3e42c0b2	0.1901882
87	0xbecc40bc	-0.39893138
88	0xbe544f1d	-0.20733304
89	0x3e684c0d	0.22685261
90	0x3cdf76a4	0.027278252
91	0xbd5ce68f	-0.053930815
92	0xbd65f93d	-0.056145895
93	0x3dc27456	0.094948456
94	0x3dc74ebe	0.09731816
95	0xbf58b38b	-0.8464896
96	0x3e05f3ad	0.13081236
97	0x3d4c2811	0.049842898
98	0xbd9c09ec	-0.0761908
99	0xbef43ba6	-0.47701758
100	0xbe7c187a	-0.24618712
101	0x3e2e4ad2	0.17020729
102	0xbe1aead5	-0.15128644
103	0xbea7de11	-0.3278661
104	0xbed5ac6f	-0.4173312
105	0x3e4618bc	0.19345373
106	0xbe010859	-0.1260084
107	0x3d7f3f5d	0.062316287
108	0xbf455d78	-0.77095747
109	0xbe9daa7a	-0.30794126
110	0x3e16f88b	0.14743249
111	0xbf09a57f	-0.5376815
112	0xbf35521e	-0.70828426
113	0x3e9e4267	0.30910036
114	0x3bf54f29	0.0074862433
115	0xbdbfdabb	-0.093678914
116	0xbe456034	-0.1927498
117	0x3d871229	0.06595261
118	0xbf37748d	-0.7166222
119	0xbea2b932	-0.31781918
120	0xbeccc3f9	-0.39993265
121	0x3e9f7253	0.3114191
122	0x3df9c8db	0.12196513
123	0xbef69379	-0.48159388
124	0x3e4d4e40	0.20049381
125	0xbeed537b	-0.46352753
126	0xbea740ce	-0.3266663
127	0xbeb7bf1a	-0.35887986
